models/2025-11-21 13:35:02/1/policy.pth (torch, 55714 bytes, 12 tensors)

linear1.weight f4 [64, 3]
0	0xbe18a4e8	-0.14906657
1	0x3e98b6d2	0.2982698
2	0xbf0a7686	-0.540871
3	0x3eb0c1cf	0.34522864
4	0x3dbda43b	0.0925984
5	0xbe179556	-0.14803061
6	0xbf11cc07	-0.56951946
7	0x3ec00fe9	0.37512138
8	0x3f02516f	0.5090551
9	0x3ee75abb	0.4518641
10	0x3f0159e9	0.50527817
11	0xbe0a113f	-0.13483141
12	0xbe8a7488	-0.2704203
13	0xbe440f9d	-0.19146581
14	0xbdc84059	-0.09777898
15	0x3f15e92f	0.58558935
16	0xbc942a4d	-0.018086577
17	0x3ed30ac3	0.41219148
18	0xbecba907	-0.39777395
19	0x3e8f4d2f	0.27988574
20	0xbed27dce	-0.41111606
21	0xbea1aec9	-0.31578663
22	0xbe5b4343	-0.21412377
23	0x3f048279	0.51761585
24	0xbe8925e8	-0.26786733
25	0x3e3d9d56	0.1851705
26	0xbec7337e	-0.38906473
27	0xbe67088e	-0.22561857
28	0x3f08f817	0.53503555
29	0x3e16f0fd	0.14740367
30	0x3f09a53d	0.5376776
31	0x3ea373bc	0.31924236
32	0x3e20fdc0	0.15721798
33	0xbf073f81	-0.52831274
34	0xbe236bd3	-0.159591
35	0xbed19074	-0.4093052
36	0xbf0d79f4	-0.5526421
37	0xbed1e575	-0.40995374
38	0xbe3e65a0	-0.18593454
39	0xbf0726d1	-0.52793604
40	0xbeab5f8a	-0.33471328
41	0x3ebee251	0.3728204
42	0x3f16ef8b	0.58959264
43	0x3eaec12e	0.3413176
44	0xbdfddaf4	-0.123952776
45	0x3ef2310c	0.47303045
46	0xbe0bba30	-0.13645244
47	0x3d9bd63c	0.07609221
48	0xbead5087	-0.338505
49	0xbebc4d9c	-0.3677796
50	0x3e9e1ed8	0.30882907
51	0x3dadcc76	0.084862635
52	0xbedadf84	-0.42748654
53	0x3e71119b	0.23541872
54	0xbee3f1eb	-0.44520506
55	0xbe737a06	-0.23777017
56	0xba56f45f	-0.0008199866
57	0x3e9a07a9	0.3008397
58	0x3e895f88	0.26830697
59	0xbe307022	-0.17230275
60	0xbcee4351	-0.029084833
61	0xbe7ac4bc	-0.2448911
62	0xbecc6ab8	-0.3992517
63	0x3e2d4d05	0.16923912
64	0xbee3c443	-0.44485673
65	0x3f0c6874	0.5484688
66	0xbe7f5ff3	-0.24938945
67	0x3f0ac5f5	0.5420831
68	0xbe5db490	-0.2165091
69	0xbee98fd8	-0.45617557
70	0x3e135b0b	0.14390199
71	0x3f08e6ea	0.53477347
72	0x3c826ee5	0.01592202
73	0xbea77232	-0.32704312
74	0x3ce6e8ed	0.02818724
75	0x3c4eb905	0.012617354
76	0xbc49ea1a	-0.012323881
77	0x3ebdc027	0.37060663
78	0x3e3716ec	0.17879838
79	0xbe70be61	-0.23510124
80	0xbea583e9	-0.32327202
81	0xbe3795c6	-0.17928228
82	0x3e8c199d	0.2736329
83	0xbdde1274	-0.108433634
84	0xbc2e7c70	-0.010649785
85	0xbe965db6	-0.2936837
86	0x3f109aa3	0.56485957
87	0xbe254f96	-0.16143641
88	0xbee6324c	-0.44960248
89	0xbee20b55	-0.4414927
90	0x3ee2ff75	0.44335523
91	0x3d94a38e	0.07257758
92	0x3ef1b49e	0.47208112
93	0x3dd85925	0.10563878
94	0x3eef3700	0.4672165
95	0x3cd3e179	0.02586435
96	0x3e0e6c89	0.1390859
97	0xbe52a2ba	-0.20569888
98	0x3f05cccf	0.5226564
99	0xbd6cc77c	-0.05780743
100	0x3ed3aa9e	0.41341108
101	0x3df9105b	0.12161323
102	0xbef9fc75	-0.48825422
103	0xbee88e36	-0.45420998
104	0x3e03de63	0.12877803
105	0xbb769403	-0.0037624843
106	0x3efcd5a8	0.49381757
107	0xbe9a63b9	-0.30154207
108	0x3e904b9f	0.28182694
109	0x3ec547f2	0.38531452
110	0x3e0b6c87	0.13615619
111	0xbf0358b2	-0.51307213
112	0xbeb404b7	-0.35159847
113	0x3e6c1fc1	0.23058988
114	0x3cc79d8f	0.024367122
115	0x3e18b5f0	0.14913154
116	0xbf087548	-0.53303957
117	0xbf1d0d26	-0.6134819
118	0x3e396ef4	0.18108732
119	0xbda10daa	-0.07863934
120	0xbda645fa	-0.08118816
121	0x3ea9731d	0.33095637
122	0xbe50b059	-0.20379771
123	0x3e74d368	0.2390877
124	0xbf00a0cd	-0.5024536
125	0x3c0bcfa3	0.008533391
126	0xbdd7425c	-0.10510704
127	0xbeeb4db4	-0.4595772
128	0x3df270b0	0.118379
129	0x3dc09428	0.094032586
130	0xbef8f9f0	-0.48628187
131	0x3e9d271c	0.306939
132	0xbe11cb5a	-0.14237729
133	0x3f04b909	0.5184484
134	0x3e891654	0.26774848
135	0xbd7a73bb	-0.061145525
136	0x3de595fa	0.112102464
137	0xbf06b437	-0.52618736
138	0xbe82bbb2	-0.25533825
139	0x3d50b2f6	0.05095192
140	0x3f05f976	0.5233377
141	0x3ec941ac	0.39307916
142	0xbe32b979	-0.17453565
143	0xbe7150b2	-0.23565939
144	0x3f02f914	0.51161313
145	0xbd811dbc	-0.063044995
146	0xbf0e3fda	-0.5556618
147	0xbedccc50	-0.43124628
148	0xbefb4b4e	-0.4908089
149	0xbef550a9	-0.479131
150	0xbec5ff3f	-0.386713
151	0x3efcc9cd	0.49372712
152	0x3e6c0ce0	0.23051786
153	0xbf0d79c5	-0.5526393
154	0x3e0357fa	0.12826529
155	0xbe061968	-0.13095629
156	0xbd4b149a	-0.049580194
157	0x3bfadcbd	0.0076557086
158	0xbed661f3	-0.41871604
159	0xbeb1a6aa	-0.34697467
160	0xbf0680f9	-0.52540547
161	0xbef39cba	-0.4758051
162	0x3cb81f1a	0.022475768
163	0xbebf9ae6	-0.37422866
164	0xbd7f419e	-0.062318437
165	0x3d8983c0	0.067145824
166	0x3e0a9d5f	0.13536595
167	0xbe3a2c11	-0.18180872
168	0x3d136b14	0.03599079
169	0xbd6a5762	-0.05721224
170	0xbe887c7d	-0.26657477
171	0x3dd82410	0.105537534
172	0xbf13081b	-0.5743424
173	0xbe0bb09b	-0.13641588
174	0xbdf1b6c4	-0.11802438
175	0xbf102bd2	-0.56316864
176	0xbec329da	-0.38117868
177	0x3dd80b17	0.1054899
178	0x3ec11885	0.3771402
179	0x3ef518ad	0.4787039
180	0x3ec922a6	0.39284247
181	0x3f0e9351	0.55693537
182	0xbeec044f	-0.46097037
183	0xbe81ba02	-0.25337225
184	0x3ec6b95d	0.38813296
185	0xbee6821d	-0.45021144
186	0xbdb5ec4c	-0.08882961
187	0x3d4ff5bf	0.05077147
188	0x3d84d1f5	0.064853586
189	0x3ebafeb5	0.3652245
190	0xbee4c4cf	-0.44681403
191	0xbe825c36	-0.25460976

linear1.bias f4 [64]
0	0xbe499890	-0.19687104
1	0xbec5c972	-0.38630253
2	0x3e764e27	0.2405325
3	0x3eda7ca5	0.4267322
4	0xbd00b391	-0.031421248
5	0xbe13aaa7	-0.14420567
6	0xbea52c09	-0.3226016
7	0x3e0f6f10	0.1400721
8	0xbe94bba4	-0.29049408
9	0xbe92dfe6	-0.28686446
10	0x3f0d4838	0.5518832
11	0x3b90a94c	0.004414713
12	0xbe9c39e6	-0.30512923
13	0x3f2305de	0.6368083
14	0x3c8e993b	0.01740705
15	0xbeb28531	-0.34867242
16	0x3f4012eb	0.75028867
17	0xbf176bbe	-0.59148777
18	0x3e58c6e9	0.21169628
19	0xbf094a4c	-0.53628993
20	0xbe90f1ba	-0.28309423
21	0xbc17ffca	-0.009277293
22	0xbe1224e0	-0.14271879
23	0xbeccfa1b	-0.40034565
24	0x3d9fca4d	0.07802258
25	0xbe05bfdc	-0.1306147
26	0x3eead3b2	0.45864636
27	0x3d934838	0.07191509
28	0xbb14a185	-0.002267928
29	0x3d3583d9	0.044315193
30	0xbf1d6a04	-0.6148989
31	0xbe8967c5	-0.26836982
32	0x3ee21f6d	0.441646
33	0x3ef0f12d	0.47059003
34	0x3ed87de5	0.4228355
35	0xbf05c46f	-0.5225286
36	0x3f192aff	0.5983123
37	0x3f4204bd	0.7578848
38	0xbe69a92f	-0.22818445
39	0xbec66ad1	-0.3875337
40	0xbe9c8028	-0.30566525
41	0xbe17f6dd	-0.14840265
42	0xbf138607	-0.57626384
43	0x3eec59ef	0.46162364
44	0xbf3131c0	-0.6921654
45	0x3f0c7c12	0.54876816
46	0x3ec3d975	0.38251844
47	0x3ebdd83a	0.3707903
48	0xbf0a8c58	-0.541204
49	0x3ea6bffc	0.32568347
50	0x3ea2248f	0.31668517
51	0x3da636e3	0.081159376
52	0x3e44797c	0.19186968
53	0xbecc840d	-0.39944497
54	0xbea05487	-0.3131449
55	0xbebd679b	-0.36993107
56	0xbf0e6e08	-0.55636644
57	0xbeebb984	-0.46039975
58	0x3e094a89	0.13407339
59	0xbef3fc87	-0.476536
60	0x3f04a041	0.5180703
61	0xbe1b6079	-0.1517352
62	0x3f2e1499	0.6800018
63	0x3d8821b6	0.06647055

linear2.weight f4 [64, 64]
0	0xbcd42698	-0.02589731
1	0x3b4b1d00	0.0030992627
2	0x3b6c6732	0.0036072251
3	0xbb9e3180	-0.004827678
4	0xbd8f5f5d	-0.07000611
5	0xbdcfbb91	-0.10143197
6	0xbdddd0f2	-0.10830869
7	0xbd12a30d	-0.03580003
8	0x3afdf700	0.001937598
9	0xbc2cef80	-0.010555148
10	0xbc9c9d20	-0.019117892
11	0xbdc40954	-0.09572092
12	0xbdefac89	-0.1170283
13	0xbdef4f1c	-0.11685011
14	0x3b8d5e20	0.004314199
15	0xbdc9f064	-0.09860304
16	0x3d003f38	0.03131029
17	0xbda420b2	-0.08014049
18	0x3dcad7f6	0.099044725
19	0x3d762dac	0.06010215
20	0xbd8ebfa0	-0.06970143
21	0xbc25a126	-0.010109222
22	0xbb11c000	-0.0022239685
23	0x3be4e977	0.006985839
24	0x3d8832c9	0.066503115
25	0x3d309f67	0.043120768
26	0xbdaf4ef4	-0.08559981
27	0x3db1db58	0.086844146
28	0x3d507d05	0.050900478
29	0xbc54b880	-0.012983441
30	0x3bb0675f	0.0053834165
31	0x3de61418	0.11234301
32	0xbe017fde	-0.12646434
33	0xbdf45a20	-0.119312525
34	0x3d0b25e1	0.03397167
35	0xbdf4e84c	-0.119583696
36	0xbdaa9116	-0.08328454
37	0xbcec9849	-0.028881209
38	0x3dd412ca	0.10355146
39	0x3d44dca4	0.04806198
40	0xbd916142	-0.070986286
41	0x3c64ebf6	0.013972273
42	0xbdfb845c	-0.12281105
43	0x3db0278f	0.08601295
44	0xbb8d7f60	-0.004318163
45	0x3d9262b0	0.071477294
46	0x3df0003f	0.11718797
47	0xbda6118a	-0.08108814
48	0x3d090744	0.033454195
49	0xbddbd7f4	-0.10734549
50	0xbde20a1f	-0.11037087
51	0x3bf70f05	0.0075396323
52	0xbde125ec	-0.10993561
53	0x3c028380	0.007965922
54	0x3d8eeaea	0.069784
55	0xbc6a1dc0	-0.0142893195
56	0xbca7e420	-0.02049452
57	0xbc8fb35c	-0.01754158
58	0xbd7faa40	-0.062418222
59	0xbbe2eb1b	-0.0069249994
60	0x3d6eeaa0	0.058329225
61	0xbd2ebc60	-0.042660117
62	0x3d868c97	0.06569784
63	0xbce6afa0	-0.028159916
64	0x3d159c94	0.036526278
65	0x3ca22998	0.019795224
66	0xbdd93452	-0.106056824
67	0xbd14f0d9	-0.036362503
68	0xbdba8550	-0.091074586
69	0x3b0ecc54	0.002178927
70	0x3de33f23	0.11096027
71	0xbd8cc61d	-0.068737246
72	0x3d5a3ffb	0.053283673
73	0xbca5e62e	-0.02025136
74	0x3d6e8596	0.058232866
75	0x3ccb02f3	0.02478168
76	0xbd81833b	-0.06323858
77	0x3dc6e423	0.097114824
78	0xbe47f9c1	-0.19528867
79	0xbe17bae2	-0.14817384
80	0x3d4a171c	0.049338445
81	0xbcc84225	-0.024445603
82	0x3d3bee09	0.045881305
83	0x3c463290	0.012097016
84	0xbcfb58c6	-0.030681979
85	0x3dd7c7a4	0.10536125
86	0x3df30a04	0.11867145
87	0xbdb460cd	-0.08807526
88	0x3ddf54b2	0.10904826
89	0xbcb4e2df	-0.022080837
90	0x3d097b45	0.033564825
91	0xbd912934	-0.07087937
92	0xbd1fcbe1	-0.039012793
93	0x3cdb0da5	0.026739905
94	0xbd87ec84	-0.06636909
95	0xbdce1ea6	-0.100644395
96	0x3dd7ad19	0.10531063
97	0x3deda6c8	0.116040766
98	0x3df4be07	0.11950307
99	0xbde74ed6	-0.11294334
100	0x3e27c38e	0.16383192
101	0x3df69ae5	0.120412625
102	0xbc1e3e70	-0.009658441
103	0xbe0e0d64	-0.13872296
104	0x3dd8f566	0.10593681
105	0x3da9b2b7	0.0828604
106	0xbdb70818	-0.08937091
107	0x3cb1a9d0	0.021687418
108	0xbdfbe943	-0.123003505
109	0xbd43b7d1	-0.047782723
110	0x3da5889b	0.08082696
111	0x3db59a28	0.088672936
112	0xbdaf7ebe	-0.08569096
113	0x3d5890a7	0.052872326
114	0x3d1b10e0	0.03785789
115	0x3daa5379	0.083167024
116	0x3c0966ac	0.008386295
117	0xbda0dd09	-0.07854659
118	0xbe092787	-0.13393985
119	0xbdbc97ea	-0.09208663
120	0xbd1711ac	-0.036882088
121	0xbd557e1d	-0.052122224
122	0x397a323b	0.0002386057
123	0x3d04146c	0.03224604
124	0xbce2ae30	-0.02767095
125	0xbdd22b72	-0.10262193
126	0x3d852613	0.06501403
127	0xbd07fe2b	-0.033201378
128	0x3df82ce6	0.12117939
129	0x3b14b200	0.0022689104
130	0x3ca0c26c	0.019623958
131	0x3e46e982	0.19425014
132	0x3b37f99d	0.0028072365
133	0xbdf14aed	-0.11781869
134	0xbafded9f	-0.0019373185
135	0x3dcc5fa3	0.09979179
136	0x3db4d0a2	0.08828856
137	0x3d86fbb5	0.06590978
138	0x3d2aad8f	0.041669425
139	0x3dfe6584	0.12421706
140	0x3dcd8dc3	0.100368045
141	0x3d913d04	0.07091716
142	0x3d5a278e	0.05326038
143	0xbbf94252	-0.007606783
144	0x3c8de440	0.017320752
145	0xbdad29bd	-0.084552266
146	0x3dbd2d94	0.09237209
147	0x3dd3aa96	0.10335271
148	0x3e0ae13a	0.1356248
149	0x3c558566	0.013032293
150	0x3de4981e	0.111618266
151	0x3d694fb6	0.056960784
152	0xbcaa93a8	-0.020822361
153	0xbc1806b0	-0.009278938
154	0x3d47d1a0	0.0487839
155	0xbdfe4688	-0.124157965
156	0x3da825c0	0.08210325
157	0xbd35ef25	-0.04441752
158	0x3c01016c	0.007873874
159	0x3de6544e	0.112465486
160	0xbccf436a	-0.0253007
161	0xbdcd7064	-0.100312024
162	0xbda14669	-0.07874758
163	0xbcfafb10	-0.030637294
164	0xbdc2ea57	-0.09517353
165	0x3d3451f8	0.044023484
166	0x3c8b7c18	0.017026946
167	0x3abee510	0.0014564116
168	0x3da62ffe	0.081146225
169	0x3d598723	0.053107392
170	0x3d4365a7	0.047704365
171	0xbd9e0fd4	-0.07717863
172	0x3db685f4	0.08912268
173	0x3deb8ec5	0.115018405
174	0x3d173206	0.03691294
175	0xbd336dd4	-0.043805912
176	0xbd3bf0d8	-0.045883983
177	0x3d3a9349	0.04555062
178	0x3d9d7ef4	0.0769023
179	0x3e2bb2bf	0.16767405
180	0x3dbe1210	0.09280789
181	0x3dd41990	0.10356438
182	0x3e4a1555	0.197347
183	0xbd09273c	-0.033484682
184	0xbd498d8c	-0.049207255
185	0x3d85e620	0.065380335
186	0xbc5be502	-0.013421299
187	0x3d86cf7d	0.06582544
188	0x3ce4df60	0.027938545
189	0xbdc07432	-0.093971625
190	0x3d1c19e9	0.038110647
191	0x3ccb9498	0.024851128
192	0xbc444010	-0.011978164
193	0x3d9b87fa	0.07594295
194	0x3c57a77e	0.013162492
195	0xbc4a96e0	-0.012365073
196	0x3d61999a	0.055078126
197	0xbda97d57	-0.0827586
198	0x3d51bb18	0.051203817
199	0xbd9e1b82	-0.077200904
200	0x3dabd0b9	0.0838942
201	0x3db4557f	0.088053696
202	0xbc864dc8	-0.01639451
203	0xbdab52ca	-0.083654
204	0x3db26c05	0.08712009
205	0x3d1dcbd3	0.03852446
206	0x3db589ec	0.08864197
207	0x3c5ea4f0	0.013589129
208	0xbdfab43f	-0.122414105
209	0xbd9b356a	-0.07578547
210	0x3d46daa0	0.04854834
211	0xbdff5ff8	-0.124694765
212	0x3cc8a19c	0.024491124
213	0xbdb1d4a1	-0.08683134
214	0xbdc4e5f0	-0.096141696
215	0x3d1aed09	0.03782371
216	0xbdba7c65	-0.091057576
217	0xbd096e03	-0.03355218
218	0xbd97a0b7	-0.07403701
219	0xbdd9c8fe	-0.10634039
220	0x3dae6a34	0.085163504
221	0xbd9b2cd5	-0.075769104
222	0xbc5d2cdb	-0.013499464
223	0xbd06a90c	-0.03287606
224	0xbe00ae27	-0.12566434
225	0x3d8ac8ed	0.06776605
226	0xbc8633b5	-0.016382078
227	0xbc1bd320	-0.009510785
228	0x3da48ad6	0.08034293
229	0x3d205669	0.039144907
230	0x3ba5a9c0	0.005055636
231	0x3d9a735b	0.075415336
232	0xbd686460	-0.05673635
233	0x3dd388cc	0.10328826
234	0x3d8f124b	0.06985911
235	0xbdb725da	-0.089427665
236	0xbe03d937	-0.1287583
237	0x3c1b8fc0	0.009494722
238	0x3d5b57b6	0.053550445
239	0xbd12defc	-0.035857186
240	0xbdbfe720	-0.093702555
241	0xbd724435	-0.05914708
242	0x3d95b694	0.07310215
243	0xbe08121a	-0.13288155
244	0xbd9df3cb	-0.077125154
245	0x3d2ab877	0.041679826
246	0xbc3beca0	-0.01146999
247	0x3def6832	0.116897956
248	0x3df02794	0.11726299
249	0xbd3c471f	-0.045966264
250	0x3d8ebe97	0.06969946
251	0x3d9e165c	0.077191085
252	0x3cd811b8	0.026375636
253	0xbc760c80	-0.015017629
254	0xbdb6fbbf	-0.089347355
255	0xbdfcc4a5	-0.123421945

linear2.bias f4 [64]
0	0x3d7b2313	0.061312746
1	0x3e41231b	0.18861048
2	0xbe1bcf72	-0.15215853
3	0xbd8017ce	-0.062545404
4	0xbcb853c4	-0.02250088
5	0x3e9fe764	0.31231225
6	0x3d0b5e84	0.034025684
7	0x3ea402dc	0.32033432
8	0x3d86ef1d	0.06588576
9	0xbd3899b4	-0.045068458
10	0x3cdd27e2	0.026996557
11	0x3e41ae1f	0.18914078
12	0x3dc8969a	0.0979435
13	0x3e11fa95	0.14255746
14	0xbd508770	-0.050910413
15	0xbe444f4c	-0.19170874
16	0x3dd00b7f	0.10158443
17	0x3db9e2dc	0.09076473
18	0xbb33e712	-0.002745096
19	0x3d095890	0.033531725
20	0xbdbb4348	-0.09143692
21	0xbce96289	-0.028489368
22	0xbcbe9778	-0.023265585
23	0x3d40d828	0.047081143
24	0x3d93e7b8	0.07221931
25	0x3dabd26b	0.083897434
26	0x3e326be8	0.17423975
27	0xbd9e6b16	-0.07735269
28	0x3e90dfcd	0.28295746
29	0xbd29c818	-0.04145059
30	0x3d4d0c14	0.050060347
31	0x3e6d427b	0.23169892
32	0x3df9a879	0.12190337
33	0xbe1c8037	-0.15283285
34	0x3d8ffe7f	0.07030963
35	0x3d8174d6	0.06321113
36	0xbde923cd	-0.113837816
37	0x3e97497e	0.29548258
38	0x3e946295	0.28981462
39	0xbe6657ae	-0.22494385
40	0xbe0cfcfd	-0.13768382
41	0x3d1b3bff	0.037899014
42	0xbda1b1a2	-0.07895209
43	0x3dda0fa6	0.10647516
44	0xbd68de0c	-0.056852385
45	0x3e1ab83e	0.15109345
46	0xbd892dba	-0.06698175
47	0x3eaa9f57	0.33324692
48	0x3e479567	0.19490586
49	0xbe7699a1	-0.24082042
50	0xbdf25a0a	-0.1183358
51	0xbe4d849d	-0.20070119
52	0xbe00de9e	-0.12584922
53	0xbcc26b50	-0.023732811
54	0x3ded15cc	0.11576423
55	0x3e74fcf5	0.2392462
56	0x3d704f36	0.05866929
57	0x3dfc6e9f	0.12325787
58	0xbd9f2c26	-0.077720925
59	0xbd9f9f02	-0.07794
60	0x3e8187d5	0.25298944
61	0xbdbd3094	-0.09237781
62	0x3d3d184f	0.04616576
63	0x3cc9c5f4	0.024630524

linear3.weight f4 [64, 64]
0	0x3d688588	0.05676797
1	0xbd03a1a8	-0.03213659
2	0x3dd333da	0.10312624
3	0x3d5f44e8	0.054509073
4	0x3d440f28	0.047866017
5	0x3d9311a8	0.07181102
6	0x3ccf82b0	0.025330871
7	0x3d935558	0.071940124
8	0xbd8b3dd4	-0.06798902
9	0xbcb9f5f0	-0.02270028
10	0xbde651ec	-0.11246094
11	0x3cf7a6d0	0.03023091
12	0xbdb88a46	-0.090107486
13	0xbdc021fa	-0.093814805
14	0x3b9a15a0	0.004702285
15	0x3c212150	0.0098346025
16	0x3d934baa	0.07192166
17	0x3cf135d8	0.02944462
18	0x3d87dfae	0.066344604
19	0x3dc06904	0.0939503
20	0xbd5a5d90	-0.053311884
21	0xbdcc41b2	-0.09973468
22	0xbd820a70	-0.06349647
23	0xbd49e5ec	-0.049291536
24	0x3d45c4dc	0.048283443
25	0x3cc4dca0	0.024030983
26	0x3b331e40	0.0027331263
27	0x3b596540	0.0033171922
28	0xbdf6abb0	-0.120444655
29	0x3c71a680	0.014749169
30	0x3d20c34c	0.03924875
31	0xbda6bdca	-0.08141668
32	0xbc93dc68	-0.018049434
33	0x3cfd7df0	0.03094384
34	0xbd2330fc	-0.039841637
35	0xbdf48d84	-0.119410545
36	0xbd8baa60	-0.06819606
37	0xbd726f38	-0.059188098
38	0xbd99f9de	-0.075183615
39	0x3d93db16	0.07219522
40	0xbb89d380	-0.004206121
41	0xbdc96cca	-0.09835203
42	0x3db93200	0.0904274
43	0xbd5d2aec	-0.05399601
44	0xbdd9c23c	-0.106327504
45	0xbdbdee14	-0.092739254
46	0x3d22d320	0.039752126
47	0x3da14cb0	0.07875955
48	0xbdbaa2fe	-0.091131195
49	0x3cf08550	0.029360443
50	0xbdbd9e5e	-0.09258722
51	0xbdf12d86	-0.11776261
52	0xbcb87460	-0.02251643
53	0x3d76b950	0.06023532
54	0xbd29eee0	-0.041487575
55	0xbd7121a0	-0.058869958
56	0x3dcad174	0.09903231
57	0xbd69d738	-0.057090014
58	0xbd422a28	-0.047403485
59	0xbd36f820	-0.044670224
60	0x3d9887c4	0.0744777
61	0xbddb3578	-0.10703558
62	0xbd79fdc0	-0.06103301
63	0xbd0348e8	-0.03205195
64	0xbd8d3a40	-0.06895876
65	0x3c6e9fb1	0.014564441
66	0x3c5db253	0.013531285
67	0xbbf25f30	-0.007396601
68	0xbd1e18ba	-0.0385978
69	0x3cf764a9	0.030199366
70	0xbdd44d96	-0.10366361
71	0x3e34e81b	0.17666666
72	0x3c37a6b5	0.01120918
73	0xbc4747e0	-0.012163132
74	0xbd06c9bc	-0.032907233
75	0xbc011e1d	-0.007880715
76	0x3dd4c409	0.10388953
77	0x3d3d8ae1	0.046275023
78	0xbd80a4f2	-0.06281461
79	0x3dafb20d	0.08578882
80	0xbc244b34	-0.010027695
81	0x3d362c3d	0.044475783
82	0x3d900971	0.07033051
83	0x3dc29a84	0.09502128
84	0x3dc90714	0.09815803
85	0xbd514ae5	-0.051096816
86	0xbc86cd90	-0.016455442
87	0xbc45c520	-0.012070924
88	0x3c047a40	0.008085787
89	0x3d2fae22	0.042890675
90	0x3deab439	0.11460156
91	0xbd311670	-0.04323429
92	0x3b29cc4b	0.0025909122
93	0x3cb87d2d	0.022520626
94	0xbdbff511	-0.093729146
95	0x3d337ecc	0.043822095
96	0x3d85d941	0.065355785
97	0x3cc49eff	0.024001596
98	0x3c9e0df9	0.019293772
99	0xbde4b1d0	-0.111667275
100	0xbd3912f3	-0.045184087
101	0xbcfdcc3a	-0.030981172
102	0xbdeac596	-0.11463468
103	0xbd8b844d	-0.06812344
104	0x3d81c5b1	0.06336535
105	0x3e094efa	0.13409033
106	0x3d5f725c	0.05455242
107	0x3d822370	0.063544154
108	0xbdadcd8e	-0.08486472
109	0xba95016d	-0.0011368223
110	0x3ddd61d4	0.10809675
111	0xbceee37e	-0.029161211
112	0xbdb74522	-0.08948733
113	0x3d83c88a	0.06434734
114	0x3d9c16c4	0.0762153
115	0x3da1e515	0.07905022
116	0xbd5642d6	-0.052309833
117	0xbd4a9d30	-0.049466312
118	0xbdba0022	-0.090820566
119	0x3df037dd	0.11729405
120	0x3dd93bdf	0.10607123
121	0x3db977aa	0.09056027
122	0xbd90e892	-0.07075609
123	0xbde84154	-0.11340585
124	0x3df7cab7	0.12099212
125	0xbe0a691b	-0.13516657
126	0x3da51f26	0.08062582
127	0x3d059454	0.03261216
128	0xbb2183c0	-0.002464518
129	0xbc9e3530	-0.019312471
130	0x3cd52a16	0.026021045
131	0xbd972962	-0.0738094
132	0x3d83d980	0.06437969
133	0xbc6828ba	-0.014169866
134	0xbd2d5424	-0.04231657
135	0x3c6e7a1f	0.014555483
136	0x3ceddc79	0.029035794
137	0xbdb8d796	-0.09025495
138	0xbe0546a2	-0.13015226
139	0xbdd4413d	-0.10364006
140	0x3dc181c2	0.094485775
141	0x3daf7cd1	0.08568729
142	0xbcb68e40	-0.022284627
143	0x3db518c3	0.088426135
144	0xbbdf7d2b	-0.006820341
145	0xbda05688	-0.078290045
146	0x3d82360c	0.06357965
147	0x3cf120e8	0.029434636
148	0x3cf7d410	0.030252486
149	0x3d808640	0.06275606
150	0xbde4368a	-0.11143215
151	0x3d6c92ec	0.057757303
152	0xbd7ef89c	-0.06224881
153	0x3d4ad9bc	0.049524054
154	0x3dec4e4d	0.11538372
155	0x3b697580	0.0035623014
156	0x3d3adffb	0.04562376
157	0x3cb9f5b9	0.022700178
158	0x3a57ebe8	0.0008236752
159	0xbc4b7712	-0.012418525
160	0xbe1979f3	-0.14987926
161	0xbc3a0a21	-0.011354954
162	0xbda4975a	-0.080366805
163	0x3db8beb2	0.09020747
164	0x3cefe319	0.029283093
165	0xbdb28c85	-0.08718208
166	0xbd55fd60	-0.05224359
167	0x3da71a47	0.08159309
168	0x3daf5a1b	0.08562108
169	0x3d804fda	0.062652305
170	0xbdfc0d76	-0.12307255
171	0x3cec1398	0.028817937
172	0xbdcf36a6	-0.10117845
173	0xbe0963b8	-0.13416946
174	0xbc977fc0	-0.018493533
175	0xbd921cce	-0.071344
176	0xbdadcd8e	-0.08486472
177	0xbb426155	-0.0029660065
178	0xbd0e82ad	-0.03479259
179	0xbdc091c5	-0.09402803
180	0x3dc996fc	0.09843251
181	0x3db7e882	0.08979894
182	0xbcbd91e5	-0.023140857
183	0x3d848f9a	0.06472702
184	0x3d2f9489	0.042866264
185	0x3d04c180	0.0324111
186	0x3d410c44	0.047130838
187	0x3cc00178	0.0234382
188	0x3c393e0d	0.011306298
189	0xbd7ceb8d	-0.061748076
190	0xbdb972c1	-0.09055091
191	0xbbde49ef	-0.006783716
192	0x3dcc4332	0.09973754
193	0xbc96af88	-0.018394247
194	0xbd054266	-0.032534026
195	0xbda8e357	-0.08246487
196	0xbd39b920	-0.045342565
197	0xbbd22667	-0.0064132693
198	0x3c3d5750	0.011556461
199	0x3bf52a7a	0.0074818702
200	0xbc0b600b	-0.008506785
201	0xbdb2de0a	-0.08733757
202	0xbd9d4f71	-0.07681168
203	0xbd8918a4	-0.06694153
204	0xbd90b140	-0.07065058
205	0x3d1bef55	0.03807004
206	0x3da2571a	0.079267696
207	0x3d7b0c3f	0.061290976
208	0xbd92b335	-0.07163087
209	0x3bc544c0	0.0060201585
210	0x3cc7bb80	0.0243814
211	0xbdb86bea	-0.09004958
212	0xbdf2784e	-0.118393525
213	0x3d1d5bf7	0.038417783
214	0x3d92ac18	0.071617305
215	0xbdac2652	-0.084057465
216	0x3d537ef0	0.05163473
217	0x3de7b5e1	0.113139875
218	0x3de31c65	0.110894
219	0xbd5ccd78	-0.053906888
220	0xbdb46f30	-0.0881027
221	0x3df25b9f	0.118338816
222	0xbdda1287	-0.10648065
223	0x3dced136	0.100984976
224	0xbd049b96	-0.03237494
225	0xbcae4154	-0.021271385
226	0x3cd917e9	0.026500659
227	0xbd571b80	-0.05251646
228	0x3bd42514	0.0064741466
229	0x3ced50eb	0.028969249
230	0xbdcf7fc2	-0.1013179
231	0x3d562209	0.052278552
232	0xbdad13ba	-0.08451028
233	0x3da46495	0.08026997
234	0xbdbd8742	-0.09254314
235	0x3d131640	0.03590989
236	0xbd00c758	-0.03144011
237	0x3df4ac14	0.11946884
238	0x3ca6d488	0.020365015
239	0x3c435642	0.011922421
240	0xbc313cac	-0.010817688
241	0xbd0ac9f4	-0.033884004
242	0x3c87029f	0.016480742
243	0x3e28c154	0.16479999
244	0x3db2a590	0.08722985
245	0x3d74bd28	0.059750706
246	0xbdb5dc5e	-0.08879922
247	0x3da3e206	0.08002095
248	0xbd3563b2	-0.04428453
249	0xbdddedf8	-0.108364046
250	0xbd3ade1c	-0.045621976
251	0x3d9caaf2	0.07649793
252	0xbd8b306e	-0.067963466
253	0xbdfdb7b6	-0.12388556
254	0x3ce5dcdc	0.028059416
255	0x3e0a4ee9	0.13506664

linear3.bias f4 [64]
0	0x3dc6137c	0.09671685
1	0x3e5008f4	0.20315915
2	0x3d1efb19	0.038813684
3	0xbe1feb68	-0.15617144
4	0xbd8550cc	-0.065095514
5	0x3e86d9ae	0.2633795
6	0x3e04e5bc	0.12978262
7	0x3dcb5aa9	0.099294014
8	0xbe9b66b6	-0.303518
9	0xbdf79958	-0.12089795
10	0x3dd15bae	0.10222565
11	0xbcadb285	-0.021203289
12	0x3db4041f	0.087898485
13	0xbcb85d8e	-0.022505548
14	0x3e91df95	0.28490892
15	0x3e251773	0.16122226
16	0xbdcef36c	-0.10105023
17	0x3d3ef6a8	0.04662195
18	0xbc4dc420	-0.012558967
19	0x3d49a1b1	0.049226467
20	0xbe8fcac6	-0.2808439
21	0xbd8d5600	-0.06901169
22	0xbe6bb60d	-0.23018666
23	0x3e8beafa	0.2732771
24	0x3e288830	0.16458201
25	0xbdd2c908	-0.1029225
26	0x3dd8922e	0.105747566
27	0x3d648ba2	0.055797227
28	0xbc63df60	-0.013908237
29	0xbd8d762d	-0.06907306
30	0x3e37729c	0.17914814
31	0xbd981ca4	-0.07427338
32	0x3e960a6f	0.29304835
33	0xbe98f36c	-0.29873216
34	0xbe2f60c7	-0.17126761
35	0xbde11118	-0.109895885
36	0x3d6aeb74	0.05735345
37	0xbe676943	-0.22598748
38	0x3d90a40a	0.07062538
39	0xbca50f9f	-0.02014905
40	0xbe58d497	-0.21174847
41	0x3dd20228	0.102543175
42	0x3e90dda6	0.28294104
43	0x3d999923	0.07499912
44	0x3d6f82bc	0.058474287
45	0x3df4aa92	0.11946596
46	0x3e210d69	0.15727772
47	0xbd674649	-0.056463514
48	0xbe3e1373	-0.18562107
49	0x3e1b7295	0.15180428
50	0x3d87c227	0.066288285
51	0x3e18a856	0.14907965
52	0x3e2ca4ab	0.16859691
53	0x3d73fdb5	0.059568126
54	0xbdbfdefc	-0.09368703
55	0x3e75a790	0.23989701
56	0xbdcb0ef5	-0.09914962
57	0x3da710c9	0.081574984
58	0xbd8ae712	-0.067823544
59	0x3d9e5b55	0.07732264
60	0x3e15444e	0.14576837
61	0x3d69f05b	0.057113986
62	0xbdc5ba0d	-0.09654627
63	0x3d134117	0.035950746

linear4.weight f4 [64, 64]
0	0x3de3f5c4	0.111308604
1	0xbd4aafde	-0.049484126
2	0xbca084fb	-0.01959466
3	0xbd0fc1de	-0.035096996
4	0xbd1b2a95	-0.037882406
5	0x3dffdbf2	0.12493123
6	0xbdce8023	-0.10083034
7	0xbc5f4f50	-0.013629749
8	0x3c5a04a0	0.013306767
9	0xbc9b28fe	-0.018940445
10	0xbe06457a	-0.1311244
11	0x3dc294cf	0.09501039
12	0xbd3720ed	-0.044709135
13	0xbe056207	-0.13025676
14	0x3db27de2	0.087154165
15	0x3dccd1cf	0.10000955
16	0x3dd1df7d	0.10247705
17	0xbd8aee18	-0.06783694
18	0xbdf9286a	-0.121659115
19	0xbb927470	-0.004469447
20	0xbc5cf28f	-0.013485565
21	0xbdc87dca	-0.09789617
22	0x3bc04057	0.005867045
23	0xbce6099b	-0.028080752
24	0xbdcf880f	-0.10133373
25	0x3dd0ab87	0.10188966
26	0x3dd86cb5	0.10567609
27	0x3d8476ff	0.06468009
28	0xbd06b9bc	-0.032891974
29	0xbda5a08c	-0.080872625
30	0x3dcd7e81	0.10033894
31	0x3d70cfc8	0.058791906
32	0x3e1e73a4	0.15473801
33	0x3c95f767	0.018306447
34	0xbd0b1441	-0.033954863
35	0xbcef7efa	-0.029235352
36	0xbd672f2c	-0.05644147
37	0xbd87b9b7	-0.06627219
38	0x3d58a12c	0.05288808
39	0x3d17c8e5	0.037056822
40	0xbdd8b310	-0.105810285
41	0xbd0fe70a	-0.035132445
42	0xbbb10307	-0.005401972
43	0xbda07701	-0.07835198
44	0xbd260a74	-0.040537313
45	0x3caeba10	0.021328956
46	0xbb27153f	-0.0025494841
47	0x3da36702	0.079786316
48	0xbdf6e6fa	-0.12055774
49	0xbd82a780	-0.06379604
50	0x3da4e44d	0.080513574
51	0x3dd7aecd	0.105313875
52	0x3deec4f2	0.11658658
53	0x3e13b008	0.1442262
54	0xbd207c1a	-0.039180852
55	0xbd50228f	-0.050814208
56	0xbdc4c2d8	-0.09607476
57	0xbc030e76	-0.007999053
58	0x3b3644c0	0.0027811974
59	0x3d677667	0.0565094
60	0xbd96a749	-0.07356126
61	0x3df808cf	0.12111055
62	0x3dad95c5	0.08475832
63	0x3defb51b	0.11704465
64	0xbd8bfd82	-0.06835462
65	0xbdd5a549	-0.10431916
66	0x3da68de6	0.08132534
67	0xbdb358e7	-0.08757191
68	0x3c4c28b2	0.012460874
69	0x3d85f300	0.06540489
70	0x3d1d3c20	0.038387418
71	0x3da7aeb3	0.08187618
72	0xbdc8b29b	-0.09799691
73	0xbd9b52ef	-0.07584178
74	0xbd8eb03d	-0.069672085
75	0x3cd54a85	0.02603651
76	0xbd020175	-0.03173967
77	0xbc97b3c1	-0.01851833
78	0x3be5b2d4	0.0070098434
79	0x3d6d81b0	0.057985008
80	0xbdc7695d	-0.09736893
81	0xbd0e8ebb	-0.034804087
82	0x3d6ddc3c	0.05807136
83	0x3d9209ef	0.07130801
84	0xbdde6b34	-0.10860291
85	0x3be9c15f	0.0071336473
86	0x3ca14822	0.019687716
87	0x3d80736f	0.06272017
88	0x3e05617a	0.13025466
89	0xbd5521d4	-0.052034214
90	0x3df77ec5	0.12084726
91	0x3d8cd8c5	0.06877283
92	0xbdf69a6e	-0.12041174
93	0xbceb3c4a	-0.028715272
94	0xbd6bcd80	-0.057569027
95	0x3dd271cc	0.10275611
96	0x3dce9dd1	0.10088695
97	0x3d29f18e	0.04149013
98	0x3c592118	0.013252519
99	0xbdbb2fbf	-0.09139966
100	0xbd5b3ef4	-0.053526834
101	0x3d296e63	0.04136504
102	0x3bd230bc	0.006414501
103	0xbdbdd47c	-0.09269044
104	0xbe121195	-0.1426452
105	0x3c9a3a7f	0.018826721
106	0x3e16819d	0.14697881
107	0xbd845cd9	-0.06463022
108	0xbdfed71e	-0.12443374
109	0x3d96a3ce	0.07355462
110	0x3e0a2de1	0.13494064
111	0x3d90baee	0.07066904
112	0xbe12474b	-0.14285009
113	0x3cd5aba6	0.026082825
114	0xbda78f79	-0.08181662
115	0xbd991247	-0.07474189
116	0xbd5d35bc	-0.054006323
117	0x3cd54058	0.026031658
118	0xbdd91e31	-0.10601462
119	0x3da3931b	0.079870425
120	0xbe046222	-0.1292806
121	0x3d383888	0.044975787
122	0x3d4fa114	0.050690725
123	0xbc5bd67c	-0.013417836
124	0x3dce4347	0.10071426
125	0xbc96a02a	-0.018386919
126	0x3c313e53	0.010818082
127	0xbda3ad2e	-0.07992016
128	0xbd683e98	-0.05670032
129	0x3db7aa62	0.08968045
130	0xbdab5631	-0.08366049
131	0x3aa35e97	0.0012464103
132	0x3d94ff93	0.072753094
133	0x3cf3bdd4	0.029753603
134	0x3da1a0ec	0.078920215
135	0x3db96041	0.09051562
136	0x3c498a3c	0.012301024
137	0xbdaf4f0c	-0.08559999
138	0xbd8d81b6	-0.06909506
139	0xbcca5d7e	-0.024702784
140	0x3dab5f40	0.08367777
141	0x3d47b579	0.04875705
142	0xbd81ce70	-0.06338203
143	0xbd7296c7	-0.059225824
144	0x3e010f8d	0.12603588
145	0xbdf1daff	-0.11809348
146	0xbdd5f682	-0.10447408
147	0x3d9df113	0.07711997
148	0x3d327283	0.043566238
149	0x3c73b878	0.014875524
150	0xbdbdbf6c	-0.092650265
151	0x3d349fe6	0.044097804
152	0xbdb71c83	-0.08940985
153	0xbdfaec2e	-0.12252079
154	0x3d37bb20	0.04485619
155	0x3a5d3d2d	0.0008439597
156	0x3d7c91c4	0.06166245
157	0x3ddae231	0.10687674
158	0x3d5ec0a8	0.05438295
159	0xbd7cf9dc	-0.061761722
160	0x3d2c037f	0.04199552
161	0xbe365ead	-0.17809553
162	0xbd6c78ed	-0.05773251
163	0x3d18fa61	0.037348155
164	0xbd9aeec8	-0.07565075
165	0xbdf32908	-0.118730605
166	0xbda13975	-0.07872287
167	0xbdb5904a	-0.088654116
168	0xbdd2d047	-0.10293632
169	0xbcc3bdb9	-0.023894178
170	0x3d81f787	0.0634604
171	0x3d5a46e3	0.05329026
172	0x3d51564c	0.05110769
173	0x3dfdbeb4	0.12389889
174	0x3d79fcfb	0.061032277
175	0x3d2c9756	0.042136513
176	0x3c275e5c	0.010215368
177	0x3dd7d6ec	0.1053904
178	0x3d95b15c	0.07309219
179	0xbd97d04f	-0.074127786
180	0x3cfaf3c0	0.030633807
181	0x3dc4fb43	0.09618237
182	0x3da0e47b	0.07856079
183	0x3dbcb7f0	0.09214771
184	0xbc2d911b	-0.010593678
185	0x3d996b53	0.074911736
186	0x3d676ff8	0.056503266
187	0x3d87e9ca	0.066363886
188	0x3d4dffe0	0.05029285
189	0xbd3c466a	-0.04596559
190	0xbdaf434a	-0.08557756
191	0x3c085f22	0.008323463
192	0x3dc64fe4	0.09683207
193	0xbdd7cd66	-0.105372235
194	0xbd0069c0	-0.03135085
195	0xbde16454	-0.11005464
196	0xbdcf09c6	-0.10109286
197	0xbd26c5e4	-0.040716067
198	0x3d28a068	0.0411686
199	0xbd2dc298	-0.042421907
200	0x3dca0454	0.09864107
201	0xbdf9e29e	-0.12201427
202	0xbd9560c8	-0.0729385
203	0xbce0f330	-0.02745971
204	0xbcee3850	-0.029079586
205	0x3d985c88	0.07439524
206	0xbd854656	-0.06507556
207	0x3d928e34	0.07156029
208	0xbd6496f8	-0.055808038
209	0x3dc3502e	0.095367774
210	0xbb8fa6c0	-0.004383892
211	0xbd5660c8	-0.05233839
212	0x3dbd0698	0.09229773
213	0xbdc0b72a	-0.09409936
214	0x3daeaefa	0.08529468
215	0xbdd647e8	-0.10462934
216	0xbdfa9704	-0.12235835
217	0xbc613640	-0.013745844
218	0x3dc6e09e	0.09710811
219	0xbcff4df0	-0.031165093
220	0x3b7df1c0	0.003874883
221	0x3ce03f58	0.027373955
222	0xbdde0f84	-0.10842803
223	0x3df4a3a2	0.11945273
224	0xbbe8ce20	-0.00710465
225	0xbc4cebe0	-0.012507409
226	0x3da8ea56	0.08247821
227	0xbdfd8a92	-0.12379946
228	0xbdb99074	-0.09060755
229	0x3d186558	0.037206024
230	0x3d1a4020	0.03765881
231	0xbd9b1ca0	-0.07573819
232	0xbdbeec0c	-0.09322366
233	0x3c4e2ae0	0.012583464
234	0x3da4794e	0.080309495
235	0x3da3266e	0.07966314
236	0x3dab1c36	0.0835499
237	0x3d9077a0	0.07054067
238	0xbdc40394	-0.09570995
239	0x3d80485e	0.06263803
240	0xbd85ecd2	-0.065393105
241	0xbdd21f80	-0.102599144
242	0xbdaafe94	-0.08349338
243	0x3d6ce8e4	0.05783929
244	0xbd2525c0	-0.040319204
245	0x3d619858	0.055076927
246	0xbdc4e8c2	-0.096147075
247	0xbd067898	-0.03282985
248	0xbd4bbdf4	-0.0497417
249	0x3d630cd0	0.05543214
250	0xbdd01c9e	-0.10161708
251	0xbdfc4a1e	-0.12318824
252	0x3db01988	0.0859862
253	0x3d812356	0.06305568
254	0xbdf5fb10	-0.12010777
255	0xbd1787b4	-0.03699465

linear4.bias f4 [64]
0	0x3e94ab51	0.29036954
1	0x3e84fba5	0.2597324
2	0x3e61d41b	0.22053568
3	0x3dc17502	0.094461456
4	0x3d6c41a0	0.057679772
5	0xbd469710	-0.04848391
6	0xbd22f6fd	-0.039786328
7	0x3c5eb104	0.0135920085
8	0x3e0bf595	0.13667901
9	0xbcd5b310	-0.02608636
10	0x3dd2242a	0.10260804
11	0xbdbf6ba9	-0.093467064
12	0x3e007797	0.1254562
13	0x3cb6440b	0.022249242
14	0x3d63862b	0.055547874
15	0x3e5a26fb	0.21303932
16	0x3e8354f0	0.2565074
17	0x3e4fbd7b	0.20287125
18	0x3e9495a1	0.29020408
19	0xbdbab816	-0.09117143
20	0xbbea3574	-0.0071474854
21	0xbd41ef5c	-0.04734741
22	0xbcddb935	-0.027065853
23	0x3e88b798	0.2670257
24	0xbd51fff7	-0.051269498
25	0x3e246330	0.16053462
26	0x3e866d46	0.26255244
27	0x3e18f11f	0.1493573
28	0x3e6fc892	0.23416355
29	0xbded74f8	-0.11594576
30	0x3e061c49	0.13096727
31	0xbe52ca52	-0.20584992
32	0x3d129387	0.035785224
33	0x3e731b98	0.23740995
34	0xbd3b963b	-0.045797568
35	0xbcac0260	-0.020997226
36	0xbb621834	-0.003449929
37	0x3e8b77b1	0.27239755
38	0xbdd89895	-0.10575978
39	0x3e8ab927	0.27094385
40	0x3e9b5f7b	0.30346283
41	0xbd49aba2	-0.049235947
42	0x3e94a0ba	0.29028875
43	0x3e9b6742	0.30352217
44	0x3e25a532	0.16176298
45	0x3e839397	0.2569854
46	0x3e97b886	0.29632968
47	0x3ddc4905	0.10756115
48	0x3e634155	0.22192891
49	0x3df414f4	0.11918059
50	0x3dd3280a	0.10310371
51	0x3e02b877	0.1276568
52	0x3d5bf9c2	0.053704984
53	0x3e013100	0.12616348
54	0x3e8192bd	0.25307265
55	0xbdd6f0fe	-0.10495184
56	0x3e8b85c7	0.27250502
57	0x3e104284	0.14087874
58	0x3da7837c	0.081793755
59	0x3e72d89b	0.23715441
60	0xbd8e2e2f	-0.069424026
61	0x3e5fa7da	0.21841374
62	0x3e5a99f0	0.21347785
63	0xbd1fe840	-0.03903985

mean_linear.weight f4 [2, 64]
0	0x3d3644fd	0.044499386
1	0x3d4e8802	0.050422676
2	0x3d2d5c87	0.04232457
3	0xbb01ddbe	-0.0019816007
4	0x3c938a10	0.01801017
5	0xb9e7cc21	-0.0004421184
6	0xbb25c67f	-0.0025295315
7	0xbab91735	-0.0014121296
8	0x3d0770a8	0.03306642
9	0xba17597b	-0.00057735265
10	0xbcdc256b	-0.026873311
11	0x3c0f45aa	0.008744637
12	0x3c296f08	0.010341413
13	0xbc3053ff	-0.010762214
14	0x3cb962aa	0.022630055
15	0x3d0d9e36	0.03457471
16	0x3d7e390b	0.06206612
17	0x3cc01e72	0.023452017
18	0x3d705c35	0.058681685
19	0xbb24acf6	-0.0025127507
20	0xb9803087	-0.00024450218
21	0x38657bc7	5.471313e-05
22	0x3a15c575	0.00057133223
23	0x3d5ad78c	0.053428218
24	0xbbdeee19	-0.006803286
25	0x3cbd9a6f	0.023144929
26	0x3d003523	0.031300675
27	0x3d31c855	0.043403942
28	0x3d47e650	0.048803627
29	0x3a866c79	0.0010255716
30	0x3ceefc95	0.029173175
31	0xbd25f2f0	-0.040514886
32	0x3ced0df7	0.028937323
33	0x3d4b6cdf	0.049664374
34	0x3c00b96c	0.007856708
35	0x3a044d1d	0.0005046891
36	0xba1d5355	-0.0006001492
37	0x3d2a39a2	0.04155887
38	0xbd3a1a57	-0.045435276
39	0x3d1509d6	0.036386333
40	0x3d7e9bbe	0.062160246
41	0xbc1ea2e6	-0.009682393
42	0x3d4f1afb	0.05056284
43	0x3d85bf00	0.06530571
44	0x3d0a4450	0.033756554
45	0x3d168a70	0.036753118
46	0x3d56d737	0.05245134
47	0x3ce1dee8	0.02757211
48	0x3d663267	0.05620041
49	0xbb3be955	-0.0028673012
50	0x3ccfced4	0.025367178
51	0x3bebbf2c	0.0071944203
52	0x3bc6fcfa	0.0060726376
53	0x3cf07a44	0.029355176
54	0x3dab4423	0.083626054
55	0x3af2fb9c	0.001853812
56	0x3d3f9948	0.04677704
57	0x3cfc5e20	0.030806601
58	0x3c8e90e7	0.01740308
59	0x3d4e3bde	0.050350063
60	0xba03b2c1	-0.000502389
61	0x3d155da1	0.036466245
62	0x3d322b2c	0.043498203
63	0xbac6dcba	-0.0015171983
64	0x3d6043d9	0.054752205
65	0x3d48b857	0.049003925
66	0x3cff3b51	0.031156214
67	0xba7e67dd	-0.0009704808
68	0x3c962ff4	0.018333413
69	0xba0ee0f5	-0.00054503913
70	0x3a4db620	0.0007847268
71	0x39ca6f97	0.00038611583
72	0x3cf9a620	0.030474722
73	0x3b1eaadf	0.0024210734
74	0xbcc23075	-0.023704747
75	0xbb8a53c5	-0.004221412
76	0x3ceb8aa4	0.028752632
77	0xbab2ae87	-0.0013632335
78	0x3d002e7f	0.031294342
79	0x3d4f8f51	0.050673787
80	0x3d83edbe	0.0644183
81	0x3cf4ca87	0.029881729
82	0x3d503993	0.050836157
83	0xb726a4dd	-9.932756e-06
84	0xbb10fd8c	-0.0022123782
85	0x3b2d8052	0.002647419
86	0xbbb40721	-0.005494014
87	0x3d30cfbf	0.043166872
88	0x3c00f3cb	0.007870625
89	0xbd85121e	-0.06497596
90	0x3d2c61ea	0.042085566
91	0x3d3de482	0.0463605
92	0x3d21dfb3	0.039519977
93	0xba7a84cd	-0.0009556532
94	0x3cff76f0	0.031184644
95	0xbd47e22c	-0.04879968
96	0x3d33398f	0.043756064
97	0x3d4359ee	0.047693186
98	0xbbd9d4a1	-0.006647662
99	0x39a14842	0.0003076215
100	0xbb2d915b	-0.0026484344
101	0x3d4403b2	0.047855087
102	0xbce63105	-0.028099546
103	0x3ceb1040	0.028694272
104	0x3d95e6d6	0.07319419
105	0xbc32710f	-0.010891213
106	0x3d368f7c	0.04457043
107	0x3d6139e5	0.054986853
108	0x3d0ae446	0.033909105
109	0x3d11fcd7	0.035641517
110	0x3d60f62c	0.054922268
111	0x3d201aab	0.039087933
112	0x3d32a648	0.04361561
113	0x3a7debe8	0.0009686337
114	0x3d11b26f	0.03557056
115	0xb80d75e4	-3.3726814e-05
116	0x3bf8461c	0.007576717
117	0xbcc07ce7	-0.023497058
118	0x3d845f5b	0.064635
119	0xbb7ebf29	-0.0038871265
120	0x3d26a56e	0.04068511
121	0xbd8c0f72	-0.068388835
122	0x3c8e5ccc	0.017378233
123	0x3da9fa17	0.08299654
124	0xbb2b0f3a	-0.0026101605
125	0x3d0a81d0	0.033815205
126	0x3d56c589	0.052434478
127	0x3aaea8dd	0.0013325472

mean_linear.bias f4 [2]
0	0x3ddd50ab	0.10806402
1	0x3dbac8d9	0.0912034

log_std_linear.weight f4 [2, 64]
0	0xbc63e465	-0.013909434
1	0xbc924e3c	-0.01785957
2	0xbc842545	-0.016131053
3	0x3ab3425a	0.001367639
4	0xbb072f11	-0.002062742
5	0xbb3c883b	-0.0028767723
6	0xb8cfcfcc	-9.909234e-05
7	0x39999d22	0.00029299507
8	0xbc54f0d1	-0.012996868
9	0xbb2da7d6	-0.0026497743
10	0xbbe594c3	-0.007006259
11	0xbab960ac	-0.001414319
12	0xbb32ae3b	-0.0027264494
13	0x3bc2592e	0.005931041
14	0xbb19d638	-0.0023473632
15	0xbc19e797	-0.009393594
16	0xbcf42a06	-0.029805195
17	0xbba248d2	-0.0049525285
18	0xbcadc165	-0.021210382
19	0xbb090a00	-0.0020910501
20	0xbb167c8b	-0.0022962417
21	0x3b238c56	0.0024955473
22	0xbad955a7	-0.0016581313
23	0xbccba9a9	-0.024861174
24	0xbc20bda1	-0.009810836
25	0xbd2709fe	-0.040781014
26	0xbc4e62b1	-0.012596772
27	0xbc097422	-0.008389505
28	0xbc69a7fa	-0.01426124
29	0x39c127ae	0.00036841392
30	0xbbe34f83	-0.006936969
31	0x3b57865b	0.0032886479
32	0xbb32f873	-0.0027308732
33	0xbc6e3a6e	-0.014540298
34	0x3bf6edc6	0.007535669
35	0x3b0cbf7a	0.0021476434
36	0xbb421107	-0.00296122
37	0xbc578673	-0.013154614
38	0x3cf0c96d	0.029392922
39	0xbc5eb81f	-0.013593703
40	0xbd10ecb0	-0.035381973
41	0x3c12c3d1	0.008957819
42	0xbcb890da	-0.022530008
43	0xbce420be	-0.027847644
44	0xbc1fa387	-0.009743578
45	0xbc3b8350	-0.011444882
46	0xbca287eb	-0.019840201
47	0xbb4a2373	-0.0030843883
48	0xbcaa034a	-0.020753521
49	0x3a58a519	0.00082643476
50	0xbbbed6db	-0.0058239526
51	0xbbb47406	-0.005506995
52	0x3b9f11f0	0.0048544332
53	0xbcdd2754	-0.026996292
54	0xbcc169aa	-0.023609955
55	0xbad8c33a	-0.0016537674
56	0xbc74676e	-0.014917238
57	0xbd0e6078	-0.03475997
58	0xbb57f027	-0.0032949538
59	0xbca42cb0	-0.02004084
60	0xbb2bf579	-0.0026238842
61	0xbc8b0368	-0.016969398
62	0xbc87bf34	-0.016570665
63	0xb9ebdc57	-0.0004498686
64	0xbc7ef6b6	-0.01556175
65	0xbc86762d	-0.016413772
66	0xbc179433	-0.009251642
67	0x3b2a47c1	0.002598271
68	0xbb110206	-0.002212645
69	0x3af3bf25	0.0018596394
70	0xbae15596	-0.0017191644
71	0x3a9821e0	0.0011606775
72	0xbc1cf0a9	-0.009578862
73	0x39f9dbb2	0.00047656667
74	0x3c7790a0	0.015110165
75	0xbbb01d8a	-0.005374615
76	0xbc673f60	-0.014114231
77	0xbbec45a0	-0.0072104484
78	0xbbff8d42	-0.0077988217
79	0xbc948690	-0.01813057
80	0xbd0bd648	-0.0341399
81	0xbc3e4334	-0.011612702
82	0xbccd7c3d	-0.025083655
83	0xba74bfb2	-0.0009336426
84	0xbba2a293	-0.004963228
85	0x3b361e6e	0.0027789134
86	0xbb4b29f1	-0.003100034
87	0xbc9363ad	-0.017991865
88	0x3c2eb519	0.010663294
89	0x3c20aaa8	0.009806313
90	0xbc863b5f	-0.016385732
91	0xbc59adee	-0.013286097
92	0xbc72e9dc	-0.014826264
93	0xb8a8adf4	-8.0432656e-05
94	0xbaef3d98	-0.0018252609
95	0x3c9079a3	0.017636126
96	0xbb8fac79	-0.004384574
97	0xbc6aa970	-0.014322624
98	0x3bfa5ce7	0.0076404694
99	0xb9fdaf0a	-0.00048386335
100	0xbb577b38	-0.003287984
101	0xbc2c0618	-0.0104995
102	0x3c507fd9	0.012725794
103	0xbc56cf2c	-0.013110917
104	0xbccdd813	-0.025127446
105	0x3be4bafb	0.0069802976
106	0xbc9063a2	-0.017625634
107	0xbc9e488a	-0.019321699
108	0xbc1b46cc	-0.0094773285
109	0xbc276c0a	-0.01021863
110	0xbc71a089	-0.014747747
111	0xbc2b70b5	-0.010463883
112	0xbc50682a	-0.012720147
113	0x3911b313	0.00013894988
114	0xbb7db911	-0.0038715045
115	0xbbce1345	-0.006288918
116	0x3c109e11	0.0088267485
117	0xba25e4fd	-0.00063283724
118	0xbce5525b	-0.027993372
119	0xbb1d7e74	-0.002403167
120	0xbc5ef03a	-0.013607079
121	0x3c1c7999	0.0095504755
122	0xbbb46728	-0.0055054612
123	0xbcf8841f	-0.030336438
124	0x38dfa398	0.0001066394
125	0xbc88d6bc	-0.016703956
126	0xbc9934b1	-0.018701883
127	0xbaea8ba1	-0.0017894396

log_std_linear.bias f4 [2]
0	0xbd672555	-0.056432087
1	0xbd5bdf89	-0.053679977
