models/2025-11-21 13:35:02/1/Q1.pth (torch, 37764 bytes, 7 tensors)

linear1.weight f4 [64, 5]
000000 dc 2c 52 be 20 d9 94 3e 57 85 04 3f 87 81 9d 3e
       -0.20524925 0.29071903 0.5176596 0.30762884
000010 0b a5 1d bf 99 5a 4e be c0 a5 a4 3e aa df fa 3d
       -0.6157996 -0.20151748 0.32157707 0.12249692
000020 94 4c a5 bd df dd 7f 3e 3c e8 f0 be c7 c1 d6 bc
       -0.08071247 0.24986981 -0.4705218 -0.026215447
000030 8e 2d 20 3d 6a 21 d4 be 58 58 9c be 03 de 8d bd
       0.039105944 -0.41431743 -0.3053615 -0.06927111
000040 e0 ee 1b bf ac 4b 21 be ce d5 da be 0e 4c 12 bf
       -0.6091137 -0.15751523 -0.42741245 -0.571473
000050 c2 57 9d be 02 e0 52 3e 9f 84 9b 3e fb 75 df be
       -0.30731016 0.20593265 0.3037462 -0.436447
000060 3c fe 1e bf 43 73 e5 be 52 1b a4 be 37 b2 4a 3e
       -0.6210668 -0.448145 -0.32052094 0.19794546
000070 39 73 24 bf 08 18 fe be d0 bd 01 bf 05 5f fa be
       -0.64238316 -0.4962771 -0.50680256 -0.4890062
000080 57 86 9e be f1 40 f9 be 65 03 96 be 98 32 b3 3e
       -0.30961868 -0.4868236 -0.29299465 0.34999537
000090 c5 97 e7 3d a6 c2 32 3e 70 aa 91 3e 1c b4 82 be
       0.113082446 0.17457065 0.28450346 -0.25528038
0000a0 db 69 81 be 84 46 5e be 8c 9f 48 3d 91 61 7f be
       -0.25276074 -0.21706587 0.04898028 -0.24939562
0000b0 b1 41 06 3e 63 b1 a7 be 69 44 c3 be 8e 3f d8 3e
       0.13110997 -0.32752523 -0.3813813 0.42235988
0000c0 0f 36 59 3e ca 3a e2 3d f6 8a 4f be e1 44 5b 3e
       0.21212028 0.110463694 -0.20267853 0.21412994
0000d0 de 20 51 39 47 9c 3b be 58 f7 c0 be ce 40 3c 3a
       0.00019944037 -0.18321334 -0.37688708 0.00071812875
0000e0 e3 80 ca be 82 e2 84 3e a4 19 37 be 73 6d 44 be
       -0.39551458 0.25954062 -0.17880875 -0.19182377
0000f0 10 ec c9 be 1e b0 63 3e be 01 e0 3d cf aa 14 bc
       -0.39437914 0.22235152 0.10937832 -0.009073927
000100 a5 75 9b be 55 13 0d bf 32 55 53 be 05 59 df 3e
       -0.30363193 -0.55107623 -0.20637968 0.43622604
000110 f7 37 6d 3e 80 65 23 bf bf 76 34 bd b6 81 c9 3e
       0.2316588 -0.6382675 -0.044058558 0.39356774
000120 94 8c 45 3e cd d5 04 be b4 28 e7 3e 11 05 1b be
       0.19291908 -0.12972184 0.45148242 -0.15138651
000130 62 b8 fc be 71 b5 d4 3e 80 da 76 be 1e bb d6 be
       -0.49359423 0.4154468 -0.24106789 -0.41939634
000140 b6 09 3d 3e 3c 06 b7 3c 04 0c 44 be 14 64 b0 be
       0.18460736 0.02234184 -0.19145209 -0.34451354
000150 a3 6a 50 3e 10 92 b5 be 30 44 c5 be bb 6f 21 3e
       0.20353179 -0.35463 -0.38528585 0.15765278
000160 d6 0f 82 be 1b 91 b2 bd 12 2a 80 3e b2 70 46 3e
       -0.25402707 -0.08719083 0.25032097 0.19378927
000170 0b 67 b5 be 20 af 18 be 3d 0c ae be 51 8c bc 3e
       -0.35430178 -0.14910555 -0.33993712 0.36825803
000180 e1 06 e3 3e 0f 74 2b be e2 28 33 be cc e9 a1 3d
       0.44341186 -0.16743492 -0.17496064 0.07905921
000190 d6 80 9f 3c ef 72 7d be c3 e1 5d be a2 c5 be bc
       0.019470613 -0.24750875 -0.21668153 -0.023287598
0001a0 ce fd cf 3c 95 c1 a6 be d3 f5 f3 be d3 6c d7 3e
       0.025389578 -0.32569566 -0.47648486 0.42075214
0001b0 e4 c7 9a be 96 0d 1b be 6f d4 90 be 06 00 53 be
       -0.3023063 -0.15141901 -0.28287074 -0.20605478
0001c0 ab a9 30 3d de 9b fe 3d 24 25 2b be 36 e8 fb be
       0.043130558 0.12432073 -0.16713387 -0.492006
0001d0 bb 39 fc 3b 43 05 0c bf ef 1d 8c be 20 90 18 bf
       0.0076973117 -0.5469553 -0.27366588 -0.5959492
0001e0 f6 ec 4b 3e 90 d4 45 3e 02 0b c1 be 28 73 20 3e
       0.19914612 0.19319367 -0.3770371 0.15668929
0001f0 0d b6 ac 3e 07 f3 af be fa 35 8c be 05 f2 8a be
       0.33732644 -0.34365103 -0.2738493 -0.2713777
000200 c1 ec fe be ef 31 3a bf 5f 38 19 be 84 b1 d4 be
       -0.49790004 -0.7273244 -0.1496291 -0.41541684
000210 b3 47 1e 3e d0 b4 83 3e e2 81 89 be 8e 91 da 3e
       0.15457039 0.25723886 -0.26856905 0.42689174
000220 8b 9b a7 be 2c 01 98 be 77 96 aa 3d ed 47 2c 3e
       -0.32735857 -0.29688394 0.0832948 0.16824313
000230 d1 60 d2 3c 2f 83 2e 3e 4a e9 3e be 03 d8 70 3e
       0.025680931 0.1704223 -0.1864368 0.23519902
000240 7d 51 63 3e be 13 f0 be 93 cb 52 3e ee d4 32 3d
       0.22199054 -0.46890062 0.2058547 0.043660097
000250 be 15 22 bf e7 7f ab 3d 48 19 0d 3e b1 44 42 3e
       -0.63314426 0.08374005 0.13779175 0.18971516
000260 fa a7 92 bc b9 c3 06 be 19 b5 01 3f 62 38 cb bd
       -0.017902363 -0.131606 0.5066696 -0.099228635
000270 6e 78 ee be 78 7a 82 3e f7 55 d1 be f8 b0 1a bd
       -0.46576256 0.2548406 -0.40885898 -0.037766427
000280 48 0b 84 3e 10 a4 dc be 97 7b 8e 3d 70 50 34 be
       0.25789857 -0.4309392 0.06957167 -0.1760881
000290 14 c1 f2 39 41 d2 db 3e 84 17 cc 3b 4c 61 65 be
       0.0004630169 0.42933849 0.006228389 -0.22400397
0002a0 61 15 88 3c 61 f5 85 3e 9d 46 93 be b5 83 89 3e
       0.016611757 0.26163772 -0.2876481 0.26858297
0002b0 aa 7d e1 3e 95 a7 65 be b2 13 b6 be 3b 10 b6 be
       0.44041187 -0.22427209 -0.355619 -0.35559258
0002c0 1b f1 aa 3d d1 c4 1a 3d e2 30 a9 be 17 70 1e bf
       0.083467685 0.037785355 -0.33045107 -0.61889786
0002d0 4a 53 ff be 5d c8 8e bd b9 ad ac 3d 9e b3 e5 be
       -0.49868232 -0.0697181 0.084315725 -0.448636
0002e0 18 c3 09 be b2 a2 e6 3e a8 7c aa 3e 1e 0b ba 3e
       -0.13453329 0.45046002 0.3329823 0.36336607
0002f0 89 91 05 3f 42 55 58 3e 5c 94 cc be 55 21 04 bf
       0.52175194 0.21126273 -0.3995694 -0.5161336
000300 e6 63 eb 3e 11 8a a6 ba de 43 e6 bd 27 cf b5 3e
       0.45974654 -0.0012705942 -0.112434134 0.35509607
000310 00 40 b9 3e b0 d4 9b 3e 21 0a 5b be 04 b4 59 3e
       0.3618164 0.30435705 -0.21390583 0.21260077
000320 54 71 f8 bd 97 83 a4 be f1 e1 a0 be d5 fd 8b be
       -0.121309906 -0.32131645 -0.3142238 -0.27342096
000330 f9 c0 09 3e 77 d1 f5 be 03 3e 29 3c 55 7c 35 be
       0.1345252 -0.48011371 0.010329726 -0.1772321
000340 dd 03 31 be 9e 34 8d be 14 59 ae be bf 14 eb be
       -0.1728663 -0.27579206 -0.34052336 -0.45914266
000350 6d b5 58 3d 74 15 9d 3e dc e3 df be 3e 83 bb be
       0.052907396 0.3068043 -0.4372853 -0.36623567
000360 2f 2b 1b be f4 d1 2d 3d 62 37 bf be 7a 81 08 3e
       -0.15153192 0.042436555 -0.3734694 0.13330641
000370 61 80 2f be ab 69 89 3e 32 65 3e be df aa 95 be
       -0.17138816 0.2683843 -0.1859329 -0.29231927
000380 cc e8 15 3e f0 0d e7 be 92 6e 39 3e 28 7b 46 3e
       0.14639586 -0.4512782 0.18108585 0.19382918
000390 55 14 46 3d 61 be 3e 3e 8a 3d 8d 3e 89 db 35 3e
       0.048359234 0.18627311 0.27586013 0.17759527
0003a0 5e ec bb be 27 f9 09 3c 45 5a 47 3e 93 7c 70 3e
       -0.3670377 0.008421219 0.19468029 0.23485021
0003b0 20 8f 1f bf 20 bc f0 3c 45 ee 7a be 62 01 8a be
       -0.62327766 0.02938658 -0.24504955 -0.2695418
0003c0 c2 c0 eb bb ff 9c ec 3d 89 d6 7f 3e 4d 62 6c be
       -0.0071946094 0.11553382 0.24984182 -0.23084374
0003d0 5e ae 05 3d 46 8d ef be 6a 7c a5 3e df 53 ae 3e
       0.032636993 -0.4678747 0.32321483 0.34048364
0003e0 e0 d2 06 3d 5e c8 72 3d 8b 43 f0 be f5 2b 90 be
       0.03291595 0.059273116 -0.4692653 -0.28158537
0003f0 2a 1c 24 3e e6 01 0d bf e7 24 a7 be bb 32 52 bd
       0.16026369 -0.5508102 -0.32645342 -0.05131791

linear1.bias f4 [64]
000000 da a6 2b be 1e 0d 95 bd 5a e2 3b 3f 73 bd 92 3e
       -0.16762868 -0.072778925 0.7339226 0.28660163
000010 48 f4 98 bd a7 a8 19 bd 8f f6 63 3e 7e 0e 9e be
       -0.07468468 -0.037514355 0.22262023 -0.30870432
000020 9b cb 5b 3f b7 9f 89 3e 05 be 25 3f 3a c7 e7 3e
       0.8585755 0.26879665 0.6474307 0.45269185
000030 19 73 d8 3d 16 24 2f 3f e8 86 21 be a4 37 2a 3d
       0.10568828 0.6841444 -0.15774119 0.04155697
000040 19 65 0a 3d 71 51 de 3d ad a3 c9 be f6 19 a1 be
       0.03378782 0.108553775 -0.39382687 -0.3146512
000050 71 25 02 3e 83 5d ce bc ba 38 d6 3e ad b9 6c 3d
       0.12709595 -0.025191074 0.41840154 0.05779426
000060 59 7c 62 be 87 be 5c 3d b6 70 2c be 07 2e 82 3e
       -0.22117747 0.05389264 -0.16839871 0.2542574
000070 96 ad cd 3c 0a f2 e2 3e 02 d5 04 3d dd 74 0b 3f
       0.025107186 0.44325286 0.032429703 0.54475194
000080 ef cb 94 3c 22 e3 db 3e 74 e4 41 be c2 5a 52 3f
       0.01816365 0.42946726 -0.18934804 0.82169735
000090 1d 91 3e 3f d3 7f b4 3c 64 48 74 3e 60 7a 2d bd
       0.74440175 0.022033608 0.2385574 -0.042353034
0000a0 9c 25 ed 3d c9 3e 4b be 9c d9 9c 3e 0c 3a 96 bb
       0.11579439 -0.1984817 0.30634773 -0.0045845564
0000b0 8a 46 41 3e dd e3 70 be a1 a5 c9 be 4d 0e 50 3f
       0.18874565 -0.23524423 -0.39384177 0.8127182
0000c0 13 ad 0b be 3c 9b 8e 3e 9c 4c c0 3e 8c d5 a1 be
       -0.13640241 0.2785281 0.37558448 -0.31608236
0000d0 c9 d2 2f be 43 ea 19 be be 2d b8 be 1e 11 96 3e
       -0.17170252 -0.1503077 -0.359724 0.29309934
0000e0 93 ab 09 3f 41 ff 40 be 81 1c 12 3f f6 c5 de 3e
       0.53777426 -0.18847372 0.57074744 0.43510407
0000f0 50 d5 d2 3c 24 fc 84 3e 3e e6 db bd a0 ed 2c 3f
       0.025736481 0.25973618 -0.107372746 0.67550087

linear2.weight f4 [64, 64]
000000 c7 82 64 bd 3c 0d a7 3d 3a 5e 86 3d ce df 17 3d
       -0.05578878 0.08156821 0.06560941 0.03707867
000010 57 19 f6 3c 6a 02 67 bd 46 c0 82 bd ba cf c6 bc
       0.03004138 -0.056398787 -0.063843295 -0.024268974
000020 52 63 60 3c e7 b7 b8 3d ae 01 22 3d 2c 27 a9 bd
       0.013695555 0.090194516 0.039552383 -0.082594246
000030 04 9d f3 bd 48 bd 0c be e8 b7 59 bd 26 61 96 3d
       -0.11895183 -0.1374408 -0.053153902 0.07342748
000040 6c 8a 30 bd 28 a0 c6 3c 4c bf d9 bd 86 b5 c6 bd
       -0.04310076 0.02424629 -0.1063219 -0.097025916
000050 55 d3 56 bd d5 2e 38 bc 97 b3 45 bd 9b 48 f4 bd
       -0.052447636 -0.011241634 -0.048266973 -0.11927911
000060 f0 f0 e3 3c fb e6 2e 3d 04 1d 93 3d 18 a3 d7 bc
       0.027824849 0.04270075 0.07183269 -0.026322886
000070 f4 f6 ea 3d 19 61 66 bc 14 28 5b 3d 62 09 3e bd
       0.11472884 -0.014061236 0.05350502 -0.046395667
000080 49 61 d1 bd 54 7f 9e 3d cb fa 06 be b3 63 11 be
       -0.10223634 0.0773913 -0.13181607 -0.14198188
000090 0a 86 cf bc e4 17 85 bd ad 51 ab 3d a5 6b 82 3d
       -0.02533247 -0.064986974 0.08365188 0.06368188
0000a0 af d4 7c 3d 95 45 ab bc 7f 18 69 bc 4e d6 b3 3c
       0.06172627 -0.020907203 -0.014227032 0.021952774
0000b0 74 72 02 3d 0f ce c3 3d e0 5c db 3d 8f 44 be 3d
       0.031847432 0.09560787 0.10711074 0.0929042
0000c0 0f fc f8 bd 5b e0 88 3b 03 c5 cc bd 3c ad c0 3d
       -0.12157451 0.004177136 -0.099985145 0.09408042
0000d0 55 73 eb bd f3 81 61 bd 4c fa 08 3d e7 50 a3 3d
       -0.11496607 -0.05505557 0.033441827 0.07974415
0000e0 b7 07 5e 3d 02 bd 35 3c 1d 17 98 3d e7 af 02 3d
       0.054206576 0.011092426 0.074262835 0.031906035
0000f0 40 11 45 3d 0d 52 fd bd 90 6d 1a 3c 55 ea c9 bc
       0.048112154 -0.123691656 0.009425536 -0.024647871
000100 47 53 46 3c ef ba 3d 3d a7 64 2d 3e 94 46 61 3e
       0.012104816 0.046320852 0.16932927 0.2199958
000110 ea 9f d4 3d 08 21 3b 3d 2f 5f 86 3d 42 b7 f0 bd
       0.10382064 0.045685798 0.065611236 -0.11753704
000120 a4 04 b3 3e 86 56 32 3e 6d 18 cc 3e 31 a7 0b 3e
       0.34964478 0.17415819 0.39862385 0.13637997
000130 64 68 4a bd fe 14 3c 3e 42 98 25 be 39 3b 16 3e
       -0.04941596 0.18367383 -0.16171363 0.14671029
000140 74 b3 0c bd 2d b0 51 3d 60 b4 d1 bc 34 f0 00 bd
       -0.034350827 0.051193405 -0.025598705 -0.031479076
000150 f3 6b 9e bd fe 4f e5 3d 1e 11 18 3e 17 98 84 be
       -0.077354334 0.11196898 0.1485028 -0.25897285
000160 20 d4 41 bc ff e7 83 bc e6 ae fe 3d 38 20 17 bd
       -0.01183036 -0.016101835 0.12435703 -0.03689596
000170 bc ca be 3d ef 2b 3e 3d 78 d8 2f 3e c6 54 18 bd
       0.09316012 0.046428617 0.1717242 -0.03719022
000180 96 da 9f 3d fc e4 16 3d 64 a2 ac 3c 3b 06 9d 3e
       0.07805364 0.03683947 0.021073528 0.30668816
000190 c6 59 a3 3d e1 47 88 3d 97 42 d4 ba 24 e9 dd bd
       0.07976107 0.06654335 -0.0016194162 -0.10835484
0001a0 37 0f fa bd 65 7c 9a 3d b2 9f 8d 3d 33 e1 d1 bb
       -0.12209933 0.075432576 0.06915225 -0.0064050197
0001b0 e0 4a c9 3b 7d c2 8d 3d 08 7c ca 3d 4a 26 9a 3e
       0.006142959 0.06921861 0.09886938 0.30107337
0001c0 f1 89 b0 bd ab 7a 1f 3e 74 e4 09 bd 2e d9 a1 be
       -0.0862006 0.15574138 -0.033665136 -0.31611007
0001d0 c4 80 c5 3d de 2c 1d be e8 2f ef bc 9b 0e 02 3d
       0.09643701 -0.15349147 -0.029197648 0.03175221
0001e0 70 28 4c 3e e9 1c c5 3d 2a 30 47 3d 9f a2 cc ba
       0.199373 0.09624655 0.048629917 -0.001561243
0001f0 20 db 0f bd 4a 87 92 3d 7e 7f e1 3d 9e 9a b7 3d
       -0.035121083 0.071547106 0.11010645 0.08965038
000200 e0 0d 09 3d 58 26 1a bd 20 05 71 3c b0 16 9a bd
       0.033460498 -0.037634224 0.014710695 -0.075238585
000210 10 c8 e9 bc ca 7d ea bd 72 45 e4 3d f0 93 d4 bc
       -0.02853778 -0.114497736 0.11146058 -0.025949448
000220 ee ff ba bd c0 4c 4c bc 6c de 13 bd c8 0c a8 3d
       -0.09130846 -0.0124694705 -0.03610079 0.08205563
000230 ca 74 da bd 84 1a e2 bd e4 e9 45 3d 00 67 4c bd
       -0.10666807 -0.11040214 0.04831876 -0.049902916
000240 40 98 3c 3b 38 43 5c bd 68 ec 7b 3d 88 95 1e bd
       0.0028777272 -0.053775042 0.06150475 -0.038716823
000250 ac fe ff 3d c8 e3 e0 3c 30 93 8f bd 94 c8 b7 bd
       0.12499747 0.027452365 -0.07010496 -0.08973804
000260 24 ff 96 3d c8 d8 f3 bd c6 0f e0 3d 66 e8 ef bd
       0.07372883 -0.11906582 0.109405085 -0.11714248
000270 38 ce 1c 3d 0c d3 15 3d 10 12 24 bc 60 57 cf 3b
       0.038282603 0.036578223 -0.010014072 0.0063275546
000280 78 2d a3 bc d0 a0 d2 3d 30 ba c9 3c 40 44 8e 3d
       -0.019919142 0.10284579 0.024624914 0.069466114
000290 a8 ea 15 3d 3e 7e ab 3d 1e b5 f6 bd 80 7a 23 bd
       0.03660074 0.08373688 -0.12046264 -0.039911747
0002a0 da d6 f9 3d c0 27 ad 3c b6 e4 91 3d 08 c4 a3 bd
       0.12199183 0.021137118 0.07123701 -0.07996374
0002b0 12 45 b5 bd d8 42 fc bd e4 5d 36 3d b0 ac f3 bd
       -0.08851065 -0.12317437 0.044523135 -0.11898172
0002c0 a4 c0 e0 3d 30 bf 15 3d c6 c7 80 bd bc 37 61 bd
       0.10974243 0.036559284 -0.06288104 -0.054984793
0002d0 b6 b2 9d 3d 54 80 2c bd a2 b9 c6 3d c0 ea f8 bc
       0.07700102 -0.04211457 0.097033754 -0.030385375
0002e0 64 e0 98 bd 70 4f 28 bd 14 8c 04 bd bc 6a f1 bd
       -0.07464674 -0.041091383 -0.03236015 -0.11787936
0002f0 bc 2f 1b bd 38 27 15 3d 02 23 c9 bd 20 ed 5b 3c
       -0.03788732 0.036414355 -0.0982113 0.013423234
000300 08 37 a9 3c 68 8b 68 bd 40 a6 f3 3b 48 84 da bc
       0.020656124 -0.056773573 0.00743559 -0.026674405
000310 20 1d 01 3d 86 83 f1 bd 80 f7 bb 3a 40 85 34 3d
       0.031521916 -0.11792664 0.0014340729 0.04407239
000320 c8 05 93 3c 54 dc 8d bd 38 78 99 3d f0 32 67 bc
       0.017947093 -0.0692679 0.07493633 -0.014111266
000330 a8 f7 cb 3d 30 3c 5c 3d b4 37 0a 3d 64 21 62 3d
       0.09959346 0.053768337 0.03374453 0.055207625
000340 ca 27 cb 3d 60 b4 72 bc 60 63 60 3d b0 cc 55 bd
       0.099196985 -0.014813513 0.05478227 -0.05219716
000350 20 34 7a 3d e2 24 c1 bd 08 50 b2 bc 10 7e 57 bd
       0.061084867 -0.09430863 -0.021766677 -0.052610457
000360 38 1b d8 bc e0 20 a2 3c 52 ff f6 bd 94 d5 c2 3d
       -0.026380166 0.019791067 -0.12060417 0.09513393
000370 58 33 e8 3c c6 8a e4 bd 30 21 2c bd 7e cf fe 3d
       0.028344795 -0.111592814 -0.042023838 0.1244192
000380 c8 d8 9b bd 72 de e6 3d 98 0a 03 3d 98 f3 a8 bd
       -0.07609707 0.11272897 0.031992525 -0.08249587
000390 84 5d ab bd d0 5a 37 bd e0 5f f4 bd 38 f9 9b bd
       -0.08367446 -0.04476434 -0.11932349 -0.07615894
0003a0 60 8f 90 3c 4c 5a aa 3d f8 3d f7 bc 72 ba 90 3d
       0.017646492 0.08318004 -0.030180916 0.070668116
0003b0 20 d7 e7 3b a0 49 f7 3c dc 63 e5 3d 22 9d 8d 3d
       0.0070752054 0.030186474 0.11200687 0.06914736
0003c0 e8 21 de 3c 56 d4 e0 bd 5c 6a b6 3d 04 c5 21 bd
       0.027115777 -0.10978 0.08907005 -0.03949453
0003d0 1a 26 b6 3d 60 74 c2 3d b0 15 bf bc f0 b6 a0 bc
       0.08893986 0.09494853 -0.023325771 -0.019618481
0003e0 70 0b c6 bd 20 dc f3 3b 16 0e e1 bd 70 75 c4 3c
       -0.0967015 0.0074420124 -0.10989015 0.02398178
0003f0 78 fd 0e bd b6 f3 a5 3d 50 05 a8 bc bc b2 9c bd
       -0.034909695 0.08103125 -0.020510346 -0.076512784

linear2.bias f4 [64]
000000 6e f9 11 3d ae 6d df 3d e0 c1 b1 bc 78 ba ea 3c
       0.035638265 0.109095916 -0.021698892 0.028653368
000010 83 52 77 3e 18 fb 0b bd c4 f3 8b bd 70 9a df bc
       0.2415257 -0.03417501 -0.06833604 -0.027295321
000020 86 3a b7 bd d7 08 5e 3d 37 12 68 bd 74 9b 9d 3d
       -0.08946709 0.05420765 -0.056657996 0.07695666
000030 ae 7b 85 be 6d 2d 1c 3e cd c1 af 3e df 25 53 3e
       -0.26070923 0.15251704 0.34327546 0.20619915
000040 69 2d 0e 3e b6 22 80 bd 76 41 3a bd 65 11 7f 3e
       0.1388451 -0.062566206 -0.045472585 0.24908979
000050 1a ef 80 3e 00 8f 2d 3c 07 e8 f3 bd 1a c0 1a 3e
       0.2518242 0.010593176 -0.1190949 0.15112343
000060 9b 60 9d 3d f0 78 b0 3d 96 29 f3 be f2 f0 74 3e
       0.07684442 0.08616817 -0.47492665 0.23920038
000070 f7 f1 e8 3d c4 11 15 3e 5f d4 f8 3d 5e 93 03 3e
       0.11374276 0.14557558 0.121498816 0.12849185
000080 6c d8 d5 bd 39 51 79 3e 82 9d 82 bd d4 a5 94 bd
       -0.1044167 0.2434739 -0.063776985 -0.07258192
000090 44 22 bb 3d d2 1f 9c 3e db 04 97 3e 67 7e 78 3d
       0.09137395 0.30493027 0.29495892 0.06066742
0000a0 d0 97 f3 bd 18 17 7c 3e 72 72 88 be f8 f7 89 3d
       -0.1189419 0.24618185 -0.26649815 0.067367494
0000b0 e4 d7 d1 bd 13 d9 49 3e 92 8d 77 3d a0 b5 95 3e
       -0.10246256 0.19711713 0.060437746 0.2924013
0000c0 a8 2f 35 3e 1c 0d da bd c9 cb 91 3d 7e 09 86 3e
       0.1769396 -0.10647032 0.07118947 0.26179117
0000d0 09 84 25 3e 14 db 79 3d 18 c7 3c 3d 94 05 7e 3d
       0.16163649 0.060999945 0.046088308 0.06201704
0000e0 c9 ce d6 3d b1 5e 6a bb 02 f4 da 3d 14 ed 85 3e
       0.1048866 -0.0035762007 0.10691072 0.2615744
0000f0 82 a2 74 3e 9d 80 55 3e 5c 4e 7c bd 63 6a 5d bd
       0.23890117 0.20849843 -0.061598167 -0.054056536

linear3.weight f4 [64, 64]
000000 e5 0c 57 bd a9 fe f0 3d 10 b1 3f bc d8 c1 ce 3c
       -0.05250253 0.117673226 -0.01169993 0.025238916
000010 50 4d 5f 3d 34 8d 9a bd 4d 7d 96 bc 40 5e e6 bb
       0.05451709 -0.075464636 -0.018370295 -0.0070302784
000020 60 78 92 3b b3 d0 34 3e d0 ca 61 bc 98 b3 c7 bc
       0.004469916 0.17657737 -0.013781264 -0.02437763
000030 d2 9c a5 bd ca e9 56 bd 5e c5 79 bc 87 7d 6e 3e
       -0.08086552 -0.052469052 -0.01524481 0.23290072
000040 0b 41 36 3e b6 3c af bd 47 92 cf bd 56 ea 0f 3e
       0.1779825 -0.085565016 -0.10135322 0.14054236
000050 c5 c4 97 3d d0 4a 22 3c df 9c cf 3d 7c 45 38 3d
       0.07410578 0.009905532 0.10137343 0.04498814
000060 d8 29 21 bd 4b 38 0f 3e 0e 49 17 be 9f 09 bd 3d
       -0.039346546 0.13986318 -0.14773962 0.09230351
000070 1e 32 2f 3e 9e 2d 32 3e bc 40 3a 3e f5 62 04 3e
       0.17108962 0.17400214 0.18188757 0.12928374
000080 56 64 c2 bd b9 4f c0 3d 30 b4 65 bd a0 b4 40 3d
       -0.09491794 0.09390206 -0.056080043 0.047047257
000090 a8 4b 44 3e cf 2f 23 bd c9 82 3e 3c a8 be 05 3b
       0.19169486 -0.039840516 0.011627861 0.002040783
0000a0 40 a0 a5 3b cc 43 35 3e 2a cf 82 be 66 ee 96 3d
       0.0050545037 0.17701644 -0.2554868 0.0736969
0000b0 5e 3d ba 3d b9 04 67 3d d6 74 03 3d 6a ca 46 3e
       0.09093736 0.05640099 0.032093845 0.19413152
0000c0 12 52 d5 3d 92 00 8a 3d 0e 7c 11 3e 72 9d 65 3e
       0.10416044 0.0673839 0.1420748 0.22423342
0000d0 59 c6 bd 3d d4 3f 14 bd c2 58 7d 3d 5c 9d 14 bd
       0.092663474 -0.036193684 0.061852224 -0.036282882
0000e0 35 6e 55 3d 4f 3d 2d bd b6 8e 8f 3d bb a9 dd 3d
       0.052107055 -0.042294797 0.07009642 0.10823389
0000f0 cd a5 18 3e 6e 80 c0 3d da dd ef 3d dc 92 9e 3d
       0.14906998 0.09399496 0.11712237 0.07742855
000100 d6 0f 99 3d 40 d9 b5 3d 3c 2d ac 3d 9a b3 8c 3d
       0.074737236 0.08879328 0.08407065 0.06870194
000110 fc 69 51 3d d8 9f a0 bd b6 35 ff 3d 30 17 b5 3c
       0.051126465 -0.07842988 0.124614164 0.022105783
000120 6c 09 d3 bd f6 81 e2 bd d6 ef 8b bd 84 c0 d5 3d
       -0.103045315 -0.11059944 -0.068328544 0.1043711
000130 78 79 c9 3c d6 5e 9e bd b2 28 da 3d b8 d9 7f bd
       0.024594054 -0.07732932 0.10652293 -0.062463492
000140 20 46 44 bd 28 75 32 bd 26 6b f8 bd 80 d1 74 3c
       -0.04791844 -0.04356876 -0.12129812 0.014942527
000150 6e da e4 bd d0 99 e7 3c 62 84 d7 bd 52 0c d7 bd
       -0.11174475 0.028271586 -0.10523297 -0.10500397
000160 4c e1 04 3d 20 57 5e 3d c6 3b da bd c8 b9 4c bd
       0.032441422 0.054282308 -0.10655932 -0.049981862
000170 28 2a 30 bd 80 bb f0 ba f2 3c 82 bd a0 22 f3 3d
       -0.043008953 -0.0018366426 -0.06359281 0.118718386
000180 0a 15 b9 3d 7a 9a c0 bd c0 6d d6 3d f0 b2 07 3c
       0.09037216 -0.09404464 0.10470152 0.008282408
000190 f0 13 80 bc 4e d3 b6 3d c4 d9 dc bd 68 c4 94 3d
       -0.015634507 0.08927022 -0.10783723 0.07264024
0001a0 a8 eb 60 bd d0 ed f1 bd 0a 5b c1 3d 6c 69 72 bd
       -0.05491224 -0.11812937 0.094411924 -0.05918257
0001b0 60 8b ee bc 62 6e fe 3d 5a 08 86 bd 18 4e d2 bd
       -0.029119194 0.124233976 -0.06544562 -0.102688015
0001c0 e0 6c f1 bc c0 b2 71 3b c8 d2 3a bd 88 81 9e bc
       -0.029470861 0.0036880225 -0.045611173 -0.019348875
0001d0 38 72 b2 3c 7c c6 58 bd ee f2 c1 bd c4 aa 78 bd
       0.02178298 -0.052923664 -0.09470163 -0.06070973
0001e0 7e 0c 8e bd 84 16 3c 3d d2 df ea 3d c0 1f e0 bc
       -0.069359764 0.04591991 0.114684716 -0.02735889
0001f0 f0 6c 58 3c 60 fa 82 3b ce 5c b0 3d fa 72 b6 3d
       0.0132095665 0.003997132 0.08611451 0.08908649
000200 2c 9b 2d 3d b6 eb 07 3d aa 0b be 3d e0 11 a7 bb
       0.04238431 0.033183776 0.092795685 -0.0050985664
000210 17 eb 22 bc b8 e0 b0 3c 16 10 f2 bd bc 6a 99 3d
       -0.009943745 0.02159153 -0.118194744 0.07491061
000220 f4 57 44 bd f4 a6 49 be ba fc 93 3d 32 3a e5 bd
       -0.04793544 -0.19692594 0.07225938 -0.111927405
000230 6b cb e7 3d e7 ff 35 3d 67 df 03 be 58 03 78 bd
       0.11318096 0.0444335 -0.1287819 -0.060550064
000240 de 52 dd 3c 98 e3 83 3c 68 9a d4 bc 5b d8 07 be
       0.027017053 0.016099736 -0.025952533 -0.13266127
000250 35 c8 5e bb 00 8f 44 ba f0 d7 cb bd 7f 06 b4 bd
       -0.0033993844 -0.00074981153 -0.09953296 -0.087903015
000260 4e a1 cc 3d fe 7d f6 bd f0 82 ef 3d c2 53 e0 bd
       0.09991704 -0.1203575 0.11694896 -0.109534755
000270 e5 ff 07 be 01 82 ed bd 56 94 8a 3d 14 30 77 bd
       -0.1328121 -0.11597062 0.06766574 -0.060348585
000280 54 d4 8a bd f2 a3 3e 3c e8 68 43 3d b0 25 a8 3d
       -0.067787796 0.011635767 0.04770747 0.08210313
000290 22 6c 14 bd f2 e8 f3 bd 33 9b b1 3d f4 30 68 bd
       -0.036235936 -0.11909665 0.0867218 -0.05668731
0002a0 8a b0 df 3d 25 a1 bc bd 6b 0d 4a bd ce 0f de bb
       0.10922344 -0.092104234 -0.049329203 -0.0067767864
0002b0 48 a1 ab 3c 1d 6e 9c bb 60 35 64 3c 34 4c 16 bb
       0.020950928 -0.0047738687 0.013928741 -0.0022933604
0002c0 cd e1 28 bd 38 fb 83 3d e0 c1 c0 bd 64 16 5b 3d
       -0.041230965 0.064444005 -0.09411979 0.05348815
0002d0 74 43 c0 bd d2 4b be 3d c3 87 4f be c0 19 d2 3c
       -0.09387866 0.09291805 -0.20266633 0.025647044
0002e0 12 4d 12 3d 80 af 87 3d 90 b1 3e bc 27 87 a1 bd
       0.03571803 0.06625271 -0.011639014 -0.078871064
0002f0 82 a1 a9 bc 34 cf 66 3d 6a 95 b0 3d c8 a8 92 bd
       -0.020706896 0.056349948 0.086222485 -0.07161099
000300 9f 61 d0 3d b2 ec f5 3c 74 90 0c bd c4 11 22 bd
       0.1017487 0.030020092 -0.03431745 -0.039567724
000310 88 68 71 3c d8 35 f4 3c ec 61 aa bd bc 07 16 bd
       0.014734395 0.029810831 -0.08319458 -0.03662847
000320 60 c4 b3 bb 87 1b 8d 3d 3b ab e8 bd a2 fa f1 bd
       -0.005486056 0.06890016 -0.113607846 -0.118153825
000330 bf 94 4c be 44 bd c7 3c c8 9e c2 3d 6f 17 87 3d
       -0.19978617 0.024382241 0.09502941 0.065962665
000340 e5 a3 8b 3d fa 08 e4 bd 12 ff 38 3d 00 c5 54 3e
       0.0681837 -0.11134525 0.04516513 0.20778275
000350 81 df a6 3d 10 e3 7d bd 20 22 dc bc 43 23 b6 3d
       0.08148099 -0.06198412 -0.02687174 0.088934444
000360 a7 72 df 3d 92 60 41 3c 48 e6 96 be 1e 30 37 3e
       0.1091054 0.011802809 -0.29472566 0.17889449
000370 1e 74 46 3d 24 67 95 3c 56 e3 b3 3d e7 50 22 3e
       0.04845058 0.018237658 0.08783595 0.15851174
000380 8c ef fb 3d 4b c6 d0 bc c4 ba 32 3d 1c 2e 2a bd
       0.12301549 -0.025485178 0.043635145 -0.04154788
000390 da 14 e3 bc dd 62 bd 3d c7 9c 35 3e bf 0c 60 3c
       -0.027719904 0.09247372 0.17735587 0.013674914
0003a0 1a c8 c3 bd 37 20 0e 3e 60 bc 7c be 5e dc 0d 3e
       -0.09559651 0.13879476 -0.24681234 0.13853595
0003b0 da 07 97 bd fb b9 97 ba 7a f5 c8 3c b5 24 6e 3d
       -0.073745444 -0.0011575812 0.024531115 0.058140475
0003c0 5a 6c dc 3d 60 ec 0b bd ec 48 1a 3e c8 ed 60 3e
       0.10762854 -0.03416097 0.1506688 0.21965706
0003d0 d5 d4 9b 3c 98 c4 1f bd 6d 07 3c bd e8 4a 80 3d
       0.019022385 -0.039005846 -0.04590552 0.06264287
0003e0 e8 54 bd 3d f6 f6 b9 bd 72 4b b3 bd 15 b3 ab 3c
       0.0924471 -0.09080307 -0.087546244 0.020959416
0003f0 28 ab 35 3e d4 84 c7 3d 98 f9 c0 bc 46 5f b4 bd
       0.17741072 0.09742132 -0.023556516 -0.088072345

linear3.bias f4 [64]
000000 49 09 ea 3d 9e 61 9f bd 58 1d 22 bc 54 5f b8 3d
       0.11427552 -0.07782291 -0.009894691 0.090025574
000010 af 86 de 3d 46 ba fa bd 0c 66 b0 3d 6b 0d 1e 3e
       0.108655326 -0.1224256 0.08613214 0.15434806
000020 ac 8b 6d 3e f4 14 10 bd 2a e5 3a 3e 3a 5f c7 bd
       0.23197812 -0.035176232 0.18251482 -0.0973496
000030 91 37 5a 3e 00 3c 36 3d 02 62 83 3d 15 e8 d1 3d
       0.2131026 0.044490814 0.06415178 0.10249344
000040 66 f5 81 bd a5 0b 00 3e 00 6a db 3d bf 25 e8 3d
       -0.06345634 0.12504442 0.10713577 0.113353245
000050 76 b9 db 3d d2 d0 20 bd b7 0b de bd 43 94 0b 3e
       0.10728733 -0.039261647 -0.10842078 0.13630776
000060 c4 a4 b1 3d ce 16 eb 3d 9a d4 ba 3e cd 49 b4 3e
       0.08674005 0.11478959 0.36490327 0.35212556
000070 bb ff 9a 3c c2 b7 20 3d 17 bc 11 3e 6a a8 df be
       0.01892077 0.039237745 0.14231907 -0.43683177
000080 8b 1c b3 be 4b e0 bd 3d 52 80 5e 3e 0e b4 c4 3d
       -0.34982714 0.09271296 0.21728638 0.09604655
000090 d7 46 ec 3c 8d ac c8 3d 91 cf a6 3d 83 e7 bf bd
       0.028842373 0.097985364 0.08145059 -0.09370329
0000a0 b0 8d 38 3d f4 92 7d 3d be 96 36 3e 69 c8 6e 3e
       0.045057 0.061907724 0.17830941 0.23318638
0000b0 6c d2 a3 bd d7 b6 4c 3d ab 2b 2e 3e 98 74 12 bd
       -0.07999119 0.049979057 0.17008846 -0.035755724
0000c0 de dd a1 3d d3 ec 71 bb 30 e3 36 3e 15 af a9 3d
       0.07903646 -0.003691484 0.17860103 0.08285347
0000d0 db 92 02 3e 75 c5 1d 3d 66 3d bd be 86 eb 4a 3e
       0.12751333 0.038518388 -0.36960906 0.19816408
0000e0 d6 ca 8d 3d 9f f3 6b 3e 48 cd 93 3c b1 b3 f1 3d
       0.069234535 0.23042153 0.018042222 0.118018515
0000f0 94 83 49 3d 07 58 9b 3d 8a a0 43 3e 99 64 44 3d
       0.04919775 0.07585149 0.1910421 0.0479475

linear4.weight f4 [1, 64]
000000 86 17 99 bd 0d 93 1d 3b 38 73 82 3d f9 05 a8 bd
       -0.0747519 0.0024043948 0.063696325 -0.08204264
000010 21 45 87 ba b7 c5 a3 bb 07 bc e8 ba 04 3f 94 bd
       -0.0010320285 -0.0049979347 -0.0017756232 -0.07238582
000020 52 28 cb bd 50 57 b7 3a 79 7a 9d bd 8c 6f f6 3b
       -0.099198 0.0013987813 -0.076893754 0.0075206216
000030 d9 04 16 be 28 41 34 bb e8 c5 d7 bd e4 8b 92 bd
       -0.14650287 -0.0027504656 -0.105357945 -0.07155588
000040 cd ec f2 3a 4b 66 be bd c2 c7 cf bd f6 a1 9f bd
       0.0018533707 -0.092968546 -0.10145523 -0.077945635
000050 37 f7 3c bb 6f 57 ea bb c0 99 33 b9 4c 7a da bd
       -0.0028833875 -0.007151536 -0.00017128047 -0.106678575
000060 44 3d b3 b9 f7 39 1b 3b b8 94 03 be 13 58 0e be
       -0.00034187187 0.0023685673 -0.128497 -0.13900785
000070 94 78 aa bd 97 c4 b5 bd 6f 2a a7 bd 67 1a 17 3e
       -0.0832378 -0.08875387 -0.081623904 0.14756165
000080 18 8b 4d 3e f4 02 b3 bd 97 75 b0 bd c9 b6 64 38
       0.20072591 -0.08740798 -0.086161785 5.4529668e-05
000090 30 f5 0c bc 13 48 c1 bd ad 18 b9 bd 2c 3c 05 3c
       -0.008603379 -0.09437575 -0.0903791 0.008132022
0000a0 e2 26 ab ba 94 d6 bd bd ab 76 95 bd 3d 06 f8 bd
       -0.0013057853 -0.09269443 -0.07298025 -0.12110565
0000b0 cd d3 3d 3b ed 93 c5 bd dc 6c aa bd 0e e0 bc 3a
       0.0028965354 -0.09647355 -0.083215445 0.0014410035
0000c0 f9 42 bd bd 7f 72 9a bd f5 75 b6 bd 29 35 cb bd
       -0.0924129 -0.0754137 -0.08909217 -0.09922249
0000d0 d0 e2 a9 bd 08 e5 a1 bd 20 76 fc 3d 4c ba b5 bd
       -0.08295214 -0.07905012 0.12327218 -0.08873424
0000e0 80 43 9c bd 9c 4b d7 bd de fd 22 bb 57 97 a2 bd
       -0.07630062 -0.10512468 -0.0024870555 -0.07939022
0000f0 0f 18 ed 3a a7 32 07 be e1 24 bc bd 4d 75 02 be
       0.0018088835 -0.13202916 -0.091867216 -0.12740059
