models/noCBF_2025-11-17 19:56:56/1/policy.pth (torch, 55714 bytes, 12 tensors)

linear1.weight f4 [64, 3]
0	0x3e46cae3	0.19413333
1	0xbea63e08	-0.324692
2	0x3efc6ee1	0.49303344
3	0x3d2b02fd	0.041750897
4	0xbe04dca2	-0.1297479
5	0xbcd6bf9c	-0.026214413
6	0xbed09b9a	-0.40743715
7	0xbe9b292a	-0.30304843
8	0xbdef4d67	-0.11684685
9	0xbe2d2d56	-0.16911826
10	0x3e0c09ea	0.13675657
11	0xbe487456	-0.19575629
12	0xbec69bcd	-0.38790742
13	0x3e3d2983	0.18472867
14	0x3f0a91c0	0.54128647
15	0xbdf3c0d0	-0.119020104
16	0x3de7db53	0.1132113
17	0x3e253001	0.16131593
18	0x3f0a3b1e	0.53996456
19	0xbe0a5a13	-0.13510923
20	0xbe75c0f0	-0.23999381
21	0x3ece1657	0.4025142
22	0xbca87ac9	-0.020566361
23	0x3f02bff4	0.5107415
24	0x3f0ba0b3	0.5454208
25	0xbefd9539	-0.4952791
26	0x3e14f7bd	0.1454763
27	0x3f0813fe	0.53155506
28	0xbeb49749	-0.3527167
29	0xbe8c81c0	-0.2744274
30	0xbf13038a	-0.57427275
31	0xbe8a32a3	-0.26991758
32	0x3e77925e	0.24176928
33	0xbed8ada9	-0.42319992
34	0xbedc0e9c	-0.42979896
35	0x3eb3c74c	0.3511299
36	0x3e71a24f	0.23597072
37	0x3f0cf5ad	0.5506237
38	0x3e9f862a	0.31157047
39	0x3f0f0b4a	0.558766
40	0x3eefe2c9	0.4685271
41	0x3ec0bd98	0.3764465
42	0xbefb68cf	-0.491034
43	0x3f0c1123	0.5471365
44	0x3df358e5	0.1188219
45	0x3e876cf3	0.2645031
46	0x3e422837	0.18960653
47	0x3ec578a7	0.38568613
48	0xbd6eae09	-0.05827144
49	0x3ecdbb45	0.40181938
50	0xbd027f36	-0.0318596
51	0x3dd260dd	0.102723815
52	0xbea3614e	-0.31910175
53	0xbf0bbbb2	-0.54583275
54	0xbbb50649	-0.005524431
55	0x3e7294e6	0.23689613
56	0x3ee44e05	0.44590774
57	0xbdd0665a	-0.10175772
58	0xbe847589	-0.25870922
59	0xbeaf866c	-0.34282243
60	0xbef95116	-0.48694676
61	0x3ec9862c	0.39360178
62	0xbe600ab0	-0.21879077
63	0x3eb985ca	0.36234885
64	0x3f017429	0.5056787
65	0xbef8f0f1	-0.48621324
66	0x3eb51158	0.35364795
67	0xbe6ed9a3	-0.2332521
68	0x3ea19436	0.31558388
69	0x3eca9d62	0.395732
70	0xbea50a3b	-0.32234368
71	0xbec81ada	-0.39082986
72	0xbf07ebd1	-0.530942
73	0xbda103d2	-0.07862057
74	0xbe48c3e2	-0.19605973
75	0x3e4d45aa	0.20046106
76	0xbda0a49f	-0.07843899
77	0xbec712bc	-0.3888148
78	0x3ecdf23d	0.40223876
79	0x3edfa6a0	0.43681812
80	0x3e4f9217	0.20270573
81	0x3e947b53	0.2900034
82	0x3e5331ad	0.20624419
83	0xbed19c42	-0.40939528
84	0xbd8a9cb2	-0.067681685
85	0x3ee74ca6	0.45175666
86	0x3ed15106	0.40882128
87	0x3c061c15	0.008185406
88	0xbe120c68	-0.14262545
89	0x3e4d74b3	0.20064048
90	0xbdb184c0	-0.08667898
91	0xbe524398	-0.20533597
92	0xbd9f988f	-0.0779277
93	0x3f0717e5	0.52770835
94	0xbb05f1fd	-0.0020438426
95	0xbddd78bc	-0.10814044
96	0xbe45ac9e	-0.1930413
97	0x3eeff6a0	0.46867847
98	0x3d3a5c7c	0.045498356
99	0x3ee91b27	0.45528528
100	0x3efb0e43	0.49034318
101	0x3d76ce3b	0.06025527
102	0xbed71af3	-0.42012748
103	0xbebf2ab9	-0.37337282
104	0xbf0434cb	-0.51643056
105	0xbf048eeb	-0.51780576
106	0xbef0b10d	-0.4701008
107	0xbe283438	-0.1642617
108	0x3f0c121a	0.5471512
109	0x3d8f2761	0.06989933
110	0xbdf90278	-0.12158674
111	0x3ec9decc	0.39427793
112	0x3e8ab082	0.2708779
113	0x3e84dd46	0.25950068
114	0x3f0d0284	0.55081964
115	0xbec85b2a	-0.39132053
116	0x3f109a66	0.56485593
117	0xbe18c5ab	-0.14919154
118	0xbed4a54b	-0.4153236
119	0xbe5ede66	-0.21764526
120	0xbeb4335a	-0.35195428
121	0xbe093e49	-0.13402666
122	0xbf0e69b9	-0.5563007
123	0x3ed20a77	0.4102361
124	0x3e13254c	0.14369696
125	0x3ea50fb9	0.32238558
126	0x3e4c9fa3	0.19982772
127	0x3ecc3c00	0.39889526
128	0xbd24529b	-0.04011784
129	0xbe56f2bd	-0.20991035
130	0xbf068205	-0.52542144
131	0xbf0c658b	-0.5484244
132	0xbf108854	-0.5645802
133	0x3e07e470	0.13270736
134	0x3e0e7900	0.13913345
135	0x3e9814de	0.2970342
136	0xbd7df508	-0.062001258
137	0xbe1f87e6	-0.15579185
138	0xbdd82645	-0.10554174
139	0xbe2e9bf9	-0.17051686
140	0x3ed58532	0.41703182
141	0x3e66df50	0.22546124
142	0xbf121eb3	-0.57078093
143	0x3e8458a9	0.25848892
144	0x3f0be1c6	0.5464138
145	0x3e16b43c	0.14717191
146	0x3d11dae4	0.03560914
147	0xbda1f27a	-0.07907577
148	0x3ded539d	0.115882136
149	0xbe566563	-0.20937113
150	0xbeac80af	-0.33691928
151	0xbd26ed1c	-0.04075347
152	0xbdc52139	-0.09625477
153	0x3e5a0efe	0.21294782
154	0xbf119234	-0.56863713
155	0xbe9fe661	-0.31230453
156	0xbf014b42	-0.5050546
157	0x3deec57d	0.11658762
158	0xbed09f59	-0.40746573
159	0xbe798755	-0.24368031
160	0x3f0e6c74	0.55634236
161	0xbdf86c37	-0.12130015
162	0xbeb08d58	-0.34482837
163	0x3d8afd6d	0.067866184
164	0xbd553774	-0.052054837
165	0x3e7e08eb	0.2480809
166	0xbeb7dc42	-0.3591023
167	0xbeb930b7	-0.3616998
168	0xbe8af0df	-0.27136895
169	0x3efcfd57	0.49412033
170	0xbea1774d	-0.31536332
171	0x3ef54997	0.47907707
172	0xbeb306c2	-0.34966093
173	0x3ea31048	0.3184836
174	0xbe9b997b	-0.30390534
175	0x3ebff35d	0.3749036
176	0xbd468ec5	-0.048476
177	0x3dd7a373	0.10529222
178	0xbe1a9e14	-0.15099365
179	0xbc875f9c	-0.016525082
180	0x3ea8f352	0.3299814
181	0x3f101d47	0.56294674
182	0xbe442aaa	-0.191569
183	0x3ecb4106	0.39698046
184	0x3d07ee33	0.03318615
185	0xbf067054	-0.5251515
186	0xbe97b452	-0.2962976
187	0x3eda38a8	0.4262135
188	0xbea7a6f0	-0.3274455
189	0xbe7e5b0d	-0.2483942
190	0xbed888eb	-0.4229196
191	0x3efaeb1b	0.49007496

linear1.bias f4 [64]
0	0xbe0fae6a	-0.14031377
1	0x3f0c0886	0.54700506
2	0xbec66a5d	-0.38753024
3	0xbf1078a1	-0.56434065
4	0x3f02a411	0.51031595
5	0xbd565e4c	-0.052336022
6	0xbdb5f57c	-0.08884713
7	0x3e698114	0.22803146
8	0xbdce2426	-0.100654885
9	0xbed43076	-0.41443223
10	0xbe061dcd	-0.13097306
11	0x3d67294e	0.056435876
12	0x3ea31a6f	0.31856105
13	0xbe91a03e	-0.28442568
14	0xbf044613	-0.51669425
15	0x3ecf7781	0.40520862
16	0x3e082baf	0.13297914
17	0xbef5eb94	-0.48031294
18	0xbf01fdf2	-0.50778115
19	0x3e029874	0.12753469
20	0x3eccb16c	0.39979112
21	0xbe5e2922	-0.21695378
22	0xbde888ce	-0.113542184
23	0x3eb8bde0	0.36082363
24	0x3e051c41	0.1299906
25	0x3edbef35	0.42955938
26	0xbf02ddf1	-0.51119906
27	0x3eba49e4	0.363845
28	0x3e684fe2	0.22686723
29	0x3e777289	0.24164785
30	0xbd308d7f	-0.04310369
31	0x3ecd252b	0.4006742
32	0x3e4c4553	0.1994832
33	0xbdd9bbc0	-0.106315136
34	0xbf0e2f4f	-0.5554094
35	0x3efa1c4c	0.48849714
36	0xbe5f5d18	-0.21812856
37	0x3e09b30d	0.13447209
38	0x3e82140e	0.25405926
39	0x3f0a4731	0.5401488
40	0xbd0b3e43	-0.033994924
41	0xbe9d06d7	-0.3066928
42	0xbf00f57c	-0.5037458
43	0xbefd0561	-0.49418166
44	0xbad879b8	-0.0016515767
45	0xbee1a04e	-0.44067615
46	0x3d104c09	0.035228763
47	0x3e5055ae	0.20345184
48	0x3eea131e	0.4571771
49	0x3e00ed1d	0.12590452
50	0xbe80e9ac	-0.25178277
51	0xbebaecc1	-0.36508754
52	0xbe82b23d	-0.2552661
53	0xbee5059f	-0.4473085
54	0x3f0139e9	0.5047899
55	0x3e9823c2	0.2971478
56	0x3eb8f9f8	0.3612821
57	0xbec95935	-0.39325872
58	0xbe7e9a81	-0.24863626
59	0x3f2101af	0.62893194
60	0x3ee6b2f6	0.4505841
61	0x3dcb7a05	0.09935383
62	0xbee77eb6	-0.4521386
63	0xbecbb85b	-0.3978909

linear2.weight f4 [64, 64]
0	0xbdece69a	-0.11567421
1	0x3da1b4aa	0.07895787
2	0xbd7ce038	-0.06173727
3	0x3df01bfc	0.117240876
4	0x3d042b48	0.03226784
5	0xbdbef976	-0.09324925
6	0xbd16df04	-0.036833778
7	0xbd61c394	-0.05511816
8	0x3d6bb488	0.057545215
9	0x3dcb8192	0.09936823
10	0xbc1b4f70	-0.009479389
11	0x3d4b33fc	0.049610123
12	0xbdf40f70	-0.11917007
13	0xbd9d2ed6	-0.07674949
14	0x3dde77d0	0.10862696
15	0x3dfa0a22	0.12208964
16	0xbcac2e00	-0.021018028
17	0x3d573e18	0.05254945
18	0xb9b72a00	-0.00034935772
19	0xbde6f012	-0.112762585
20	0xbc8498e8	-0.016186193
21	0x3da22a00	0.07918167
22	0xbd964732	-0.07337798
23	0xbd235e38	-0.039884776
24	0xbde100ce	-0.109864816
25	0xbd224cd8	-0.039624065
26	0x3d8a6e50	0.06759322
27	0xbdd3e5f6	-0.10346596
28	0xbd93da32	-0.07219352
29	0xbd215660	-0.039389014
30	0x3de6ff36	0.112791464
31	0x3de59430	0.11209905
32	0xbdbed43a	-0.09317823
33	0xbdbe23a4	-0.09284142
34	0xbd35d534	-0.04439278
35	0xbce0a428	-0.027422026
36	0xbd84fada	-0.06493159
37	0x3c4bdd40	0.012442887
38	0x3d4fb01c	0.05070506
39	0xbd9863d8	-0.07440919
40	0x3dfd80c6	0.12378077
41	0x3c9db240	0.019250035
42	0xbde849ce	-0.11342202
43	0x3ca65cd0	0.020307928
44	0x3cd35ab0	0.02580008
45	0x3d94ec12	0.07271589
46	0xbddb3614	-0.10703674
47	0xbda2633a	-0.07929082
48	0x3d18a810	0.037269652
49	0xbdc092da	-0.0940301
50	0x393b6c00	0.00017873943
51	0xbdcc39f8	-0.09971994
52	0x3d5868ec	0.052834436
53	0xbd8f614a	-0.07000978
54	0xbddf5736	-0.10905306
55	0xbd46fcbc	-0.04858087
56	0xbdc5f746	-0.09666304
57	0xbccdd970	-0.025128096
58	0xb994c400	-0.0002837479
59	0xbbb0a9c0	-0.0053913295
60	0xbd0e37b4	-0.03472109
61	0x3cc04d98	0.0234745
62	0x3d5ec9d4	0.054391697
63	0x3ccd2230	0.025040716
64	0xbdf5ef1e	-0.120084986
65	0x3d8aca0b	0.06776818
66	0x3dc3b209	0.09555442
67	0xbd0516b4	-0.032492355
68	0xbcc2d891	-0.023784908
69	0x3d6cbbcb	0.05779628
70	0x3df0ea5e	0.11763452
71	0xbd4c6104	-0.04989721
72	0x3d452d12	0.048138686
73	0xbc9a5c48	-0.018842831
74	0x3d6b0d19	0.057385538
75	0x3d9ee6bc	0.07758853
76	0x3d91522a	0.0709575
77	0x3d8f5df4	0.07000342
78	0xbd5e00ca	-0.05419997
79	0xbd77eb6c	-0.06052725
80	0xbda95432	-0.08268012
81	0xbdeb9c75	-0.11504451
82	0x3dd8ae04	0.10580066
83	0xbd6a7539	-0.0572407
84	0x3e0171d8	0.12641084
85	0x3db8110a	0.08987625
86	0xbd958dcb	-0.073024355
87	0xbdfa7be7	-0.12230664
88	0xbdad0c55	-0.08449618
89	0xbdb76508	-0.08954817
90	0xbd36b66c	-0.044607565
91	0x3dfdc5fc	0.12391278
92	0xbd8dfb84	-0.069327384
93	0xbdb4694b	-0.088091455
94	0x3d7968d6	0.060890995
95	0xbcde7180	-0.02715373
96	0x3dddee86	0.1083651
97	0x3c895d40	0.016768098
98	0x3dec2f21	0.115324266
99	0xbd728ddb	-0.059217315
100	0xbdfabbbc	-0.12242839
101	0xbdb1b44c	-0.08676967
102	0xbde9a9f0	-0.11409366
103	0xbd6e49f1	-0.058175985
104	0x3c55a39a	0.013039494
105	0x3d2a9d3c	0.041653857
106	0xbdc5bd50	-0.09655249
107	0x3c3b90c1	0.011448086
108	0xbc85f837	-0.01635371
109	0x3da7b004	0.08187869
110	0xbdb4c5e5	-0.08826808
111	0x3d5587b9	0.05213139
112	0x3da1d488	0.07901865
113	0xbd9b922a	-0.07596238
114	0x3dca1f7b	0.09869286
115	0x3d9b8499	0.0759365
116	0x3d00f8dc	0.03148733
117	0x3ddbedc6	0.10738711
118	0x3d80401e	0.062622294
119	0xbc8ed2fb	-0.017434588
120	0x3d0455c4	0.032308355
121	0x3da2a772	0.07942094
122	0xbd99bf2b	-0.075071655
123	0xbdf8b73d	-0.12144325
124	0x3d84f6c4	0.06492379
125	0xbb057640	-0.0020364672
126	0x3db2fae4	0.0873926
127	0xbd3a0b80	-0.045421124
128	0x3d31780c	0.043327376
129	0xbabaf29a	-0.0014262975
130	0x3c8593a5	0.016305754
131	0xbdddbf3a	-0.10827489
132	0xbc655908	-0.0139982775
133	0x3b4425a5	0.0029929664
134	0x3db27664	0.087139875
135	0x3d92696c	0.07149014
136	0xbdbf281e	-0.093338236
137	0xbd5e3008	-0.054245025
138	0x3d8ad092	0.06778063
139	0x3cbe0436	0.023195367
140	0x3d1e4f07	0.038649585
141	0x3bf37ed4	0.0074308906
142	0xbb2bae6f	-0.00261965
143	0xbdf09045	-0.11746267
144	0xbdc26af8	-0.09493059
145	0x3bbb89e0	0.005723223
146	0x3ce5d6b9	0.02805649
147	0xbc3539a6	-0.011061108
148	0x3deff33c	0.11716315
149	0xbd5d9328	-0.054095417
150	0xbd843223	-0.06454875
151	0xbabfcc80	-0.0014633089
152	0x3da7d8f9	0.08195681
153	0xbcf27640	-0.029597402
154	0xbdf95174	-0.12173739
155	0xbd5f78bc	-0.0545585
156	0xbddbef7f	-0.1073904
157	0xbdbf89b2	-0.09352435
158	0xbcb2f4dd	-0.021845276
159	0x3d376d00	0.044781685
160	0xbcee4ec8	-0.0290903
161	0xbc9f5e88	-0.019454256
162	0xbde254e1	-0.110513456
163	0x3d238c26	0.039928578
164	0xbda309b6	-0.079608366
165	0xbce4b92a	-0.027920324
166	0x3ddb3c67	0.1070488
167	0xbd7a912c	-0.061173603
168	0x3d492f8c	0.04911761
169	0x3cb0c5ce	0.021578696
170	0x3cc19380	0.023629904
171	0xbd0b4842	-0.034004457
172	0xbd770c07	-0.060314205
173	0x3d894776	0.06703083
174	0xbda0edc1	-0.07857848
175	0x3ce14eb4	0.027503349
176	0xbd8616c0	-0.06547308
177	0xbd929174	-0.07156649
178	0xbdf437f9	-0.119247384
179	0x3c16b684	0.009198789
180	0x39801600	0.00024430454
181	0xbdf93a48	-0.121693194
182	0xbde5a147	-0.11212402
183	0xbdc9a9e4	-0.09846857
184	0x3c4bbb50	0.0124347955
185	0x3cdeb1e1	0.027184429
186	0xbdc65934	-0.09684983
187	0x3d71e46b	0.059055727
188	0xbd949b0a	-0.07256134
189	0xbde124c6	-0.10993342
190	0xbd1fb090	-0.038986742
191	0xbd93eba1	-0.07222677
192	0xbdbd0092	-0.092286244
193	0x3de1e7c0	0.11030531
194	0x3d70cdbb	0.05878995
195	0xbd543d5c	-0.05181633
196	0x3d11f4b8	0.035633773
197	0xbda92f23	-0.08260944
198	0xbc977138	-0.018486604
199	0xbd3e3a14	-0.046442106
200	0x3ca232e5	0.019799659
201	0xbda7e99c	-0.08198854
202	0x3de94f82	0.11392118
203	0x3d9ac990	0.07557976
204	0xbae9a5f1	-0.0017825944
205	0xbe05b046	-0.13055524
206	0xbddcd9a8	-0.10783702
207	0x3d35b4de	0.04436194
208	0x3de94af0	0.11391246
209	0x3d3b2729	0.045691643
210	0xbca8bf2e	-0.020598974
211	0x3c15260d	0.00910331
212	0xbd72b9e3	-0.059259307
213	0x3dd32898	0.10310477
214	0xbde5c9ea	-0.11220153
215	0xbc8a9bde	-0.016920026
216	0x3d863c56	0.06554477
217	0xbde5b352	-0.11215843
218	0xbe18747e	-0.14888188
219	0xbd9fadc6	-0.077968165
220	0x3cd6bac7	0.02621211
221	0x3d8010b7	0.06253188
222	0x3dcc723c	0.09982726
223	0x3d90a0b4	0.07061902
224	0x3da0bdc2	0.078486934
225	0x3d1367b8	0.035987586
226	0xbd5ff196	-0.054673754
227	0xbd73478c	-0.059394404
228	0x3de9d9d8	0.114185035
229	0xbcd39ebf	-0.025832532
230	0xbd67b137	-0.05656549
231	0x3dbc5834	0.09196511
232	0xbac1af72	-0.0014777018
233	0xbccabe66	-0.024748992
234	0xbd977798	-0.073958576
235	0x3db1f6ea	0.08689673
236	0xbd9e56a9	-0.07731373
237	0xbd89a666	-0.06721191
238	0xbd1fb3dc	-0.038989887
239	0x3dd70f85	0.10501007
240	0x3d76304a	0.060104646
241	0xbc12e250	-0.00896509
242	0x3d72cdfa	0.059278466
243	0xbd9c9272	-0.0764512
244	0x3d45b1e5	0.048265357
245	0xbdd352f0	-0.103185534
246	0x3c92c967	0.017918302
247	0xbdf06c7f	-0.11739444
248	0xbdfa2922	-0.12214877
249	0xbaeb7275	-0.0017963188
250	0xba4863c0	-0.00076442584
251	0xbd44ec9e	-0.04807722
252	0x3df3d884	0.119065315
253	0x3d9e1a2c	0.07719836
254	0xbba9d540	-0.005182892
255	0x3dfd2c20	0.12361932

linear2.bias f4 [64]
0	0xbd4ce348	-0.05002144
1	0x3db30c00	0.08742523
2	0x3cd07d1e	0.025450286
3	0x3d8ca752	0.06867851
4	0x3ca0c25b	0.019623926
5	0x3dcc15b3	0.09965076
6	0x3d92f85e	0.071762785
7	0x3bd43200	0.006475687
8	0xbd71b8e8	-0.05901423
9	0x3dd8276a	0.10554393
10	0xbde5de0a	-0.11223991
11	0x3c0ab4b4	0.008465935
12	0x3dca0ef7	0.098661356
13	0xbd8db33e	-0.06918953
14	0x3daf8544	0.0857034
15	0x3d95eaa5	0.073201455
16	0x3d7669c5	0.060159463
17	0xbdb97fa6	-0.0905755
18	0x3df5e7c5	0.12007097
19	0x3dc33fd1	0.095336564
20	0xbd12b84a	-0.035820283
21	0x3d6021a6	0.05471959
22	0xbdf4dec0	-0.11956549
23	0x3e11100e	0.1416628
24	0x3d3499f2	0.044092126
25	0xbd40e726	-0.04709544
26	0x3de94a19	0.11391086
27	0xbd162a60	-0.036661506
28	0x3dd1e18d	0.102480985
29	0xbdd2b289	-0.10287959
30	0xbc00e311	-0.007866637
31	0x3d7b9ea2	0.06143058
32	0x3d7ff7d9	0.062492225
33	0x3db1953a	0.08671041
34	0x3d3d9d68	0.046292692
35	0xbb7639c4	-0.0037571052
36	0x3d001268	0.031267554
37	0xbc812e5b	-0.015769174
38	0x3c353046	0.011058873
39	0xbdcc8ed6	-0.09988181
40	0xbd2b4434	-0.04181309
41	0x3d1881f1	0.037233297
42	0x3d2bbd88	0.041928798
43	0x3ce9223b	0.028458705
44	0x3d5004f1	0.050785962
45	0x3c91dd60	0.017805755
46	0xbdebba46	-0.11510138
47	0xbd28bc5e	-0.041195266
48	0xbbc468e4	-0.0059939492
49	0x3b121201	0.0022288563
50	0x3db033a6	0.08603601
51	0x3d7a3330	0.061083972
52	0x3e23d0db	0.15997641
53	0x3df4778a	0.11936863
54	0x3d6192bd	0.05507158
55	0x3d81caba	0.06337495
56	0xbdc23eb4	-0.09484616
57	0xbcb556c8	-0.022136107
58	0x3d806372	0.06268968
59	0xbd4e1717	-0.05031499
60	0x3d935cc7	0.0719543
61	0x3e257e98	0.16161573
62	0x3d71f049	0.059067044
63	0x3ce2f408	0.027704254

linear3.weight f4 [64, 64]
0	0xbccda768	-0.02510424
1	0x3ace6048	0.0015745247
2	0xbda65a35	-0.081226744
3	0x3d8419f7	0.06450265
4	0x3d15d1f7	0.03657719
5	0x3d412897	0.04715785
6	0xbda1c3d3	-0.07898679
7	0xbc757e00	-0.014983654
8	0x3d949d2c	0.07256541
9	0xbdfe598c	-0.124194235
10	0xbd9b248a	-0.07575329
11	0x3dc9e897	0.09858816
12	0x3ddf2770	0.10896194
13	0xbdf67191	-0.1203338
14	0xbdb349bb	-0.08754297
15	0xbde96636	-0.11396448
16	0x3dab6d7d	0.083704926
17	0xbda8b0b0	-0.082368255
18	0xbc84de48	-0.016219273
19	0xbcda260d	-0.026629472
20	0x3d2152d3	0.039385628
21	0x3de8430f	0.113409154
22	0x3ccbc9e2	0.024876539
23	0x3d611b9e	0.05495798
24	0x3d56eb02	0.052470215
25	0x3dec5b2e	0.11540829
26	0xbd0a9add	-0.033839095
27	0x3dd95062	0.10611035
28	0xbc53882c	-0.012910884
29	0xbd610b92	-0.054942675
30	0x3a0a2efe	0.00052712846
31	0x3dc95a27	0.09831648
32	0xba6693a6	-0.0008795805
33	0xbde1c0cf	-0.110231034
34	0xbadd1200	-0.0016866326
35	0xbe07b33b	-0.13251965
36	0xbda87fa6	-0.08227472
37	0x3de2acaf	0.11068093
38	0x3e01f9d4	0.12692958
39	0xbddc33c0	-0.10752058
40	0xbd7cea78	-0.061747044
41	0x3dc1f9b1	0.09471453
42	0x3da02398	0.07819289
43	0x3dea07c1	0.1142726
44	0xbde7bd63	-0.113154195
45	0xbc47936c	-0.012181144
46	0xbd89985a	-0.06718512
47	0x3de9350d	0.11387072
48	0x3bc2c934	0.0059443954
49	0x3c11c501	0.008897067
50	0x3d7616bc	0.060080275
51	0x3df10892	0.11769213
52	0x3b117f78	0.0022201221
53	0xbcee1cc1	-0.029066445
54	0x3d8eec73	0.06978693
55	0xbd95eab8	-0.0732016
56	0xbde05876	-0.109543726
57	0xba897f00	-0.001049012
58	0x3d8cbff6	0.06872551
59	0x3e079437	0.13240133
60	0xbd2f7e49	-0.042845044
61	0x3dbba26b	0.09161838
62	0x3da421af	0.08014237
63	0x3dea4500	0.11438942
64	0xbd8fa6aa	-0.070142105
65	0x3d20b6cd	0.039236832
66	0x3d9fb3fa	0.07798
67	0xbddd2439	-0.107979245
68	0xbd7296b0	-0.059225738
69	0xbdb88308	-0.09009367
70	0x3c60bfbe	0.01371759
71	0x3d0d0a1c	0.03443347
72	0x3cdd6460	0.027025402
73	0x3dd01402	0.10160066
74	0xbc47cce0	-0.012194842
75	0x3df58804	0.119888335
76	0xbb831b5e	-0.004001065
77	0x3c4ba650	0.012429789
78	0x3e09ab3d	0.13444228
79	0xbda0a7eb	-0.07844528
80	0xbdebeccf	-0.11519777
81	0xbcfb0370	-0.030641288
82	0xbcc47ab0	-0.023984283
83	0xbd704af2	-0.058665223
84	0xbc698bfb	-0.014254565
85	0x3d36f4e5	0.044667143
86	0xbd1956dc	-0.03743635
87	0x3d971b1b	0.07378217
88	0x3d50c350	0.050967515
89	0x3dab953d	0.08378074
90	0xbd12c46b	-0.03583185
91	0xbdbe9982	-0.09306623
92	0x3dd785e9	0.10523588
93	0xbd567adc	-0.05236326
94	0xbd418a4c	-0.04725103
95	0x3d9d6046	0.07684378
96	0x3be438b8	0.006964769
97	0xbd1b41df	-0.037904616
98	0xbdaeebe2	-0.08541085
99	0x39f31e00	0.00046370924
100	0x3db427b6	0.08796637
101	0xbd079075	-0.03309675
102	0xbd6b0d17	-0.05738553
103	0x3ded25a2	0.115794435
104	0xbb0b9340	-0.0021297485
105	0x3c9e4195	0.019318381
106	0x3b9d6c40	0.004804164
107	0x3d5d9622	0.054098256
108	0xbd55ac98	-0.05216655
109	0x3c1cb997	0.009565732
110	0x3d3d5e58	0.04623255
111	0x3d01de17	0.031705942
112	0x3d875740	0.066084385
113	0xbd804179	-0.06262488
114	0x3df839d4	0.12120405
115	0xbd9be990	-0.07612908
116	0x3d2f20d8	0.04275593
117	0xbd6995d9	-0.05702767
118	0xbdd0284a	-0.101639345
119	0x3d42f0d4	0.047592953
120	0x3df44294	0.11926761
121	0x3da5a1d6	0.080875084
122	0xbcc06688	-0.02348639
123	0xbd481b82	-0.04885436
124	0x3d1e1db0	0.03860253
125	0xbdf56a41	-0.11983157
126	0xbdc16ee5	-0.094449796
127	0xbcea4548	-0.028597489
128	0x3d31052c	0.043217823
129	0x3df67301	0.12033654
130	0xbdc179dc	-0.09447071
131	0x3d9cc6b4	0.07655087
132	0xbd98d9c9	-0.07463414
133	0xbd4908b7	-0.049080577
134	0x3d6f8eb0	0.058485687
135	0xbc2cfac0	-0.01055783
136	0x3db520e8	0.08844167
137	0xbc861a38	-0.016369924
138	0xbdc62f00	-0.09676933
139	0xbd229841	-0.039695982
140	0xbb8c21ae	-0.004276476
141	0x3daec391	0.08533395
142	0x3db38595	0.08765713
143	0x3d39c801	0.045356754
144	0x3dacd9be	0.084399685
145	0x3aa4a300	0.0012560785
146	0x3c1db2ac	0.009625118
147	0x3d34848c	0.04407172
148	0xbbec1c7e	-0.007205545
149	0xbdd75cd2	-0.10515751
150	0x3d96f3a7	0.07370692
151	0x3d1efdca	0.03881625
152	0x3d1300d7	0.035889473
153	0x3dd079d9	0.101794906
154	0x3dd773cd	0.10520134
155	0x3db2980c	0.08720407
156	0x3ca263d1	0.019822987
157	0xbdcc1a49	-0.09965951
158	0xbdae8e2e	-0.085232124
159	0x3de9050a	0.11377914
160	0x3db808a6	0.089860246
161	0x3d3f1658	0.046652168
162	0x3d86c888	0.06581217
163	0x3db115ce	0.08646737
164	0xbcbdb728	-0.023158625
165	0xbb306ae3	-0.0026919178
166	0x3df3a621	0.11896921
167	0x3ce38f28	0.027778223
168	0x3b8f3860	0.004370734
169	0x3d0c49ae	0.034249954
170	0xbdd76e8a	-0.105191305
171	0x3d298bc1	0.041393045
172	0x3c874ca7	0.016516043
173	0xbd902d26	-0.070398614
174	0xbdd7288e	-0.10505782
175	0x3e017b64	0.12644726
176	0x3c11ed5f	0.008906691
177	0x3dcc5120	0.09976411
178	0xbc5757c0	-0.01314348
179	0x3d30d038	0.043167323
180	0x3daecee4	0.08535555
181	0x3df2b53c	0.11850974
182	0xbd6e53eb	-0.0581855
183	0x3d307d64	0.04308833
184	0x3db4d2e0	0.08829284
185	0xbd59b3d0	-0.05315
186	0x3d897cb0	0.067132354
187	0xbd2675c5	-0.040639658
188	0x3ce205ee	0.027590718
189	0xbcd29e3e	-0.025710221
190	0x3d917edc	0.07104275
191	0x3d0bf31c	0.034167394
192	0x3dfb8b5e	0.122824416
193	0x3d947a96	0.07249944
194	0xbd872490	-0.065987706
195	0x3beb8ca0	0.0071883947
196	0x3c1c6d60	0.009547561
197	0xbdf26ea2	-0.11837508
198	0xbd32f810	-0.043693602
199	0x3ddea286	0.10870843
200	0x3d0a35a8	0.033742577
201	0x3deab8b2	0.11461009
202	0x3c2e1f10	0.010627523
203	0x3c984e80	0.01859212
204	0xbcfbd378	-0.030740485
205	0xbd85dcd8	-0.06536263
206	0xbd5381b8	-0.05163738
207	0xbdb921ea	-0.09039672
208	0x3d4570a8	0.04820314
209	0xbd236334	-0.03988953
210	0x3dd14d10	0.10219777
211	0xbd99a776	-0.07502644
212	0xbc9ee0d0	-0.019394308
213	0xbd03bf30	-0.032164752
214	0x3d29f8ec	0.041497156
215	0xbc031160	-0.007999748
216	0xbc957718	-0.018245265
217	0x3db3039a	0.08740921
218	0x3d5ba2dc	0.05362211
219	0x3dfff108	0.12497145
220	0x3d6a1aa8	0.057154328
221	0xbca6ea30	-0.020375341
222	0x3daef072	0.08541955
223	0x3c3fa870	0.0116978735
224	0xbcf6b3e8	-0.030115083
225	0xbdf527ee	-0.119705066
226	0x3c8e7458	0.017389461
227	0xbcd37640	-0.025813222
228	0x3dc9e3fe	0.09857939
229	0x3dac2ab8	0.084065855
230	0x3dc0eaec	0.09419808
231	0xbdb14b6e	-0.08656965
232	0xbdf6986e	-0.120407924
233	0xbd2a9014	-0.04164131
234	0xbdf46f72	-0.11935319
235	0x3cd0af98	0.025474355
236	0x3db3796c	0.08763394
237	0x3d12bb30	0.035823047
238	0xbd64ecdc	-0.05588995
239	0xbd180b24	-0.03712
240	0x3df89d7e	0.12139414
241	0x3d7080bc	0.05871652
242	0x3d99ff72	0.075194255
243	0xbcd8bcb8	-0.026457176
244	0xbd8d8978	-0.06910986
245	0xbd8f0b86	-0.0698462
246	0xbde09368	-0.109656155
247	0x3c87e928	0.01659067
248	0x3c475600	0.0121665
249	0x3ddf08fc	0.108903855
250	0xbcfbf248	-0.030755177
251	0x3dd8af84	0.10580352
252	0x3c2a2d60	0.010386795
253	0xbdad688c	-0.08467206
254	0xbd8af3bc	-0.0678477
255	0x3cf932d0	0.030419737

linear3.bias f4 [64]
0	0xbd549803	-0.051902782
1	0x3d5d6b6a	0.054057516
2	0xbd953341	-0.072851665
3	0xbda1b302	-0.07895471
4	0x3e34abef	0.17643712
5	0x3db399d0	0.08769572
6	0x3db0a1ed	0.08624635
7	0xbdb9eedc	-0.09078762
8	0x3c5bf3d8	0.013424836
9	0xbd931632	-0.07181968
10	0xbdd14728	-0.1021865
11	0xbda7337a	-0.08164115
12	0x3e19f7cb	0.15035932
13	0x3da974a5	0.08274201
14	0x3d89153f	0.066935055
15	0xbdf13a6a	-0.1177872
16	0xbd8167ec	-0.0631865
17	0x3e3118c7	0.17294608
18	0xbd872b5e	-0.066000685
19	0x3e079412	0.13240078
20	0x3e25e678	0.16201198
21	0x3e1e6cf1	0.15471245
22	0xbda90f8a	-0.08254917
23	0x3d906c3b	0.07051893
24	0xbda04aa1	-0.07826734
25	0x3dcc5a02	0.09978105
26	0x3c2e8060	0.010650724
27	0x3d7c49c6	0.061593793
28	0x3e2b33e3	0.16719012
29	0x3c127610	0.008939281
30	0x3e21c10c	0.15796298
31	0x3dd63a20	0.10460305
32	0x3cff3bca	0.03115644
33	0xbde78510	-0.113046765
34	0x3dffdc85	0.12493233
35	0xbdd7838c	-0.105231375
36	0x3dd35ebb	0.10320803
37	0xbd7c1ed9	-0.061552856
38	0x3de15f2a	0.11004479
39	0xbc871eea	-0.016494233
40	0xbdc2446a	-0.09485705
41	0xbdc8a0e2	-0.09796311
42	0xbda5794d	-0.08079777
43	0x3da9cd88	0.08291155
44	0x3d48fb1c	0.0490676
45	0xbd49912e	-0.04921072
46	0x3dc009b7	0.09376853
47	0xbd4f30f7	-0.050583806
48	0x3e0f36d4	0.13985759
49	0xbba4a7f5	-0.005024905
50	0xbdc46b84	-0.095908195
51	0xbddb6f46	-0.10714583
52	0x3e1be771	0.15225007
53	0x3d65eaa3	0.05613197
54	0x3c7dfbf2	0.015501963
55	0x3d8884fc	0.0666599
56	0xbd630209	-0.055421863
57	0xbd87e2e6	-0.06635074
58	0xbd5e63d5	-0.054294426
59	0x3d7ae547	0.061253812
60	0x3dbdaae1	0.09261108
61	0xbb99111f	-0.0046712304
62	0x3df2d177	0.118563585
63	0x3da8c98c	0.08241567

linear4.weight f4 [64, 64]
0	0xbd91dbc9	-0.07121999
1	0xbdc5d52b	-0.09659799
2	0x3a8c2a3f	0.0010693743
3	0x3db7f7d8	0.08982819
4	0x3de6ae0c	0.112636656
5	0x3cc6dad3	0.024274265
6	0xbca55598	-0.020182416
7	0x3cca8b98	0.024724767
8	0xbdc5cf9a	-0.096587375
9	0xbd4c9e24	-0.049955502
10	0x3d62aae5	0.05533876
11	0xbc6d1c40	-0.014472067
12	0x3dec6b00	0.11543846
13	0xbd94b871	-0.07261742
14	0xbd9523e9	-0.0728224
15	0xbd7b571c	-0.06136237
16	0xbdc1cd03	-0.09462931
17	0x3dd3eea0	0.103482485
18	0x3de4c700	0.11170769
19	0x3da5324e	0.080662355
20	0x3dd4d207	0.10391622
21	0x3da47ca4	0.08031586
22	0xbd1d5f4c	-0.03842096
23	0x3dde3025	0.108490266
24	0xbd234496	-0.03986033
25	0x3da7fd7e	0.08202647
26	0x3c34bc7d	0.011031267
27	0xbd8f5d7d	-0.07000253
28	0x3d078ed9	0.033095215
29	0xbcddf57d	-0.027094597
30	0x3e02d0ea	0.12775007
31	0x3d723618	0.05913362
32	0x3e039dd7	0.1285318
33	0xbdd1779a	-0.1022789
34	0xbdda43fe	-0.106575
35	0x3b526d34	0.0032108547
36	0xbdd25a9c	-0.102711886
37	0x3daa9607	0.08329397
38	0xbd78e2a5	-0.06076302
39	0x3d8e53e2	0.06949593
40	0x3cee0330	0.029054254
41	0x3c4a0440	0.012330115
42	0xbd807928	-0.06273109
43	0x3dcd7bea	0.100334
44	0x3dcbad86	0.09945206
45	0x3d6d5c16	0.057949148
46	0x3da924a3	0.08258941
47	0xbd75bdab	-0.059995335
48	0xbc1f75f3	-0.009732711
49	0x3dda7ab2	0.106679335
50	0xbc26a2b1	-0.010170625
51	0xbceea720	-0.029132426
52	0x3dcafc3f	0.099113934
53	0xbd10f8cd	-0.035393525
54	0xbd2d5030	-0.0423128
55	0xbd39478c	-0.045234248
56	0x3d669204	0.056291595
57	0x3df0dd5c	0.11760971
58	0xbd15a3c7	-0.036533143
59	0x3e0618f6	0.1309546
60	0xbda93daf	-0.08263718
61	0x3d90db28	0.07073051
62	0xbdcb8eac	-0.09939322
63	0x3b4ab65f	0.0030931456
64	0x3dc7e16e	0.09759794
65	0x3d12fd34	0.035886005
66	0xbd8908d8	-0.0669114
67	0xbd600b70	-0.054698408
68	0xbdddb282	-0.10825063
69	0xbc772b30	-0.01508598
70	0xbddab936	-0.106798574
71	0x3d9edb9a	0.077567294
72	0xbdc4ecd6	-0.09615485
73	0xbcf7c4b8	-0.03024517
74	0xba983680	-0.0011612922
75	0x3cdc0980	0.026859999
76	0xbcdc7958	-0.02691333
77	0x3c75ef20	0.015010625
78	0x3d615660	0.055014014
79	0x3de8ecc6	0.11373286
80	0xbd5ab830	-0.05339831
81	0xbdaaa636	-0.083324835
82	0xbd8a77f6	-0.06761162
83	0x3dc49410	0.09598553
84	0xbc9778f0	-0.018490285
85	0x3d9ce4b0	0.07660806
86	0x3d3d2718	0.04617986
87	0x3c8ea3e0	0.017412126
88	0x3ced6188	0.02897717
89	0xbde227e8	-0.11042768
90	0xbd83abb6	-0.06429236
91	0x3d806374	0.06268969
92	0xbd41ea58	-0.04734263
93	0xbda5a2e6	-0.08087711
94	0xbd17bd60	-0.037045836
95	0xbc900528	-0.017580584
96	0xbdaed7ba	-0.0853724
97	0x3da3e7e2	0.080032125
98	0xbdb5c48e	-0.088753805
99	0xbc6e8ee0	-0.014560431
100	0xbd84541a	-0.064613536
101	0x3d7612bc	0.06007646
102	0xbdb142c8	-0.08655316
103	0xbdfab0e6	-0.12240772
104	0xbd6cf350	-0.05784923
105	0xbccd4fd0	-0.025062472
106	0xbdf0fdfa	-0.11767192
107	0xbdb743c4	-0.08948472
108	0xbdaa8cc4	-0.0832763
109	0x3daa4bbe	0.08315228
110	0xbc1e93d0	-0.009678796
111	0x3d563bbc	0.05230306
112	0x3d3742d4	0.044741467
113	0x3ce4aa58	0.027913257
114	0x3c92fed8	0.017943785
115	0xbdbe6450	-0.09296477
116	0x3dd7b138	0.10531849
117	0xbda5c48a	-0.080941275
118	0x3a97ef80	0.0011591762
119	0xbd528d80	-0.051404476
120	0xbd238148	-0.039918214
121	0x3dc26134	0.09491196
122	0xbdcaa13a	-0.09894033
123	0xbdfc7ef0	-0.12328899
124	0x3d7acd7c	0.06123112
125	0xbdc76296	-0.09735601
126	0xbda13a18	-0.07872409
127	0x3d9595c6	0.07303958
128	0xbddc6767	-0.1076191
129	0xbde963d6	-0.11395995
130	0x3d8beca8	0.06832248
131	0xbcfe06d0	-0.031009108
132	0x3cf943bb	0.030427804
133	0xbdd8214e	-0.10553227
134	0x3d1c7ba8	0.038203865
135	0xbde6f2a2	-0.11276747
136	0x3bc4e360	0.0060085505
137	0x3af02880	0.0018322617
138	0x3d1fcf13	0.03901584
139	0xbde6238a	-0.11237247
140	0x3d68eee5	0.056868453
141	0x3c8e0e19	0.017340707
142	0xbda41724	-0.08012226
143	0x3cd6b720	0.026210368
144	0xbccc9c9f	-0.024977027
145	0xbdec6878	-0.11543363
146	0x3df5a1a6	0.119937226
147	0x3cd320a1	0.025772395
148	0xbd2806ea	-0.04102222
149	0xbd1bb2a3	-0.038012158
150	0xbdb7a0e2	-0.08966233
151	0xbd24a159	-0.040192936
152	0x3d917478	0.07102293
153	0x3d801f97	0.06256025
154	0x3db915a4	0.09037331
155	0xbd8ce418	-0.06879443
156	0xbcd75057	-0.026283426
157	0xbdc78ce6	-0.09743671
158	0x3d2fa90a	0.042885818
159	0x3ccc2528	0.024920061
160	0x3d37ccdf	0.044873115
161	0xbc846448	-0.0161611
162	0x3d4d6091	0.05014092
163	0xbd060280	-0.032717228
164	0x3dae4efc	0.08511159
165	0x3d9bbb88	0.07604128
166	0xbdb2babc	-0.08727023
167	0xbda11e84	-0.078671485
168	0x3dd2adf0	0.10287082
169	0x3d0adde4	0.033903018
170	0xbde893ef	-0.11356341
171	0x3d314c18	0.04328546
172	0x3d309c68	0.04311791
173	0x3cf57ee2	0.029967729
174	0xbc3a29ec	-0.011362534
175	0xbdde9eba	-0.108701184
176	0x3d8569c8	0.06514317
177	0xbd8bd720	-0.06828141
178	0xbddfbdbd	-0.109248616
179	0xbdc06a99	-0.09395332
180	0x3d5ac451	0.05340988
181	0xbd489792	-0.048972674
182	0xbdba7846	-0.091049716
183	0xbd687484	-0.056751743
184	0xbdcab200	-0.09897232
185	0x3d778abc	0.06043504
186	0xbd47fcba	-0.048825003
187	0xbda14c26	-0.07875852
188	0xbd4e5a88	-0.050379306
189	0xbd9dc954	-0.07704416
190	0xbd092e2c	-0.0334913
191	0x3dd3ce39	0.10342068
192	0x3d067369	0.032824907
193	0x3ded142c	0.11576113
194	0x3e11bfc7	0.14233314
195	0xbdb246de	-0.08704923
196	0x3d7ace2d	0.06123178
197	0xbce3199f	-0.027722178
198	0x3dc92306	0.09821133
199	0x3d7b0924	0.061288014
200	0x3dd94472	0.10608758
201	0x3ddf2db0	0.10897386
202	0xbd70e60c	-0.05881314
203	0x3acb5c00	0.0015515089
204	0x3cecd177	0.028908474
205	0xbd0b725b	-0.034044605
206	0xbd7bfe79	-0.06152198
207	0x3c1e7bf0	0.009673104
208	0xbdcf438b	-0.10120305
209	0x3df55369	0.119788
210	0x3d323a06	0.043512367
211	0xbb105473	-0.0022022992
212	0x3d3e9903	0.046532642
213	0x3d74687e	0.059669964
214	0xbd30dae4	-0.0431775
215	0x3d93985b	0.07206794
216	0xbdd601be	-0.10449551
217	0x3d052f1c	0.03251563
218	0x3d94c74e	0.07264577
219	0x3d9d1340	0.07669687
220	0x3decf87b	0.115708314
221	0x3cdee214	0.027207412
222	0x3bf309dd	0.0074169473
223	0x3d987042	0.074432865
224	0x3e02470e	0.12722418
225	0x3db8abc0	0.09017134
226	0xbd8adee8	-0.06780797
227	0xbd8486a6	-0.06470995
228	0xbdd76d55	-0.105189
229	0xbd3053c5	-0.04304864
230	0x3dc1550f	0.09440052
231	0x3e0c9360	0.13728094
232	0xbca686d0	-0.020327955
233	0x3ddcd330	0.10782468
234	0x3bd199e6	0.00639652
235	0x3c8b8850	0.017032772
236	0xbc9e2db8	-0.01930891
237	0xbd521c0b	-0.051296275
238	0x3d0750ec	0.033036157
239	0x3d3382a1	0.04382575
240	0xbd262bf5	-0.040569264
241	0x3e0268aa	0.12735239
242	0xbe0026c5	-0.1251479
243	0x3d3b2439	0.04568884
244	0x3dcd2ff8	0.10018915
245	0x3d5075a1	0.05089343
246	0x3dc980ff	0.09839057
247	0x3dbc831a	0.09204693
248	0xbdf3a278	-0.11896223
249	0xbde9cfda	-0.11416598
250	0xbde6474c	-0.112440675
251	0x3cb0756c	0.021540366
252	0x3b5173f9	0.0031959994
253	0x3c5e1560	0.013554901
254	0x3e0aa47c	0.13539308
255	0x3dfd2aa4	0.12361649

linear4.bias f4 [64]
0	0x3e1c87b7	0.15286146
1	0xbdc47ae0	-0.09593749
2	0xbdd3932f	-0.103308074
3	0x3d5ae5e5	0.0534419
4	0x3e0be3c8	0.1366111
5	0xbcd833b6	-0.026391845
6	0xbd56b110	-0.052414954
7	0x3d936ea6	0.07198839
8	0x3da457b9	0.08024544
9	0xbbb2e79a	-0.005459738
10	0x3dc83700	0.097761154
11	0x3e21a2ee	0.15784809
12	0x3c9944a9	0.018709498
13	0x3e16ee17	0.14739262
14	0x3da123e6	0.07868175
15	0xbdb60344	-0.088873416
16	0xbd798a5c	-0.060922965
17	0x3d95515e	0.0729091
18	0x3d70431f	0.05865776
19	0x3de27318	0.11057109
20	0x3d5d042c	0.053959057
21	0x3e1efed9	0.15526904
22	0xbd82f387	-0.063941054
23	0x3e14c50d	0.14528294
24	0x3defc2f0	0.11707103
25	0xbca98ca0	-0.020696938
26	0xbd082bd4	-0.033244923
27	0x3d885392	0.06656565
28	0x3de89866	0.11357193
29	0xbd2d7802	-0.042350776
30	0xbdd10450	-0.10205901
31	0xbd49c9a0	-0.04926455
32	0xbd6d5015	-0.0579377
33	0x3d427f23	0.04748453
34	0x3d24ede4	0.040265933
35	0xbd1f2835	-0.038856704
36	0x3d703c69	0.05865136
37	0x3e0b10c8	0.1358062
38	0xbdf8b8b2	-0.12144603
39	0x3da888b0	0.08229196
40	0x3bbe2639	0.0058028963
41	0x3d3ef2cf	0.04661828
42	0xbbffcbb5	-0.007806266
43	0x3dceda5a	0.10100241
44	0x3ba2e5e4	0.0049712528
45	0x3de32334	0.11090699
46	0x3d073498	0.03300914
47	0x3e221d20	0.15831423
48	0x3c91c450	0.017793804
49	0xbd8010bd	-0.062531926
50	0x3dfd6581	0.12372876
51	0xb98ea503	-0.00027207294
52	0x3e32791d	0.17429014
53	0xbd6c657c	-0.05771397
54	0xbcb9f647	-0.022700442
55	0xbdf64894	-0.12025562
56	0x3da6de23	0.08147838
57	0x3caa34c5	0.020777116
58	0x3d9ce5ae	0.076609954
59	0x3caefe20	0.02136141
60	0x3d884b6e	0.06655012
61	0x3cba04b6	0.022707324
62	0x3d7fd200	0.06245613
63	0xbc31e651	-0.010858134

mean_linear.weight f4 [2, 64]
0	0x3cebcf3c	0.02878534
1	0xbaffa5e3	-0.0019504394
2	0x3a719d78	0.0009216885
3	0x3c5ac61f	0.0133529
4	0x3ceaf52f	0.028681366
5	0x3cc3eacb	0.023915669
6	0x3c404465	0.0117350565
7	0x3cc0ce82	0.02353597
8	0x3cb76571	0.022387238
9	0x3a6b6c95	0.00089807186
10	0xba1db565	-0.00060161046
11	0x3ccbf26f	0.024895875
12	0x3bff6625	0.007794159
13	0x3d01f763	0.031730067
14	0xbb40c892	-0.0029416424
15	0xbb41cd3c	-0.0029571792
16	0x3c844422	0.01614577
17	0x3a455844	0.0007528106
18	0x3d087fec	0.03332512
19	0x3cbf2d80	0.023337126
20	0x3cac3054	0.021019138
21	0x3c84971a	0.016185332
22	0x3a87eda4	0.0010370505
23	0x3c86e54b	0.016466757
24	0x3cc7ec10	0.024404556
25	0xbbfd2cf6	-0.007726307
26	0x3c5ac670	0.013352975
27	0xbc1330b0	-0.008983776
28	0x3c924803	0.017856603
29	0xbb089f8f	-0.0020847057
30	0xba658e1d	-0.0008756833
31	0x3c5e72e8	0.0135772005
32	0x3c3c0896	0.011476656
33	0x3c70f4f4	0.014706839
34	0x3a9ae43a	0.0011817284
35	0x3c4bdcad	0.01244275
36	0x3b6b1a94	0.0035873996
37	0x3c80b7ee	0.015712705
38	0xbaa7bc9e	-0.0012797301
39	0x3c827fe9	0.015930133
40	0xbb5995a5	-0.0033200767
41	0x3c954e61	0.01822585
42	0x3c932952	0.017964039
43	0x3c838095	0.016052524
44	0x3c0754a6	0.008259928
45	0x3c9dc3a7	0.019258333
46	0x3b41da41	0.0029579552
47	0x3cad79ef	0.021176307
48	0xbaeda10a	-0.0018129658
49	0x3c84c078	0.016205058
50	0x3caf9223	0.021431988
51	0x3c76cb02	0.015063049
52	0x3caae6e7	0.020862056
53	0x3a9aa5fb	0.0011798734
54	0x3a88cb20	0.0010436513
55	0x3a27adba	0.00063964317
56	0x3c1d03ce	0.009583427
57	0x3c0ffe61	0.008788676
58	0x3c8fec26	0.017568659
59	0x3c48284b	0.012216638
60	0x39966a6b	0.00028689517
61	0x3c986fd7	0.018608017
62	0x3c8156ed	0.01578852
63	0x3ca5c616	0.020236056
64	0x3cfb824b	0.030701777
65	0x39a3d85e	0.0003125099
66	0xbab0bade	-0.0013483425
67	0x3d3b5632	0.0457365
68	0x3cd625e4	0.026141115
69	0x3c615463	0.0137530295
70	0x3c018957	0.0079062795
71	0x3caca6df	0.021075664
72	0x3c8207bb	0.015872827
73	0x3b3a592c	0.0028434498
74	0x3a90d897	0.0011050877
75	0x3ca2c656	0.019869965
76	0x3ce419a4	0.027844258
77	0x3cc2c831	0.0237771
78	0xbb060b39	-0.0020453467
79	0xb900e76d	-0.00012293244
80	0x3caf274a	0.02138104
81	0x39e18d1f	0.00043020488
82	0x3cfc6f90	0.030814916
83	0x3ca92c83	0.020651108
84	0x3cba82e7	0.022767497
85	0x3cd6507a	0.026161421
86	0x3be589c4	0.0070049483
87	0x3c2a665c	0.010400381
88	0x3cf3e817	0.029773755
89	0x3b88f6d0	0.004179813
90	0x3accc2ed	0.0015622057
91	0xbb4884a9	-0.003059665
92	0x3c6ed421	0.014576943
93	0xbb0cea52	-0.002150197
94	0x3aef7d9c	0.0018271687
95	0x3c03f7f4	0.008054722
96	0x3c61af89	0.013774761
97	0x3bfb1766	0.0076627014
98	0xba177ae2	-0.0005778504
99	0x3c1698d3	0.00919171
100	0x3c3c3fb7	0.0114898
101	0x3c21ea10	0.009882465
102	0xbad56c8c	-0.001628296
103	0x3c2f8fa9	0.010715404
104	0x3aad3916	0.0013215865
105	0x3d3e5cee	0.046475343
106	0x3bed52bb	0.0072425283
107	0x3c4c2084	0.012458924
108	0x3d052ed4	0.032515362
109	0x3bf81cbe	0.0075717857
110	0x3b1f9f4d	0.0024356425
111	0x3bfefa9c	0.00778134
112	0x37acfdf4	2.0622254e-05
113	0x3c1aee6d	0.009456259
114	0x3c6690a3	0.01407257
115	0x3b601440	0.0034191757
116	0x3c3a8271	0.011383639
117	0x3af88763	0.0018961247
118	0x3b291084	0.0025797198
119	0xb95300b4	-0.0002012279
120	0x3ba63c91	0.005073138
121	0xba7e5df0	-0.0009703329
122	0x3bb7ac4c	0.005605256
123	0x3c26026e	0.010132415
124	0xbb34eed6	-0.0027608178
125	0x3c7465dd	0.014916864
126	0x3cfd54e7	0.030924274
127	0x3c840699	0.016116427

mean_linear.bias f4 [2]
0	0x3ce80bf2	0.028326008
1	0x3ca5555f	0.02018231

log_std_linear.weight f4 [2, 64]
0	0xbbafd450	-0.005365886
1	0xb9a9ef69	-0.00032412566
2	0x3b9d6893	0.004803726
3	0xbaf37c2e	-0.0018576437
4	0xbc2c2811	-0.010507599
5	0x3b552af4	0.0032526823
6	0xbbe3ca08	-0.0069515742
7	0xbbe3350d	-0.0069338144
8	0xbc20b271	-0.009808169
9	0xbb32738e	-0.002722952
10	0x3a44d9a1	0.0007509236
11	0xbc865831	-0.016399475
12	0xbb08b70e	-0.0020861062
13	0xbc471ce6	-0.012152886
14	0x3b3416b9	0.0027479364
15	0x3ab1dfb7	0.00135707
16	0x3b01122a	0.0019694665
17	0xba8f500e	-0.0010933892
18	0xba901811	-0.00109935
19	0xbc713107	-0.014721162
20	0xbbc9e97d	-0.006161867
21	0xbc2f8a00	-0.010714054
22	0xba8a183f	-0.001053579
23	0xbc062569	-0.00818763
24	0xbc88e280	-0.016709566
25	0x3c30ede8	0.010798909
26	0xbb5a4632	-0.0033306
27	0x3ad4fe72	0.0016250147
28	0xbc2dd9ef	-0.010611041
29	0x3900a329	0.00012267813
30	0x3b07ba72	0.0020710495
31	0xbba5467b	-0.0050438023
32	0xbb052890	-0.0020318367
33	0xbbc6a60c	-0.006062275
34	0xbaadd7a2	-0.0013263116
35	0xbb3f77ad	-0.002921562
36	0xbbb19f7d	-0.005420624
37	0xbc23e42d	-0.010003132
38	0xba3e2f2e	-0.0007254955
39	0xbbd92d9e	-0.0066277524
40	0x3ac2b69a	0.0014855445
41	0xbad3aaf1	-0.0016148967
42	0xbbdf52e7	-0.0068153027
43	0xbbcf69b3	-0.006329739
44	0xbbfe7cbf	-0.0077663357
45	0xbc1affd5	-0.009460409
46	0x3b16a198	0.00229845
47	0xbc3f72b0	-0.0116850585
48	0xba7e3afc	-0.00096981204
49	0xbbacddae	-0.0052754497
50	0xbc0e6ba0	-0.008692652
51	0xbbc5dd36	-0.0060383333
52	0xbc0d1753	-0.008611518
53	0x3a0a7624	0.00052818866
54	0xb985feb2	-0.000255575
55	0x3b274518	0.002552336
56	0xbb8dd81e	-0.0043287417
57	0xbb7d4ee6	-0.0038651763
58	0xbbf65da5	-0.0075184875
59	0xbb308e78	-0.0026940387
60	0x3b415ca0	0.0029504672
61	0xbb2bac95	-0.0026195396
62	0xbb844d4d	-0.0040375353
63	0xbbec473a	-0.0072106393
64	0x3ad88c68	0.0016521337
65	0x3b1f2818	0.0024285372
66	0xbc14dc4d	-0.009085727
67	0xbbccb72e	-0.0062474227
68	0xbc3df6e0	-0.011594504
69	0x3bf9d0df	0.0076237763
70	0xbba562f4	-0.0050471965
71	0xbc17b74f	-0.009260013
72	0xbba88326	-0.0051425872
73	0xbb3cc9dd	-0.0028806843
74	0xb992ca61	-0.00027998074
75	0xbc8a8685	-0.016909847
76	0xbc6d7b1d	-0.0144946845
77	0xbc178677	-0.0092483675
78	0xbb43c98f	-0.0029874777
79	0xba383717	-0.0007027252
80	0x39397c0a	0.00017689183
81	0x3b05a1d4	0.0020390647
82	0xbbd36996	-0.006451796
83	0xbc68d23a	-0.014210278
84	0xbbe2b2ae	-0.006918273
85	0xbc720f03	-0.014774087
86	0xbb446f12	-0.002997343
87	0xbc0641f4	-0.008194435
88	0xbc88f393	-0.016717708
89	0xbc39c5f7	-0.011338702
90	0xbb962a56	-0.0045826836
91	0x3b50fd4c	0.0031889258
92	0xbc1d1759	-0.009588086
93	0xbad80a91	-0.0016482641
94	0xb9aa2677	-0.00032453585
95	0xbb998df7	-0.004686113
96	0x3a1c1326	0.0005953781
97	0xbbbab774	-0.005698139
98	0x39fa86d6	0.00047784176
99	0xbb6fdc8e	-0.0036599967
100	0xba435b09	-0.0007452225
101	0xbb28f9eb	-0.0025783728
102	0x3a5a1b17	0.0008320077
103	0xbbef301b	-0.007299436
104	0xbb2f9b9e	-0.0026795636
105	0xbb25bfa5	-0.002529123
106	0xbb5a15a7	-0.0033277066
107	0xbbe9d2e3	-0.0071357354
108	0xbc7ed3ff	-0.0155534735
109	0xbafaebac	-0.0019143722
110	0xbb3b9edd	-0.0028628625
111	0xbc0fe620	-0.008782893
112	0x3a785404	0.00094729685
113	0xbb667788	-0.003516646
114	0xbc016167	-0.007896758
115	0x38ba0d00	8.8715926e-05
116	0xbc089437	-0.008336118
117	0xba4c9180	-0.00078036636
118	0x39b93de9	0.00035332076
119	0xbb25fd2c	-0.0025327904
120	0xbb96c1a7	-0.004600722
121	0xbb33a3b5	-0.002741081
122	0xbbc8037a	-0.00610393
123	0xbb3eee59	-0.0029133765
124	0xbb10abe6	-0.0022075116
125	0xbba7ed2b	-0.005124708
126	0xbc178472	-0.009247886
127	0xbb1176a6	-0.0022195964

log_std_linear.bias f4 [2]
0	0xbcb47d0e	-0.022032287
1	0xbc97b7f2	-0.01852033
