models/noCBF_2025-11-17 19:56:56/1/Q1.pth (torch, 37764 bytes, 7 tensors)

linear1.weight f4 [64, 5]
00000000: 14d7 cc3e 59ff a1bc 9648 00be a7df e03e
00000010: 1c38 a83e d0c2 bdbe 7b16 a33e 28e3 963e
00000020: 4d39 06bd 87f0 5f3e 864a 173e f97a 2ebe
00000030: 682a c53e 5da6 4e3e ba98 0a3e bd8a b63e
00000040: 1fb7 93be 2ef0 c53d 00d1 ffbb c606 4c3e
00000050: 2db5 b53b adbf 4dbe 172d 873c 0ba3 68be
00000060: 6d34 94bd 9ff7 f5be 2e6b 03bf e851 a2bd
00000070: 2153 86be ff8b 9bbe 4b92 493e bac2 28be
00000080: 8828 feb9 5d32 3f3d aaad 75be 39e3 c9be
00000090: 24d5 1b3d 2651 023e a208 98be d9aa 57be
000000a0: e101 4cbe 548b fdbe 55fa d13e 5b41 d9be
000000b0: 2817 4abe 2f1f a6be 95c7 f5bd 69cc f93c
000000c0: bfa0 35be b703 253e e4da 2a3e 247d 7e3e
000000d0: 3032 c33e 7fde f7be 9b6c c9be 8eb1 463e
000000e0: 1e9a c33d e340 613e 5dd4 fcbd 2388 f03e
000000f0: 8ed8 75be 6002 59bd 1828 b5bc fe23 f5be
00000100: 9279 f5bd 36f0 00be 73f3 26be 1cdd 4cbc
00000110: f951 423d 7b46 203e 563d e1bd 24b0 1fbe
00000120: bb1f 633e 9489 83be 5e54 1cbf ca15 0bbb
00000130: d853 00bf a725 e33e 952b 43bd 0d9d 023d
00000140: b4c0 b8be 609e acbe 71f2 903d ed10 0fbf
00000150: 20a7 13be 9554 9a3e c9f8 463e 6180 ad3e
00000160: 2985 073f 6b5e a23e 82d5 ad3e 47d6 4ebe
00000170: bec3 1b3e 9e7e 01be 86da 1b3f be9d d63e
00000180: a01c 673d 205e 75be a6b8 95be d8fb debe
00000190: 0f53 6ebe ed6d f63d 7c63 2d3e 915f ba3d
000001a0: b4e9 e93d 900d e7bd e3e6 e0be 8c42 8fbd
000001b0: 6a9c 163e 0dbc a4be c5d9 ffbe 65d8 1bbe
000001c0: 5af3 e13e d69d f3be 5b01 ee3d ce50 813e
000001d0: f67a a73e 2e84 b3be c7af 71bd 9bd9 a4be
000001e0: c86b 9abc 7dd7 eebb fe7c 10be 1d35 7fbe
000001f0: 24a6 a9bd 2cc0 3cbe 6707 4c3e e9d8 88be
00000200: 0cd5 9c3a a8ac 57bd f866 df3b 013f 9ebe
00000210: 3ada dbbd aed5 1cbd 7812 e23d 4748 37be
00000220: b635 cb3e 8b39 953d 12db 03be ee56 4bbe
00000230: bbf1 803a 3c35 b03d a11b a5be 20d5 d5bd
00000240: 32fc 063d 7a19 8ebe a3aa 1f3d 9491 dd3d
00000250: c5a7 90be 8510 57be d756 a4bd 29ec bebe
00000260: d645 5bbe 3c7a 333e ab0e 2dbf 6dbb 03bf
00000270: 03cc 0fbf d95f 55be 2bfe e6be d9d8 d4be
00000280: 3737 af3d 77e2 ea3d 3f3e e2be 050b 92be
00000290: 8107 303e 6f36 cbbe 68a1 f7be 0413 8f3d
000002a0: eca9 f4be 46bf 1b3e 22d5 80bd 16fa f5be
000002b0: 85a7 0e3d 8441 5dbe eb01 dfbe ee0f 01bf
000002c0: c95c 0abf df56 c53e 042a d2be e2c3 93be
000002d0: dc4e 153e e66f f7bb d760 8f3e 93dc 90bd
000002e0: 6cf0 93be a9f4 083e ea1b aa3e 68bf b93e
000002f0: 514b e4bc 1ee9 c53e d64b fabe 3982 9ebe
00000300: 5f8c d33d ba1a 8cbe 997a b1bd c11e 3bbe
00000310: cee4 d93e 316e a2be 3974 cfbe d8ab 75be
00000320: 9c07 a6be 617f 973e 3618 723e 733b 633c
00000330: 5ead 61be 2bcd 5b3e 5d5a e5bd 9318 b7be
00000340: 0b40 85be 407f 60bd d45d c43e 125e 193e
00000350: 34b9 8abd bab8 da3e cd5d a6be 6f03 e7be
00000360: c6f9 e0be e0c9 65be 7c88 003e ea73 a8bd
00000370: f0f1 3d3e ad3c 073e 385e c9be a244 e43e
00000380: 614b 73be b64b 07bf b0b8 63bb 7620 533e
00000390: aee5 a4be 54a3 b2be d793 20be 046b 63be
000003a0: 643a 76bd ed5d 24bf fe89 3ebe fa1e 263c
000003b0: 7d7f 3ebe e0fb d23e 162c c5bd 242c 0c3e
000003c0: 48f2 01bf bf45 bb3d b997 a0bd 9bcd 88be
000003d0: d29f 8a3d 7742 163e 8a0b 63bb ea4c 4a3e
000003e0: b7b9 15be 4ec8 643e 62ce db3e bd89 d53e
000003f0: 938d 8fbe f54c 79bc 13cb 90bd 5199 e13e
0.40007842 -0.01977508 -0.1252769 0.43920633 0.32855308 -0.37062693 0.3185309 0.2947018
-0.03276949 0.21869098 0.14774522 -0.17039098 0.38508916 0.2018065 0.13534823 0.35652724
-0.28850648 0.09664951 -0.007806897 0.19924459 0.0055452795 -0.2009265 0.016500993 -0.22718446
-0.07236562 -0.48040482 -0.5133542 -0.079257786 -0.26235297 -0.30380246 0.19684713 -0.16480532
-0.00048476853 0.04667889 -0.23992029 -0.3943117 0.038045064 0.12726268 -0.29694086 -0.21061267
-0.19922592 -0.4952036 0.410113 -0.42432675 -0.19735396 -0.32445666 -0.12000958 0.030492978
-0.17737101 0.16114698 0.16685063 0.24852425 0.38124228 -0.4841194 -0.39340672 0.19403669
0.0955088 0.21997409 -0.123451926 0.46978864 -0.2400839 -0.05298078 -0.022113845 -0.47879022
-0.11986078 -0.12591633 -0.16303806 -0.012503888 0.047441456 0.15651886 -0.10998027 -0.15594536
0.22180073 -0.256909 -0.61066234 -0.0021222704 -0.50127935 0.44364664 -0.047648985 0.031888057
-0.3608452 -0.3371458 0.07077492 -0.558852 -0.14419222 0.30142656 0.19430842 0.33887008
0.5293756 0.3171266 0.33951956 -0.20198928 0.15211388 -0.12645957 0.60880315 0.41917223
0.056423783 -0.23961687 -0.29242438 -0.43551517 -0.23273872 0.120326854 0.16932482 0.09100259
0.114215285 -0.11281884 -0.43926153 -0.06995115 0.14708105 -0.3217472 -0.49970832 -0.15219267
0.44130975 -0.47581357 0.11621352 0.25256962 0.32711 -0.35061783 -0.059005525 -0.3219727
-0.018850222 -0.007288872 -0.1411018 -0.24922605 -0.08283642 -0.18432683 0.19924699 -0.2672799
0.0011965348 -0.052654892 0.0068176948 -0.30907443 -0.10734983 -0.03828972 0.11038679 -0.17898665
0.39689416 0.07286366 -0.12876537 -0.1985738 0.0009837666 0.08603904 -0.32247642 -0.10441041
0.032955356 -0.27753812 0.03898109 0.108187824 -0.28252998 -0.21002395 -0.08024376 -0.3728955
-0.21413359 0.17527097 -0.67600507 -0.51457864 -0.5617067 -0.20837344 -0.4511579 -0.41571692
0.08555453 0.11468976 -0.44188115 -0.28524032 0.17190363 -0.39689967 -0.4836533 0.06986049
-0.4778589 0.15209684 -0.06290652 -0.48042363 0.034827728 -0.21607023 -0.4355615 -0.5041493
-0.5404783 0.3854284 -0.4104768 -0.28860384 0.14580864 -0.007551181 0.2800357 -0.07073321
-0.28894365 0.1337458 0.33224422 0.36278844 -0.027867945 0.38654417 -0.48885983 -0.30958727
0.10329508 -0.2736414 -0.08665962 -0.1827345 0.42557377 -0.31724694 -0.40518358 -0.23991334
-0.3242768 0.2958937 0.23642048 0.013869154 -0.2203879 0.21464984 -0.11198876 -0.35760936
-0.26025423 -0.054808855 0.38352835 0.14977291 -0.06773606 0.4271906 -0.3249344 -0.45119807
-0.43940562 -0.2244029 0.12552065 -0.08225234 0.18549323 0.1320674 -0.39329696 0.44583613
-0.23759224 -0.528499 -0.0034747534 0.20617852 -0.32206482 -0.34890234 -0.15681396 -0.22208792
-0.06011428 -0.6420582 -0.18607327 0.010139221 -0.1860332 0.4120779 -0.09627549 0.13688713
-0.50760317 0.091441624 -0.07841439 -0.26719365 0.067687646 0.14673792 -0.003464433 0.19755903
-0.14621626 0.22342035 0.42930895 0.41706648 -0.280377 -0.015216102 -0.07069983 0.44062284

linear1.bias f4 [64]
00000000: f371 69be bbc6 f23e 4adb 853e 1cf7 adbe
00000010: 0f11 833e f18b 943e 6f48 86bd 6575 ad3e
00000020: c344 71be 4ca9 d53c 4779 5dbe 2748 213e
00000030: b449 023d 65b5 1d3f dbac e43e 2026 9e3e
00000040: 5694 943e bbda 32be aa9f 7fbe 4b0e 443e
00000050: 784a 033f 02b3 1bbd ec65 64bc c4e1 4abe
00000060: 32bf bdbe 9c7e d1be 8012 253f b2a0 0b3e
00000070: a9ab 92be f521 e33e fac3 4c3e 7cc0 02bd
00000080: a41f a9be 56df 8cbe 28d6 49be b66f d23d
00000090: f4bd 1cbe 2cd0 8a3d 0fa7 173f 16bb aa3e
000000a0: 1b9e 97be 3ec8 8ebe 9f6a df3d 1d97 a33e
000000b0: 3f61 14be 9b60 f23e 9cd3 133f 31fa e63e
000000c0: a637 75be bdc4 63bd bb83 083d 81de fcbc
000000d0: ee56 bb3d 65b8 ae3e 773e a63e 069b 923e
000000e0: e0b8 d4bd 9586 67bc 93be 9e3e 5020 d53e
000000f0: f295 0c3d 2ff2 6abe 9209 0a3e ff25 00be
-0.22797374 0.47417244 0.26143867 -0.33977592 0.25598952 0.29013017 -0.06556784 0.33878627
-0.23561387 0.026081704 -0.21628295 0.1575018 0.03180857 0.6160491 0.44663128 0.30888462
0.2901942 -0.17466252 -0.24963251 0.19146077 0.51285505 -0.038012512 -0.013940316 -0.19812685
-0.37059933 -0.40916908 0.64481354 0.13635519 -0.2864659 0.44361845 0.19996634 -0.03192185
-0.33031952 -0.27514142 -0.197106 0.102752134 -0.15306836 0.06777987 0.59239286 0.3334586
-0.29612812 -0.27887148 0.10909008 0.31951228 -0.14490221 0.4733933 0.57744765 0.45112756
-0.2394701 -0.055607546 0.033328753 -0.030867817 0.0914744 0.34125057 0.32469532 0.28633898
-0.103868246 -0.014131208 0.31004772 0.41626215 0.034322686 -0.22943948 0.13480213 -0.12514494

linear2.weight f4 [64, 64]
00000000: 5867 e3bd 825c f93c 5ad2 7dbc 8c95 88bd
00000010: f670 703d 1cfd 6e3d 85fe c73d 1b0b 9fbc
00000020: aa77 dfbd b806 92bd 305f fabd 2a8a 88bc
00000030: c8e7 a73b 641e 7a3c ac7a 3d3d 75c8 d03d
00000040: 2275 92bd e2cc 03be 2e11 cebd c289 c8bd
00000050: 7e65 6bbd 01b9 acbd 2274 a93d 2c81 bf3d
00000060: ecc1 d0bd a44f 383d 58de ac3d 2c51 073c
00000070: 6c5e 293d 58af c1bd 66d0 123d dc7b 52bd
00000080: e8de d2bc 9d44 173d 5d81 093d 8867 f53c
00000090: f9e6 e83c 95d7 533d cd33 ccbd a035 883d
000000a0: d45d fdbd ca13 a7bd 289b e03c 04e3 39bd
000000b0: a8b8 2dbd 81b5 19bd 9f56 a3bd b250 93bd
000000c0: 31d8 fcbd 7ca2 acbb 6481 b4bd f2c7 a73d
000000d0: cfde ca3c b5ea c4bd 441a f13d 8cbd 573d
000000e0: 5329 e73d 4c25 f43d 9211 a73d f206 223d
000000f0: f9f4 efbc 4d8d 6ebd f1eb 36bd 1c29 123d
00000100: a8e4 a03d ed37 debc 0ace df3d c0fb bbbd
00000110: 7b83 be3d fec4 603c 2491 5d3e 09b0 fdbc
00000120: 01f2 483d b46d 74bd 240a cf3d 1c04 e63d
00000130: d437 b1bc 0634 553e a16a c5bc a2b4 2c3b
00000140: d2bc 1fbd 3d25 c7bd 293a 58bb b25f d9bd
00000150: 16a6 b3bd e545 1f3c 936e af3d c455 653d
00000160: 3e18 e93d 582e cbbc 613a 2c3d ba02 c8bd
00000170: 305e 0ebc a826 b43d 01d1 863e 268f 173e
00000180: 249f f53d 3a85 263d b381 043e 1e2a 90bd
00000190: a633 aebc cedc 69bc 063a 41bc 6069 813b
000001a0: c6d4 18b9 9ae4 aa3d b41a 3a3d d9f1 c8bc
000001b0: 7287 d43d 3b55 173e b4f7 303e f9a1 a83d
000001c0: 0973 4f3e 5b4a de3d f4d4 4dbd 94dd ec3d
000001d0: e7c5 923d afda 583d 5c9d 653d 1e77 a6bd
000001e0: a13a c73b 5956 c93d 0d87 ba3d a191 fd3d
000001f0: ed3a b93d 6806 cf3d 8822 773d 1231 83bd
00000200: 389d 153d 5af0 023e 0859 003d 6a4a cf3d
00000210: 17ca a63d 4512 cb3d 2ae0 b4bc a1ae 213e
00000220: 6df5 363d 74b5 1c3e 4050 d13c 5039 d53d
00000230: 390d 4c3e 9911 4c3d a0af 0238 f799 1f3e
00000240: 5d23 ea3d bc26 0abe 61be d63d f823 17bd
00000250: 85ea 3dbc b7a2 683e 0f88 4dbd f8f7 4a3d
00000260: 9625 903d 00b9 f3ba 6aed 6d3d 9ed1 993d
00000270: 88a2 b2bd 9ea9 52bd a196 c73d 920d 963c
00000280: c023 e13b 2457 303e e838 e13a b965 88bd
00000290: 9f06 5fbd 84cb 2f3d 34cc b9bc 20c0 843c
000002a0: 3cb9 c73d 1ab0 ff3d b891 ebbc e420 313e
000002b0: c0e5 df3b 3395 de3d 17ef a13d eeb5 3cbb
000002c0: 43e2 d63d 1dec 4f3d 30f4 a03d 7012 7ebd
000002d0: a6d1 f1bc 2608 273c f006 4dbd 20db 273d
000002e0: 317f 4ebc 10c5 773e afc6 653d d91e 463d
000002f0: 3be9 c33d cdbb 2f3e 2cbb 003d 9cdb 7cbd
00000300: f018 703d 5830 38bd c843 e63c 500a 583d
00000310: 6a0e d2bd 04f6 853d a2d8 fe3d 96f5 fcbd
00000320: f856 ccbd 409c 9dbd 2aa4 c0bd 90d3 9c3c
00000330: d0e7 44bc b090 bcbd 00e7 34bd 8ea0 afbd
00000340: 0c95 973d 78e8 303d 1005 a9bd 8ec7 f4bd
00000350: 78c5 e83d e87f 74bd bcbc 14bd 58bb b13d
00000360: 7063 88bd d0fc cd3c 5470 e93d 060b 973d
00000370: 368e 803d 1040 eebc 2ad0 953d d209 94bd
00000380: ec31 aebd 800f 393c fac2 863d 1218 ab3d
00000390: 8057 873c 80a4 64bc 243b 16bd 1029 bd3c
000003a0: c001 753c d0f9 e03c 10e1 233d f462 1d3d
000003b0: 50c1 793c 4c57 b33d 6a27 ac3d 7ccc 1e3d
000003c0: d0bc 933d 401e 4d3b 2c24 853d 5436 08bd
000003d0: 3033 733c c0ac 94bd 0871 46bd 4841 6abd
000003e0: 40c0 853d 2c3e c0bd b444 4bbd 4c99 10bd
000003f0: 40df a53d 2220 803d 7efd debd 6894 ca3c
-0.11103696 0.030439619 -0.015492046 -0.06669149 0.058701478 0.058346853 0.097653426 -0.019414475
-0.10911496 -0.07130188 -0.12225187 -0.016667444 0.005124066 0.015266035 0.046259567 0.10194484
-0.071512476 -0.12871125 -0.100618705 -0.097919 -0.057469837 -0.08433724 0.08274104 0.093508095
-0.10193238 0.044997826 0.08440846 0.008259099 0.041349813 -0.09457272 0.035843275 -0.051387653
-0.025741056 0.03693067 0.033570636 0.029956594 0.028430449 0.051719267 -0.09970818 0.06650853
-0.12371412 -0.08158071 0.027417734 -0.045382515 -0.04241243 -0.03752661 -0.07975506 -0.07193126
-0.12345923 -0.005268393 -0.08813742 0.081924334 0.024764447 -0.09615079 0.11772588 0.052671
0.11287179 0.11921176 0.08157648 0.039557405 -0.029291617 -0.058240224 -0.044658605 0.035683736
0.07856113 -0.027126277 0.10927971 -0.09178877 0.09302422 0.013718842 0.21637398 -0.03096773
0.049058918 -0.059674934 0.10109356 0.112312526 -0.021633066 0.20820627 -0.024098696 0.0026352783
-0.038998432 -0.097238995 -0.003299365 -0.106139556 -0.08771913 0.009721254 0.08566012 0.055989996
0.11381577 -0.024802372 0.042047862 -0.09766145 -0.008689448 0.087964356 0.26331332 0.148007
0.11993244 0.0406544 0.12940101 -0.07039283 -0.021264862 -0.014273835 -0.011793619 0.0039493293
-0.00014575114 0.083443835 0.045435622 -0.024529384 0.10377397 0.14778607 0.17281991 0.08234019
0.20258726 0.10854026 -0.050251916 0.115657 0.07166653 0.052942928 0.056058273 -0.081281886
0.006079987 0.09830923 0.0910779 0.12381292 0.09044442 0.10108644 0.060335666 -0.06405844
0.03652689 0.12787 0.031334907 0.10121615 0.08144014 0.09915594 -0.022079546 0.15789272
0.04466765 0.15303594 0.025550961 0.10411322 0.19926919 0.04982147 3.115798e-05 0.15586077
0.11432526 -0.13491338 0.10485531 -0.036899537 -0.011591558 0.22718321 -0.050178584 0.049552888
0.07038419 -0.0018594563 0.058087744 0.075106844 -0.087224066 -0.05143129 0.09745527 0.018317018
0.006870717 0.17220742 0.0017183097 -0.06660027 -0.054449674 0.042918697 -0.02268038 0.016204894
0.097521275 0.124847606 -0.028756008 0.17297703 0.0068328083 0.10868301 0.07906931 -0.0028794962
0.10492375 0.050762285 0.07859075 -0.062029302 -0.029518913 0.010194814 -0.050055444 0.04098046
-0.012603567 0.24196267 0.056097683 0.048369262 0.095659696 0.17161484 0.0314285 -0.061732873
0.058617532 -0.04496798 0.028108492 0.05274421 -0.102566555 0.065410644 0.12443663 -0.12351529
-0.099775255 -0.07695818 -0.09406312 0.01914385 -0.012018159 -0.092072845 -0.04416561 -0.08575545
0.07401475 0.04319045 -0.08252919 -0.119521245 0.11365789 -0.059692293 -0.036312804 0.08678311
-0.06659591 0.025144964 0.11398378 0.073751494 0.062771246 -0.029083282 0.07315095 -0.072284356
-0.085056156 0.011295199 0.065801576 0.083542004 0.016521215 -0.0139552355 -0.036677495 0.02309087
0.0149540305 0.02746287 0.04000956 0.038424447 0.015243843 0.08756885 0.08405955 0.03876923
0.072137475 0.0031298548 0.0650104 -0.033254936 0.014843747 -0.07259512 -0.04844764 -0.057191163
0.065308094 -0.09386858 -0.049626067 -0.035302445 0.08099222 0.06256129 -0.108881935 0.024728969

linear2.bias f4 [64]
00000000: 1fdd 513d 1192 493c 33a9 27bc f041 c7bc
00000010: 831d d4bc a9fb fa3c 8a84 793e 0037 eb3d
00000020: d3ee 8d3d 83bd cd3d d819 d43d 21ce 3d3e
00000030: 0892 3f3e 3d4f 593e 3a96 e83d 5822 75bd
00000040: 2aa1 2f3c 22cc 323d 49c3 053e 108c 40bd
00000050: 793c 213d fa2e 7abd 80fd 813b 78bd 603e
00000060: 1211 cdbc 4081 3abc 1653 51bd 2090 a83b
00000070: a5fc 653e 2539 513e e8cd ccbc c2d8 c03d
00000080: ddbb d93c 4c8f 763d 80d0 123e 3d90 223e
00000090: 8b87 e73d 3f4b 313e 34b1 843d 8aa1 f3bd
000000a0: 28ca cdbc 2056 423d 54df 71bd ec66 3bbd
000000b0: 6104 153d 81fc 51bc 3ef7 273e a782 033e
000000c0: fd61 a23d e12a c73d 6383 ddbc a420 f4bc
000000d0: d8c6 bebc 78bd 07bd d426 b83d 40ad 8c3d
000000e0: 50d9 5f3d f569 ac3d c0bb e43d 9f75 aa3d
000000f0: c44c 243d fb69 3c3e 5588 403e 926a 80bd
0.051236268 0.012302891 -0.010233211 -0.024323434 -0.025892979 0.030637579 0.24366966 0.114851
0.06930318 0.10045912 0.10356492 0.18535663 0.1870805 0.21221633 0.113567784 -0.059847206
0.010719577 0.043651707 0.13062777 -0.047008574 0.03936431 -0.061079957 0.003966987 0.21947277
-0.025032554 -0.011383355 -0.051104628 0.005144134 0.22459657 0.20431955 -0.025000528 0.09416343
0.026578838 0.060195252 0.14337349 0.15875335 0.1130515 0.1731386 0.06479111 -0.118960455
-0.02512081 0.047445416 -0.059050873 -0.04575245 0.03638113 -0.012816549 0.16402909 0.12842809
0.07928846 0.097249754 -0.02704019 -0.02980072 -0.023288175 -0.033139676 0.08991781 0.06868982
0.054650605 0.08418647 0.11168623 0.08323216 0.040112272 0.18399803 0.18802007 -0.06270327

linear3.weight f4 [64, 64]
00000000: 7b2f c0bd 00e3 86bd 37ab 003e a423 ef3d
00000010: cdb1 3abd 227d 36bd b23c 223e 2602 bc3d
00000020: da3e a7bd 04f8 453d d524 ed3d 1ffe e13d
00000030: 4c4d 433d ba88 033e dde6 a83c cc1d 4d3d
00000040: 42dc 293e dbe8 8f3d 3940 f4bc 36eb 83bd
00000050: e268 78bc 5582 9ebd b0d7 61bc c84d 3b3e
00000060: 1f5a 9a3d 94c4 a93d b0e1 afbd ae6a cb3d
00000070: 1e2e cebc 45ac 653d f80b 4f3d f627 ee3c
00000080: ebfd 193e adaa ec3c f9a4 9c3d dec7 9a3d
00000090: a505 3cbd e3fa c9bc 4fb4 95bd 3019 d2bd
000000a0: be99 ab3d d40f a9bd 149b c53d a488 78bd
000000b0: 2d73 bcbd a96e 123e b04a 0e3e ef36 dcbc
000000c0: 71c7 1c3e 8016 8a3c a5fb fa3d 1bc8 c6bd
000000d0: 4ae5 863d 6208 dfbd 47d7 0f3e b411 493d
000000e0: 3e00 843d 450d a33d 466e 2d3d 6256 fd3d
000000f0: b4b1 d43d 9414 ddbc 4765 103e 52b5 9f3d
00000100: 9110 e9bd 8d12 26bd 8684 7f3d e89b b73c
00000110: 3402 1d3e dd12 a63d d08d cf3d 0e42 9c3d
00000120: c1f0 1cbd 0067 163e 56ec d23d a9e9 033c
00000130: 1962 09bd a1bc 403e e9ea 85bd 22e9 83bd
00000140: 25c6 363e f133 3e3d 114d 0b3e 8cc8 673d
00000150: 05c8 363e 55d1 b43d d8cb 373d 98fd 6c3e
00000160: 9bd2 6ebd a0d0 d53b 6393 ab3c 042f dc3d
00000170: 1d3d cc3c ff57 1c3e 3004 d1bc 3a9e 183e
00000180: b6d5 c33d cfa3 883d fd57 673d c387 213e
00000190: 2e09 133e ea6e ab3d 9594 d83c c4f3 f53d
000001a0: 1cbe cb3d 585a 923c b06a dd3c 70d5 5a3c
000001b0: 3be1 f5bb 351b cb3d 0f3e b13d 03d9 453e
000001c0: 03fb 313e ed9a 6d3a b0a1 fe3d 94fe 02bc
000001d0: 782c 72bd 6a3b f3bd e853 ff3d 4024 3ebc
000001e0: 9039 fabd cd81 983c 9b40 3a3d afae e03d
000001f0: 700e 54bd 17d8 a63d 7f5c 163e a42c 733d
00000200: 7b93 293a f20b 603d 8024 7cbb 78cf 0fbd
00000210: 75c6 7cbd fa6d c83d 1dc9 313e dc7d 6dbd
00000220: a851 a3bc 9c1d f63d 77df ef3d 9b24 873d
00000230: b8bd 2a3e daaa fe3d beee 273d 1c64 f23d
00000240: c850 d73d 1e28 d63d 19bc dcbc 20ff eb3d
00000250: a1ec b33d 704e b7bc 38e5 883d b5c4 8f3d
00000260: 2d2a 593d f0aa bc3d 60f9 3cbc 1c57 3b3d
00000270: 2313 cf3c 0bef 92bd 2067 003d d215 e53d
00000280: bd26 853d 5f4c 343e 91bd a23d 2d62 00bd
00000290: 86ad 883d 6ecf 7cbd 0881 293d 42e7 d1bd
000002a0: 5388 a2b9 e81a 73bd 7873 8e3d 7e81 ac3d
000002b0: e72f cebd c65d 5d3d a80a 813d ec5a b33d
000002c0: d585 82bd 55e2 5d3d 02e3 0f3e f945 343d
000002d0: 809e 803a fc0a 0c3d 6bac 0d3e 149e 17bd
000002e0: 506a 1b3c 1e9b ce3d 3868 d53c 1997 babd
000002f0: d6dc b73d ed27 70bd 1742 963c 644c a93d
00000300: 7661 ecbc 8520 8e3d bea6 a0bc b29f ebbd
00000310: c35e 003e 0959 1d3e d9b3 243e 60c7 2bbc
00000320: 8398 8ebb 432a f63a 4cee d43b 01bb 4b3e
00000330: c5ae a53d 84af 27bc f4f3 0a3d 3cf4 593d
00000340: 4623 13bd 148c 9abd 378d 84bb 34a4 983d
00000350: c865 033e f28c a93b 36c4 f93d 42d0 363e
00000360: db26 ac3d 206f 243c a1d7 d73d 987a 3b3d
00000370: 53ef 8c3d 5856 f2bc f6e8 9a3d b48c ea3d
00000380: 1daa dc3d d006 313e 12c7 933c 773c d83d
00000390: 0620 7cbd 4bec dd3d 184c a8bc 2e1d fc3d
000003a0: a7e5 103e 9081 873d c876 88bc 7402 d3bd
000003b0: fc83 9cbd ecd8 82bd d279 a33d 3509 81bc
000003c0: 4d9a 0b3e d13a 213e 3218 113e ff71 adbd
000003d0: 7880 c8bd 42eb b9bd 74ff 133e aed5 f93d
000003e0: 44d5 2bbd 76a8 393e ca22 123e 7998 7e3d
000003f0: f0ab ab3d b8d2 79bd edf0 f43d 4048 b3bd
-0.09384056 -0.065862656 0.12565313 0.1167672 -0.04557972 -0.04455293 0.15843466 0.09180097
-0.08166285 0.04833223 0.11579291 0.11034798 0.047681138 0.12845126 0.020617897 0.050077245
0.16587928 0.070268355 -0.02981578 -0.06441347 -0.015161725 -0.077397026 -0.013784334 0.1829139
0.075367205 0.082894474 -0.08587968 0.09932457 -0.025168475 0.056072492 0.050548524 0.02907179
0.15038268 0.028889978 0.076486535 0.07557653 -0.04590382 -0.024655765 -0.07309782 -0.102587104
0.08378933 -0.08254972 0.096487194 -0.060677186 -0.092016555 0.14300026 0.13895679 -0.026881663
0.15310456 0.016856432 0.12255029 -0.09706136 0.06586702 -0.10890271 0.14046966 0.04908915
0.06445359 0.07961515 0.042341493 0.12369992 0.10385457 -0.026987351 0.14101134 0.07798256
-0.11380113 -0.040545035 0.062382244 0.02241321 0.15332872 0.08109067 0.101344705 0.076297864
-0.03831554 0.14687729 0.10298984 0.008051314 -0.03354082 0.18821956 -0.06538946 -0.06440951
0.17849024 0.046436254 0.13603617 0.05658774 0.17849739 0.088289894 0.044872135 0.23143613
-0.058306318 0.006525114 0.020944303 0.10751155 0.024931485 0.15267943 -0.025514692 0.14904109
0.095622465 0.06671869 0.056480397 0.15774445 0.1435897 0.083707646 0.026438037 0.12009385
0.0994837 0.017865345 0.027028412 0.0133565515 -0.007503656 0.09917299 0.08654415 0.19321065
0.1738091 0.0009063918 0.12433183 -0.0079952665 -0.05912444 -0.11876567 0.12467176 -0.011605322
-0.122180104 0.018616581 0.04547177 0.10970818 -0.05177158 0.081466846 0.14683722 0.059368744
0.00064688147 0.054698892 -0.0038473904 -0.035109967 -0.0617127 0.09786601 0.17361875 -0.057981357
-0.019936398 0.12017366 0.117125444 0.06598779 0.16673934 0.12434931 0.040999167 0.118355006
0.10513455 0.104568705 -0.02694516 0.115232706 0.08785368 -0.02237627 0.06684345 0.07019941
0.053018738 0.09212291 -0.011534065 0.04573737 0.02527768 -0.071745 0.031348348 0.111858025
0.06501529 0.17607258 0.07946313 -0.031343628 0.06673722 -0.061721258 0.04138282 -0.10249187
-0.00031000617 -0.05935183 0.06955618 0.08423136 -0.100677304 0.054044507 0.06300861 0.08757576
-0.06373183 0.054170925 0.1405144 0.044012044 0.0009812862 0.034190163 0.13835303 -0.03701599
0.009485796 0.1008818 0.026050672 -0.09110851 0.08977668 -0.058631826 0.018342061 0.082665235
-0.028855067 0.06939796 -0.019610759 -0.11505069 0.12536149 0.15365995 0.16084231 -0.010484546
-0.004351677 0.0018780906 0.0064981338 0.19895555 0.08089975 -0.010234717 0.033924058 0.053211436
-0.03592231 -0.07546249 -0.0040451544 0.07453194 0.12831795 0.0051742727 0.121956274 0.17852882
0.084058486 0.01003626 0.10539175 0.04577121 0.06881585 -0.029582188 0.07563965 0.11452618
0.10774634 0.17287755 0.01803926 0.10558408 -0.061553977 0.10836085 -0.020544097 0.12310253
0.14150105 0.06616509 -0.016658202 -0.10303202 -0.076423615 -0.06389031 0.0798222 -0.01575146
0.1363308 0.15745093 0.14169386 -0.08469009 -0.097901285 -0.09078075 0.14452916 0.12198959
-0.041951433 0.18130669 0.14271083 0.062157128 0.08382404 -0.060991973 0.119600154 -0.08754015

linear3.bias f4 [64]
00000000: 0bdc d03d af15 ebbc 32b4 c93d b352 473d
00000010: 83a8 f53c 95c8 583d 10f2 bebd c061 46bd
00000020: e3e4 b13d 781d 2c3e cf2b 963c 1292 073e
00000030: 94d2 913d 366c 723d 3aa1 9d3d 9383 b03d
00000040: 009c 213d 522e 853d 92bf afbc 6478 473e
00000050: fc06 e03c 80ed 3a3d a000 a53d 2291 b3bd
00000060: 5121 303d 238f 02bd 0293 bfbd 01fd 003d
00000070: 83b3 003e e97d b23d d59e 853d 688e 413d
00000080: 83a7 123e 4a3d fabd 60f5 ae3a 1c80 8a3d
00000090: e86b ddbc 1b7e 433e 2cdc 3e3e 749a f03d
000000a0: 7de6 3c3d e0dd a03b 1371 53bb 4077 013c
000000b0: d28e db3d 2033 cb3b bdb7 edbd dc95 103e
000000c0: 2ad4 303e 88d9 313d c757 c33d 63cb 0b3e
000000d0: 640a 4abd fe4c 3d3e 9fd0 2c3e af09 8ebc
000000e0: 3111 8d3d a041 503c 214d 403e d8e0 163a
000000f0: b422 f23d fef7 a5bd a787 0a3d 41b3 9c3d
0.1019822 -0.028696863 0.09848823 0.048662852 0.02998758 0.052925665 -0.093235135 -0.048433065
0.08686235 0.16808116 0.018331436 0.13239315 0.07120243 0.05918523 0.07696767 0.08618846
0.039455414 0.065029755 -0.021453653 0.19479519 0.02734708 0.045636654 0.0805676 -0.08767916
0.043000523 -0.031874787 -0.093542114 0.031491283 0.12568478 0.08715422 0.065244354 0.04725495
0.14321713 -0.12218721 0.0013348274 0.06762716 -0.027028993 0.19091074 0.18638676 0.117482096
0.04611825 0.004909262 -0.0032263442 0.007901967 0.107206 0.006201163 -0.11607311 0.14119667
0.17268434 0.043420345 0.095382266 0.13651805 -0.049326316 0.18486401 0.16876458 -0.017338602
0.068880446 0.012710959 0.18779422 0.000575555 0.11823025 -0.081039414 0.033820774 0.076513775

linear4.weight f4 [1, 64]
00000000: 96a2 5dbd f978 3cbd 3142 7ebd ce04 27bd
00000010: 9707 5dbd 64a5 32bd d1e6 8e3a e5ab 68bd
00000020: 03f0 65bd 9cc2 67bd 3dfd 51bd 8031 7abd
00000030: 1bba 14be 399c 37bd c24e 32bb b94b 6ebd
00000040: 44b7 51bd 0e90 69bd 4bfc 2bbd 3a60 03be
00000050: 27cb 70bd 408f 313b 0ed2 eb3a 2f2d 03b9
00000060: daa6 33bd 6c08 71bd 927c dcba f694 77bd
00000070: 0abd 5ebd 9cf7 20bb b6ac b6ba 1cb5 feba
00000080: ea7d 4cbd e72a f3ba 3422 4bbd 45b2 dbbd
00000090: c40f 1bbb ffb1 88bd 3d74 51bd 8bc5 a23a
000000a0: 1370 93bd e1f5 c3ba 991d 36bd e957 003b
000000b0: d081 c7ba 5630 493a 6037 453a 8326 35bd
000000c0: bdb8 73bd 0aed a7ba 1191 25bd 7175 7ebd
000000d0: 031e 43bd f9dc 80bd ef33 3fbd 7265 c4bd
000000e0: 7982 50bd cdbe 433b fb63 8fbd 0494 53bd
000000f0: 2726 c4ba 0c6c f6b9 7c46 51bd 3eb3 3cbd
-0.054110132 -0.046013806 -0.062074844 -0.040776066 -0.053962316 -0.04361476 0.0010902529 -0.056804556
-0.056137096 -0.05658208 -0.051266897 -0.061082363 -0.14524119 -0.04482672 -0.0027207588 -0.058177684
-0.051200166 -0.057022147 -0.041988652 -0.12829676 -0.05878749 0.002709344 0.0017991678 -0.00012509966
-0.043860294 -0.058845922 -0.0016821793 -0.060444795 -0.0543795 -0.002456165 -0.001393697 -0.0019432637
-0.04992477 -0.0018552215 -0.049593166 -0.107273616 -0.002366052 -0.06674575 -0.051136244 0.0012418492
-0.07199111 -0.0014950597 -0.04446182 0.0019583649 -0.0015221182 0.0007674744 0.0007523205 -0.04422618
-0.059502352 -0.0012811732 -0.04042155 -0.06212372 -0.047636043 -0.06292147 -0.046680387 -0.09589662
-0.05090568 0.0029868365 -0.07001492 -0.05165483 -0.0014964984 -0.00047001278 -0.05109261 -0.046069376
