models/noCBF_2025-11-17 19:56:56/1/Q2.pth (torch, 37764 bytes, 7 tensors)

linear1.weight f4 [64, 5]
-0.10271058 -0.25736853 0.18612847 -0.32787353 0.14010769 -0.20930903 0.084255435 0.07417218
0.20553897 -0.16073297 0.2165998 -0.50843084 0.27460968 -0.28707558 0.2506277 0.42527255
0.18257275 -0.19833194 -0.15544403 -0.09528035 -0.012694253 -0.48251414 0.15478879 -0.4325699
0.13483144 -0.48637694 -0.4780068 0.40765026 -0.6331579 -0.51697636 -0.15226711 -0.5021076
0.21009049 -0.605583 0.23790628 -0.017515663 0.080125555 -0.43173578 -0.18983267 0.26476896
-0.26070574 0.16212806 0.019756041 0.24387653 -0.47551942 -0.1429156 0.46483245 0.043467842
0.38149682 0.29511762 -0.35767934 0.23092008 0.36232886 -0.6036911 -0.17376865 0.42130288
0.17395668 -0.15487812 0.34005165 0.12367614 0.11761849 -0.34719214 0.0017646719 -0.3008799
-0.4724646 -0.060060192 0.23561719 0.3132617 -0.37939125 -0.5212604 -0.12669265 -0.2975971
0.24174847 0.004798128 -0.086000286 -0.07287066 0.26906702 0.43096718 -0.11227071 0.5369962
0.37427714 0.35932234 -0.17098607 -0.4372687 0.09280022 0.2675761 -0.015959805 -0.41297388
0.03384204 0.02639046 -0.24307446 -0.16753724 -0.018981732 0.2856965 -0.07915074 0.008042887
-0.16467859 0.222072 -0.66148007 -0.29839566 -0.4657546 0.074523315 0.10344959 -0.010647204
-0.56236106 0.09401669 0.0387927 -0.2254539 0.15439442 0.43739358 -0.15862195 0.41687554
-0.40614218 0.28206012 0.32879418 -0.49908555 0.18637203 0.07020501 -0.43191612 -0.543553
-0.0056263427 0.31348747 0.26678205 0.33622015 0.4075248 0.112723015 -0.013336726 0.10402103
0.38775712 -0.24022833 0.39850625 0.23031458 0.06666091 -0.065924205 0.11559576 -0.0278277
-0.24948505 0.07425444 0.105188385 -0.35806602 -0.38510847 -0.38606083 -0.2705347 -0.4336369
-0.61832505 -0.27409387 -0.37554398 0.41809368 -0.46592885 -0.19591495 0.36407885 -0.31263706
-0.4094892 0.17236371 -0.0280217 -0.20092279 -0.11987387 0.14030725 0.059888046 0.11275124
0.4127274 0.11151631 -0.076948054 0.200728 0.11772551 -0.059232026 -0.31832972 -0.07703312
-0.47708938 -0.6374694 -0.42266497 -0.040633064 -0.09834727 -0.07893142 -0.25584722 -0.49312764
-0.38000923 0.06759931 0.14376648 0.18894573 0.15225591 0.24655128 -0.1453125 -0.19545843
0.406356 -0.005919464 0.34973222 0.29700297 -0.008590786 -0.2072872 -0.4911258 -0.033816546
0.09517589 -0.37698737 -0.2727098 -0.18895647 -0.4922739 -0.029971188 0.008128784 0.2830043
-0.31920514 -0.3874661 0.12005246 -0.12625912 -0.40334278 0.1794437 -0.051448867 -0.4308329
-0.43333092 -0.4067033 0.16119768 -0.11449009 0.10858 0.6095283 0.23296574 -0.48438686
0.0331001 -0.258751 0.18003371 0.2678817 -0.2914169 0.39905456 0.39055282 0.16523717
0.4153365 -0.22227104 -0.55221564 -0.15188812 0.19742207 0.025295114 -0.5235258 -0.23503341
-0.16718936 -0.35384753 -0.43712837 -0.027066315 -0.44413924 -0.020124208 -0.44809374 -0.30719405
-0.24856363 0.29692543 0.35013077 -0.1707558 -0.44961217 -0.52417654 0.030128516 -0.06798476
-0.008852922 0.26916754 0.31694654 -0.24974605 -0.34138817 0.13207898 0.39969397 0.05526298
00000000: ed59 d2bd cfc5 83be 7698 3e3e 0adf a7be
00000010: 6478 0f3e 1b55 56be 1d8e ac3d 95e7 973d
00000020: cf78 523e 2f97 24be 57cc 5d3e 8628 02bf
00000030: a499 8c3e 92fb 92be 4652 803e 53bd d93e
00000040: 5af4 3a3e 8717 4bbe b82c 1fbe 5822 c3bd
00000050: 8efb 4fbc 180c f7be f480 1e3e cd79 ddbe
00000060: 4111 0a3e 6606 f9be 4fbd f4be 89b7 d03e
00000070: a316 22bf 9058 04bf e9eb 1bbe 208a 00bf
00000080: f621 573e 7d07 1bbf b49d 733e 027d 8fbc
00000090: de18 a43d 790c ddbe 7f63 42be cc8f 873e
000000a0: 397b 85be e604 263e 6cd7 a13c c5ba 793e
000000b0: 4877 f3be 7858 12be 85fe ed3e 560b 323d
000000c0: 8d53 c33e a819 973e bf21 b7be 5076 6c3e
000000d0: 2b83 b93e 808b 1abf 69f0 31be 03b5 d73e
000000e0: b321 323e 5f98 1ebe 401b ae3e eb49 fd3d
000000f0: f6e1 f03d 2bc3 b1be 904c e73a ee0c 9abe
00000100: e1e6 f1be ad01 76bd a245 713e d663 a03e
00000110: 923f c2be 5271 05bf b8bb 01be a65e 98be
00000120: e98c 773e 9d39 9d3b eb20 b0bd 363d 95bd
00000130: 27c3 893e bba7 dc3e 30ee e5bd 9578 093f
00000140: 41a1 bf3e 19f9 b73e f916 2fbe afe1 dfbe
00000150: 0b0e be3d bcff 883e 23be 82bc 5071 d3be
00000160: f39d 0a3d ce30 d83c 83e8 78be e28e 2bbe
00000170: 947f 9bbc d046 923e c819 a2bd 50c6 033c
00000180: 81a1 28be d866 633e c256 29bf 51c7 98be
00000190: 6377 eebe ae9f 983d 61dd d33d 9c71 2ebc
000001a0: e5f6 0fbf d38b c03d 18e5 1e3d 63dd 66be
000001b0: 9219 1e3e 0df2 df3e cb6d 22be b670 d53e
000001c0: def1 cfbe 2f6a 903e b657 a83e 2488 ffbe
000001d0: 4fd8 3e3e a5c7 8f3d 1c24 ddbe 4a26 0bbf
000001e0: 2f5d b8bb 6e81 a03e a897 883e 0c25 ac3e
000001f0: 17a7 d03e 53db e63d 4982 5abc fa08 d53d
00000200: 1a88 c63e 6afe 75be 0309 cc3e 96d7 6b3e
00000210: 8485 883d 4503 87bd 78bd ec3d ebf6 e3bc
00000220: 0279 7fbe b612 983d 026d d73d 6e54 b7be
00000230: f02c c5be c4a9 c5be 8683 8abe a805 debe
00000240: 8d4a 1ebf 0856 8cbe 4d47 c0be 6010 d63e
00000250: 3a8e eebe ee9d 48be 8b68 ba3e f711 a0be
00000260: 92a8 d1be 1d80 303e c48d e5bc b4be 4dbe
00000270: 6e80 f5bd b4ac 0f3e 2b4d 753d 1fea e63d
00000280: 0151 d33e aa62 e43d f196 9dbd a48b 4d3e
00000290: 121a f13d 489d 72bd 1dfc a2be 8ac3 9dbd
000002a0: 0f45 f4be 3231 23bf 8b67 d8be db6e 26bd
000002b0: 4b6a c9bd cca6 a1bd 68fe 82be 3a7b fcbe
000002c0: 9290 c2be 8271 8a3d 8537 133e fd7a 413e
000002d0: f9e8 1b3e f077 7c3e cdcc 14be 4126 48be
000002e0: e50d d03e 10f8 c1bb 1a10 b33e c610 983e
000002f0: 5ec0 0cbc 1943 54be d774 fbbe 3883 0abd
00000300: 94eb c23d 7d04 c1be 9ea0 8bbe ce7d 41be
00000310: 530b fcbe 2386 f5bc 972e 053c f1e5 903e
00000320: db6e a3be f561 c6be 10de f53d 124a 01be
00000330: f282 cebe 17c0 373e 0cbc 52bd 2196 dcbe
00000340: 8ddd ddbe 6a3b d0be 0111 253e c879 eabd
00000350: 315f de3d 0c0a 1c3f 928e 6e3e 8e01 f8be
00000360: f893 073d 037b 84be c25a 383e ca27 893e
00000370: 9934 95be e150 cc3e 8af6 c73e ef33 293e
00000380: fca6 d43e 059b 63be 015e 0dbf 8f88 1bbe
00000390: 0329 4a3e b337 cf3c c905 06bf 99ac 70be
000003a0: b033 2bbe 812b b5be 4acf dfbe 2dba ddbc
000003b0: 3866 e3be 86db a4bc 8b6c e5be 8a48 9dbe
000003c0: 7787 7ebe 9c06 983e 5744 b33e 9cda 2ebe
000003d0: 9133 e6be 6f30 06bf 14d0 f63c 983b 8bbd
000003e0: d90b 11bc 54d0 893e d146 a23e 6ebd 7fbe
000003f0: 6eca aebe b63f 073e b0a4 cc3e 6f5b 623d

linear1.bias f4 [64]
-0.13141367 0.24898157 0.5455643 -0.16157827 0.2658373 0.1197717 -0.16565873 0.13019326
-0.026872199 -0.44693667 -0.2606312 0.3612714 0.60614663 0.52746415 -0.2939889 0.17402774
0.16280055 -0.098942995 0.11152383 0.1314894 0.10151922 0.28829646 0.21984585 0.16190012
-0.4745826 -0.45146802 0.16790539 0.02279261 0.04765753 0.36507168 0.12474579 0.29315928
-0.3728196 0.58886325 0.4485309 -0.0694677 0.38965282 0.4004178 -0.1985519 -0.20460503
0.5015917 -0.040022876 -0.3541756 -0.14521101 -0.12685606 0.021645179 0.43676525 0.26029637
-0.05509989 0.5889811 -0.20054108 0.23807731 0.010868828 -0.022446549 -0.133876 0.07183099
-0.31043547 -0.16389854 -0.25574458 -0.022569638 0.4854549 -0.03693867 -0.19598958 -0.5106564
00000000: 4e91 06be 06f5 7e3e 1aaa 0b3f c674 25be
00000010: d41b 883e dd4a f53d 71a2 29be 6251 053e
00000020: 1623 dcbc e2d4 e4be 7471 85be 91f8 b83e
00000030: 6d2c 1b3f e407 073f b785 96be 5434 323e
00000040: 30b5 263e a0a2 cabd 9b66 e43d 28a5 063e
00000050: 4fe9 cf3d 989b 933e 451f 613e 25c9 253e
00000060: 7efc f2be d126 e7be 64ef 2b3e 91b7 ba3c
00000070: 8b34 433d adea ba3e b97a ff3d f918 963e
00000080: 36e2 bebe bebf 163f d8a5 e53e 1545 8ebd
00000090: 9380 c73e 9003 cd3e 3051 4bbe fb83 51be
000000a0: 5068 003f 07ef 23bd 8156 b5be 32b2 14be
000000b0: 8ee6 01be 3b51 b13c b29f df3e 9145 853e
000000c0: 6cb0 61bd 77c7 163f a45a 4dbe 8aca 733e
000000d0: 2b13 323c d3e1 b7bc ca16 09be 201c 933d
000000e0: 66f1 9ebe 05d5 27be f4f0 82be f6e3 b8bc
000000f0: 8b8d f83e 014d 17bd 7eb1 48be 61ba 02bf

linear2.weight f4 [64, 64]
0.0064183623 -0.08023723 -0.08776881 -0.08520655 -0.0892178 -0.09230116 0.008192781 0.10013658
0.11705334 0.09591266 0.103804626 0.0023069233 0.08909955 0.08542075 -0.031878915 -0.0058369106
-0.08843951 -0.119757265 -0.029628564 -0.08788087 0.05674315 -0.01160337 0.10554847 0.09935609
0.10484091 0.04471557 -0.04749877 -0.012403125 -0.08787152 0.09905831 0.039308622 -0.098421246
-0.08999549 0.049355805 -0.051662587 -0.10678662 0.023409054 -0.12357487 -0.018104084 0.039431103
-0.044603355 0.027457595 -0.0066482467 -0.06372917 -0.08903636 0.11286469 -0.017255604 -0.023334399
0.08579755 0.05950263 0.026687458 0.048319034 -0.10879648 0.09273585 0.058793597 0.12198436
-0.07222921 0.014789235 -0.04905523 -0.09976866 -0.031676203 -0.09839479 -0.11578056 -0.014189381
0.13965057 -0.019649453 0.08756972 0.05659713 0.054776978 -0.0113745835 0.011436658 0.061876744
0.16027676 -0.09938048 0.03784892 0.081092685 0.2165701 0.08985629 0.10020059 0.13246377
-0.055336192 -0.055020362 0.031427532 0.086500145 -0.012753968 -0.071365684 -0.090579465 0.11184924
-0.11877924 -0.15515567 -0.023622276 0.13531896 0.09682494 0.0016215 -0.03266239 0.16619653
-0.12116462 0.27234292 0.19851656 0.1500427 -0.120653495 0.0642169 0.14104941 0.06492343
-0.017476633 -0.012100562 -0.099639684 0.19205134 0.085771516 0.1670771 0.034772117 0.13863899
-0.050910998 0.19277415 0.06858793 0.14459541 0.19875197 -0.054291505 0.13438942 0.1357354
0.09054059 -0.024554525 0.056639694 0.022309218 0.2071181 -0.039038688 -0.02899298 -0.12991773
-0.08544429 -0.07077223 -0.025355875 0.03520994 0.09627324 -0.07733972 0.10137794 -0.07870589
0.035825185 0.004456102 0.13599405 0.07803954 -0.019738024 -0.08837519 -0.084456675 0.13770871
0.12352577 -0.007184908 0.020176688 0.15062065 0.0069627464 0.065767944 -0.115072444 0.15879229
0.014312634 -0.122153275 -0.15017559 0.06649495 -0.004730289 0.13521549 0.0061419904 0.1359832
-0.08407007 0.1042078 0.22722496 0.09744025 -0.067131415 0.069749534 -0.003036029 0.0978325
0.053839386 0.03213261 0.0017582801 0.20699267 0.006120475 0.029826583 0.12850568 0.028091976
0.081636846 0.13242991 -0.054649875 0.13233007 0.08816059 -0.06986504 0.027060105 0.053126678
0.044000164 0.14169638 -0.098716125 0.0030703929 0.023172151 -0.009521263 -0.06751321 -0.12479398
0.054959685 -0.12086643 0.014237046 0.017360374 -0.07971324 -0.097960144 -0.04702793 -0.041353315
0.07100165 0.030783132 -0.029407427 0.046539396 -0.07161985 0.1048522 0.06446695 -0.02757357
-0.051332176 0.094187126 0.0018592775 -0.033058837 -0.107991934 -0.027916461 -0.025176242 0.043068886
-0.10987301 0.05263032 -0.11201145 0.060501024 0.02444762 -0.040235296 0.124240816 -0.08108017
0.050606444 0.023060873 -0.038279444 -0.1072973 -0.06529236 0.08056493 -0.09795295 -0.11569299
0.10645841 0.12197462 -0.0045961738 0.042223334 -0.03419368 -0.11980116 -0.08162603 0.03693919
0.050884694 -0.11708632 -0.10750876 0.08275983 -0.0033913255 -0.02360639 0.0063018203 -0.030077294
0.08709793 0.09259857 0.030733615 0.06905487 0.09162514 -0.08042832 0.08949509 0.07891202
00000000: 2051 d23b 6b53 a4bd 22c0 b3bd c680 aebd
00000010: d2b7 b6bd 6408 bdbd 043b 063c 6814 cd3d
00000020: a9b9 ef3d db6d c43d 8597 d43d c02f 173b
00000030: d379 b63d 13f1 ae3d 7793 02bd 8e43 bfbb
00000040: c61f b5bd 4c43 f5bd 9ab7 f2bc e3fa b3bd
00000050: 816b 683d 101c 3ebc cc29 d83d 357b cb3d
00000060: d5b6 d63d ac27 373d 128e 42bd 7a36 4bbc
00000070: fcf5 b3bd 15df ca3d 1402 213d 1491 c9bd
00000080: 8e4f b8bd 5029 4a3d 269c 53bd f2b2 dabd
00000090: 58c4 bf3c d214 fdbd 044f 94bc 8282 213d
000000a0: 02b2 36bd c0ee e03c 89d9 d9bb 7084 82bd
000000b0: b258 b6bd 9a25 e73d a05b 8dbc c827 bfbc
000000c0: a0b6 af3d 08b9 733d a89f da3c 2eea 453d
000000d0: b0d0 debd 4bec bd3d 8ed1 703d f0d2 f93d
000000e0: e8ec 93bd 8c4e 723c 23ee 48bd 8353 ccbd
000000f0: e8be 01bd 3583 c9bd 5c1e edbd 947a 68bc
00000100: 8f00 0f3e e4f7 a0bc c157 b33d 64d2 673d
00000110: d35d 603d 765c 3abc d260 3b3c 7872 7d3d
00000120: 971f 243e fe87 cbbd 7807 1b3d ec13 a63d
00000130: 8dc4 5d3e 9306 b83d f835 cd3d 95a4 073e
00000140: 34a8 62bd 085d 61bd 28ba 003d fd26 b13d
00000150: 05f6 50bc 2c28 92bd ba81 b9bd 3711 e53d
00000160: 8842 f3bd 21e1 1ebe 8183 c1bc 0e91 0a3e
00000170: 274c c63d 8388 d43a 00c9 05bd 6c2f 2a3e
00000180: 2825 f8bd 8870 8b3e ed47 4b3e cba4 193e
00000190: 2e19 f7bd 2684 833d 426f 103e 93f6 843d
000001a0: 282b 8fbc 7041 46bc e40f ccbd 1ba9 443e
000001b0: faa8 af3d 4216 2b3e 356d 0e3d 61f7 0d3e
000001c0: 0d88 50bd 9666 453e d477 8c3d d210 143e
000001d0: a385 4b3e c560 5ebd 619d 093e 38fe 0a3e
000001e0: 586d b93d 9226 c9bc 06ff 673d d2c1 b63c
000001f0: c416 543e 08e7 1fbd b082 edbc 2709 05be
00000200: 6afd aebd 08f1 90bd 20b7 cfbc 4c38 103d
00000210: e82a c53d 4a64 9ebd 3d9f cf3d 8e30 a1bd
00000220: 6ebd 123d 7e04 923b 0642 0b3e 32d3 9f3d
00000230: a3b1 a1bc 0dfe b4bd 9ff7 acbd 8303 0d3e
00000240: 14fb fc3d 606f ebbb 9549 a53c 4d3c 1a3e
00000250: c027 e43b 58b1 863d 1aab ebbd 729a 223e
00000260: 8a7f 6a3c 7f2b fabd a1c7 19be 812e 883d
00000270: 8a00 9bbb ee75 0a3e c042 c93b 2e3f 0b3e
00000280: ee2c acbd e66a d53d a9ad 683e c18e c73d
00000290: 327c 89bd d8d8 8e3d 1df8 46bb 685c c83d
000002a0: b086 5c3d 7c9d 033d 1776 e63a e3f5 533e
000002b0: 448e c83b e156 f43c fe96 033e 2521 e63c
000002c0: 3831 a73d b59b 073e 8cd8 5fbd 8981 073e
000002d0: 8a8d b43d 6715 8fbd 27ad dd3c 5c9b 593d
000002e0: 8439 343d db18 113e ae2b cabd a538 493b
000002f0: 86d3 bd3c 12ff 1bbc 5e44 8abd fc93 ffbd
00000300: 681d 613d d288 f7bd 8042 693c 5837 8e3c
00000310: b240 a3bd 549f c8bd 5ca0 40bd 1862 29bd
00000320: 5069 913d e82c fc3c d8e7 f0bc 18a0 3e3d
00000330: 6ead 92bd c0bc d63d 4007 843d f8e1 e1bc
00000340: b041 52bd 2ee5 c03d 00b3 f33a b468 07bd
00000350: e02a ddbd 10b1 e4bc 683e cebc 0069 303d
00000360: 1a05 e1bd e492 573d 4266 e5bd eccf 773d
00000370: 6046 c83c c4cd 24bd f871 fe3d 5c0d a6bd
00000380: b448 4f3d 28ea bc3c e8ca 1cbd b0be dbbd
00000390: 00b8 85bd 3aff a43d 8e9b c8bd 72f0 ecbd
000003a0: de06 da3d d4cd f93d 809b 96bb 60f2 2c3d
000003b0: ac0e 0cbd 505a f5bd 8c2b a7bd 8c4d 173d
000003c0: 786c 503d f4ca efbd 8e2d dcbd fc7d a93d
000003d0: 0041 5ebb 3062 c1bc 807f ce3b a864 f6bc
000003e0: 6660 b23d 52a4 bd3d 10c5 fb3c a46c 8d3d
000003f0: f6a5 bb3d 9ab7 a4bd 3449 b73d a09c a13d

linear2.bias f4 [64]
-0.12157509 -0.021327473 -0.001967616 0.07561864 0.14709279 -0.09094488 -0.060063142 -0.022161433
0.032591566 -0.009503116 -0.08556733 0.08609348 0.033637445 0.06390457 0.045864996 0.076618254
0.048217677 -0.01254062 0.16143395 0.04242372 -0.104671516 0.19546403 0.13384873 0.066229805
0.10433312 0.06641273 0.18352318 0.17355354 0.09803517 -0.08602744 -0.0032159481 0.031712055
-0.02476561 0.16032735 0.19367604 0.09470464 -0.059590787 0.04519351 -0.095006526 0.015540559
0.072786614 0.09290874 0.18800628 0.10108187 0.16782124 0.040358044 0.060010955 0.21043286
0.100615904 0.18895093 0.07726893 -0.048948362 0.016476206 0.0017187244 0.13807723 0.1318655
0.17526428 0.003031107 0.06559619 0.09588443 0.055798963 0.03679445 0.102060914 -0.052434593
00000000: 5cfc f8bd f4b6 aebc 1ef3 00bb f2dd 9a3d
00000010: 7e9f 163e 4f41 babd c504 76bd e58b b5bc
00000020: bc7e 053d f5b2 1bbc ed3d afbd c751 b03d
00000030: 6bc7 093d 66e0 823d efdc 3b3d 08ea 9c3d
00000040: e67f 453d 2c77 4dbc f14e 253e 7fc4 2d3d
00000050: 055e d6bd b927 483e a40f 093e 7ea3 873d
00000060: 9aac d53d 6603 883d 80ed 3b3e 05b8 313e
00000070: aac6 c83d 282f b0bd a8c2 52bb 80e4 013d
00000080: 40e1 cabc da2c 243e 0353 463e 82f4 c13d
00000090: 7815 74bd d41c 393d c892 c2bd d49d 7e3c
000000a0: 2611 953d f046 be3d b884 403e 0304 cf3d
000000b0: 55d9 2b3e 7a4e 253d 0cce 753d b67b 573e
000000c0: b60f ce3d 5a7c 413e 2c3f 9e3d 147e 48bd
000000d0: 1cf9 863c d246 e13a 1e64 0d3e c007 073e
000000e0: 7b78 333e 89a5 463b 4c57 863d 0e5f c43d
000000f0: 748d 643d c7b5 163d 5005 d13d a8c5 56bd

linear3.weight f4 [64, 64]
0.07135283 0.009357509 -0.025008066 0.004985258 -0.015213851 -0.051708445 -0.010852296 0.13581648
0.023777328 0.050433386 0.04244533 0.15784535 0.16340683 -0.054742754 0.058044832 0.12058711
0.1449131 -0.001561793 0.0803596 0.034208708 0.070146866 0.042629413 0.1296573 0.0010148756
-0.05745034 0.18634674 0.035437267 -0.043603335 -0.026963321 -0.11843403 -0.039054792 -0.07299119
-0.015735418 0.06794947 0.13800356 -0.07109609 -0.08355351 0.16017076 0.012753049 -0.013285254
0.006994128 0.14116387 0.07750233 0.025303038 -0.03730152 0.050276794 0.055333957 0.07265749
-0.030563623 0.0091481665 -0.014068804 -0.008847594 0.14061551 -0.07085047 0.06620316 0.14417219
0.17354828 0.043296184 0.12366661 -0.06583874 -0.035778306 -0.05948646 0.021912005 -0.11533761
-0.023684679 -0.062360074 -0.021280263 -0.009009436 0.051620398 0.023733605 0.1007831 0.052315008
0.013601142 0.08740508 0.0552778 -0.009808317 -0.010996672 0.04821986 0.003753855 0.24250898
0.19666041 0.076805934 0.06830959 0.11629087 0.0671154 0.107100025 0.16781734 0.026464095
0.0747201 -0.03659725 -0.059170645 -0.04579404 0.06707774 0.042697757 0.05254434 0.07585426
0.107714295 0.14440393 0.14398335 -0.08204172 0.012822285 -0.030946529 0.10571769 -0.026226792
0.10600637 0.1560935 0.06234532 0.032284867 0.041317273 0.061849598 0.038651675 0.027460154
-0.016228199 0.043367334 -0.018942699 -0.12212996 0.04657335 0.12400762 0.045745563 0.15061492
0.16018075 0.15833385 -0.02227793 -0.044473313 0.096634306 0.1312882 0.1550138 -0.12499155
0.05256571 -0.025651557 -0.03233514 0.050304234 -0.011320845 -0.017229527 0.013814047 0.015500666
-0.036272503 0.069847286 -0.057485327 -0.056847032 0.058365956 -0.033482015 -0.12651297 0.095920175
0.03618672 -0.042696994 0.07953761 -0.08963163 -0.09134808 -0.11783448 -0.048769362 0.05078944
-0.04941158 0.032338914 -0.1246542 -0.025483929 0.027191445 0.03448008 -0.085506804 0.005835235
-0.010081083 -0.105742276 -0.089237824 0.087809786 0.05597706 0.038657166 -0.027046442 -0.04834831
0.052855775 -0.0368186 -0.04296566 0.08705477 -0.008265136 -0.09073309 -0.09354164 -0.019036641
0.016307145 -0.022140944 0.092370406 -0.036669046 0.020037945 0.09397173 0.014379429 0.041726615
0.06270835 0.032236725 -0.0014318675 0.08876974 -0.104980804 0.048434865 0.10899086 0.09944472
0.067594215 0.15975763 -0.00020799403 0.02486083 0.16016114 0.099318705 0.11931006 -0.061963476
0.024991535 0.025314825 -0.06751107 -0.039239917 -0.02378401 -0.09645651 0.15214343 0.1935112
0.007801071 0.11249115 0.07927031 0.07459933 -0.07330883 0.18881695 0.09154405 0.1048711
0.030077755 0.017231764 0.14241257 -0.021504799 0.08224729 -0.014384508 0.13036473 0.09360768
-0.038989305 -0.026451243 -0.051332198 -0.05779606 0.014849916 0.0787139 -0.037777998 -0.0114717735
0.08286813 -0.0058171684 0.0030074413 0.12458883 0.13837366 -0.0397598 0.047191814 0.03367794
0.042589694 0.19570264 -0.009014623 0.04683718 0.086067684 0.013753642 0.031913046 0.10599795
0.14123228 0.12399202 -0.055863135 0.11670471 0.100105576 0.14963071 0.22729488 -0.03509946
00000000: 6f21 923d 3d50 193c b7dd ccbc 605b a33b
00000010: 8443 79bc 3ccc 53bd d4cd 31bc 7a13 0b3e
00000020: acc8 c23c 3d93 4e3d 28db 2d3d 36a2 213e
00000030: 1f54 273e f039 60bd 6bc0 6d3d 60f6 f63d
00000040: 1a64 143e 14b5 ccba 9393 a43d 6e1e 0c3d
00000050: 29a9 8f3d 2e9c 2e3d e2c4 043e 9305 853a
00000060: 0c51 6bbd aed1 3e3e ab26 113d 6999 32bd
00000070: 2fe2 dcbc 8a8d f2bd ebf7 1fbd 687c 95bd
00000080: 90e7 80bc 1729 8b3d ce50 0d3e d49a 91bd
00000090: 1a1e abbd ce03 243e 2af2 503c 65aa 59bc
000000a0: 002f e53b 438d 103e 8bb9 9e3d 5148 cf3c
000000b0: 7bc9 18bd 0aef 4d3d dca5 623d 73cd 943d
000000c0: 9060 fabc 31e2 153c d780 66bc 80f5 10bc
000000d0: 83fd 0f3e 0d1a 91bd 8695 873d e0a1 133e
000000e0: a4b6 313e 5757 313d eb44 fd3d 76d6 86bd
000000f0: 468c 12bd 13a8 73bd ce80 b33c 2036 ecbd
00000100: 5f06 c2bc 476d 7fbd f253 aebc 509c 13bc
00000110: e96f 533d fa6c c23c 5f67 ce3d 4348 563d
00000120: 53d7 5e3c 6f01 b33d f96a 623d 10b3 20bc
00000130: 632b 34bc 3082 453d 3c03 763b 4654 783e
00000140: 5961 493e 6e4c 9d3d e6e5 8b3d e829 ee3d
00000150: cd73 893d 4257 db3d 4fd8 2b3e 3bcb d83c
00000160: da06 993d ffe6 15bd eb5c 72bd 8892 3bbd
00000170: 0e60 893d d8e3 2e3d bc38 573d 7a59 9b3d
00000180: 5099 dc3d a0de 133e 5f70 133e 7d05 a8bd
00000190: 9014 523c 9383 fdbc 8482 d83d 92d9 d6bc
000001a0: de19 d93d f9d6 1f3e ce5d 7f3d 233d 043d
000001b0: 4d3c 293d 0156 7d3d 3851 1e3d 1ef4 e03c
000001c0: 00f1 84bc f2a1 313d b82d 9bbc 461f fabd
000001d0: b2c3 3e3d b5f7 fd3d b35f 3b3d cc3a 1a3e
000001e0: 6c06 243e 4522 223e 3580 b6bc a629 36bd
000001f0: 35e8 c53d 6a70 063e f0bb 1e3e 92fb ffbd
00000200: 244f 573d 3723 d2bc da71 04bd d00b 4e3d
00000210: 117b 39bc f024 8dbc 5054 623c 81f6 7d3c
00000220: 7a92 14bd 180c 8f3d bc75 6bbd 6fd8 68bd
00000230: 2411 6f3d 7024 09bd 9e8c 01be cc71 c43d
00000240: 8738 143d 0be3 2ebd 9de4 a23d ca90 b7bd
00000250: b414 bbbd 3453 f1bd 62c2 47bd 9608 503d
00000260: cc63 4abd cf75 043d b44a ffbd acc3 d0bc
00000270: 98c0 de3c fc3a 0d3d 311e afbd 8035 bf3b
00000280: 202b 25bc 688f d8bd 52c2 b6bd 9ed5 b33d
00000290: 3448 653d fa56 1e3d 8090 ddbc e108 46bd
000002a0: 4c7f 583d 1acf 16bd c3fc 2fbd c549 b23d
000002b0: 7e6a 07bc 45d2 b9bd c292 bfbd bbf2 9bbc
000002c0: 9096 853c ed60 b5bc b22c bd3d 4832 16bd
000002d0: 9e26 a43c 4074 c03d b297 6b3c 87e9 2a3d
000002e0: 3c6d 803d a80a 043d 80ad bbba e9cc b53d
000002f0: 2d00 d7bd a363 463d 9a36 df3d aca9 cb3d
00000300: d66e 8a3d 8197 233e f918 5ab9 f0a8 cb3c
00000310: 4801 243e 9b67 cb3d d558 f43d 6acd 7dbd
00000320: 0cbb cc3c 0961 cf3c 3e43 8abd 09ba 20bd
00000330: afd6 c2bc fe8a c5bd 7dcb 1b3e cd27 463e
00000340: 20a0 ff3b c361 e63d 7958 a23d 89c7 983d
00000350: f122 96bd 3b59 413e 727b bb3d a9c6 d63d
00000360: a065 f63c a129 8d3c 9ad4 113e d52a b0bc
00000370: 4471 a83d 00ad 6bbc 557e 053e 62b5 bf3d
00000380: 40b3 1fbd 47b0 d8bc b641 52bd 90bb 6cbd
00000390: 104d 733c c134 a13d 1abd 1abd 1bf4 3bbc
000003a0: c4b6 a93d f29d bebb 7e18 453b 6e28 ff3d
000003b0: d3b1 0d3e 2cdb 22bd 344c 413d e1f1 093d
000003c0: 8872 2e3d 4666 483e 12b2 13bc 58d8 3f3d
000003d0: 4144 b03d f556 613c 41b7 023d 7415 d93d
000003e0: 329f 103e 87ef fd3d bed0 64bd e102 ef3d
000003f0: 2704 cd3d cb38 193e fdbf 683e 74c4 0fbd

linear3.bias f4 [64]
0.21441132 0.17910945 -0.026398132 0.08696352 -0.114325985 0.023273077 0.059776124 0.08699635
0.07905004 -0.047742452 0.11619027 0.0036324353 -0.10093291 0.024086481 -0.09273799 0.089261584
0.065184176 0.06382878 -0.10015975 0.11870917 0.025844349 -0.117831126 0.18824363 0.039036177
0.14809099 -0.011304713 0.14335978 0.1705944 0.17619559 -0.034908958 -0.032902658 0.19502063
-0.09491776 0.04438314 0.003097094 0.054105233 -0.035454795 0.16670963 0.10209404 0.071422495
0.17244683 0.053513497 0.05522224 0.035486106 0.0028415148 -0.049450148 0.017216764 -0.08559489
0.096622825 0.011833578 -0.023372984 0.15466376 -0.037285894 0.0007275788 -0.03684394 0.0019514962
-0.074500635 0.058312643 -0.038735576 -0.0438437 0.088254586 0.15735844 0.09296996 0.08609073
00000000: a48e 5b3e 7868 373e e540 d8bc ee19 b23d
00000010: be23 eabd 2ea7 be3c cfd7 743d 242b b23d
00000020: fde4 a13d 978d 43bd 2af5 ed3d 270e 6e3b
00000030: eab5 cebd 0351 c53c 6aed bdbd c7ce b63d
00000040: 487f 853d aab8 823d 8e20 cdbd cb1d f33d
00000050: 87b7 d33c 7251 f1bd f0c2 403e 66e4 1f3d
00000060: 2aa5 173e 6737 39bc e8cc 123e 4cb0 2e3e
00000070: 9e6c 343e b2fc 0ebd f0c4 06bd 7db3 473e
00000080: 3e64 c2bd 18cb 353d 9df8 4a3b 739d 5d3d
00000090: 0c39 11bd eeb5 2a3e ae16 d13d f545 923d
000000a0: e795 303e f830 5b3d b730 623d e159 113d
000000b0: b538 3a3b 3d8c 4abd 2c0a 8d3c 604c afbd
000000c0: 30e2 c53d a0e1 413c b378 bfbc 2d60 1e3e
000000d0: 18b9 18bd fdba 3e3a ace9 16bd 59c9 ff3a
000000e0: ca93 98bd 3dd9 6e3d 32a9 1ebd 7495 33bd
000000f0: d2be b43d 9222 213e 0967 be3d 5650 b03d

linear4.weight f4 [1, 64]
-0.09335369 -0.06947136 -0.0036023222 -0.043905374 0.0018004067 -0.103785865 -0.045636743 0.001245385
-0.00092380313 -0.003742195 -0.00038102746 -0.047087442 -0.0022454504 -0.05622307 0.0014745361 -0.05070763
-0.0006115998 -0.074095175 -0.0015161366 -0.045625422 -0.0011188866 0.0012694069 -0.065484986 -0.0633534
-0.0491447 -0.050212376 -0.058567915 -0.0574523 -0.06856806 -0.041666023 -0.050188575 -0.10598472
-0.0016224947 -0.053001847 -0.05528504 -0.048350897 0.0022797775 -0.04580264 -0.0025077334 -0.047744118
-0.07644709 -0.00078692177 -0.046897363 -0.051703263 -0.06402551 -0.048979543 -0.04677489 -0.0026177627
-0.04875006 0.0018696635 -0.04685027 -0.14081407 0.0009776731 -0.05576136 -0.04215114 -0.05447353
0.0015471856 -0.04854292 -0.049437676 -0.0005574678 -0.0019626203 -0.083017364 -0.0471034 -0.049556598
00000000: 3830 bfbd 0047 8ebd f014 6cbb 1fd6 33bd
00000010: a0fb eb3a af8d d4bd 98ed 3abd 303c a33a
00000020: 612b 72ba 9d3f 75bb a4c4 c7b9 c3de 40bd
00000030: 6828 13bb 294a 66bd 3945 c13a ceb2 4fbd
00000040: c553 20ba 36bf 97bd 1ab9 c6ba b9e1 3abd
00000050: 9ba7 92ba 3a62 a63a fe1c 86bd 6dbf 81bd
00000060: f44b 49bd 7eab 4dbd e9e4 6fbd 1a53 6bbd
00000070: 696d 8cbd fea9 2abd 8992 4dbd 840e d9bd
00000080: e3a9 d4ba 7718 59bd 9172 62bd 970b 46bd
00000090: 5268 153b 8d9b 3bbd c958 24bb 568f 43bd
000000a0: 4b90 9cbd 6d49 4eba 7317 40bd cdc6 53bd
000000b0: ce1f 83bd c69e 48bd 0797 3fbd c58e 2bbb
000000c0: 25ae 47bd 7f0f f53a 12e6 3fbd 9031 10be
000000d0: 4425 803a 0666 64bd aca6 2cbd a31f 5fbd
000000e0: efca ca3a f1d4 46bd 297f 4abd 0823 12ba
000000f0: 4e9f 00bb 0205 aabd 7fef 40bd dcfb 4abd
