models/noCBF_2025-11-17 20:07:46/1/policy.pth (torch, 55714 bytes, 12 tensors)

linear1.weight f4 [64, 3]
0	0x3e85c6ea	0.26128322
1	0xbf0e2747	-0.5552868
2	0x3d7e7c78	0.06213042
3	0x3f07e937	0.5309023
4	0xbec93bcf	-0.39303443
5	0xbe8ed607	-0.27897665
6	0x3f031573	0.51204604
7	0x3eaddb14	0.33956206
8	0x3c012afd	0.007883784
9	0x3ecc680d	0.39923134
10	0xbc809814	-0.015697517
11	0xbf10fd9e	-0.5663699
12	0x3e8e8001	0.27832034
13	0x3f072d95	0.5280393
14	0xbef3004d	-0.47461167
15	0x3dd12ab3	0.10213222
16	0xbd97008e	-0.07373153
17	0x3ee92984	0.45539486
18	0xbb42c3cd	-0.0029718757
19	0xbcbca8ef	-0.023029773
20	0xbf10cf42	-0.5656625
21	0xbd9ee2c2	-0.07758094
22	0x3e5196f2	0.20467737
23	0xbea659fd	-0.3249053
24	0x3e43c39e	0.19117591
25	0xbed91caf	-0.42404696
26	0xbef2d516	-0.47428197
27	0xbea0abfa	-0.31381208
28	0x3e7f0d46	0.24907407
29	0xbe76d9da	-0.24106541
30	0xbf07013f	-0.52736276
31	0xbe94e20c	-0.2907871
32	0x3e79e340	0.24403095
33	0xbf0a34f4	-0.5398705
34	0x3ea4218e	0.3205685
35	0x3e6ae162	0.22937539
36	0x3e6d59cd	0.23178788
37	0x3e778423	0.241715
38	0xbdec0227	-0.11523848
39	0x3e80d2e1	0.25160888
40	0x3e9faa83	0.31184778
41	0xbe9a8acb	-0.30184016
42	0x3dcb8379	0.09937186
43	0xbe805fd5	-0.25073114
44	0x3b9ecaab	0.0048459372
45	0x3ef07f30	0.46972036
46	0x3eb34614	0.35014403
47	0xbf119e36	-0.56882036
48	0x3db60cc5	0.08889154
49	0xbd42bd50	-0.047543824
50	0xbd7c376e	-0.0615763
51	0x3d8cba01	0.06871415
52	0xbea4bc5f	-0.32174966
53	0x3e3f030e	0.18653509
54	0xbe8bf375	-0.2733418
55	0xbc924bfe	-0.017858502
56	0x3ea96ecf	0.33092353
57	0x3eb96cb6	0.36215752
58	0x3e8de001	0.27709964
59	0xbe9ce428	-0.3064282
60	0xbeacb714	-0.33733428
61	0xbc44238f	-0.011971368
62	0xbf0e7472	-0.5564643
63	0xbdb5ff15	-0.08886544
64	0x3e5ae3a6	0.21375903
65	0xbe98c1d4	-0.2983538
66	0x3edacf92	0.4273649
67	0x3ef11670	0.4708743
68	0xbe3757b5	-0.17904551
69	0x3ed2a58d	0.4114193
70	0x3eb178ec	0.3466257
71	0x3e063e82	0.13109782
72	0x3f19235b	0.59819573
73	0x3d83c073	0.06433191
74	0x3c17b49f	0.009259372
75	0xbe04db89	-0.12974371
76	0x3d95700a	0.072967604
77	0x3c96b0af	0.018394796
78	0x3e2ae254	0.166879
79	0x3ee27dc9	0.4423659
80	0x3e2ccad1	0.16874243
81	0xbed10190	-0.40821505
82	0x3dc8b4c2	0.09800102
83	0x3ef5a79d	0.4797944
84	0xbea27f8a	-0.3173793
85	0x3db355ad	0.08756576
86	0xbec0eff7	-0.3768308
87	0x3eda0dff	0.42588803
88	0x3d19ec59	0.037578914
89	0x3e94a624	0.29033005
90	0xbeb212c4	-0.34779942
91	0xbdcc6427	-0.0998004
92	0xbc38705e	-0.011257259
93	0x3c8d7ea8	0.017272308
94	0xbcf6791d	-0.030087048
95	0xbd75b649	-0.059988294
96	0xbf03f852	-0.5155078
97	0xbe97224b	-0.2951835
98	0xbec47b31	-0.38375238
99	0x3cfe087d	0.031009907
100	0x3e7271f1	0.23676278
101	0x3e8a2ea5	0.26988712
102	0x3f0da9c7	0.55337185
103	0x3ee05f73	0.43822822
104	0x3ea2cad2	0.31795365
105	0xbd176efd	-0.03697108
106	0xbeea4d13	-0.45761928
107	0xbf07df85	-0.5307544
108	0xbec997da	-0.39373666
109	0xbe628360	-0.22120428
110	0x3e10959c	0.14119571
111	0xbf112e50	-0.5671129
112	0xbe794fc8	-0.2434684
113	0xbeca5c14	-0.39523375
114	0x3e4be572	0.19911745
115	0xbe231cfd	-0.15929027
116	0x3eafd4d8	0.34342074
117	0x3dba7fb2	0.09106387
118	0x3dd245ba	0.102672055
119	0x3d7aca29	0.06122795
120	0xbea5bc09	-0.32370022
121	0x3f0125e4	0.5044844
122	0xbef95a88	-0.48701882
123	0xbcb77dc4	-0.022398837
124	0x3eea3163	0.45740804
125	0x3dc57f10	0.09643376
126	0xbf03c55c	-0.5147302
127	0xbf15d3ce	-0.58526313
128	0x3f015390	0.5051813
129	0xbdc5f66f	-0.09666144
130	0x3e6d9c53	0.23204164
131	0xbe89ee4f	-0.26939628
132	0xbe4a1422	-0.19734243
133	0xbef408cd	-0.47662964
134	0x3ec2ca9c	0.38045204
135	0xbe4af42a	-0.19819704
136	0xbdf7c26b	-0.12097629
137	0xbdad72ff	-0.084691994
138	0x3ec43438	0.3832109
139	0x3f00bfbc	0.50292563
140	0xbead4523	-0.3384181
141	0x3dc2b1b1	0.09506548
142	0x3ea053c5	0.3131391
143	0x3ed80a69	0.42195442
144	0xbf07ac51	-0.5299731
145	0x3e0e802d	0.13916083
146	0xbed9c0e5	-0.4252998
147	0x3e8773a5	0.26455417
148	0xbeb4f322	-0.35341746
149	0xbf063c6d	-0.5243595
150	0xbe731392	-0.23737934
151	0x3ebf731a	0.37392503
152	0xbe3fb977	-0.18723093
153	0xbdcc8084	-0.0998545
154	0x3efba97a	0.49152738
155	0x3e686473	0.22694568
156	0xbf048f66	-0.5178131
157	0xbeb5afc2	-0.35485655
158	0xbe006b8e	-0.12541029
159	0xbdfbcdf4	-0.12295142
160	0x3c9dc85c	0.019260578
161	0xbe79f563	-0.24410014
162	0x3efc8e94	0.49327528
163	0x3d988d20	0.074487925
164	0xbf0412f3	-0.51591414
165	0xbeac82f9	-0.33693674
166	0x3e9b4147	0.3032324
167	0xbe6e5742	-0.23275474
168	0x3dad05bc	0.08448359
169	0x3eaa6926	0.33283347
170	0x3e146ae8	0.14493906
171	0xbf00f63f	-0.5037574
172	0x3e50a65c	0.20375961
173	0xbed3e025	-0.41381946
174	0xbf0e0793	-0.5548031
175	0xbe539ddc	-0.20665687
176	0x3cd0fc44	0.025510915
177	0xbd0f5b19	-0.034998987
178	0xbe8fdbbe	-0.28097337
179	0x3ce62cf4	0.028097607
180	0xbeeb1beb	-0.45919737
181	0x3e410b3f	0.18851946
182	0xbe054c79	-0.13017453
183	0xbe77b749	-0.24191011
184	0x3ebbc91d	0.36676875
185	0xbe715dc2	-0.23570922
186	0xbe2690e0	-0.16266203
187	0xbec77d20	-0.3896265
188	0x3edbdfe4	0.42944252
189	0xbd834595	-0.06409756
190	0x3e41e927	0.18936597
191	0x3cb08e68	0.02155228

linear1.bias f4 [64]
0	0xbef13cd5	-0.47116724
1	0x3ece42fc	0.4028548
2	0xbe33db62	-0.17564157
3	0x3d6508bc	0.055916533
4	0x3e41c42f	0.18922494
5	0xbe63b362	-0.22236398
6	0xbe0a9005	-0.13531502
7	0x3e714644	0.2356196
8	0x3cf7e9db	0.030262878
9	0xbe47a809	-0.19497694
10	0x3dd09693	0.1018497
11	0x3e2c21df	0.16809796
12	0xbdf4cc32	-0.1195301
13	0x3eeb68bd	0.45978346
14	0x3f3db60d	0.7410591
15	0x3e476a3b	0.19474117
16	0x3e4a2c87	0.19743548
17	0xbdc615e7	-0.09672146
18	0x3f2edc1b	0.68304604
19	0x3df7cf1a	0.12100048
20	0x3b95b292	0.0045684064
21	0xbe890ba7	-0.26766703
22	0xbee0d840	-0.43914986
23	0x3e977f97	0.2958953
24	0x3f065b76	0.5248331
25	0xbe35a928	-0.17740309
26	0xbe943a95	-0.28950945
27	0x3e8c11fc	0.2735747
28	0xbeea908d	-0.45813408
29	0x3e8e1cc0	0.2775631
30	0xbf0ce9e9	-0.5504442
31	0xbdaaaad7	-0.08333366
32	0xbeb3e62e	-0.3513655
33	0xbf3bc62c	-0.7334926
34	0x3d1e1ee0	0.038603663
35	0x3f0c6fc6	0.5485805
36	0x3d96a8b0	0.07356393
37	0xbe330bec	-0.17485017
38	0xbf211ccc	-0.62934566
39	0x3f0d2d68	0.5514741
40	0x3f0e9930	0.55702496
41	0x3f3c6629	0.73593384
42	0xbef49155	-0.4776713
43	0xbeafffe2	-0.3437491
44	0x3e930a37	0.2871873
45	0xbef00147	-0.46875975
46	0x3ec0f20e	0.37684673
47	0xbe2ddff1	-0.16979958
48	0xbe9e5405	-0.30923477
49	0xbeeac43e	-0.45852846
50	0x3e71ffe7	0.23632775
51	0xbe491437	-0.19636618
52	0x3f2f00a7	0.6836037
53	0x3e12fe55	0.14354832
54	0xbe539509	-0.20662321
55	0xbe7d16ef	-0.2471578
56	0xbee92adc	-0.45540512
57	0xbd3f4f4a	-0.046706475
58	0xbeb676e6	-0.35637587
59	0x3f1d4b00	0.61442566
60	0x3eb3bacb	0.3510345
61	0xbf0ed5c9	-0.5579496
62	0xbb84652e	-0.004040382
63	0x3f1c01f9	0.6094051

linear2.weight f4 [64, 64]
0	0xbbb62580	-0.0055586696
1	0x3d8c9944	0.068651706
2	0xbc7a0340	-0.015259564
3	0x3d7209e0	0.05909145
4	0x3c02d1a0	0.007984549
5	0xbd48a8b0	-0.048988998
6	0x3dc8a3aa	0.097968414
7	0x3d71713c	0.05894588
8	0x3dd5baaa	0.10435994
9	0x3d88b040	0.06674242
10	0x3cb876b8	0.022517547
11	0xbd092564	-0.033482924
12	0xbd226a4c	-0.039652154
13	0xbd8f4b0e	-0.069967374
14	0xbca952b8	-0.020669326
15	0xbd199f98	-0.037505716
16	0x3c939c18	0.018018767
17	0xbd85c422	-0.0653155
18	0x3d5167a0	0.051124215
19	0xbd3d88e4	-0.046273127
20	0xbdf52cea	-0.11971457
21	0xbdfec1ae	-0.12439285
22	0xbc6983d0	-0.014252618
23	0x3d828bee	0.06374346
24	0x3dd311fa	0.10306163
25	0x3d544300	0.05182171
26	0xbca608d0	-0.020267874
27	0xbddf2768	-0.10896188
28	0x3df81aa6	0.12114458
29	0xbda6b878	-0.08140653
30	0xbdbcc094	-0.09216419
31	0x3b739e40	0.0037173182
32	0xbd7e2388	-0.062045604
33	0xbc53c9a0	-0.012926489
34	0x3dfb875c	0.12281677
35	0x3dcc300e	0.09970103
36	0xbd95a42c	-0.07306704
37	0xbd9d6ae0	-0.076864004
38	0x3d03a068	0.032135397
39	0x3d99e1a8	0.07513744
40	0xbd2fa414	-0.042881086
41	0x3d4e6784	0.05039169
42	0x3d532a60	0.051554084
43	0x3d85a4ee	0.065255985
44	0xbdba68ac	-0.09101996
45	0x3cd6ffd8	0.026245043
46	0x3d6e8494	0.058231905
47	0x3c21f830	0.009885833
48	0xbd6071e8	-0.05479613
49	0x3bb168e0	0.0054141134
50	0xbbc4a620	-0.006001249
51	0xbdae6246	-0.08514838
52	0xbcf42930	-0.029804796
53	0x3db9dc34	0.090752035
54	0x3d198680	0.037481785
55	0x3d4285c0	0.047490835
56	0x3c34de40	0.011039317
57	0x3df5d7f8	0.120040834
58	0x3d94845a	0.072518066
59	0x3ddf8c50	0.10915434
60	0x3dafa41a	0.08576222
61	0x3d54f920	0.051995397
62	0x3c1ceb30	0.009577557
63	0x3d41bda4	0.047299996
64	0xbd38903d	-0.04505943
65	0xbdcce462	-0.10004498
66	0xbe043954	-0.12912494
67	0xbbe1b240	-0.006887704
68	0xbd61eeb8	-0.0551593
69	0x3bbf0a8e	0.0058301156
70	0xbd933161	-0.07187153
71	0xbd568f9c	-0.05238305
72	0xbda52c7d	-0.08065126
73	0x3d27607f	0.04086351
74	0xbd9a5f9c	-0.07537767
75	0xbdf6b343	-0.1204591
76	0xbcc1c688	-0.023654237
77	0x3d876948	0.06611878
78	0xbdf697b1	-0.120406516
79	0x3c9b8dc8	0.018988505
80	0x3dde73f4	0.1086196
81	0x3dc7ef1c	0.09762403
82	0x3d952135	0.07281724
83	0xbde5dd82	-0.1122389
84	0x3c8b4fa1	0.017005743
85	0xbdb5b3c8	-0.08872181
86	0x3dd7e2e0	0.1054132
87	0xbd0d0c5b	-0.03443561
88	0x3dbee52a	0.09321053
89	0xbdcc1cd2	-0.099664345
90	0x3dbae4d5	0.091256775
91	0x3d7e484e	0.062080674
92	0xbce1ef57	-0.027579946
93	0x3dab018e	0.08349906
94	0xbde5b2f0	-0.1121577
95	0x3d651829	0.055931244
96	0x3daaf070	0.08346641
97	0xbc334279	-0.010941141
98	0xbe06278d	-0.13101025
99	0xbbfe901e	-0.007768645
100	0x3d81c750	0.06336844
101	0xbd64b2d8	-0.05583462
102	0xbdc9c4e7	-0.09852009
103	0xbd9e621f	-0.07733559
104	0xba483900	-0.0007637888
105	0xbe28eec0	-0.16497326
106	0x3d962b9f	0.07332539
107	0xbdb65c66	-0.08904342
108	0x3db5a3f9	0.08869166
109	0x3b942857	0.0045214104
110	0xbd9c35d6	-0.07627456
111	0xbd3cb2d0	-0.046068966
112	0xbc35e65b	-0.011102284
113	0x3dbec8a6	0.093156144
114	0x3df81484	0.12113288
115	0x3c214199	0.0098423
116	0xbda2722e	-0.07931934
117	0xbde367fd	-0.111038186
118	0xbdbf0dfc	-0.09328839
119	0x3de35478	0.111000955
120	0xbda14f2f	-0.07876431
121	0xbbada667	-0.0052993777
122	0xbdcd75ba	-0.1003222
123	0x3ca89f44	0.020583756
124	0x3b99a438	0.004688766
125	0x3d090f7c	0.033462033
126	0xbe02432b	-0.12720935
127	0xbd547d02	-0.05187703
128	0xbddd4025	-0.1080325
129	0x3d34fe7c	0.044188008
130	0xbc4e64a9	-0.012597241
131	0x3cad14c8	0.021128073
132	0x3cf4f650	0.029902607
133	0x3ba6c910	0.0050898865
134	0x3d8ce922	0.06880404
135	0x3d1841ac	0.037172005
136	0xbd2ad31e	-0.041705243
137	0xbce0087b	-0.027347794
138	0x3c9105ea	0.017703015
139	0x3dcdeaa3	0.10054519
140	0xbcc82668	-0.024432376
141	0xbccadee0	-0.024764478
142	0x3db3be28	0.08776504
143	0x3d3416e0	0.043967128
144	0xbdab5c9d	-0.08367274
145	0xbbc97698	-0.0061481707
146	0x3d5f57b7	0.05452701
147	0x3df2764c	0.118389696
148	0xbdde081d	-0.10841391
149	0xbb1e6a00	-0.0024172068
150	0xbd38d628	-0.04512611
151	0x3de5fca3	0.11229827
152	0xbe4b69d5	-0.1986459
153	0x3da312a9	0.079625435
154	0xbb0a1850	-0.002107162
155	0xbd1c2831	-0.038124267
156	0xbd8d1014	-0.06887832
157	0xbcd37637	-0.025813205
158	0x3d10ebdd	0.035381187
159	0x3b22718c	0.0024786917
160	0xbcd075e5	-0.025446841
161	0xbd2352e4	-0.039873973
162	0x3dd5e009	0.10443122
163	0x3de76eb6	0.11300413
164	0xbc4a870c	-0.012361299
165	0xbda58af1	-0.080831416
166	0xbcbe6045	-0.023239264
167	0x3dae5af8	0.08513445
168	0x3baa4c00	0.005197048
169	0x3e11a84c	0.14224356
170	0x3d594e66	0.053053282
171	0xbd21ab54	-0.03947003
172	0xbdb25a90	-0.0870868
173	0xbd7a14cf	-0.061055
174	0x3d771fd4	0.060333088
175	0xbd842f71	-0.06454361
176	0x3cded6ec	0.027202092
177	0xbd0ef23a	-0.034898974
178	0xbd29d4b0	-0.0414626
179	0x3c3f9917	0.011694214
180	0x3daad533	0.08341446
181	0xbd11b881	-0.035576347
182	0x3cd8f538	0.026484117
183	0x3d8056a6	0.06266527
184	0xbe0ca339	-0.1373414
185	0x3db1394e	0.08653508
186	0x3d4f0203	0.050539028
187	0xbc9cd12b	-0.019142708
188	0xbcb8e272	-0.022568915
189	0xbdd5ebc0	-0.10445356
190	0x3d41d234	0.047319606
191	0xbc8cac49	-0.017171996
192	0x3d4d6a55	0.050150234
193	0x3d51fa68	0.051264197
194	0xbe641bab	-0.2227618
195	0x3dfb609a	0.12274285
196	0xbd13afd8	-0.03605637
197	0x3da0b194	0.0784637
198	0x3ca68f59	0.020332025
199	0x3db19a00	0.08671951
200	0xbddb5137	-0.1070885
201	0xbdfae1eb	-0.12250122
202	0xbdd058e6	-0.10173206
203	0x3d402d72	0.04691834
204	0x3d4fe2ec	0.05075352
205	0xbc45c110	-0.0120699555
206	0xbbe49eff	-0.0069769616
207	0x3dd7eca4	0.105431825
208	0xbdc0196f	-0.09379851
209	0xbd9243f3	-0.071418665
210	0x3db9578d	0.09049902
211	0x3d0630d0	0.032761395
212	0x3d67dbc3	0.056606065
213	0x3cd5d200	0.026101112
214	0x3cb64fb8	0.02225481
215	0x3d4992be	0.04921221
216	0xbd3188e9	-0.04334346
217	0x3db78798	0.08961409
218	0xbd5b4806	-0.053535484
219	0xbd395d91	-0.045255248
220	0x3c88eb19	0.016713666
221	0xbcba5cfd	-0.022749418
222	0xbd67c418	-0.056583494
223	0xbd06c3e7	-0.03290167
224	0xbc89b8d7	-0.016811771
225	0xbca05f43	-0.019576674
226	0xbd8d7f10	-0.06909001
227	0x3d8b85b5	0.06812612
228	0x3d22c942	0.039742716
229	0xbcfadac8	-0.030621901
230	0x3a4fb16b	0.00079228607
231	0xbd2632f5	-0.04057594
232	0xbd33b614	-0.043874815
233	0xbda1078e	-0.07862769
234	0x3de2c48d	0.11072645
235	0x3d4c2674	0.04984136
236	0x3c631f03	0.013862374
237	0x3ddd690f	0.10811054
238	0x3dcb5e1c	0.09930059
239	0x3d0d7056	0.03453096
240	0xbe245fba	-0.16052142
241	0xbd0921a5	-0.03347935
242	0xbdb007e8	-0.08595258
243	0xbd18b4a7	-0.03728166
244	0xbb9b03fb	-0.004730699
245	0xbd38abd4	-0.045085743
246	0xbd97b22a	-0.07407029
247	0x3d510f80	0.051040173
248	0x3dca1ee6	0.09869175
249	0xbe018cf4	-0.12651426
250	0x3d7e5b4e	0.062098794
251	0xbda7678f	-0.08174049
252	0xbda88701	-0.08228875
253	0xbdcd379a	-0.10020371
254	0xbc8151bd	-0.015786046
255	0xbc1dd0cd	-0.0096323015

linear2.bias f4 [64]
0	0xbb8f85a0	-0.004379943
1	0x3c523913	0.01283099
2	0x3e106bb8	0.14103591
3	0xbbf34f50	-0.0074252263
4	0x3e0338d4	0.12814647
5	0x3d9f308f	0.07772934
6	0x3cc29848	0.023754254
7	0x3defa0f7	0.117006235
8	0x3d85f141	0.06540156
9	0xbc03c7e4	-0.008043263
10	0x3bfc89a0	0.007706836
11	0x3e3e2011	0.1856692
12	0xbe057700	-0.13033676
13	0x3c986a25	0.018605301
14	0x3e1c2cd8	0.15251482
15	0x3da82cc0	0.082116604
16	0xbd8b786d	-0.06810079
17	0xbd41b4cc	-0.047291562
18	0x3de83f12	0.11340155
19	0x3df23502	0.11826517
20	0x38e1d9e5	0.00010769422
21	0xbd25fef8	-0.04052636
22	0x3da035f3	0.0782279
23	0x3e656ced	0.22404833
24	0xbd2caca0	-0.042156816
25	0x3e5a6f33	0.21331482
26	0xbdb99036	-0.09060709
27	0xbdb2ad20	-0.08724427
28	0x3e812112	0.25220543
29	0xbd88ffac	-0.066893905
30	0x3dafbbff	0.08580779
31	0xbdb9e262	-0.09076382
32	0xbd86fe45	-0.06591467
33	0xbcb0cb00	-0.021581173
34	0xbd8dd459	-0.06925268
35	0x3e116ecd	0.14202423
36	0x3d96ee08	0.073696196
37	0x3d6b347a	0.057423092
38	0x3dcfb268	0.1014145
39	0xbbf46ac0	-0.0074590147
40	0x3c9da34e	0.019242909
41	0x3d2f4912	0.042794295
42	0x3e0732f5	0.13203032
43	0xbe2dd343	-0.16975121
44	0x3db05fec	0.08612046
45	0xbd7762a4	-0.060396805
46	0x3e03934e	0.12849161
47	0x3e9219e1	0.2853537
48	0x3e0c5160	0.13702917
49	0x3e3000df	0.17187832
50	0x3d3ba8c8	0.04581526
51	0x3d6e4646	0.058172487
52	0x3d63db88	0.055629283
53	0xbda4243c	-0.08014724
54	0xbc2c0d43	-0.010501209
55	0xbdf52a08	-0.119709074
56	0x3c25eee5	0.010127758
57	0x3e80ce5c	0.2515744
58	0xb98fe22e	-0.00027443602
59	0x3e75e8b6	0.24014553
60	0xbe827707	-0.25481436
61	0x3dda0898	0.106461704
62	0xbd1ed064	-0.038772956
63	0x3d4c8842	0.049934633

linear3.weight f4 [64, 64]
0	0x3cebcca0	0.028784096
1	0xbdc458f7	-0.09587281
2	0x3ca184f8	0.019716725
3	0xbd505c22	-0.050869115
4	0x3d658346	0.056033395
5	0xbd9e32e5	-0.07724551
6	0x3d9c99ce	0.076465234
7	0x3cfdab89	0.030965583
8	0xbb761b00	-0.0037552714
9	0x3c30b585	0.010785465
10	0x3df6ffe2	0.120605245
11	0xbdf81ca9	-0.121148415
12	0xbd4584c1	-0.048222307
13	0xbdb001b4	-0.08594075
14	0xbd84c444	-0.06482747
15	0x3d71b488	0.05901006
16	0x3db3ce45	0.08779577
17	0x3d589614	0.0528775
18	0xbda35a44	-0.07976201
19	0xbddfecfa	-0.109338716
20	0xbd0f6dbe	-0.035016768
21	0xbde97372	-0.113989726
22	0x3d856056	0.06512515
23	0xbac33cfc	-0.0014895494
24	0xbd9b0250	-0.075688004
25	0xbcc9e66e	-0.02464601
26	0xbd9f3416	-0.077736065
27	0xbd9d83a0	-0.07691121
28	0x3d2685af	0.040654834
29	0xbcb9d4d8	-0.0226845
30	0xbd99fb40	-0.07518625
31	0x3cf8c204	0.030365951
32	0x3de69ab4	0.11259976
33	0xbd8421e8	-0.064517796
34	0xbca1fa53	-0.019772684
35	0xbba5e370	-0.005062513
36	0x3d3df435	0.046375472
37	0x3d6009c3	0.05469681
38	0xbd8a286a	-0.067459896
39	0x3d6ca39c	0.057773218
40	0xbdc3c2a0	-0.09558606
41	0x3d11ae6f	0.035566743
42	0xbddd28b5	-0.1079878
43	0xbdb5e7ba	-0.08882089
44	0xbdf39844	-0.11894277
45	0xbd22deb4	-0.039763168
46	0xbcab48af	-0.020908682
47	0xbd4de59b	-0.050267797
48	0x3dec9d50	0.115534425
49	0xbd3faf85	-0.046798248
50	0x3c5fd5b0	0.013661787
51	0xbc4071c7	-0.011745877
52	0x3d24e7fc	0.0402603
53	0x3dfcb470	0.12339103
54	0xbdfafa27	-0.12254744
55	0x3db2d4ae	0.08731972
56	0x3ce76450	0.028246075
57	0xbdc12a7d	-0.09431932
58	0x3dfb3383	0.122656845
59	0x3cae0263	0.021241372
60	0x3da5eba4	0.081015855
61	0xbd719de2	-0.05898846
62	0xbdd9d3be	-0.1063609
63	0x3da9f03c	0.08297774
64	0xbd4dede4	-0.0502757
65	0x3d14bba3	0.036311757
66	0x3dd3c44c	0.10340175
67	0xbd4064b4	-0.046971038
68	0xbda2e7f3	-0.07954397
69	0x3afd4473	0.0019322768
70	0x3c97c630	0.01852712
71	0x3e097310	0.13422799
72	0xbdc1f029	-0.09469635
73	0xbd97a7ce	-0.07405053
74	0x3d40fdc4	0.04711701
75	0x3da3ca8d	0.07997618
76	0x3d0065fe	0.031347267
77	0x3dcdaee1	0.10043121
78	0xbd953cb1	-0.072869666
79	0x3b58fec0	0.0033110827
80	0x3dbaee79	0.09127516
81	0x3db59391	0.08866037
82	0xbdc642bf	-0.096806996
83	0xbdd43b81	-0.10362912
84	0x3d307c24	0.04308714
85	0x3ca40638	0.020022497
86	0xbcfe8d7f	-0.03107333
87	0x3d6a8de2	0.057264216
88	0x3d689ac0	0.056788206
89	0x3dcdb744	0.10044721
90	0x3dec5ef8	0.11541551
91	0xbd86babe	-0.06578587
92	0xbd4fccec	-0.050732538
93	0xbd0d1fe0	-0.034454226
94	0x3d301420	0.042987943
95	0xbdb86a97	-0.090047054
96	0x3d0f570f	0.034995135
97	0xbd427c18	-0.047481626
98	0xbe011216	-0.12604555
99	0xbc64267a	-0.013925189
100	0x3bbc5331	0.005747222
101	0xbd3e4560	-0.04645288
102	0x3dc63270	0.09677589
103	0x3c22c2d0	0.009934142
104	0x3db04aa7	0.08607989
105	0x3d06bb6d	0.032893587
106	0x3dcacd8a	0.09902485
107	0xbdaa923c	-0.08328673
108	0xbde761fd	-0.11297987
109	0x3dd02f94	0.10165325
110	0x3dc7812c	0.097414345
111	0xbc01a38b	-0.007912527
112	0x3983de8d	0.0002515208
113	0xbdb56254	-0.08856645
114	0x3daf25d0	0.08552134
115	0x3d17ff89	0.03710893
116	0x3ddbdcfa	0.10735507
117	0xbdd66098	-0.104676425
118	0x3b2964c2	0.002584741
119	0x3dcccd7e	0.10000132
120	0xbd9d103e	-0.076691136
121	0x3cd17cea	0.025572259
122	0xbe03a7c3	-0.12856965
123	0x3da7833d	0.081793286
124	0xbd11468a	-0.035467662
125	0x3e040c11	0.12895228
126	0xbd9a9630	-0.07548177
127	0xbd8cd042	-0.068756595
128	0x3a4e1600	0.00078615546
129	0xbd214d47	-0.039380338
130	0x3cccb2de	0.024987634
131	0xbd240ff3	-0.040054273
132	0x3da23402	0.07920076
133	0xbcc0404e	-0.023468163
134	0xbce78d48	-0.02826561
135	0x3dd763c5	0.105170764
136	0xbcd9f29f	-0.026604949
137	0x3c0b3413	0.008496302
138	0xbd0484c4	-0.032353178
139	0x3bff63cd	0.0077938796
140	0xbd95af3a	-0.073088124
141	0xbd4d9da0	-0.05019915
142	0xbde4ab49	-0.111654826
143	0xbd66dd3c	-0.05636333
144	0x3def5a0e	0.116870984
145	0x3cfd3ad4	0.03091184
146	0x3c1def81	0.009639622
147	0x3c8b1c93	0.016981399
148	0x3d9bb85d	0.07603524
149	0xbd3f4260	-0.04669416
150	0x3d77a805	0.06046297
151	0x3e039016	0.12847933
152	0xbdea7176	-0.11447422
153	0x3d777575	0.06041475
154	0xbd35ab60	-0.04435289
155	0x3d76a534	0.060216144
156	0x3dc768ff	0.09736823
157	0xbc890c98	-0.016729638
158	0x3e19c818	0.15017736
159	0x3c9b2206	0.018937122
160	0xbd028249	-0.03186253
161	0x3d2a8bd0	0.04163724
162	0xbda9e5d3	-0.082957886
163	0xbc6dbe40	-0.014510691
164	0xbc976daf	-0.018484918
165	0xbd73bf46	-0.059508584
166	0xbca6f1d8	-0.020378992
167	0x3d886a0e	0.06660853
168	0xbd4b1e06	-0.04958918
169	0x3d0eb02c	0.03483598
170	0x3cf0a09b	0.029373458
171	0x3caca116	0.021072906
172	0xbdcd869e	-0.10035442
173	0x3d138d90	0.036023676
174	0x3d243169	0.040086184
175	0x3d90c79a	0.07069321
176	0x3bbf0925	0.0058299475
177	0x3df8630d	0.121282674
178	0x3cdedb78	0.02720426
179	0xbd204468	-0.039127737
180	0xbd7ac974	-0.061227277
181	0xbd4d961f	-0.050191995
182	0x3d9e6f32	0.077360526
183	0xbbebcf00	-0.007196307
184	0xbdd4831c	-0.1037657
185	0x3e1e60f0	0.15466666
186	0xbd96ebf4	-0.07369223
187	0x3dcbf747	0.09959274
188	0x3ca08142	0.019592885
189	0x3d023fec	0.031799242
190	0xbd90c0d8	-0.07068032
191	0x3d18ed60	0.037335753
192	0x3d1ee70c	0.038794562
193	0x3dd72370	0.10504806
194	0x3d6c8af2	0.057749696
195	0xbc03593d	-0.0080168815
196	0x3cd36992	0.025807176
197	0xbdc246e5	-0.09486178
198	0xbdb77028	-0.08956939
199	0xbd745ce2	-0.059658892
200	0xbd7f9f77	-0.062407937
201	0x3cdda304	0.027055271
202	0x3dc71e82	0.09722616
203	0xbdfc0b42	-0.12306835
204	0x3cd4d854	0.02598206
205	0x3d5a5e30	0.05331248
206	0xbc9fa500	-0.019487858
207	0x3ca5d780	0.02024436
208	0x3d31e09d	0.0434271
209	0x3d700853	0.05860169
210	0x3d88561c	0.06657049
211	0xbd810c7e	-0.06301211
212	0x3d0b9fc4	0.03408791
213	0x3dbe0552	0.092783585
214	0x3cf10658	0.02942197
215	0x3d5a42e0	0.053286433
216	0xbc1354e0	-0.008992404
217	0x3dc71843	0.097214244
218	0xbd165de4	-0.036710635
219	0x3d7331d8	0.059373707
220	0xbd5fe005	-0.054657
221	0xbdc02ad2	-0.09383167
222	0xbdef7143	-0.11691525
223	0xbdafa276	-0.08575909
224	0xbc89f575	-0.016840676
225	0x3deeedba	0.116664365
226	0xbd4c49c6	-0.049875043
227	0xbdd3b925	-0.10338048
228	0xbd270293	-0.04077394
229	0xbde3e316	-0.111272976
230	0x3dae5048	0.08511406
231	0xbdb2158e	-0.086955175
232	0xbdbcb3ee	-0.09214006
233	0xbdbb0aec	-0.091329426
234	0x3d9f77be	0.07786511
235	0x3de93949	0.113878794
236	0x3d9b7e43	0.07592442
237	0x3d5911bb	0.052995425
238	0x3dae8057	0.08520573
239	0xbddb5ee7	-0.107114606
240	0x3deda178	0.11603063
241	0x3db853af	0.090003364
242	0x3d85d490	0.06534684
243	0xbdac48ff	-0.084123604
244	0xbd8c4c34	-0.06850472
245	0x3db843b8	0.08997291
246	0xbcb0d260	-0.02158469
247	0x3cb96d78	0.022635207
248	0xbc3ae4d0	-0.011407092
249	0x3cc03650	0.023463398
250	0xbc93e711	-0.018054517
251	0xbd5c36f4	-0.053763345
252	0xbb96fac0	-0.0046075284
253	0xbc990f8b	-0.01868417
254	0xbd9ecd12	-0.07753958
255	0x3de54353	0.11194482

linear3.bias f4 [64]
0	0x3d838840	0.06422472
1	0x3e31d76d	0.17367335
2	0x3e771bbc	0.24131674
3	0x3df89f28	0.12139732
4	0x3e81caf9	0.25350168
5	0xbdf93ba6	-0.1216958
6	0x3ae3bcd9	0.0017375007
7	0x3dc545a9	0.09632427
8	0x3df8ffd6	0.12158172
9	0xbd8d43eb	-0.0689772
10	0xbe2441da	-0.16040745
11	0x3e34cf39	0.17657174
12	0x3d2a4026	0.041565083
13	0x3caced36	0.021109205
14	0x3e2806ee	0.16408893
15	0x3ca68017	0.02032475
16	0x3d5b27d3	0.053504776
17	0x3c296fc0	0.010341585
18	0x3e250347	0.16114531
19	0xbd9548ec	-0.07289299
20	0x3e3627d0	0.17788625
21	0x3e175dfb	0.14781944
22	0x3e7e367a	0.24825469
23	0xbca2151c	-0.019785456
24	0x3e4c19bb	0.1993169
25	0x3d052dd0	0.032514393
26	0x3e550a0e	0.20804617
27	0xbdd5ddfe	-0.10442732
28	0xbd18b5fe	-0.037282936
29	0x3d5f3e99	0.054503057
30	0x3d7b7d04	0.06139852
31	0x3e1b4def	0.15166448
32	0xbda54846	-0.08070426
33	0x3cbebb50	0.023282677
34	0x3dd0e0be	0.10199116
35	0x3db765cb	0.08954962
36	0x3cfca74a	0.030841488
37	0x3d91ee1c	0.07125494
38	0xbd4580e4	-0.048218623
39	0x3e769a11	0.24082209
40	0xbc5c5507	-0.0134480065
41	0xbe3f2268	-0.18665469
42	0x3cb6c87f	0.0223124
43	0x3e6e0487	0.23243915
44	0x3de4bf31	0.11169279
45	0xbd0bb682	-0.0341096
46	0x3e0dc385	0.13844116
47	0x3e6e6f91	0.23284747
48	0x3e5b78e0	0.21432829
49	0xbe04b3b9	-0.12959184
50	0x3e85de0a	0.26145965
51	0xbce4a49b	-0.027910521
52	0xbc5f0030	-0.013610885
53	0x3d39dfcc	0.045379445
54	0x3d98914f	0.074495904
55	0xbde82255	-0.11334673
56	0x3d8919ed	0.06694398
57	0xbdaa6c2c	-0.083214134
58	0xbe58608e	-0.21130583
59	0x3dc294b5	0.0950102
60	0x3dade71b	0.084913455
61	0xbe4dc2d2	-0.2009385
62	0xbd7679c2	-0.06017471
63	0x3d13cec4	0.03608586

linear4.weight f4 [64, 64]
0	0x3debf40c	0.115211576
1	0x3d2eace4	0.04264535
2	0xbda032fa	-0.07822223
3	0x3d4a6610	0.04941374
4	0xbc2b78d0	-0.010465816
5	0xbd645554	-0.055745438
6	0x3d6c2a00	0.05765724
7	0x3da3a180	0.07989788
8	0x3d466e84	0.04844524
9	0xbc861818	-0.01636891
10	0xbba0a240	-0.004902154
11	0xbdb11106	-0.08645825
12	0x3d8f631a	0.07001324
13	0xbcd4a548	-0.025957718
14	0x3cd67840	0.026180387
15	0x3d8c9a04	0.06865314
16	0xbd98e9ac	-0.074664444
17	0xbd629e28	-0.05532661
18	0xbdd2b592	-0.10288538
19	0xbdb48418	-0.088142574
20	0x3da0d020	0.07852197
21	0xbded596c	-0.115893215
22	0xbdffb638	-0.12485927
23	0x3d0f234c	0.03494577
24	0xbdba11d0	-0.09085429
25	0x3da774b8	0.08176559
26	0xbc4545c0	-0.0120405555
27	0xbd567104	-0.052353874
28	0x3d9ae154	0.07562509
29	0xbd83b29a	-0.0643055
30	0xbccf36c0	-0.025294662
31	0x3d94b642	0.072613254
32	0x3dd01878	0.10160917
33	0xbb1e95c0	-0.0024198145
34	0xbda8f4ac	-0.082497925
35	0xbd1776fc	-0.036978707
36	0x3da18116	0.07885949
37	0xbddb8978	-0.107195795
38	0x3c4e8830	0.012605712
39	0xbdabdf1a	-0.083921626
40	0x3d76835c	0.060183868
41	0x3b621940	0.0034499913
42	0xbd9a38c6	-0.0753036
43	0xbd2f218c	-0.042756602
44	0xbdb7a1dc	-0.08966419
45	0xbd66a574	-0.056310132
46	0x3d985812	0.07438673
47	0x3da0aae2	0.07845093
48	0x3dec4942	0.1153741
49	0x3ca13278	0.019677386
50	0xbdc6e7ce	-0.09712182
51	0xbdd78686	-0.10523705
52	0x3c503440	0.01270777
53	0x3d7d0420	0.061771512
54	0xbd2a686c	-0.04160349
55	0x3d2faa30	0.042886913
56	0xbd91b686	-0.07114892
57	0xbd83e240	-0.06439638
58	0x3de8ad34	0.11361161
59	0xbde19a2e	-0.110157356
60	0x3c8034e0	0.015650213
61	0x3cfe48d8	0.031040594
62	0xbdf162d8	-0.11786431
63	0xbd181100	-0.037125587
64	0x3c987025	0.018608162
65	0x3d70084d	0.058601666
66	0x3dec37f4	0.1153411
67	0x3db8e8b7	0.09028762
68	0x3d5cee02	0.05393792
69	0xbd52ebb0	-0.0514943
70	0x3ce7cf6a	0.028297145
71	0x3dd5796f	0.10423552
72	0xbc4e5f81	-0.012596012
73	0xbcc9ed07	-0.024649156
74	0xbe007873	-0.12545948
75	0x3de0dc31	0.10979498
76	0x3db30390	0.08740914
77	0x3d2236f0	0.039603174
78	0xbd2fa740	-0.04288411
79	0x3c446eb9	0.011989289
80	0x3d7a8a71	0.061167184
81	0x3dbb3e3c	0.0914273
82	0xbc78cfa8	-0.015186228
83	0x3c9c13b7	0.01905237
84	0x3c6a7cd9	0.014311993
85	0xbd13c815	-0.036079485
86	0xbcc81d9b	-0.02442818
87	0xbd9ab969	-0.075548954
88	0x3dab84d0	0.08374941
89	0xbba3a0f3	-0.004993552
90	0x3cf53dba	0.02993666
91	0x3ca02310	0.01954797
92	0x3d512af1	0.051066343
93	0x3d8b7bc7	0.06810718
94	0xbc77c269	-0.015122035
95	0x3d7c06a0	0.061529756
96	0x3d5da360	0.054110885
97	0x3d7bddb6	0.061490737
98	0x3b0b164b	0.0021223004
99	0xbda7db47	-0.08196121
100	0x3d80e0d3	0.06292882
101	0x3d56cc02	0.05244065
102	0x3ded3713	0.1158277
103	0xbd15a168	-0.036530882
104	0xbe2337f5	-0.15939315
105	0xbd9ae038	-0.075622976
106	0xbdc9f313	-0.09860816
107	0x3dd4c98a	0.10390003
108	0xbd92e321	-0.07172228
109	0x3c47ea9c	0.012201931
110	0x3d9cd8bf	0.076585285
111	0x3d998c0e	0.074974164
112	0xbaf4c3ed	-0.0018674113
113	0x3d438981	0.047738556
114	0x3dc66076	0.09686367
115	0xbc8accc6	-0.016943347
116	0xbd7c64e4	-0.061619654
117	0xbd952e8e	-0.0728427
118	0xbc2038a8	-0.009779133
119	0xbde61449	-0.11234338
120	0xbdede0d1	-0.11615146
121	0xbdd04890	-0.1017009
122	0xbdf970fa	-0.12179752
123	0x3d337af4	0.04381843
124	0x3d96a34c	0.07355365
125	0xbdff978e	-0.12480079
126	0xbc5d9cdd	-0.013526169
127	0x3d5af29c	0.053454027
128	0x3d759408	0.059955627
129	0x3d11fad8	0.035639614
130	0x3dca276f	0.098708026
131	0xbd3149eb	-0.043283384
132	0x3d1a195b	0.037621837
133	0xbd123234	-0.03569241
134	0x3e52b0d4	0.20575267
135	0x3dbf9205	0.09354023
136	0x3b8f2e5e	0.004369541
137	0x3cece567	0.028917981
138	0xbdfb4ca1	-0.12270475
139	0xbd5e9f82	-0.054351337
140	0xbdcd16a2	-0.100140825
141	0x3b76b1ec	0.003764267
142	0xbdd703c4	-0.10498765
143	0xbc43e370	-0.011956081
144	0x3dfa4cc8	0.12221676
145	0xbdbf01fa	-0.09326549
146	0xbddca527	-0.10773688
147	0xbcefcf48	-0.029273644
148	0x3cc10fb4	0.023567058
149	0x3d022292	0.03177125
150	0xbc541f85	-0.012946968
151	0xbd3c5688	-0.04598096
152	0x3d2d572f	0.042319473
153	0xbd7dcf3c	-0.061965212
154	0x3d3d5175	0.04622026
155	0x3def727a	0.116917565
156	0xbd92be8e	-0.07165252
157	0xbd7f4a2d	-0.0623266
158	0xbd12b770	-0.03581947
159	0x3d6a2216	0.057161413
160	0xbca209d0	-0.01978007
161	0x3c7240e0	0.014785975
162	0x3dc9a2cf	0.098455064
163	0xbd26c559	-0.04071555
164	0xbd35967b	-0.044332962
165	0x3c1782c9	0.00924749
166	0xbdbd9a6c	-0.09257969
167	0xbc6e5523	-0.014546665
168	0x3e441013	0.19146757
169	0xbdc9926d	-0.098423816
170	0xbdc21c2f	-0.09478032
171	0xbd9a21e1	-0.07525993
172	0xbd867e42	-0.065670505
173	0x3c458278	0.012055032
174	0xbe072ebd	-0.13201423
175	0xbcfb92bc	-0.030709617
176	0x3e0c9ab8	0.13730896
177	0xbcfdaa71	-0.030965062
178	0x3daeaf79	0.085295625
179	0xbd83f764	-0.064436704
180	0xbd896aa6	-0.06709795
181	0x3dc94ac9	0.09828717
182	0x3e40277a	0.18765059
183	0x3e23368c	0.15938777
184	0xbcdcc23c	-0.026948087
185	0x3c541792	0.012945073
186	0xbd683797	-0.05669364
187	0x3dbb83a6	0.09155969
188	0x3de999ac	0.11406264
189	0x3d933780	0.0718832
190	0x3daf4efa	0.085599855
191	0xbcf926d0	-0.030414015
192	0x3d997f51	0.07494987
193	0xbd5987e5	-0.053108115
194	0x3dc7ba64	0.09752348
195	0x3c0b206e	0.008491619
196	0xbd6f07d8	-0.05835709
197	0x3dd637c6	0.10459857
198	0x3d258b4a	0.04041604
199	0x3df6637e	0.120306954
200	0x3b94037e	0.004517018
201	0x3de96d41	0.11397792
202	0x3d9b1231	0.07571829
203	0x3dfe803a	0.12426801
204	0xbd07e482	-0.033176906
205	0xbd773113	-0.060349535
206	0xbbc38e47	-0.0059678885
207	0x3dda5bdf	0.10662054
208	0xbd881772	-0.06645097
209	0xbb8e0960	-0.0043346137
210	0xbd83f329	-0.064428635
211	0xbe061a59	-0.13095988
212	0x3db6a6cc	0.08918533
213	0xbdc17898	-0.094468296
214	0x3cdca218	0.026932761
215	0xbd25b6f9	-0.0404577
216	0x3ddeac11	0.10872663
217	0x3d5a648d	0.05331855
218	0x3d29707a	0.04136703
219	0x3afe2d00	0.0019392073
220	0x3dd0c321	0.10193468
221	0xbd1626a9	-0.036657963
222	0x3cd4fe84	0.026000269
223	0x3db817a7	0.08988886
224	0x3cccf138	0.025017366
225	0xbd48826a	-0.048952498
226	0xbb35010e	-0.0027619037
227	0x3de4ec25	0.111778535
228	0x3da33e5e	0.0797088
229	0xbcdfc76f	-0.027316777
230	0xbda68b82	-0.08132078
231	0x3dffd610	0.12492001
232	0xbe648bd6	-0.22318968
233	0xbdaddb20	-0.084890604
234	0xbd8052bd	-0.06265781
235	0x3ab2f675	0.0013653772
236	0xbcc43e55	-0.023955503
237	0x3ca10cba	0.019659389
238	0x3e21109e	0.15728995
239	0x3ae81b14	0.0017708265
240	0x3a9a9803	0.0011794571
241	0xbddc8dbd	-0.10769222
242	0x3d8b6258	0.06805867
243	0x3dcda04e	0.10040341
244	0xbd00a69f	-0.031408902
245	0x38278d40	3.9947452e-05
246	0xbcbcfb2f	-0.023068992
247	0xbdc8ba3d	-0.09801147
248	0x3cc9c07f	0.024627922
249	0xbc9e7fa3	-0.019347971
250	0xbd2468e3	-0.04013909
251	0xbd90fd2d	-0.070795394
252	0x3c855c2e	0.016279306
253	0xb9ca2bb4	-0.00038561004
254	0xbd546463	-0.05185355
255	0x3b951340	0.004549414

linear4.bias f4 [64]
0	0xbdb6c172	-0.089236155
1	0x3e80b84b	0.25140604
2	0xbd196727	-0.03745189
3	0x3e706db5	0.2347935
4	0x3d344a0f	0.04401594
5	0xbbfee040	-0.0077781975
6	0x3e529e6f	0.2056825
7	0x3e4956cf	0.19662021
8	0xbda6a61a	-0.0813715
9	0xbd90149c	-0.07035181
10	0x3e34eb02	0.17667773
11	0x3dadbecc	0.08483657
12	0x3d424cf0	0.047436655
13	0x3e695e72	0.22789934
14	0x3da8f84a	0.082504824
15	0x3d66b9a1	0.056329373
16	0xbdf9706c	-0.12179646
17	0x3e250de3	0.16118579
18	0xbdf1f54a	-0.11814363
19	0x3e006773	0.12539463
20	0xbd8e1399	-0.06937332
21	0xbd204c73	-0.039135408
22	0xbcb723c0	-0.022355914
23	0xbd4cba5f	-0.049982425
24	0x3d8b24c6	0.06794123
25	0x3d62a54d	0.055333424
26	0x3e16c0f6	0.14722046
27	0x3e0e4583	0.13893704
28	0x3e541696	0.20711741
29	0x3e7c6cd2	0.24650887
30	0x3e750bf0	0.23930335
31	0x3e69bb69	0.22825398
32	0x3e2f0da9	0.17095055
33	0xbdcedc65	-0.10100631
34	0x3dfbc378	0.12293142
35	0x3dbd2c98	0.09237021
36	0x393c5379	0.00017960173
37	0x3e3c4c2d	0.18388434
38	0x3e1d6cd1	0.15373541
39	0xbd8ab6cc	-0.06773147
40	0x3da2f6ef	0.07957255
41	0x3e5d9a7c	0.21640962
42	0x3dc30dc1	0.09524108
43	0x3ca32c63	0.019918626
44	0x3d41eb11	0.047343317
45	0x3e43cb59	0.1912054
46	0x3e1b0fdc	0.15142769
47	0x3e448a7b	0.19193451
48	0xbda85231	-0.08218802
49	0x3d1bed96	0.038068376
50	0x3d3dafa6	0.04631009
51	0x3c2c27f8	0.010507576
52	0x3e4a73c4	0.19770724
53	0x3e0ab98a	0.1354734
54	0xbbc1763a	-0.0059039863
55	0x3c35e740	0.011102498
56	0x3dd222b6	0.10260527
57	0xbdcd8df0	-0.10036838
58	0x3e6f744f	0.23384212
59	0xbdd0b807	-0.101913504
60	0x3dec1c6a	0.11528857
61	0x3c72cd32	0.01481943
62	0xbd0e188d	-0.034691382
63	0xbdb26bdc	-0.08711979

mean_linear.weight f4 [2, 64]
0	0x3b2ff4e8	0.0026848856
1	0x3d4c6605	0.04990198
2	0xbd241461	-0.040058497
3	0x3d63437b	0.055484276
4	0x3cdccffb	0.026954642
5	0x39ef8edd	0.00045692074
6	0x3d171c2f	0.036892112
7	0x3d146727	0.036231186
8	0xba53944e	-0.00080711104
9	0xbb1d9798	-0.0024046656
10	0x3d39d50d	0.045369197
11	0x3d0f18d7	0.0349358
12	0x3a96a9dc	0.0011494714
13	0x3d733957	0.059380855
14	0x3cb6a76f	0.022296635
15	0xbb00cc56	-0.0019653044
16	0xbb23de15	-0.0025004197
17	0x3d089782	0.033347614
18	0x3910c5db	0.00013806617
19	0x3cdbd736	0.026836019
20	0xbb86f911	-0.0041190465
21	0xbb6bab7d	-0.003596037
22	0xbbac5ffe	-0.0052604666
23	0xbbaefd20	-0.0053402334
24	0x3c9c0ac9	0.019048112
25	0x3cfea213	0.031083142
26	0x3cf07503	0.02935267
27	0x3cc9936c	0.024606429
28	0x3d201a3d	0.039087523
29	0x3d73d688	0.059530765
30	0x3d5976bb	0.053091746
31	0x3d336cb7	0.04380485
32	0x3d7b42ff	0.06134319
33	0xbaae3682	-0.0013291391
34	0x3d105901	0.03524113
35	0x3cd1f43d	0.025629157
36	0xbaa9a7ad	-0.0012943648
37	0x3d222b65	0.039592165
38	0x3cd4c123	0.025971001
39	0xbbacb540	-0.00527063
40	0x3cd89ed3	0.02644292
41	0x3d488264	0.048952475
42	0x3d0c0c87	0.034191635
43	0x3cd1aae6	0.025594186
44	0x3cd3ec3c	0.025869481
45	0x3d9a9eb6	0.07549803
46	0x3d35f471	0.04442257
47	0x3d3d64fc	0.046238884
48	0xbab923b5	-0.0014125021
49	0x3b8970c6	0.004194352
50	0x3d713b4a	0.058894433
51	0x3d1564a5	0.036472935
52	0x3d5b9d56	0.053616844
53	0x3d0bdf2e	0.034148388
54	0x3c9d17ed	0.019176448
55	0xbab335d9	-0.0013672664
56	0x3c66a5a5	0.014077579
57	0x39bf8fc7	0.0003653748
58	0x3d54ba7b	0.051935654
59	0x3bd914e4	0.006624805
60	0xbb7540ba	-0.0037422613
61	0xba4bf82d	-0.00077808165
62	0x3cd0f5a1	0.02550775
63	0xba37f600	-0.0007017553
64	0x396d3e98	0.000226254
65	0x3d0992c5	0.033587236
66	0xb9f69424	-0.0004703115
67	0x3d7f3de4	0.062314883
68	0x3cd8921f	0.026436863
69	0x3b1ac813	0.0023617789
70	0x3cee0e14	0.029059447
71	0x3cfe41dd	0.031037265
72	0xbb3125d9	-0.0027030616
73	0x3a9c6b88	0.0011933902
74	0x3d326047	0.04354885
75	0x3cdd98c1	0.027050378
76	0x3b0c222a	0.0021382668
77	0x3d410f7e	0.047133915
78	0x3ca23e3e	0.01980507
79	0xba8ec921	-0.0010893681
80	0x3a9138ea	0.0011079584
81	0x3d06d6b6	0.032919608
82	0xbb3795ee	-0.002801295
83	0x3cec765a	0.028865028
84	0xbbeeed49	-0.00729147
85	0xbb9309ad	-0.0044872374
86	0xbd4edcf8	-0.0505037
87	0x3baeb482	0.005331577
88	0x3cdd3daa	0.027006943
89	0x3d04da1e	0.032434575
90	0x3ce8fa7d	0.028439755
91	0x3d483685	0.04888012
92	0x3d2e65e5	0.042577643
93	0x3d382d2b	0.04496495
94	0x3d498467	0.049198534
95	0x3d01a2a3	0.031649243
96	0x3d21307a	0.03935287
97	0x3a9a3d3e	0.0011767519
98	0x3d28c4eb	0.04120342
99	0x3d219019	0.039444063
100	0xb97cc1a4	-0.0002410473
101	0x3d0dce32	0.03462047
102	0x3d0a3292	0.033739634
103	0xbb2f9cbb	-0.00267963
104	0x3d2e25ed	0.042516638
105	0x3d259935	0.040429313
106	0x3d0758a2	0.03304351
107	0x3cb5a94f	0.02217546
108	0x3c8b8ff6	0.01703642
109	0x3d395d38	0.045254916
110	0x3d1bec89	0.038067374
111	0x3d25edcb	0.04050998
112	0x3af903d8	0.0018998338
113	0x3c43771e	0.011930255
114	0x3cbe41d2	0.023224745
115	0x3ce44e22	0.027869288
116	0x3d1dc519	0.038518045
117	0x3cf4a5d5	0.029864231
118	0x3caddc14	0.021223105
119	0x3a9305fa	0.0011216991
120	0xbc5e3e48	-0.013564654
121	0x3ac243f3	0.0014821276
122	0x3d0d7f35	0.034545142
123	0xbb91e26d	-0.004452041
124	0x38da5aa4	0.00010411933
125	0x3a5a13a8	0.0008318969
126	0x3bbb1af9	0.0057100025
127	0xbad0623e	-0.0015898419

mean_linear.bias f4 [2]
0	0x3db47655	0.088116325
1	0x3d9a04da	0.075204566

log_std_linear.weight f4 [2, 64]
0	0x3ab9628f	0.0014143753
1	0xbcd4805f	-0.025940118
2	0xbc799422	-0.0152330715
3	0xbce54006	-0.02798463
4	0xbc0e8446	-0.008698529
5	0xba8259bb	-0.0009944955
6	0xbc8117f0	-0.015758485
7	0xbc701151	-0.014652566
8	0xba3bd52d	-0.00071652496
9	0xbaade569	-0.0013267222
10	0xbb37b8e9	-0.00280338
11	0xbc0a924b	-0.0084577305
12	0xbaeae9e8	-0.0017922493
13	0xbcab0644	-0.020877011
14	0xbc1d87ea	-0.009614924
15	0x389341b5	7.021745e-05
16	0xbb1cc180	-0.0023919046
17	0xbc54988c	-0.012975823
18	0xbafcbf29	-0.0019283044
19	0xbbc88f0c	-0.006120568
20	0x3b3e3433	0.0029022812
21	0x3c54f6ab	0.012998263
22	0xbd2b09b6	-0.041757308
23	0xbb80091a	-0.003907335
24	0xbbe84e69	-0.0070894253
25	0xbc38b3ff	-0.011273383
26	0xbc533a15	-0.012892266
27	0xbc06fc63	-0.008238885
28	0xbc4c8115	-0.012481947
29	0xbccdb603	-0.025111204
30	0xbc5636fd	-0.013074634
31	0xbc8fad41	-0.017538669
32	0xbcc35cd7	-0.02384798
33	0xbb652c52	-0.0034969044
34	0xbbb50f35	-0.0055254945
35	0xbbf2b81d	-0.007407202
36	0xbb45a33c	-0.003015711
37	0xbc94cd3b	-0.018164268
38	0xbc20458f	-0.009782209
39	0xb8ed6f68	-0.00011321792
40	0xbade324d	-0.0016952247
41	0xbc840f8e	-0.016120698
42	0xbc37bb4d	-0.01121409
43	0xbb35172b	-0.0027632217
44	0xbbd3fb7d	-0.0064691887
45	0xbd1c8890	-0.038216174
46	0xbc61ff1b	-0.013793732
47	0xbc83d5ad	-0.0160931
48	0xbb957961	-0.0045615886
49	0xbc0990de	-0.008396355
50	0xbcb8d836	-0.022564035
51	0xbbff831f	-0.0077976133
52	0xbc94ece2	-0.01817936
53	0xbbf835e0	-0.007574782
54	0xbb2d02b1	-0.002639931
55	0xbaff250e	-0.0019465999
56	0xbb5ef873	-0.00340226
57	0xbb3ce6b1	-0.0028824026
58	0xbcbf2de6	-0.023337316
59	0xbbb9d7cd	-0.0056714774
60	0x3b1d7111	0.0024023692
61	0xbb9f850a	-0.0048681544
62	0xbc3128e2	-0.01081297
63	0x3adddd46	0.0016926907
64	0xba1b2f9c	-0.0005919875
65	0xbc9a1b7b	-0.018811932
66	0xbce09155	-0.02741305
67	0xbcea881b	-0.028629353
68	0xbc14483e	-0.009050427
69	0x3acc1b72	0.0015572144
70	0xbc4a1f49	-0.0123365605
71	0xbc18a311	-0.009316222
72	0xbaad5e0c	-0.0013226881
73	0x3a3040b2	0.00067235075
74	0xbbbbb143	-0.0057279184
75	0xbb968782	-0.0045937905
76	0x3b3a245b	0.0028403017
77	0xbca667af	-0.020313112
78	0xbbbed63c	-0.0058238786
79	0xba912392	-0.0011073223
80	0x3abfeee3	0.0014643337
81	0xbc7c9f0a	-0.015418777
82	0xbaee7156	-0.0018191736
83	0xbc06690f	-0.008203759
84	0x3bf0538e	0.0073341792
85	0x3a3851f0	0.00070312526
86	0xbc8c35ba	-0.017115463
87	0xba27d83e	-0.0006402767
88	0xbb7a8188	-0.003822418
89	0xbc06692c	-0.008203786
90	0xbc6eeb8e	-0.014582528
91	0xbcc8e175	-0.024521569
92	0xbc72da2b	-0.014822523
93	0xbc9be8db	-0.019031933
94	0xbc2fa54a	-0.01072056
95	0xbc6010ab	-0.013675849
96	0xbc845a44	-0.016156323
97	0xbbd397ea	-0.0064573186
98	0xbc28a4fb	-0.010293241
99	0xbc781f21	-0.01514414
100	0x39860ba6	0.0002556715
101	0xbc9dc881	-0.019260647
102	0xbc45fc27	-0.012084044
103	0xbb1264e3	-0.0022337965
104	0xbc40f1d8	-0.01177641
105	0xbc99b914	-0.01876501
106	0xbc5e5428	-0.013569869
107	0xbba2d565	-0.0049692863
108	0xbad7c617	-0.0016462234
109	0xbcec72b8	-0.028863296
110	0xbc26b469	-0.010174849
111	0xbc66ac95	-0.014079233
112	0xbb9c59c8	-0.004771445
113	0x3b26ada4	0.0025433088
114	0xbc62d741	-0.013845266
115	0xbb9cca63	-0.0047848686
116	0xbc423eeb	-0.011855821
117	0xbc028ef6	-0.007968655
118	0xbbcdea5f	-0.0062840427
119	0x39fd550a	0.0004831928
120	0x3c0b6bee	0.008509619
121	0x3a55f99a	0.00081624987
122	0xbc8ef3a2	-0.017450158
123	0x3c060848	0.008180685
124	0xbb279705	-0.0025572192
125	0xbb231a64	-0.0024887556
126	0xbb51b6b8	-0.0031999778
127	0x39a72958	0.00031883526

log_std_linear.bias f4 [2]
0	0xbd6e7180	-0.05821371
1	0xbd2514d4	-0.040303066
