models/noCBF_2025-11-17 20:07:46/1/Q1.pth (torch, 37764 bytes, 7 tensors)

linear1.weight f4 [64, 5]
000000 ad f9 dd 3c d5 94 a7 be 59 df 7f 3d 06 e5 fe 3d
       0.027096594 -0.32730737 0.06246886 0.124460265
000010 6e 93 2f bf 94 be aa be f1 0f a2 3d 4b e6 9a be
       -0.68584335 -0.33348525 0.07913197 -0.30253825
000020 b6 f6 46 bf 8d 8b e6 be c4 54 ee be 6d 91 77 3e
       -0.777202 -0.45028344 -0.46549046 0.2417657
000030 22 70 78 3e da e1 63 be 72 f4 09 be a6 3f 8a be
       0.24261525 -0.22254124 -0.13472155 -0.27001685
000040 03 41 12 3e 18 04 a9 be f8 b2 a7 bd 5d d7 6b be
       0.14282613 -0.33010936 -0.081884325 -0.23031373
000050 70 1e 96 3b cb c4 93 be b3 53 b7 3e c2 e7 eb 3c
       0.004581265 -0.2886108 0.35806045 0.028797034
000060 64 93 21 bf 3d d2 83 be ab 29 cc 3d a0 b1 a9 3e
       -0.63115525 -0.25746337 0.09968885 0.3314333
000070 ea 7c c1 bc f2 cf 73 be f5 f6 ca be c0 94 05 3d
       -0.023619134 -0.23809794 -0.39641538 0.032612562
000080 17 82 e0 3e 32 1a a4 be 50 d4 24 be 8e 14 2c 3d
       0.4384925 -0.32051235 -0.16096616 0.04201179
000090 3a 64 31 be a1 99 05 3e 27 e8 27 bf 1f 7f 18 bf
       -0.1732339 0.13046886 -0.6558861 -0.5956897
0000a0 4e 6a 90 be 94 0e b4 be 57 96 a0 3d 0b e8 0c be
       -0.28206104 -0.35167372 0.07841175 -0.13760392
0000b0 fa 19 2d bf de b6 2a bd 3f 97 8a be a5 c2 d6 3e
       -0.6761776 -0.041678302 -0.27068517 0.41945377
0000c0 d9 de ba be 3d 15 e2 be f2 36 0a bf eb df ef 3d
       -0.36498144 -0.4415683 -0.5399009 0.11712631
0000d0 c7 c9 d6 3e 9b c4 d7 3d 9d a5 19 bf 80 17 dd bd
       0.4195082 0.105355464 -0.6001833 -0.10795498
0000e0 11 30 00 3e 63 a2 0d 3e 3b d2 c1 be db 00 04 bf
       0.12518336 0.13831477 -0.37855706 -0.51563805
0000f0 db 7b 04 bf 70 61 79 be 6c 42 ac bc 55 e3 87 bd
       -0.5175149 -0.24353576 -0.021027766 -0.06635157
000100 50 87 3a be 1e 22 36 3e 30 87 c6 be ad 4b 10 3e
       -0.1821568 0.17786452 -0.38775015 0.14091368
000110 83 fc d3 bd c3 50 b6 3d 6f 4b 6a be 62 1f b7 bd
       -0.10350897 0.08902123 -0.22880338 -0.08941533
000120 7f 5b 8d 3e d2 80 1d be 32 79 47 be 29 a9 45 3e
       0.27608868 -0.15381172 -0.19479826 0.1930281
000130 47 fc cd 3e 2f 9a 92 3e 73 f0 1c 3f b6 cb 2d 3e
       0.40231535 0.28633258 0.61304396 0.16972241
000140 d8 76 e6 3b a3 85 ee bd f5 03 f0 3d 72 27 68 be
       0.0070332102 -0.11646583 0.11719505 -0.22671297
000150 71 fd 2c 3e 7f cf ee 3e c2 67 be 3e 4c 92 c5 3d
       0.16893555 0.46642682 0.37188536 0.096470445
000160 1d 83 0b be a0 72 b6 3e f9 1e 56 be ee 7c b0 bd
       -0.13624234 0.35634327 -0.20910253 -0.086175784
000170 30 8e af be c3 51 3b bf fa 10 58 be cc 1e c9 be
       -0.34288168 -0.73171633 -0.21100226 -0.3928131
000180 ed 81 77 bc 12 d8 95 3d f3 9d 3f 3e ea b1 fc bd
       -0.01510666 0.07316603 0.18712597 -0.12338622
000190 18 fe d3 be 35 a3 63 be 15 09 c5 3d 77 36 d2 be
       -0.41404796 -0.22230227 0.09620873 -0.41057178
0001a0 08 d2 53 3e 5d db 91 3d ac 7e e9 be c3 47 94 3e
       0.2068559 0.07121918 -0.45604455 0.28961
0001b0 f3 59 09 be 0b 03 a6 be 6c a1 a4 3e 4c 91 0f 3d
       -0.13413219 -0.32424197 0.32154405 0.035050675
0001c0 80 96 bf bd 59 95 d9 bc b7 d8 6c be 61 77 b2 be
       -0.093548775 -0.026560472 -0.23129545 -0.34856704
0001d0 aa 2f bf be 82 cc d0 ba b0 8f 21 bf 8f e3 d2 3c
       -0.37341052 -0.0015930089 -0.63109875 0.025743274
0001e0 9f 47 7e be d3 a7 4f be e2 b8 88 3d 88 13 ed be
       -0.24832009 -0.20278864 0.066758886 -0.46303964
0001f0 d3 84 ac 3c 8f 98 00 bf 0e 84 f7 be 9f 58 c3 3e
       0.02105943 -0.50232786 -0.48342937 0.3815355
000200 99 d9 f0 3d fd 36 9d 3d d3 e4 f6 be 05 fb 16 3d
       0.117602535 0.07676504 -0.48221454 0.036860485
000210 bc aa b9 3d 61 fe d4 bd 50 46 9b bd 7d 22 09 3c
       0.09065768 -0.104000814 -0.075817704 0.008370039
000220 28 a5 0a bf ff 14 8e 3e c8 b9 99 bb e6 56 10 3d
       -0.5415826 0.27750394 -0.0046913363 0.035239123
000230 15 4c 43 be 3e af 37 be 9e 3e ba be bf 2b 8c be
       -0.19071992 -0.17937943 -0.36375898 -0.27377126
000240 84 30 9c be 98 09 16 bf 25 f2 9d be 2b fe 2b 3e
       -0.30505764 -0.5860839 -0.30848804 0.16796176
000250 c0 51 28 bf 02 d2 e2 be 1b 93 05 bf e8 fa d2 bc
       -0.6574974 -0.44300848 -0.5217759 -0.025754407
000260 4b 04 e1 3d f9 da 19 bf 87 fe fc be f7 1d f3 3e
       0.10987147 -0.6009975 -0.4941294 0.474838
000270 eb 8f 1a 3f 85 9d 62 3d 81 71 ab 3e a5 9b 26 bd
       0.6037585 0.055326004 0.33485034 -0.040675778
000280 0e 75 04 be 74 6d 9e be 9d f9 09 3e 9a 29 e8 be
       -0.12935278 -0.3094288 0.13474126 -0.4534424
000290 a2 a3 89 be 73 8b f0 bd 1d 0f 04 bf 1f 09 0c bc
       -0.26882654 -0.11745348 -0.5158556 -0.0085470965
0002a0 26 71 19 bf 62 64 40 bf fd ab ca be 5c f8 29 3d
       -0.59938276 -0.7515317 -0.39584342 0.04149662
0002b0 5c 6a 9d be 3c 1a 61 be d3 ee bf be 7e 4e 97 3e
       -0.30745208 -0.21982664 -0.37486896 0.29552072
0002c0 48 22 db be 5c 84 a1 be 5b 58 09 bf f9 c2 ad be
       -0.42799592 -0.31546295 -0.53650445 -0.33937815
0002d0 29 ed f2 be be ac 04 bf 49 57 0f bd 99 ef 36 be
       -0.47446564 -0.51826084 -0.03499535 -0.17864837
0002e0 f3 3a 83 be 31 0c 51 be 17 09 8c be 2e 35 9a 3e
       -0.25630912 -0.20414807 -0.27350685 0.30118698
0002f0 bb 8b df be 01 07 1e bf ca 0a 91 3e a6 e0 79 be
       -0.43661293 -0.6172944 0.28328544 -0.24402103
000300 ae 20 88 be ed 2a 52 3c e5 92 d2 3e 0e ec 84 be
       -0.26587433 0.012827617 0.41127697 -0.25961345
000310 0d aa e8 be 19 61 d8 3e 1e 49 d0 3c 55 e1 50 be
       -0.45442238 0.4226158 0.02542549 -0.20398457
000320 f8 c9 c3 bd 75 ba aa bd 12 9f cc 3e b4 7a f0 be
       -0.09560007 -0.08336345 0.3996511 -0.46968615
000330 4b 8c 95 be 09 63 ac be 30 da de 3e b9 18 e7 bc
       -0.29208598 -0.33669308 0.4352584 -0.02821003
000340 2e 8c c8 be 70 1f 84 3e 61 c9 97 3e b0 fb f5 be
       -0.3916945 0.25805235 0.29645827 -0.48043585
000350 2e f8 cd 3e 52 b1 a5 be b2 8f dd be a1 87 86 be
       0.4022841 -0.32361847 -0.43273693 -0.26275352
000360 71 03 18 3e 6f 06 38 3e 90 d8 e1 bd ac 0b 64 be
       0.14845063 0.17971204 -0.11027634 -0.22270077
000370 36 03 04 bf e9 ab 06 bf d7 1a 79 3e 0e 20 8e be
       -0.515674 -0.52606064 0.24326645 -0.2775883
000380 2c 3b 0b bf 25 7b 00 3e c2 5c 06 bf 84 c2 d1 3e
       -0.54387164 0.12546976 -0.5248529 0.40968716
000390 08 37 17 bf 75 bb 3c be 85 b6 a5 3e 48 e3 2f be
       -0.59068346 -0.18430884 0.32365814 -0.17176545
0003a0 81 38 30 be 6d 46 df bd cd 93 5b 3e ef 1f 1d 3c
       -0.17209055 -0.109021045 0.214431 0.009590133
0003b0 57 8d d8 3c f4 4a d6 3e 8e 99 ce 3c db 57 04 bf
       0.026434584 0.4185406 0.025219705 -0.51696557
0003c0 1f 44 08 bf 18 09 c1 be 53 3e 57 3d a0 39 3d bf
       -0.53228945 -0.3770225 0.05254967 -0.73916054
0003d0 89 62 21 bf 62 e6 cb 3e bc b4 e6 3e b3 7e 77 3e
       -0.6304098 0.39824206 0.45059764 0.24169426
0003e0 73 7d 3b 3f 5f c6 e5 3e 54 52 bf 3d 34 01 37 bc
       0.73238295 0.44877908 0.09341875 -0.01116972
0003f0 33 4d a7 bd 25 6f d0 be d0 30 c4 3e 44 b1 18 be
       -0.081690215 -0.40709797 0.3831849 -0.14911371

linear1.bias f4 [64]
000000 b0 51 5a 3e 1a 85 aa 3e d9 31 89 3e ce 92 8b 3d
       0.21320224 0.33304673 0.26795843 0.0681511
000010 89 99 d5 3d dc a8 4b 3e df d4 f6 3e 4b 31 32 3e
       0.10429675 0.19888633 0.48209283 0.17401616
000020 45 65 4f be 9f 3a 28 be 31 ab 52 3e 54 94 37 3d
       -0.20253475 -0.16428612 0.20573117 0.04481919
000030 01 89 85 3e e4 0f 47 be 62 f7 44 3d 56 ce 18 3c
       0.26081088 -0.19439656 0.048087485 0.009326538
000040 8f 69 0d 3e a6 8b bc be 2d be 99 3e 8e 29 33 3e
       0.13809799 -0.36825293 0.30027905 0.1749632
000050 49 9c 5a 3e a4 ba a7 3e 8a 77 b3 bd 00 29 b1 3e
       0.2134868 0.32759583 -0.08763035 0.34601593
000060 8f 7c d5 3e 0b 4d 5e be 8a e9 85 3e 48 65 9f 3e
       0.41696593 -0.21709077 0.2615474 0.3113196
000070 87 b9 86 3d 19 5a a4 be 1a ee 5d 3e 02 cd a4 be
       0.06578355 -0.3209999 0.2167286 -0.3218766
000080 10 a0 11 3f 2c 8f ce ba 0a 2a 80 bd 5e a1 57 3e
       0.5688486 -0.0015759221 -0.06258018 0.2105765
000090 9b 8f 93 3d 49 fc 03 3e 9f 3c aa be 96 38 ec 3e
       0.07205125 0.12889208 -0.33249375 0.46136922
0000a0 6f aa 0c 3f 83 bf 07 3f 2a 98 99 3e 4e 4a 01 3f
       0.5494756 0.530266 0.29998904 0.50504005
0000b0 4d 6e 38 3e 07 4c a7 3e c8 97 a0 be e8 fc c0 3e
       0.18010826 0.32675192 -0.313658 0.37692952
0000c0 d1 4d 01 3f db 24 3e bd 87 16 3f be 4a 0d 8a 3c
       0.50509363 -0.046421867 -0.18660937 0.01685204
0000d0 d9 9f fa bd da 9c 1d 3d c2 4c 79 3e e2 56 8d bd
       -0.1223752 0.038479663 0.24345687 -0.06901337
0000e0 d1 c4 b8 be 1d dc ca 3d 51 5b b7 3e d3 dd 5d 3e
       -0.3608766 0.099052645 0.35811856 0.2166665
0000f0 77 24 1f 3e ea f1 33 bd 68 ba e1 3e 6e 60 72 3e
       0.15541254 -0.04393188 0.4408753 0.23669598

linear2.weight f4 [64, 64]
000000 28 05 b8 bd e8 37 c3 3d da 4c 8a 3d f0 9c 8c 3c
       -0.089853585 0.09532148 0.067529395 0.017164677
000010 18 4e 0b bd fc dc e1 3d 60 4e 52 bc 3c 7a 83 3d
       -0.034010023 0.110284775 -0.012836069 0.06419799
000020 76 b2 85 3d e0 59 53 bc 0c 60 ea bd 5c 53 8c 3d
       0.06528179 -0.012899846 -0.11444101 0.06851837
000030 ac 69 c5 bd c0 29 ad 3b 00 61 b6 3c 70 ab e8 3c
       -0.09639296 0.005284518 0.02226305 0.02840206
000040 f0 23 89 3d fc 77 78 bd 44 9f 90 3d 40 89 42 bb
       0.06696308 -0.0606613 0.070616275 -0.0029683858
000050 b0 9f 03 3c 0c 88 fd 3d c0 30 2e bd 10 71 0b bc
       0.008033678 0.123794645 -0.04252696 -0.008510843
000060 fc 59 51 bd a8 00 b4 3c a4 44 d7 bd c0 59 7f bb
       -0.051111206 0.02197297 -0.10511139 -0.0038963407
000070 a0 95 5b bd 74 48 e4 bd 54 c8 fb 3d b0 68 24 3c
       -0.05360949 -0.11146632 0.12294069 0.010034725
000080 64 91 75 bd ca 88 97 3d 5e fb db 3d b0 b5 49 bd
       -0.05995311 0.07399137 0.10741304 -0.049245536
000090 f0 46 7e 3c 88 f5 c9 3d 30 cb 29 3c 12 75 e9 3d
       0.0155198425 0.098612845 0.010363385 0.113992825
0000a0 24 b0 d7 bd b2 ac d3 3d 50 eb 3b bd da 20 cd 3d
       -0.10531643 0.103356734 -0.04587871 0.100160316
0000b0 60 cf 7f bd 4e cc d7 bd 04 28 2b 3d 70 7a 48 bd
       -0.062453628 -0.10537015 0.04178621 -0.04894489
0000c0 00 27 f2 3a f8 fd bf 3d 28 fc 34 bd d8 fd ed 3d
       0.0018474758 0.093746126 -0.044185787 0.116206825
0000d0 80 1a 20 bd fc a1 e0 3d 3c 12 e6 bd 04 0a ef bd
       -0.039087772 0.10968396 -0.11233947 -0.11671832
0000e0 d0 15 35 3c 50 14 e4 bd ac 9c 02 3d 10 24 e9 bd
       0.011052564 -0.11136687 0.031887695 -0.113838315
0000f0 00 a8 c9 bb 98 80 1d 3d 40 a1 9f 3d 00 c5 be 3a
       -0.0061540604 0.038452715 0.07794428 0.001455456
000100 f0 36 4a bd f0 17 ed 3c 04 ae 72 3d 40 c8 60 3c
       -0.0493688 0.028942078 0.059247985 0.013719618
000110 0c 22 ab bd c0 0b e3 bc e0 4d 5b 3d 80 b9 2c 3b
       -0.08356103 -0.027715564 0.053541064 0.0026355684
000120 f0 ec b5 bd 94 6b bb bd 80 ae e0 bd 38 df af bd
       -0.08883083 -0.09151378 -0.10970783 -0.085874975
000130 20 fd 8a bc 98 90 a3 bd c8 c9 18 bd a0 b5 69 bd
       -0.016966403 -0.079865634 -0.03730181 -0.057057977
000140 64 7b f7 bd cc 0a 41 bd 00 7b c1 3c 00 16 cf 3d
       -0.12084082 -0.047129437 0.023618221 0.10111618
000150 26 80 c4 3d 20 82 8d 3c a4 87 7e 3d a0 d4 12 bd
       0.09594755 0.017273962 0.062141076 -0.035847306
000160 48 17 b7 bd 00 42 75 3a d6 ad a5 bd 3c c8 c0 3d
       -0.089399874 0.0009355843 -0.08089797 0.09413192
000170 10 aa a0 bd f0 6a 00 3d 90 8d 52 3d 08 7b 8c 3d
       -0.07844937 0.031351984 0.051404536 0.06859404
000180 e8 aa 1b bd b0 06 1e 3c 00 a7 73 bd cc 9d 6d bd
       -0.038004786 0.009645149 -0.059485435 -0.058011815
000190 56 ee a0 3d 94 09 04 bd 02 af f1 bd 3c a3 07 bd
       0.07857959 -0.032235697 -0.11800958 -0.033114657
0001a0 e6 87 e1 3d f2 f3 8f bd 64 50 40 bd 94 e6 12 bd
       0.11012249 -0.07028951 -0.046951666 -0.035864428
0001b0 08 ee 91 bd b0 b4 76 bd 98 36 0d 3d 00 5e 7e bb
       -0.07125479 -0.06023091 0.034475893 -0.0038813353
0001c0 20 0a 90 bd 70 31 fc bc 88 2f 65 3d 30 1e a6 bc
       -0.07033181 -0.030785292 0.055953532 -0.020278066
0001d0 70 15 78 3d e4 78 8b bd a8 bf 9a bc 00 ab d6 bb
       0.06056732 -0.068101674 -0.018890217 -0.0065511465
0001e0 98 d2 fb bd 90 e3 87 3d 3e b4 b1 3d 38 1c 90 3d
       -0.12296027 0.06635201 0.086769566 0.07036632
0001f0 ce 31 9e bd aa a5 93 bd 3a 98 f4 bd d4 ca 71 3d
       -0.07724343 -0.07209332 -0.119430974 0.059031323
000200 f7 1a 50 3c aa d7 24 3c 91 03 70 bc 7d 58 43 be
       0.012701741 0.010061184 -0.014649288 -0.19076724
000210 a9 b2 09 3e b5 8d 65 3d 6a bf dc 3d a8 46 9a 3d
       0.1344706 0.056043345 0.10778697 0.07533008
000220 a9 d5 df 3d c7 5f 52 bd 6a 28 83 b9 00 b1 08 bd
       0.10929424 -0.05136087 -0.00025016378 -0.033371925
000230 e3 df 72 3e 2e bf cd 3b ec cc ae 3d ae 71 e4 bd
       0.23718219 0.006278894 0.085351795 -0.11154495
000240 15 56 5f 3d 59 7d 31 be 68 fc 0d bd c6 b5 39 3e
       0.054525454 -0.17332973 -0.03466454 0.18135747
000250 63 83 29 bc 35 d8 19 3e 10 52 7c 3d f0 c8 1c 3e
       -0.010346266 0.15023883 0.0616017 0.15311027
000260 e8 7d 89 3e 8e ba c1 bc fd 5f 9b 3d e8 22 8a 3d
       0.2685387 -0.023648527 0.07586668 0.06744939
000270 45 bf a6 bd 69 75 c1 3d e8 b6 ff 3d 3f 7e 60 be
       -0.081419505 0.09446222 0.124860585 -0.21923159
000280 6b 9a 3b 3d ae 5a 80 3e 91 01 02 be f3 a0 e0 bd
       0.04580156 0.25069183 -0.1269591 -0.109681986
000290 e6 30 36 3e 70 4d bf 3d 78 5d d9 bc f7 a0 06 3e
       0.17792091 0.09340942 -0.026533827 0.1314734
0002a0 76 5e 8d 3d 4f 9f bd 3e 4a c2 77 bd 39 cb 18 3e
       0.069027826 0.37035605 -0.060488023 0.14921273
0002b0 71 f0 2c 3e 93 47 24 3e a4 d4 c2 3d b8 3e 3c bd
       0.16888596 0.16042928 0.09513214 -0.04595825
0002c0 4e 28 de bc 06 a5 3d bd fe d1 d2 bd 90 58 a9 3d
       -0.027118828 -0.046299957 -0.10293959 0.08268845
0002d0 47 ae 26 3e e5 91 b9 bd 6e e3 32 3e 6b 69 0b 3e
       0.16277419 -0.0906103 0.1746957 0.13614433
0002e0 44 26 c4 3d 7c 72 f0 3d b2 38 80 3d f2 97 6d 3d
       0.09577611 0.11740586 0.06260814 0.058006234
0002f0 b6 c9 c9 bc 41 f6 2b 3e 01 b1 9e 3d ca 81 53 be
       -0.024632316 0.16793157 0.077486046 -0.2065498
000300 3d 64 83 3a 33 b5 c3 bd 0a a1 fd 3d ae 7e 4f be
       0.001002438 -0.095560454 0.123842314 -0.20263168
000310 c3 55 82 3b 6e 48 17 3d 9f b7 ce 3d 7c ae 14 3d
       0.0039775087 0.03693431 0.10093617 0.036299214
000320 b4 49 5b 3d 5b c8 a1 bc 74 f6 28 3d 0c dd c8 3c
       0.053537086 -0.019748857 0.04125066 0.024519466
000330 37 da 17 3e 3a 65 1b 3d e0 1f 6e bc b7 62 9e bd
       0.14829336 0.037938334 -0.014533967 -0.07733672
000340 da 32 70 bb e5 83 97 be 63 03 2b 3d 19 19 de bc
       -0.0036651404 -0.29592815 0.041751277 -0.027111577
000350 42 0d 20 3e 69 ff db 3d 00 45 76 3c 1f 64 11 3e
       0.15630057 0.10742075 0.015031099 0.1419835
000360 11 70 12 3e 42 57 96 bd 8e b3 de 3d 50 b8 17 ba
       0.14300562 -0.07340862 0.10874091 -0.00057876576
000370 88 a8 cb 3d e2 80 e0 bc 23 22 49 bc 40 ff 58 be
       0.09944254 -0.027405206 -0.012276205 -0.2119112
000380 a9 b5 25 3e 58 73 42 3e 91 cc ae 3c 1f 84 a9 bd
       0.16182579 0.18989313 0.02133778 -0.08277153
000390 35 e9 38 3e dd 79 1b 3e 00 53 02 bd c7 ea 13 3e
       0.18057711 0.15183206 -0.031817436 0.14445029
0003a0 4f 57 0e bd 83 52 cc 3e 0a 66 f0 39 e9 55 3b bd
       -0.034751233 0.399067 0.00045852392 -0.045736227
0003b0 8d a5 2c 3e 5a 49 12 3d 54 75 db 3d cf 97 3b bb
       0.16860028 0.035714485 0.10715738 -0.002862442
0003c0 d6 8f 18 3e ed 87 8d 3c 24 e4 8d 3d fb 2e 67 3e
       0.14898619 0.017276729 0.0692828 0.22576515
0003d0 b9 62 92 3c ec 53 f7 bd 6b 12 06 3e 36 73 69 3d
       0.01786934 -0.12076554 0.13092963 0.05699464
0003e0 16 fc b0 bd 0c f8 b8 3d b4 70 46 bd ec 77 cb 3d
       -0.086418316 0.09031686 -0.048447326 0.09934983
0003f0 94 60 70 3c ae 2d 30 3e 25 74 90 3e 97 ea 77 be
       0.0146714635 0.17204925 0.2821361 -0.24210583

linear2.bias f4 [64]
000000 e6 14 8e 3d 3c ea 7d bd d3 4d 1d bc 0b ad d4 3d
       0.0693758 -0.06199096 -0.009601074 0.10384568
000010 c7 22 d6 bd c7 8f 22 3e 25 c6 fb ba 86 66 1f 3e
       -0.10455852 0.15875159 -0.0019208832 0.15566453
000020 99 cf c1 3d e6 23 c8 3d 39 d5 5b bd 54 a2 c2 3a
       0.09463424 0.09772472 -0.05367014 0.0014849403
000030 cb e2 d2 3d 5b 11 43 3e e0 73 bd 3c 9d de 3c 3e
       0.102971636 0.1904959 0.023126543 0.18444295
000040 4e c4 8c 3c 6c 6d 31 3e 9f 68 02 3e 90 e3 a6 3c
       0.01718345 0.17326897 0.12735222 0.020372182
000050 24 1d 8c 3d 86 c0 f6 bd dd d6 46 3e 07 5d 4f 3e
       0.06841496 -0.1204844 0.19417901 0.20250331
000060 79 f5 41 be 17 5f 5c 3d 36 c5 4a be 2b e6 50 3e
       -0.18941297 0.053801622 -0.19801793 0.20400302
000070 bc 0d 7d bd ee 89 82 bd 84 22 24 3e c2 3f e9 bb
       -0.061780676 -0.06373964 0.16028792 -0.007118196
000080 a0 d7 80 bc 8e 22 01 3d 84 4e 2c be 57 3e 3f 3c
       -0.015727818 0.031527095 -0.16826826 0.011672578
000090 f5 d3 5c bd 4b ef 8f 3d 0d 13 55 3e 31 bd 47 3d
       -0.053913075 0.070280634 0.20808049 0.04876441
0000a0 bb 70 d2 3e 07 00 45 3e f1 ea d8 3d 68 8c 58 bc
       0.41101632 0.19238292 0.105916865 -0.013217069
0000b0 b3 2c 64 3e c1 c7 38 3e 7a c0 2d 3e b2 eb a0 bd
       0.22282676 0.1804495 0.16967955 -0.07857455
0000c0 51 fd 92 3c f5 a2 aa bc ef 2d 66 3d 23 7c 47 3d
       0.017943056 -0.020829657 0.05619615 0.04870237
0000d0 f5 a3 5a 3e 9d 1d 80 bd a4 33 3b bd df 0a 18 3d
       0.21351607 -0.06255648 -0.045703545 0.037119742
0000e0 77 69 3f 3e 4d 66 29 3e 7d dd 43 3e 51 71 a1 3e
       0.18692575 0.16542931 0.1912746 0.31531766
0000f0 d8 85 fa bc a9 fd 3b 3e 78 5b c4 3d 76 75 02 3e
       -0.0305814 0.18358482 0.09587759 0.1274012

linear3.weight f4 [64, 64]
000000 98 88 a8 bd 40 85 08 bc c2 e5 2f 3e 4c 0f a5 3c
       -0.08229178 -0.0083325505 0.1717749 0.020148896
000010 ac 33 c0 bd 63 fc 33 3e 7b 7c c6 3d 76 31 21 bd
       -0.09384856 0.17576747 0.096917115 -0.03935381
000020 7c 6f 0e 3d 99 ce 67 3c 26 ef 3f bd 3e 35 12 3e
       0.03477429 0.014148378 -0.04685893 0.14278123
000030 72 83 15 3d d8 c6 a5 bc 7e c5 23 3d 7f 25 05 3e
       0.03650231 -0.020236418 0.039983265 0.13002585
000040 5f de c6 3d 2d ac 99 3d 72 5e 05 3e cf 29 b1 bd
       0.09710383 0.07503543 0.1302431 -0.086505525
000050 5c 98 18 3d 08 62 a7 3c a3 a1 09 3c 52 c0 99 3c
       0.037254676 0.020432487 0.008400354 0.018768463
000060 55 30 0e be 88 a2 03 3d ba 4f fc bd 01 e8 dc 3d
       -0.13885625 0.032137424 -0.12319894 0.10786439
000070 40 0a b1 3c 2d 7a 10 3d ff 90 c9 3c 99 f8 98 3c
       0.021611333 0.035272766 0.024605272 0.018673228
000080 09 78 80 3d a3 d4 e0 3d 25 f3 69 3d 21 70 c7 3d
       0.06272895 0.10978057 0.057116646 0.09738184
000090 ad 06 f6 3d f6 f6 28 3e a7 78 59 3e f2 96 18 3d
       0.12012992 0.16500458 0.21237431 0.037253328
0000a0 90 90 d3 3d 69 fc c2 3d f4 b7 4f 3e 3d 5d e0 bc
       0.103303075 0.095208 0.20285016 -0.02738821
0000b0 91 27 82 3d 3d 32 5f 3d 83 05 93 3e 08 b1 51 3d
       0.06355203 0.05449127 0.28715143 0.05119422
0000c0 c2 ae 82 bc 11 bd 1d 3e 36 06 14 3e 9d 83 df 3d
       -0.015952472 0.15404154 0.14455494 0.10913775
0000d0 ee 08 08 3d 49 c0 06 be 48 ee 9a 3d c9 f2 25 3e
       0.03321164 -0.13159288 0.0756498 0.16205896
0000e0 14 02 b1 bc de 59 16 3d aa 83 3b 3e fa 5d 1c 3e
       -0.021607436 0.036706798 0.18311945 0.15270224
0000f0 40 b1 b2 bb 38 d0 0e 3e 37 d6 b8 bd 59 05 d5 bc
       -0.0054532588 0.13946617 -0.09025233 -0.026003527
000100 ec 22 e3 bd a2 31 9a bd 80 a6 ed 3d 9a 94 fe 3b
       -0.11090645 -0.07528998 0.11604023 0.0077691795
000110 2d 8a 4c 3d d8 a7 13 3b 1a 4b 28 3d dc f5 37 bd
       0.049936462 0.0022530463 0.041087247 -0.044912204
000120 d4 1f 83 3c 84 bd 34 bd 52 b2 a0 bd b1 a2 af 3d
       0.016006388 -0.04412605 -0.07846512 0.08575953
000130 91 6d ae 3d 13 9f ab bd 35 57 78 3d eb 68 83 bd
       0.08516992 -0.083799504 0.060630042 -0.06416496
000140 1f 7a 12 bc 83 ab 8e 3d 3f a3 b7 bd 41 91 d1 bd
       -0.008940249 0.06966307 -0.089666836 -0.10232783
000150 08 10 ab bc cc e1 1f 3d 0f d6 d0 bd bd 88 9d 3d
       -0.020881668 0.039033696 -0.101970784 0.076920964
000160 d2 59 5e bd 07 3b e4 bd 6a 50 45 bd da dc d0 bd
       -0.054284878 -0.11144071 -0.048172392 -0.10198374
000170 08 15 a5 bc de e6 24 3d 62 35 a7 3b d4 39 4f 3d
       -0.02015163 0.040259235 0.0051027993 0.05059226
000180 67 00 4b 3c 7d 18 ac 3c ad f7 fa bc 3e a3 95 bd
       0.012390233 0.02100777 -0.03063568 -0.073065266
000190 c7 1b 72 3d d9 60 f5 bd 9e 59 1a 3d 67 eb 2e bd
       0.05910852 -0.11981363 0.03768312 -0.042704966
0001a0 44 ef d5 bd 3e dc 08 be a3 dc 76 bd 71 74 00 bd
       -0.10446027 -0.13365266 -0.06026901 -0.031361047
0001b0 2c 92 f5 bd c1 ae be bb bb f0 45 bd 08 50 ac bd
       -0.11990771 -0.005819172 -0.04832528 -0.08413702
0001c0 82 f9 a5 3d f4 9c 8d 3d a5 2f ab bc 21 05 43 3d
       0.081042305 0.06914702 -0.020896742 0.047612313
0001d0 75 1d 9e 3d aa e2 91 3d 28 4b d9 3d 0e 04 6b bd
       0.07720462 0.07123311 0.10610038 -0.057376914
0001e0 4d 0e f9 bd a3 8d b5 3d 8b 82 ee 3d 8a dc 0b 3d
       -0.12160931 0.08864906 0.11645993 0.03414587
0001f0 4e 04 af bd 1d b9 91 3c a8 08 ec bd 35 9c d0 bd
       -0.08545743 0.017788464 -0.115250885 -0.10186044
000200 f0 44 5d bd 78 e1 85 3c 81 2a 23 3d 67 92 06 3e
       -0.054020822 0.016342863 0.039835457 0.13141786
000210 8f 26 80 be 70 03 fb bc 54 36 18 3e cd 04 ed 3d
       -0.25029418 -0.030641288 0.14864475 0.11573181
000220 c5 48 df 3d bb 92 15 3e 93 02 02 3e 0f 7b 5a 3e
       0.109025516 0.14606754 0.12696294 0.21336006
000230 06 b2 eb 3d 14 04 18 3e c3 f5 1d 3e 85 df 07 bc
       0.11508565 0.14845306 0.15425782 -0.008293037
000240 ed 30 9c 3d 44 d1 0c 3e b5 aa 0a 3e ef 3c c1 3c
       0.07626519 0.13751704 0.13541682 0.023588626
000250 88 09 79 bd 74 5b d6 bd 6d b2 7f 3c 4d da 6e bc
       -0.060800105 -0.10466662 0.015606505 -0.014578414
000260 68 ee 6e be 11 bc 54 bd 51 fc a7 bd 2a 6a 84 3e
       -0.23333132 -0.051937167 -0.082024224 0.25862247
000270 40 26 ce 3c 78 5f f0 bc 3d 56 69 3d 3d 9a 1b bd
       0.025164723 -0.029342398 0.05696701 -0.03798889
000280 e9 75 ea 3d e2 24 74 3e f4 08 20 be ab dd fe bc
       0.11448271 0.23842195 -0.15628415 -0.031111559
000290 bd a0 7e 3d 4d 70 1d 3e 3c a8 79 3e 93 44 e1 3d
       0.06216501 0.1537487 0.24380583 0.109994076
0002a0 3a ca 1a 3e 67 16 88 3d 8d 9f 35 3d 5d 71 25 3d
       0.15116206 0.06644898 0.044341613 0.040391315
0002b0 b9 4c 14 3d c1 94 90 bc 55 1b 37 3e 40 72 5b 3b
       0.03620598 -0.017649056 0.1788152 0.0033484846
0002c0 61 37 6d 3c 34 77 0f 3e e6 e0 d9 3c e9 e6 4a bd
       0.014478535 0.14010316 0.026596498 -0.04953662
0002d0 96 1a dc 3d 14 76 84 be 1f 3a 9e 3d a4 b5 57 bd
       0.10747258 -0.25871336 0.077259295 -0.05266346
0002e0 d1 5c e9 bb 50 c6 d2 3d ef 90 51 bd 30 f3 a1 3d
       -0.0071216603 0.10291731 -0.05116361 0.079077125
0002f0 c2 e7 fb bd 06 a7 65 bd 3c 9f 51 3c ab 25 18 3d
       -0.12300064 -0.05606749 0.012794312 0.037145298
000300 5c 5e e1 bd 70 8c 53 3c f8 b6 01 be ae 10 cd bd
       -0.11004326 0.012911901 -0.12667453 -0.10012947
000310 10 e5 93 bd 9c e5 1f bd 86 f2 64 3b 76 13 fd 3c
       -0.072214246 -0.039037332 0.0034934594 0.030893069
000320 2b 3f 96 bd 5b 55 bf 3d 00 c5 27 bb fb 05 3e 3d
       -0.07336267 0.09342452 -0.00255996 0.046392422
000330 91 4b a3 3c 9c 7e 70 3d e3 89 32 bd 18 e4 25 3d
       0.019933494 0.058714494 -0.04358853 0.04050073
000340 d4 47 7c 3c 98 ce d0 3c 3e 4e d4 bd 3a 74 d7 3d
       0.015397985 0.025489137 -0.10366486 0.10520215
000350 ec 05 a2 bd 10 da e1 3d 21 0f 6a bd 30 cd 02 3d
       -0.07911286 0.1102792 -0.057143334 0.031933963
000360 48 5b fd 3d b0 bd f3 bd f4 39 54 3d f8 69 fb bd
       0.12370926 -0.119014144 0.05181308 -0.12276071
000370 a0 6e 30 3d bd 17 40 3d f2 8a 92 bd f8 69 eb 3c
       0.04307425 0.04689764 -0.07155408 0.028737053
000380 1d 8e 2d 3d 5d 2b 46 bd 61 19 ce bd 1d 6e 4f bc
       0.042371858 -0.0483812 -0.100634344 -0.01266053
000390 4c ce e9 bd 2d cd 9e 3c 09 dc 7c 3d 9d 08 03 be
       -0.11416301 0.019384945 0.06173328 -0.12796254
0003a0 e8 95 3f 3d f3 36 de 3d 67 f3 de 3c 71 69 f3 3d
       0.04677382 0.108503245 0.027215673 0.11885346
0003b0 40 94 17 3b 35 bc e0 bc af 81 aa 3d 60 f6 0f 3d
       0.0023129135 -0.027433494 0.083255164 0.03514707
0003c0 00 99 b4 3a 01 f1 ef 3d 69 24 b2 39 5e f4 a7 bd
       0.0013778508 0.1171589 0.00033977933 -0.08200906
0003d0 c8 20 87 bd 28 75 1e 3d bc a1 4d 3d 6c ab b0 3d
       -0.065980494 0.038685948 0.05020307 0.08626446
0003e0 78 79 b6 3d e2 cf ba 3d 7e 9e aa bd b5 17 e0 3d
       0.08909887 0.09121682 -0.08331011 0.10942022
0003f0 f0 c6 81 3d 62 cf 96 bd f5 43 5c 3d 14 bc 35 3d
       0.063367724 -0.07363774 0.053775746 0.04436882

linear3.bias f4 [64]
000000 0c 81 0c 3e 38 5c b8 bc 60 03 9c 3d e5 22 33 3d
       0.13721102 -0.02250491 0.07617831 0.04373445
000010 96 53 84 3d 80 32 ee bc 9b c3 2f 3c 0e 4e a9 3d
       0.06461255 -0.029076815 0.010727788 0.08266841
000020 d9 62 96 3d f7 ed 1d bd 51 c3 5f 3d 39 2d 92 bd
       0.073430724 -0.03855702 0.054629628 -0.07137532
000030 90 25 92 3d f2 91 59 bc d9 5a 4b bc 8f fa 62 3c
       0.07136071 -0.013279425 -0.0124117965 0.013853683
000040 2d 08 68 3d 02 f0 14 3e 41 0b 51 3d 02 07 80 bd
       0.056648422 0.1454468 0.051036123 -0.06251337
000050 dd 55 55 3d 0d 98 60 3d 50 19 dd bc 12 a2 93 bd
       0.05208384 0.054832507 -0.026989609 -0.07208647
000060 04 14 02 3e b8 cc d9 3c b4 2c c2 3c 5c 53 d8 3c
       0.12702948 0.026586875 0.023702957 0.026406936
000070 92 e1 82 3d b8 d8 fd bc e7 46 f2 3c f1 7a 25 ba
       0.063906804 -0.030987129 0.029574824 -0.000631257
000080 ff ef 3e bd b3 d7 15 be 0b d3 57 3d d7 7c 1d 3e
       -0.046615597 -0.14633064 0.0526915 0.15379654
000090 b6 8c 7d 3d 63 f0 2c bd 12 a0 2a 3e 7c 42 bd 3d
       0.06190177 -0.04222144 0.16662624 0.092411965
0000a0 b1 81 03 bd 7f 3d 54 be 36 8a 13 3e 18 aa fd bd
       -0.032106105 -0.20726584 0.14408192 -0.123859584
0000b0 d8 f5 ce 3c f6 05 41 bd 06 71 a2 3d fa fc ab 3d
       0.025263712 -0.047124825 0.07931714 0.08397861
0000c0 06 a8 13 3e 92 c8 e3 3d f3 3b 45 3d 88 3f 02 3e
       0.14419565 0.1112224 0.048152875 0.12719548
0000d0 64 ec f6 bd 1f 14 c0 bd d2 dc 8c bd 63 71 0f 3d
       -0.12056807 -0.09378838 -0.06878056 0.035020243
0000e0 e4 71 fb 3d d0 fe 3e 3d 4d c4 2c 3d 8e 1b db 3d
       0.12277582 0.046629727 0.042179395 0.10698615
0000f0 01 c8 23 3e 10 c8 95 3d be 49 27 3e d8 ec df 3d
       0.15994264 0.073135495 0.16336724 0.10933846

linear4.weight f4 [1, 64]
000000 35 de 62 bd a7 66 fa b9 3b 4c c6 bd aa d0 49 bb
       -0.055387694 -0.00047760198 -0.096825086 -0.003079454
000010 68 b2 e7 3a df 6d 07 ba e1 63 aa bd fb 30 ad bd
       0.001767707 -0.00051662134 -0.08319832 -0.08456608
000020 7f 2c e7 bd e0 ff bb 3b 8d 76 91 bd 5c bb 03 3e
       -0.11287784 0.00573729 -0.0710269 0.1286444
000030 38 9d 88 bd ac 0c cb bd 74 9b 81 bd f3 fc 70 bd
       -0.06670612 -0.09914526 -0.063284785 -0.05883498
000040 46 58 9e bd a4 77 7b bd a2 72 88 bd 90 3e 1d 3b
       -0.077316806 -0.061393395 -0.066624895 0.002399359
000050 fe cd bd ba 2b 8c 75 bd ca ea a4 3b 71 4a 8d bd
       -0.0014480946 -0.059948128 0.005032872 -0.06898964
000060 f8 57 98 bd 70 bc 8a bd be db d7 bd a2 5f 8c bd
       -0.07438654 -0.06774223 -0.10539959 -0.06854178
000070 71 e1 26 b9 4e b6 ae 39 64 c0 9d bd d5 45 b9 bd
       -0.00015914977 0.00033323694 -0.07702711 -0.090465225
000080 1b 5e 7c bd ae c0 c9 3d 96 a2 a9 bd a6 ae 96 bd
       -0.061613183 0.09851204 -0.08282964 -0.0735753
000090 a7 1d 91 bd 4c e1 85 bd ec c9 7d bd 4e 61 9d bd
       -0.07085734 -0.065371126 -0.061960146 -0.07684575
0000a0 6a f0 32 bc dd b7 bc 3c 37 52 91 bd aa 90 9e 3a
       -0.010921577 0.023036892 -0.07095759 0.0012097557
0000b0 62 64 b3 bd 99 6d 87 bd b8 71 ce bd 77 2f 88 bd
       -0.08759381 -0.06612701 -0.10080284 -0.06649678
0000c0 6c 6b 95 bd 51 5d f2 b9 92 2e f8 ba 05 cf 79 bd
       -0.0729588 -0.00046227363 -0.0018934777 -0.060988445
0000d0 0e 2f 05 3e 42 c1 d0 3b f5 5b b4 ba a8 ec 95 bd
       0.13006231 0.0063706944 -0.0013760315 -0.07320529
0000e0 3e 63 6a 3a f9 48 0a bb c3 fc 75 bd e2 3b cb bc
       0.000894118 -0.0021100624 -0.060055505 -0.024808828
0000f0 dd 4c a6 bd 0c 17 8a bd 58 bb 82 bd 7c ce 92 bd
       -0.08120129 -0.06742677 -0.06383389 -0.0716829
