models/noCBF_2025-11-17 20:07:46/1/Q2.pth (torch, 37764 bytes, 7 tensors)

linear1.weight f4 [64, 5]
000000 ad d1 02 bf 77 43 21 be 42 70 e8 3d c8 e6 31 bd
       -0.5110119 -0.15748392 0.113495365 -0.04343298
000010 2d 1c f9 be 79 b9 94 bd bb 8a 72 3e 54 85 e6 bd
       -0.4865431 -0.072619386 0.23685734 -0.11255899
000020 28 f6 6a be f6 fe 34 be 57 23 1e bd 6b 8f 03 3e
       -0.22945464 -0.17675385 -0.03860792 0.12847678
000030 71 df a6 be f6 07 b5 3c fd 9f b6 bd 22 ae 86 be
       -0.32592347 0.022098523 -0.08917234 -0.26304728
000040 38 c0 9d bc 47 75 84 be 1b 35 8e 3d fb 25 b4 be
       -0.019256696 -0.25870726 0.06943723 -0.35185227
000050 a9 f9 3a 3e 3f 19 0b 3d 0d 71 94 bd fd d9 e2 bc
       0.182593 0.033959623 -0.07248125 -0.027691836
000060 21 68 91 3e f2 1e 0b 3e ab 1f 7b 3e b0 2f 84 be
       0.28399757 0.13586023 0.24523799 -0.25817633
000070 a3 63 71 be 18 a4 35 be a4 f9 ec 3c e8 7c 62 3e
       -0.23573165 -0.17738378 0.028927632 0.2211796
000080 63 76 ee bd 73 df b2 3e 95 b7 e2 be 91 62 e4 be
       -0.11643674 0.34936103 -0.44280687 -0.4460645
000090 f3 a9 83 bd c4 d3 ce 3d 49 4d 85 be a6 50 2f be
       -0.064288996 0.10098985 -0.26035526 -0.17120609
0000a0 d8 e3 e4 be 78 8b 15 be 49 7d 1f be 3b 57 69 bf
       -0.4470508 -0.14603984 -0.15575136 -0.9114873
0000b0 f4 ae a0 be 05 d3 23 3c d0 63 a9 3e b6 00 84 be
       -0.3138348 0.009999041 0.33083963 -0.25781792
0000c0 8c 89 de be d2 a3 ac 3e 17 90 a1 be 36 e2 53 3e
       -0.43464315 0.33718735 -0.31555244 0.20691761
0000d0 fa eb e6 be 37 eb 14 be 4b 55 fa be 95 51 dd be
       -0.4510191 -0.14542852 -0.48893198 -0.43226305
0000e0 2f d9 9c 3d 74 d3 a4 3e 65 01 94 be 3d 3d 72 be
       0.07658612 0.32192576 -0.28907314 -0.23656173
0000f0 e8 7b 97 3e a6 d3 dd bb 90 32 0b 3e 40 ff 14 3f
       0.2958672 -0.006769615 0.13593507 0.5820198
000100 21 e0 a4 3e 04 42 20 be 3d 9f f6 be 09 41 af 3c
       0.32202247 -0.15650183 -0.48168364 0.021393316
000110 4a b6 05 bf 84 26 50 bf 21 d1 b4 be 08 cf d2 3e
       -0.52231276 -0.8130877 -0.35315803 0.41173577
000120 59 ba ea bc e6 40 4e be 74 73 a3 3e 77 79 c1 be
       -0.02865331 -0.20141944 0.3192402 -0.37787983
000130 65 b4 a4 bd 78 5f 48 be 13 eb 0d be 01 90 56 be
       -0.0804222 -0.19567668 -0.13859205 -0.2095337
000140 7d 48 8f be 92 48 aa be 2d 18 7f bc 67 5c 4c be
       -0.27984992 -0.33258492 -0.015569729 -0.19957124
000150 3d 30 5b be 78 80 0f bf 99 46 9e 3c 11 81 eb 3c
       -0.2140512 -0.560554 0.019320773 0.028748067
000160 2e 2b a8 be 6d 1a 26 bf 8f d3 a0 3e 51 5d fa 3d
       -0.32845443 -0.6488407 0.31411406 0.1222483
000170 57 ab 20 3e a7 95 9d 3e b0 b4 16 3f 23 66 98 be
       0.15690361 0.30778238 0.5886946 -0.29765424
000180 c6 dc cc 3e 44 6a 90 be bd d7 64 3e 0c 13 be be
       0.40012187 -0.28206074 0.22347923 -0.37123907
000190 61 de 53 be 2e e3 83 be 4d 67 56 3e da 9b 9f bd
       -0.206903 -0.25759262 0.20937844 -0.07793398
0001a0 1c 9a 05 be 8a d9 17 bf 9c a5 d7 be 4a 69 9b 3e
       -0.1304707 -0.59316313 -0.42118537 0.30353767
0001b0 64 02 ed be d9 16 20 be 31 fa e8 be 0f 18 63 3e
       -0.46290886 -0.15633716 -0.4550338 0.22177146
0001c0 24 e8 c0 3e b4 7b bb be 9b 30 23 3e 94 a0 a0 bd
       0.3767711 -0.36617815 0.1593651 -0.07843128
0001d0 59 22 1d bf 22 2c 4b 3e 34 85 8f be 48 e7 34 bd
       -0.61380535 0.19841054 -0.28031313 -0.04416588
0001e0 77 d4 cf bd d9 2a b9 be 12 18 75 3d 67 c4 b6 3c
       -0.10147946 -0.36165503 0.05983741 0.022310449
0001f0 53 2f 11 3e 14 35 30 be 3f 41 97 3e 5d a9 ae be
       0.14178209 -0.17207748 0.29541966 -0.3411359
000200 00 99 c4 be 2d b9 50 3e 97 e1 18 be 41 9d 83 3e
       -0.3839798 0.20383139 -0.14929806 0.25705913
000210 09 ed 5d be 8b 4e cf 3e 22 3f 23 be 01 03 d1 be
       -0.21672453 0.4048961 -0.15942052 -0.40822604
000220 d7 b1 ba be 07 3d e8 bc 13 d8 72 bd 7a 41 b1 be
       -0.36463806 -0.028349413 -0.059288096 -0.34620267
000230 0c 47 39 be 0e bf dc be b1 3a 91 3d 81 70 41 bf
       -0.18093508 -0.43114513 0.070912726 -0.7556229
000240 d2 01 2f 3e 0d 18 4f 3d f1 23 1d be 21 7e eb 3e
       0.17090538 0.050560046 -0.15345742 0.45994666
000250 ba e6 3d 3d 78 e6 e4 bd 23 a9 d5 be 91 d8 6f be
       0.046362616 -0.11176771 -0.41730604 -0.23422457
000260 ad ea a0 3e 90 a3 3f be 52 9d 32 bf 40 2b 8e be
       0.31429043 -0.18714738 -0.697713 -0.27767372
000270 63 21 40 3e 0e 17 dc 3e ee c3 20 3e f8 db d1 3d
       0.18762736 0.4298634 0.15699741 0.10247034
000280 da 42 b2 3e ce 82 a1 3e f5 a1 24 3e 7b aa 11 3f
       0.3481663 0.3154511 0.16077407 0.5690076
000290 9d d9 15 3e 98 2b 67 3e 11 8d a5 be 27 47 80 3e
       0.14633794 0.22575223 -0.32334188 0.25054285
0002a0 89 73 18 bf 57 9f 9a be 7e c0 df 3e fb 1a c2 be
       -0.5955129 -0.30199692 0.43701547 -0.3791121
0002b0 ff c8 c1 be 1a da 75 be 41 d3 e0 bc 77 f5 a6 be
       -0.3784866 -0.2400898 -0.027444484 -0.3260915
0002c0 70 8b 17 be b0 39 f2 bd e2 8c ed be 1b 4e 18 3e
       -0.14799285 -0.11827409 -0.46396548 0.14873545
0002d0 ba a8 0d be 1f 3f 83 be 2c b1 ba 3e fe 7c 29 be
       -0.13833895 -0.25634095 0.36463296 -0.16551587
0002e0 b5 be bc be 44 99 2c 3e 2a 06 ca be f6 fd f0 bd
       -0.36864248 0.16855341 -0.39457828 -0.11767189
0002f0 d0 43 f9 bc c7 a7 97 be a1 85 de bd 3e dc 25 be
       -0.030427843 -0.2962019 -0.108653314 -0.16197297
000300 dd 9d cb be da 53 1d bf 23 3b bd 3c 12 f9 11 3e
       -0.39768878 -0.6145607 0.023099488 0.14255169
000310 72 de d8 bd 1e c9 dd 3e fc a8 44 be 6e 3f 7e be
       -0.10589303 0.43317503 -0.19205087 -0.24828884
000320 e8 5e f8 be 94 09 95 3d c8 1d 8e 3e ef dc 15 bf
       -0.48509908 0.072772175 0.27757096 -0.5854024
000330 c2 1c bf be 51 c4 8b 3e d3 21 d1 3e ab 1c db 3e
       -0.37326628 0.27298215 0.40846118 0.4279531
000340 23 3c fc 3e cf e9 d9 3e e1 dd 1c be e9 39 c8 be
       0.4926463 0.42561194 -0.15319015 -0.39106682
000350 3e cc ca 3e 40 9e 93 be 49 06 c6 3c db 33 3e 3e
       0.3960895 -0.28831673 0.024172919 0.18574469
000360 b8 d4 d1 bd 35 f2 59 3e 5f e8 2e be dd 9c 24 bf
       -0.10245651 0.21283801 -0.1708083 -0.64301854
000370 3f a1 e9 be c3 4a a1 be 01 8e 83 3e 32 3b 0b bf
       -0.45630834 -0.3150235 0.25694278 -0.543872
000380 fa a3 27 bf a6 f6 19 bc f3 c7 6e be 4d 19 af 3e
       -0.65484583 -0.0093971845 -0.23318462 0.3419899
000390 40 d3 19 3e e9 6f d5 be 99 b4 60 be 41 fa ac bc
       0.15021992 -0.41686943 -0.21943893 -0.021115424
0003a0 45 2e 94 3e 24 ee 2f bf ea ea 2e bf 49 50 38 bc
       0.2894155 -0.6872275 -0.683272 -0.01124961
0003b0 17 1d 1d bf f5 15 34 3e 73 53 b4 be 82 c1 52 be
       -0.6137251 0.17586501 -0.35219917 -0.2058163
0003c0 bb d2 4a 3e 16 3f 3a be 0b 6d b9 be b8 13 9c 3e
       0.1980695 -0.18188128 -0.36216006 0.30483794
0003d0 11 38 c2 3e f4 1b 8c 3e f2 a7 3e 3e bf 8a fd 3e
       0.379334 0.27365077 0.18618754 0.49519917
0003e0 16 7f 2c 3e b9 00 ad bd eb 1c 50 3e 61 17 fa bd
       0.16845354 -0.084474035 0.20323531 -0.122114904
0003f0 9b 22 92 be 9b 01 bd 3c f5 41 82 be 9b 2f 52 3e
       -0.28542027 0.023072055 -0.25440946 0.20525973

linear1.bias f4 [64]
000000 44 b2 99 3e 4b 5e 75 3e 82 ed ae be 1c 8b ce be
       0.30018818 0.23961751 -0.3416558 -0.40340507
000010 b6 08 95 3e ad f1 cd bc 2f c3 bd be 87 56 c2 bc
       0.29108208 -0.025139654 -0.37062976 -0.0237229
000020 5f 89 02 3f d2 48 9e 3d 85 32 51 3e fb 9f f3 3e
       0.5099086 0.07728733 0.20429428 0.47582993
000030 19 3f 50 3e 2b 61 83 3e ea 55 d4 3e d6 a6 32 3d
       0.2033657 0.2566007 0.41471797 0.04361614
000040 e5 ec ac be d9 4a 06 3f 61 f5 1b be 8f 3c ae be
       -0.33774486 0.5245796 -0.15230323 -0.34030578
000050 e4 5b ac bd 1e a6 a1 3e da f7 dd 3d f9 43 90 3e
       -0.08415964 0.3157205 0.108382896 0.2817686
000060 36 e1 93 3e 5d a0 34 3e fe 37 34 3e d6 98 21 3e
       0.2888276 0.17639299 0.17599484 0.15780959
000070 d9 bc 5c bd e3 26 9b be 62 b2 0a 3f 99 21 91 3e
       -0.053891037 -0.30303106 0.5417844 0.28345945
000080 58 9d a6 be 1e 86 0b 3e ee fc 30 3e b9 fd 37 be
       -0.3254192 0.1362538 0.17283985 -0.17967881
000090 36 76 c6 3e e7 23 0f be e5 39 39 3d 3a 94 97 bd
       0.38762063 -0.1397854 0.04522123 -0.07401319
0000a0 12 10 7f be be ce 92 3d a8 93 f7 3e b4 fc 09 3f
       -0.24908474 0.07168339 0.4835484 0.5390122
0000b0 52 82 e2 3e 2d cb 71 be 50 10 ef 3e ac 4a d0 3d
       0.44240052 -0.23612662 0.46692133 0.101704925
0000c0 af fb 03 3c 1d 89 29 be d4 38 0c be 1d d7 90 be
       0.0080556115 -0.16556211 -0.13693553 -0.28289118
0000d0 d8 9d 49 3e 71 d3 e1 3e 94 d6 82 be 66 6a f9 bb
       0.19689119 0.4410663 -0.25554335 -0.0076115606
0000e0 d7 f4 f1 3e 0a 31 31 3d 58 2f 5a be ec aa 12 3e
       0.4725711 0.043259658 -0.21307123 0.14323014
0000f0 b6 02 0f bf ef 30 79 be f6 87 03 3d 79 c1 9a bd
       -0.5586351 -0.24335073 0.032112084 -0.07556433

linear2.weight f4 [64, 64]
000000 66 c9 f1 bd 8a 31 d6 bd 68 6c 56 bd 40 27 ff bb
       -0.11805992 -0.104586676 -0.052349478 -0.0077866614
000010 92 27 e9 3d d2 6e f6 3d d6 3c 99 bd 70 ba 74 3d
       0.113845006 0.12032856 -0.07482307 0.059748113
000020 c4 95 fc bd 00 36 bf 3b 6a e1 a0 bd 3a 9f fa bd
       -0.12333253 0.0058352947 -0.07855494 -0.12237401
000030 a0 71 7c bc 66 3c ff bd 6c de 0a bd 18 8f 0e bd
       -0.01540795 -0.12462692 -0.033903524 -0.034804434
000040 8c 89 38 3d 9c 02 53 3d 28 04 9d 3d f8 b1 6c 3d
       0.04505305 0.05151616 0.07666808 0.05778691
000050 72 0b d2 3d 90 63 bc bc c8 8c 20 3d 18 98 33 3d
       0.10256089 -0.022996694 0.03919676 0.04384622
000060 b8 79 a5 3d a0 5b a4 3c e4 b7 45 3d 90 62 fc bd
       0.08079857 0.020063221 0.048271075 -0.12323487
000070 90 0d 7b 3c 48 99 e4 bc c0 23 4f 3c 70 77 76 bc
       0.015323058 -0.027905121 0.012642801 -0.015043125
000080 b0 10 01 3c 82 32 f5 bd 5e 57 e0 bd 28 6d d7 bc
       0.007877514 -0.11972524 -0.10954164 -0.026297167
000090 38 d0 65 3d fa d4 c0 3d 4c bd 95 3d 46 1e 85 bd
       0.056106776 0.09415622 0.07311496 -0.06499915
0000a0 7e 8e e0 bd 08 4c 67 3d 70 bb 56 3c b0 80 9e 3c
       -0.10964678 0.056468993 0.013106212 0.019348472
0000b0 a0 ee 59 bd 3e a1 bb bd b8 71 96 3d e0 4f bc bd
       -0.053206086 -0.09161614 0.07345909 -0.091949224
0000c0 ac d7 06 bd f0 6c 67 bd 1a 15 f2 3d 98 ae 78 bd
       -0.032920524 -0.056500375 0.11820431 -0.06071338
0000d0 04 64 c4 bd dc d8 9e bd 68 0d 64 bd 90 fb 6d 3c
       -0.09589389 -0.077562064 -0.055676848 0.014525309
0000e0 4c 9e 79 3d c6 fe 84 3d 5a cc 91 bd e8 6a c6 bd
       0.06094198 0.06493907 -0.07119055 -0.096883595
0000f0 88 92 40 3d 12 57 c2 bd 8a 6d 84 bd 32 84 a3 bd
       0.047014743 -0.094892636 -0.064662054 -0.07984199
000100 ab c2 73 3e 40 9d 3c bd 80 77 cb 3b 5b 35 8e 3d
       0.23804729 -0.046048403 0.006209314 0.069437705
000110 07 8e 58 3d 68 71 6e bd 44 63 03 bd c3 ca 6d 3e
       0.052869823 -0.05821362 -0.03207709 0.23221879
000120 9f 54 82 3d 2a 89 a7 bd a4 ec 1d be 66 be f8 3d
       0.063637964 -0.08180459 -0.15422302 0.121456906
000130 e7 fe 89 be e7 0d 05 3e 65 3d b0 3e 9d 44 e7 3d
       -0.26952288 0.12993585 0.3442184 0.11292384
000140 ff df 8e 3d e5 44 81 3e 92 f3 63 bd 98 fe 47 bd
       0.069763176 0.25247875 -0.05565221 -0.048826784
000150 92 c0 3c 3d b3 32 3d 3e db a2 0e 3e e3 3f 3e 3d
       0.046082087 0.18476371 0.13929312 0.046447646
000160 6c 1b 9a 3e a0 84 82 bb 80 ac bd 3b c4 8d f2 3d
       0.30099046 -0.0039830953 0.005788386 0.11843446
000170 d4 b3 b4 3e ac 12 03 3e 37 17 46 3d 66 9b 7b 3d
       0.35293448 0.12800092 0.048361983 0.061427496
000180 d5 df ec bd 80 22 30 bd 9a 0e d5 bd e5 5c 7d bd
       -0.1156613 -0.04300165 -0.10403176 -0.06185617
000190 3e 92 4e 3d b5 20 2c bd dd 2f 16 be 8d 8a 64 3d
       0.050432436 -0.04202338 -0.14666696 0.055796195
0001a0 14 ea c8 3d dc 7b 28 bd bc dd a3 3d 72 2e c2 3c
       0.09810272 -0.041133747 0.08001277 0.023703787
0001b0 4e ef 47 3e 7c 92 e7 3d 52 fd 32 3c d0 a0 65 3d
       0.19524881 0.113072366 0.010924654 0.056061566
0001c0 48 59 9a bd 19 4a 47 bd 28 48 ad 3d 22 e3 a8 3d
       -0.0753656 -0.04865465 0.08461028 0.08246447
0001d0 58 40 2b 3d 28 02 82 3c ec ad 2c 3e 75 07 60 3c
       0.04180941 0.015870169 0.16863221 0.013673653
0001e0 ed 29 3a bd 96 31 64 3d 48 df a9 bd ad 5e be bc
       -0.04545014 0.05571135 -0.08294541 -0.023238504
0001f0 c9 41 ec bd cd 8f 8d 3d f2 a6 db 3d 64 a0 b2 3d
       -0.11535985 0.069121934 0.10725202 0.08721998
000200 80 5d f1 bd 68 2c 48 bd 60 a0 e9 3c b2 18 cf bd
       -0.11785412 -0.048870474 0.028518856 -0.10112132
000210 3c e3 f8 3d ce 44 f2 bd 0c 60 10 3d c0 17 a5 bc
       0.121527165 -0.1182953 0.035247847 -0.020152926
000220 04 99 51 bd ba b3 fe 3d ba 0b 8b bd 40 cb 8c 3c
       -0.051171318 0.12436624 -0.06789346 0.01718676
000230 24 41 ca bd 88 f2 da 3c 58 3b 93 bd 6c a6 6d bd
       -0.09875706 0.026726976 -0.07189053 -0.05802004
000240 80 9c 9a bd 06 63 8a 3d 8e b0 ee 3d e0 e5 32 bc
       -0.07549381 0.067571685 0.11654769 -0.010919064
000250 f8 ef 64 bd bc 05 1c bd 5c 74 c4 bd 6e 64 d1 3d
       -0.055892915 -0.038091406 -0.09592506 0.102242336
000260 a2 bd 8d bd ea a7 80 3d 00 06 f5 3c 80 ef 7c 3b
       -0.06920935 0.06282027 0.029910088 0.0038594902
000270 28 42 f3 bc 60 10 a7 bd a2 a1 c8 bd 70 15 70 bd
       -0.029694632 -0.0815742 -0.09796454 -0.058614194
000280 94 77 b9 bd 60 c9 03 bc 50 04 6f 3d de 7c b7 bd
       -0.09056011 -0.008043617 0.058353722 -0.089593634
000290 68 8e 3c 3d 70 c0 02 3c e0 4f 23 3c 98 65 ea bc
       0.046034247 0.007980451 0.009967774 -0.028612897
0002a0 0e 98 fb bd 6a 49 f1 3d 80 56 3c 3b d8 c5 bd 3d
       -0.122848615 0.11781581 0.0028738081 0.09266251
0002b0 10 20 a5 bc da 93 cb 3d c2 c5 91 bd ec 17 7b 3d
       -0.02015689 0.0994031 -0.071177974 0.06130211
0002c0 80 40 09 3b ac 80 17 bd 1c 86 1c 3d 36 bf ba bd
       0.0020942986 -0.036987945 0.038213834 -0.09118502
0002d0 0e 66 eb 3d 68 04 b5 bc 40 2f 7f bd c0 6d eb bb
       0.11494075 -0.022096828 -0.06230092 -0.007184714
0002e0 22 42 92 3d f0 1a 45 3d 16 e8 e4 3d 80 6d e8 bd
       0.0714152 0.048121393 0.111770794 -0.113490105
0002f0 40 11 3f 3c 80 dd 8e bc f8 96 91 bd 78 37 a4 bd
       0.011661828 -0.017439604 -0.07108873 -0.08018392
000300 ac 0a 85 3d c0 df e0 bb be 47 8a 3d fa 6c dc 3d
       0.06496176 -0.0068626106 0.06751965 0.10762973
000310 ee 18 29 bd e0 6a c3 bd a4 3a dd 3d e9 74 fe b9
       -0.04128354 -0.09541869 0.108022004 -0.0004853376
000320 ff 28 33 be ca e7 d0 3d 45 53 c5 3d c9 36 da 3d
       -0.17496108 0.1020046 0.09635023 0.10654981
000330 04 74 17 3d b9 b3 5b be 49 c5 d5 3e b9 ae 02 3e
       0.036975875 -0.21455278 0.4175208 0.12761964
000340 27 4e f0 3c 7a 34 df 3d ce ea f0 3b 20 84 06 bc
       0.029334141 0.10898681 0.0073522096 -0.008210212
000350 24 71 ec 3d a9 a8 76 bc 08 b8 ff 3d de 30 16 3e
       0.11545017 -0.01505486 0.12486273 0.14667079
000360 e6 5f 2b 3e 64 09 a3 bd 58 47 df bd c5 5a 18 be
       0.16735801 -0.079607755 -0.109022796 -0.14878376
000370 ac 54 eb 3d f4 5e 68 3d 02 7e b1 bc 7b 65 8c 3c
       0.11490759 0.05673118 -0.02166653 0.017138233
000380 38 7b aa 3c 73 41 22 3d 88 fe 42 bd 1d 45 9e 3e
       0.020810708 0.0396132 -0.04760602 0.30912104
000390 17 e2 78 bd 04 9f 63 bb ad 31 b3 3d 86 36 bd bd
       -0.06076249 -0.0034732232 0.08749709 -0.09238915
0003a0 74 40 bb bc 1c 3e 8f 3d 54 6e 91 3d a1 54 b3 bd
       -0.022857882 0.06994268 0.071011215 -0.08756376
0003b0 06 83 b1 bc f7 16 62 bd 45 b0 68 3d 6d a9 32 bd
       -0.021668922 -0.055197682 0.05680873 -0.04361861
0003c0 89 a6 2f be 50 24 bc bd 38 34 ac 3c 8d c9 9e 3d
       -0.17153372 -0.091866136 0.021020994 0.077532865
0003d0 c0 65 c2 bd 00 26 de bb 97 3b 86 bd 40 6f b3 bd
       -0.094920635 -0.0067794323 -0.065543346 -0.08761454
0003e0 1e 25 6f bd d8 57 b2 3c 36 ff f4 3c 22 fd 16 bd
       -0.058385007 0.021770403 0.02990685 -0.0368625
0003f0 77 48 ef bd 49 67 4f bd 33 21 92 3c b6 93 b7 3d
       -0.116837434 -0.05063561 0.017838096 0.089637205

linear2.bias f4 [64]
000000 b0 d4 3d bd 03 05 7c 3d 34 5f 87 3d cc a3 ce 3c
       -0.046345413 0.061528217 0.066099554 0.025224589
000010 d0 4d 3c 3d d5 ae b3 3d bb 8a ce 3c 9c d0 bf 3d
       0.045972645 0.08773581 0.025212636 0.09365961
000020 5f f5 c8 3c 9c 10 ee 3c 44 33 16 3d d8 4c 91 bd
       0.024531065 0.029060654 0.036669984 -0.07094735
000030 ff 46 48 3e 5f 15 1f 3d 8b 3e 40 3e 0c aa 48 bd
       0.19558333 0.03883874 0.18773858 -0.048990294
000040 07 f4 1a 3d eb ea 67 3d d9 dd 86 bd a0 46 18 3c
       0.03783038 0.05662052 -0.06585283 0.009294182
000050 ba 36 d1 bd db 49 51 bc bc 7d 80 bd 72 37 5b 3e
       -0.102155164 -0.012773956 -0.06273982 0.2140787
000060 e1 9c 77 3e 70 77 fd 3c 48 8d 6e bc 1e 42 65 3e
       0.24180938 0.030940741 -0.014560051 0.22388503
000070 28 7f 1e be 9e 7c b1 3d 3a cb fd 3d 54 b4 f6 3d
       -0.15478194 0.08666347 0.12392278 0.120461136
000080 8a bf 96 3e 3d ad 0f 3e 6a 94 d0 3d 6c c1 46 3e
       0.29443008 0.14030929 0.10184558 0.19409722
000090 a6 41 d2 bd 16 35 42 3e 94 ef fd bc bd 23 09 3e
       -0.10266428 0.18965563 -0.030998029 0.1339254
0000a0 ce cb 4e 3e 16 87 39 be ab 0a 91 bd 7b 08 8e 3c
       0.20194933 -0.18117937 -0.07082113 0.017338028
0000b0 f0 7a 7c 3d 68 e5 9a 3d d7 b6 5e 3d fa 50 69 be
       0.06164068 0.07563287 0.05437359 -0.22784796
0000c0 99 ba 02 3e 2a f8 55 3d bd 05 67 bc 08 76 9f 3d
       0.12766494 0.05223862 -0.014100489 0.077861845
0000d0 b0 3b d8 bc 67 00 56 bb 42 d3 d1 bd 17 51 56 bd
       -0.026395649 -0.0032654048 -0.10245372 -0.052323427
0000e0 ca 83 68 ba 60 3f 45 3e 1c ea 26 3e cc 58 00 bd
       -0.0008869736 0.19262457 0.16300243 -0.031334683
0000f0 ae 20 d6 bd 9f 28 df bc d6 97 d5 3d d0 6e 2f bd
       -0.10455452 -0.02724105 0.10429351 -0.04283029

linear3.weight f4 [64, 64]
000000 c8 2f de 3c 7a 9a c1 3d d0 01 05 bc 21 be 7e 3e
       0.027122393 0.09453292 -0.008118108 0.24877216
000010 1e 44 87 3d f5 e5 4c 3d 0c 32 e8 bc 42 e4 90 bd
       0.06604789 0.05002399 -0.028344177 -0.07074787
000020 42 8e be 3a 88 a6 54 bb c9 2f d4 3c 4c 1e f6 3d
       0.0014538246 -0.0032447893 0.025901692 0.120174974
000030 50 7f a9 3e bf 1c 80 3e c8 45 2a 3e d2 11 a1 bd
       0.33104944 0.25021932 0.16628182 -0.07864727
000040 81 2c 13 3c f3 f7 76 3e c7 3c 9f 3d 3c 66 c8 bd
       0.0089827785 0.24118023 0.07775264 -0.09785125
000050 06 58 a9 bd dd 26 a0 bc a0 ef cc 3b b1 35 85 3d
       -0.08268742 -0.019549781 0.0062541515 0.065043814
000060 5c ce 57 3e 57 09 94 3d 46 25 aa bd b0 b3 76 3e
       0.21074814 0.07228344 -0.083078906 0.24091983
000070 eb 72 8b be 1c b3 0c 3d ca d8 26 3e ec 80 81 3d
       -0.27236113 0.0343505 0.16293636 0.06323418
000080 fc 09 9b 3e d0 4c 65 3e 78 13 8f 3d 99 d1 26 3e
       0.30281055 0.22392583 0.06986135 0.16290893
000090 70 a3 d1 3c b6 c8 23 bc 0a 91 28 3e 31 aa e0 bd
       0.025590628 -0.009996584 0.16461578 -0.109699614
0000a0 26 3d 3f 3e 1d bd 8b be dd 87 7c 3d 23 a0 18 3e
       0.1867567 -0.2729272 0.061653007 0.14904837
0000b0 e0 5a 2c 3c 24 1a 0b 3e 33 e3 53 3e 62 6f 5c be
       0.010519713 0.1358419 0.20692138 -0.21526864
0000c0 c4 35 07 3c 82 fa 05 3d 68 ce df 3b 5f 92 78 3d
       0.008252565 0.032709606 0.0068300255 0.060686465
0000d0 9a e2 9b bd d2 5b 8f 3d 6e 6f fc bd ac 84 9f 3d
       -0.0761158 0.06999935 -0.12325941 0.07788977
0000e0 d1 0e 53 3d 5d 80 4e 3e 64 cc 04 3e 60 d4 fc bb
       0.051527802 0.20166154 0.12968594 -0.0077157468
0000f0 70 e7 2f bc 4c 16 c4 bd 9c 78 e2 3c 50 d0 8b 3d
       -0.010736331 -0.09574565 0.027645402 0.06826842
000100 40 aa a5 bd c0 21 fa bc ca c1 f1 3d 00 24 df 3c
       -0.08089113 -0.030533671 0.118045405 0.027238846
000110 6e 1b c3 bd 28 5d ae 3c 60 b5 aa bb 1a 8c a7 3d
       -0.09526716 0.021284655 -0.00520961 0.08181019
000120 94 d9 94 3d ae 03 b8 3d 44 4d 33 bd 7c 60 f0 3d
       0.07268062 0.08985077 -0.043774858 0.11737153
000130 bc e8 82 3d 48 8c ad 3d f6 55 e6 bd f8 cd 5a bd
       0.06392047 0.08474022 -0.112468645 -0.053419083
000140 4c 65 40 3d a0 2f 78 bc e8 06 e5 3d 08 75 ce bd
       0.046971604 -0.015148073 0.11182958 -0.10080916
000150 cc c1 32 bd 6e 3b a7 bd 30 d9 1e bd 80 70 78 bb
       -0.04364185 -0.08165632 -0.038781345 -0.0037908852
000160 64 98 33 bd 00 13 a9 3b 40 f7 3c bc 1c ea e7 3d
       -0.043846503 0.0051597357 -0.011533558 0.1132395
000170 ec 99 d9 bd 18 8d 7d 3d aa cf c9 bd 64 ea 0b 3d
       -0.106250614 0.061902136 -0.09854062 0.03415908
000180 e8 3b b4 bd fc ff d8 3d 80 20 17 bd f8 85 8b bc
       -0.08800489 0.105957 -0.03689623 -0.017031655
000190 00 66 18 3b 08 4e a5 3c 20 94 4d bd 48 f3 63 3d
       0.0023254156 0.02017881 -0.05019009 0.055651933
0001a0 14 1d dd bd d8 b3 c8 bd b6 8c c9 bd 68 e6 73 bd
       -0.10796562 -0.097999275 -0.098412916 -0.059545904
0001b0 60 03 ad bd a0 65 2b bc c4 b4 c3 3d fc 6b 2e bd
       -0.08447909 -0.010461241 0.09555963 -0.04258345
0001c0 5e 66 b9 bd ce 34 f1 bd f8 fd f7 3d b4 a6 63 3d
       -0.09052728 -0.1177765 0.121089876 0.055578902
0001d0 50 f1 f9 bd 0e ce 8e 3d c6 c6 93 bd f4 25 92 bd
       -0.1220423 0.069728956 -0.072156474 -0.07136145
0001e0 44 11 c8 3d 68 1f 0e 3d 28 00 7a bd 28 b7 2e 3d
       0.09768918 0.03469792 -0.061035305 0.04265514
0001f0 50 7c 06 3c 84 3d 6e 3d b4 fb 32 bd e8 02 15 3d
       0.008208349 0.058164135 -0.043697074 0.036379725
000200 18 d3 fe 3c 68 47 a5 bc 6c 64 ec bd d0 9d b9 3d
       0.031106517 -0.02017565 -0.115425915 0.090633035
000210 f2 70 fc bd 26 15 aa 3d ae e6 8f bd 50 d1 30 3c
       -0.1232623 0.08304815 -0.070264205 0.0107920915
000220 00 b8 c3 bd 36 09 86 bd 00 4e 7e bd 50 f9 14 3d
       -0.095565796 -0.065447256 -0.062086105 0.036370575
000230 d0 b9 45 3d 90 c2 84 bd 4c 1c 7c bd a0 89 da 3b
       0.048272908 -0.06482422 -0.061550424 0.006669238
000240 98 69 8f bd 80 3c 0a 3d 88 eb fd 3d 40 4a 21 3c
       -0.07002562 0.033749104 0.1239844 0.009844363
000250 bc 10 f8 3d 80 d0 bd bd 54 c8 7e bd 04 a3 04 bd
       0.12112567 -0.09268284 -0.062202767 -0.032382026
000260 38 6f 89 3d a0 7c 93 3c 30 ee 40 bc e0 f2 43 bc
       0.067106664 0.018003762 -0.011775538 -0.011959761
000270 dc bb 19 bd 38 90 b7 3d f6 df b7 bd 9e 32 fa bd
       -0.037532672 0.089630544 -0.08978264 -0.12216686
000280 e0 40 eb 3b 8c fc c3 3d f6 0a ec 3d 50 bb 24 bd
       0.0071793646 0.09569654 0.11525528 -0.040217698
000290 e8 e9 d2 bc a8 95 1b 3d aa 1b e8 bd 80 bd 40 3c
       -0.0257463 0.03798452 -0.113334015 0.01176393
0002a0 66 b3 a3 3d a8 68 92 3d ca f6 cb bd 76 2f c7 3d
       0.07993202 0.07148868 -0.09959181 0.09725849
0002b0 f0 3b e1 3d 60 10 b5 bd c0 6f 8d bc 8a 21 af bd
       0.1099776 -0.08841014 -0.0172652 -0.08551319
0002c0 74 33 ba bd d8 16 f0 3c 08 46 e2 bd a8 8b a7 bd
       -0.09091845 0.029307768 -0.11048514 -0.08180934
0002d0 c0 62 4c 3b 50 16 f6 3c 04 71 0b bd d8 b0 2f 3d
       0.003118679 0.030039936 -0.034043327 0.04289326
0002e0 10 89 55 bd f0 1d 59 3c 5a 24 91 bd 2a 7f e6 3d
       -0.052132666 0.013251767 -0.07087012 0.11254723
0002f0 30 c5 ce bd c0 0a 56 3c 0e 95 89 3d 28 31 ad bd
       -0.10096204 0.013064086 0.06717883 -0.084566414
000300 6c 63 23 bd 26 c0 86 bc 9c 12 3a 3d cc 43 ef 3d
       -0.039889738 -0.016449045 0.045427904 0.11682853
000310 14 23 b5 bd e1 26 39 3d 3d 0d 15 3e 86 16 db 3d
       -0.08844581 0.045203093 0.14555831 0.106976554
000320 a1 63 1e 3c 27 b4 9f 3d 47 11 1b 3e 94 e5 8f bd
       0.009667308 0.07798033 0.1514331 -0.070262104
000330 19 45 3f 3e 80 8f b3 bc b3 fc 99 bc e1 63 e2 bc
       0.18678702 -0.021919012 -0.018797254 -0.027635517
000340 c1 4b 9c 3c 3c 6e 01 3d 1e f3 65 3c 26 11 a3 bd
       0.019079091 0.03159927 0.014035014 -0.07962255
000350 04 90 d0 bd 6c 78 8a 3d f0 cb 9b bd cc 9e 0c 3e
       -0.10183719 0.0676125 -0.07607257 0.13732451
000360 91 4d 46 3e 76 fe 09 3d fa 01 ce 3d 1a 77 1b 3d
       0.19365527 0.03368994 0.10058971 0.03795538
000370 aa a2 b9 3d fa 54 f4 3d 5d c0 ce 3d 14 51 1e 3d
       0.09064229 0.119302705 0.10095284 0.03865154
000380 50 e0 9a 3e 69 c0 ee 3d 60 1d ca 3c 75 aa b4 3c
       0.30249262 0.11657793 0.02467221 0.022053936
000390 f0 17 33 bd 5b 68 12 3e fc e0 84 3d 2e ee 05 be
       -0.043724 0.14297621 0.06488225 -0.1307914
0003a0 44 4c f7 3d 9e e8 a6 be 5f 6d 32 bd f6 ff 9e 3c
       0.120750934 -0.32599348 -0.043561336 0.019409161
0003b0 84 f8 b3 bd 56 bd df 3d 5e 70 34 3e 86 49 0c be
       -0.08787635 0.10924785 0.1762099 -0.13699922
0003c0 7c fd 23 3e 3f d1 4d 3b f8 0d 82 3b d7 a6 91 3d
       0.16014665 0.0031405238 0.0039689504 0.071119
0003d0 dc 66 96 bd b6 42 e5 bd 4e f6 f9 3d 10 7a 99 bc
       -0.073438376 -0.11194365 0.12205182 -0.018734962
0003e0 aa 65 ca 3d c2 23 dc 3d c9 fb 2e 3e 54 7d c9 bd
       0.09882672 0.10749008 0.17088236 -0.098383576
0003f0 f4 91 91 bd 9a 90 90 3d 16 e4 b9 3d 40 61 e4 bb
       -0.071079165 0.070588306 0.09076707 -0.006969601

linear3.bias f4 [64]
000000 02 01 61 3d a0 db 6f bc d6 61 f1 bd 0a cf 04 3e
       0.0549326 -0.014639765 -0.11786239 0.12969604
000010 18 8c 58 3d 03 94 31 3e 83 30 e1 bc a8 35 23 3d
       0.05286798 0.17341618 -0.027488953 0.039846092
000020 18 d5 00 3e 0c a7 c0 3d 9a a9 38 3e c5 3d 21 3c
       0.12581289 0.09406862 0.18033448 0.009841387
000030 90 6f fe 3d 7b 37 0f bd e7 a2 cb 3d 63 96 f7 3c
       0.124236226 -0.03496502 0.099431805 0.030223077
000040 75 29 fa bd 94 ad c8 3d 68 bb cf 3d eb dc 0b 3e
       -0.122149386 0.097987324 0.10143167 0.13658492
000050 d8 87 90 3c b3 4d 14 3e 52 79 d1 bd 49 62 df bc
       0.0176429 0.14482765 -0.10228218 -0.027268546
000060 34 bd ff bc a0 be c8 bd b4 7f b4 bd ce 79 d3 3d
       -0.031218149 -0.09801984 -0.0881342 0.10325967
000070 d2 fe 5f 3a 1d c4 4b 3d b9 21 e2 3d ac 39 8c bd
       0.0008544746 0.049747575 0.11041588 -0.068469375
000080 c5 77 72 3d 6a 13 a3 bd 6f 21 cd 3d 07 66 1c be
       0.059196252 -0.07962687 0.100161426 -0.15273295
000090 5e ae 86 3c 61 fb 46 be 5a 1d 9b 3c 6e 41 58 3d
       0.016440567 -0.19431831 0.018934894 0.052796774
0000a0 8e 70 14 3e 85 02 01 3e 08 16 01 bd 08 d0 71 3d
       0.14496061 0.12598617 -0.03151515 0.059036285
0000b0 c9 dc 36 3e c4 a9 28 bd 66 73 28 3d ef 60 2a 3e
       0.1785766 -0.041177526 0.041125678 0.1663854
0000c0 24 99 2e 3e c2 a1 0e 3e a3 f4 37 3e 20 60 f5 bc
       0.17050606 0.13928893 0.17964415 -0.029953063
0000d0 e1 ea b7 bb fc b2 96 3d 99 b3 ad 3d c1 7b b1 3d
       -0.0056127165 0.07358357 0.08481521 0.08666182
0000e0 f8 f7 21 3d 53 de 89 3d a7 cd 2f 3d 6d f9 54 3d
       0.039543122 0.06731858 0.042920735 0.051995683
0000f0 29 f8 a6 bd 3b 2c 8c 3d 2c 14 a9 3d 20 90 93 bc
       -0.081528015 0.06844374 0.082558006 -0.01801306

linear4.weight f4 [1, 64]
000000 05 57 3e be 23 ad 9f 3a 70 ba f5 3a f5 cb 8a bd
       -0.18587883 0.0012182336 0.0018747579 -0.06777183
000010 6e 06 32 bb 49 4d 9f bd 61 21 a6 bd f4 e9 af bd
       -0.0027164477 -0.07778413 -0.08111835 -0.08589545
000020 b9 fb af bd 7b 3b 1d ba b4 fc 1b be 03 63 91 bd
       -0.08592934 -0.0005997938 -0.15233117 -0.07098963
000030 d9 01 d8 bd 4d c0 a3 bd 95 92 7a bd 22 04 ea bd
       -0.105472274 -0.07995663 -0.061174948 -0.114265695
000040 e4 ce 72 3b a4 d1 c0 bd c1 bd 01 be 02 e6 84 bd
       0.0037049586 -0.09414986 -0.12670042 -0.06489183
000050 c1 d3 22 3a 17 34 b0 bd 0e 98 f8 3a cb 8e ad 3d
       0.00062113634 -0.08603685 0.0018966214 0.08474501
000060 aa f0 8a bd 21 0e 2e bb 0a 34 fd 3a ff 22 df bd
       -0.06784184 -0.0026558714 0.0019317877 -0.10895347
000070 62 3b d6 bd 5e 7d b4 bd e3 03 67 bd 0a d0 3d bb
       -0.10460545 -0.088129744 -0.05640019 -0.0028963112
000080 37 82 99 bd 79 19 bb 38 f3 a8 a9 bd 32 6f 20 3d
       -0.0749554 8.9215995e-05 -0.08284178 0.039168544
000090 74 91 93 bd 59 ad f4 3d 18 83 a1 bd b6 84 97 bd
       -0.07205477 0.11947126 -0.07886332 -0.073983595
0000a0 7c 81 fc bd f6 99 88 bd 9e 57 a5 bd 97 8b 94 bd
       -0.12329385 -0.06669991 -0.08073352 -0.07253187
0000b0 03 7e c1 bd 76 72 a5 bd 03 90 a4 bd 0a ba 8b bd
       -0.09447863 -0.08078472 -0.080352806 -0.068225935
0000c0 9e 7c b0 bd bb ac 89 bd 2b 8e a9 bd 05 4f de 3a
       -0.08617519 -0.06722399 -0.082790695 0.0016960806
0000d0 d8 12 8f bd a6 e6 b0 bd d8 fd a4 bd 01 78 8a bd
       -0.06986016 -0.08637743 -0.08056229 -0.0676117
0000e0 89 8c e3 3a 6f a0 85 bd c6 ed ac bd f1 2f a9 bd
       0.0017360608 -0.06524741 -0.08443789 -0.08261097
0000f0 99 50 51 3d 1c a0 ab bd a4 40 af ba 0b 12 3a 3b
       0.051102255 -0.08380148 -0.0013370705 0.0028392102
