models/noCBF_2025-11-17 19:50:01/1/policy.pth (torch, 55714 bytes, 12 tensors)

linear1.weight f4 [64, 3]
0	0xbeb254c5	-0.348303
1	0xbe08f555	-0.13374837
2	0x3df76b1f	0.120809786
3	0x3ed3e2a9	0.41383865
4	0x3ee12888	0.43976235
5	0x3efe436e	0.4966082
6	0xbeacc78d	-0.33745995
7	0x3ee1d292	0.44105965
8	0xbf134cea	-0.57539237
9	0xbe54827e	-0.20752904
10	0xbec5cfbb	-0.38635048
11	0x3deb37ea	0.11485274
12	0xbeef4575	-0.4673268
13	0xbf00acf9	-0.50263935
14	0xbcdf58d5	-0.027264038
15	0x3f0d05ae	0.5508679
16	0xbecceeac	-0.40025842
17	0xbeb28520	-0.3486719
18	0x3f134752	0.575307
19	0xbe123219	-0.14276923
20	0xbe0c26c4	-0.13686663
21	0x3dfacee7	0.12246495
22	0xbf00bb02	-0.5028535
23	0x3ea7e2d2	0.32790238
24	0x3e281871	0.16415574
25	0x3d3c8266	0.046022795
26	0xbef5a9bf	-0.47981068
27	0x3e5a4923	0.21316962
28	0xbeabd32a	-0.33559543
29	0x3db8def6	0.090269014
30	0xbe2b700e	-0.16741964
31	0x3ef4bcae	0.478002
32	0xbe6c7eca	-0.23095241
33	0x3eb527d7	0.35381958
34	0x3eb5c268	0.35499883
35	0x3f08ddb9	0.5346332
36	0x3f261402	0.6487428
37	0x3f2949e1	0.66128355
38	0xbcf7bc21	-0.030241074
39	0x3ef82048	0.4846213
40	0x3eeeaf7f	0.46618268
41	0xbe3c0d93	-0.18364553
42	0xbf154ea0	-0.583231
43	0x3a35d5d9	0.0006936468
44	0xbd84a9c3	-0.06477692
45	0xbedd5c38	-0.4323442
46	0x3e83380a	0.25628692
47	0xbea9b060	-0.33142376
48	0x3f314617	0.69247574
49	0x3f0d559a	0.5520874
50	0xbda107f1	-0.07862843
51	0xbee1d178	-0.44105124
52	0xbdcf9ac2	-0.101369396
53	0x3e44ebd4	0.19230586
54	0x3e8d59ef	0.27607676
55	0xbe7cb681	-0.24678995
56	0x3eb584ee	0.3545298
57	0x3eaec621	0.34135535
58	0xbef214fe	-0.4728164
59	0xbefded77	-0.49595234
60	0x3edc8e86	0.43077487
61	0x3ed9b7ed	0.42523137
62	0xbcb73827	-0.022365643
63	0xbd1933ec	-0.037403032
64	0xbefb68e7	-0.49103472
65	0xbf09ccef	-0.5382833
66	0xbe0ab3fb	-0.1354522
67	0x3e96d83c	0.2946185
68	0xbe2c9977	-0.16855417
69	0xbe8b6879	-0.27228144
70	0xbd671e8a	-0.05642561
71	0xbf0629fb	-0.5240781
72	0x3e0100be	0.1259794
73	0x3e573115	0.21014817
74	0xbefe8033	-0.49707183
75	0x3e5be881	0.21475412
76	0xbec052d9	-0.37563208
77	0xbeb675c3	-0.3563672
78	0x3eb0f9a2	0.34565455
79	0xbec79d78	-0.38987327
80	0xbeeadaf2	-0.45870167
81	0x3ef35c9f	0.47531602
82	0x3eb49891	0.3527265
83	0xbf0b8eac	-0.54514575
84	0xbf079b2f	-0.52971166
85	0x3ea12863	0.31476125
86	0xbee7aa59	-0.45247152
87	0x3e69f2b2	0.22846487
88	0x3ebc6e4a	0.36802894
89	0x3eeef77c	0.4667319
90	0x3ea2d712	0.3180471
91	0x3e25e492	0.16200474
92	0x3ea9622f	0.3308272
93	0x3e50e0ab	0.20398204
94	0xbea925fa	-0.33036786
95	0x3efc78a1	0.49310783
96	0xbecadb5f	-0.39620492
97	0x3a739615	0.00092920783
98	0x3e80c30f	0.25148818
99	0xbe8670cf	-0.2625794
100	0xbedc105a	-0.42981225
101	0xbd99d715	-0.07511727
102	0x3ea5508a	0.3228801
103	0x3f0ac78c	0.54210734
104	0xbf014d74	-0.5050881
105	0xbf1c73d8	-0.61114264
106	0x3e6e2547	0.23256408
107	0x3f0fb8e0	0.5614147
108	0xbe72f849	-0.23727526
109	0xbed692b6	-0.41908807
110	0x3e5ad52c	0.21370381
111	0x3f099dc2	0.53756344
112	0xbea474e3	-0.32120427
113	0xbec872a8	-0.39149976
114	0xbdc828b1	-0.09773386
115	0x3f07d0ef	0.5305318
116	0x3f08b98f	0.5340814
117	0xbde32a4c	-0.11092052
118	0xbefdd35f	-0.49575326
119	0x3e33aadf	0.17545651
120	0xbec56104	-0.3855058
121	0xbe4ca4ec	-0.19984788
122	0x3e4af777	0.19820963
123	0xbdf06b66	-0.117392346
124	0xbe3a582f	-0.18197702
125	0xbedbaaf5	-0.42903867
126	0x3dd1736e	0.102270946
127	0xbe9fc882	-0.31207663
128	0x3dfb61be	0.12274502
129	0x3ef8e629	0.48613098
130	0xbe005df2	-0.12535837
131	0xbeaa17c9	-0.33221272
132	0xbe4615b9	-0.19344224
133	0xbe9d9062	-0.30774218
134	0xbf1d75da	-0.6150795
135	0xbdd8d463	-0.105873846
136	0x3e2c4035	0.16821368
137	0x3e6abe09	0.22924055
138	0xbedc3fc9	-0.43017414
139	0xbe931a2c	-0.28730905
140	0xbea5ecb9	-0.32407168
141	0x3e3071c9	0.17230906
142	0xbec7fdea	-0.3906091
143	0x3e947336	0.2899415
144	0xbdd166ae	-0.10224663
145	0xbec584d7	-0.3857791
146	0x3efd2fd7	0.4945056
147	0x3f08c051	0.5341845
148	0xbf0aa713	-0.54161185
149	0x3e83073c	0.25591457
150	0xbef50684	-0.47856534
151	0x3f1051ff	0.56375116
152	0x3e934a75	0.28767744
153	0x3ed92884	0.42413723
154	0xbe9c79c2	-0.30561644
155	0x3db3f5be	0.08787106
156	0xbe1af8f6	-0.15134034
157	0xbde85dd2	-0.1134602
158	0x3e5b13a0	0.21394205
159	0x3f03f949	0.51552254
160	0x3eab7fd3	0.3349596
161	0x3eeb8872	0.46002537
162	0x3e51e32f	0.2049682
163	0x3e48ad58	0.19597375
164	0x3ebfa4f4	0.37430537
165	0x3f0b8cba	0.54511607
166	0x3e99954b	0.29996714
167	0x3e620682	0.22072795
168	0x3e9cfe1d	0.30662623
169	0xbec92310	-0.39284563
170	0xbdf685ca	-0.12037237
171	0x3d17f283	0.03709651
172	0x3e3c2b08	0.1837579
173	0x3e39a731	0.18130185
174	0xbe7cbdfa	-0.24681845
175	0x3f1035dc	0.5633218
176	0xbd09f06f	-0.03367656
177	0x3e47617c	0.19470781
178	0xba9e4306	-0.0012074418
179	0x3ed3046d	0.41214314
180	0xbe3e1857	-0.18563972
181	0xbdfd6ad5	-0.12373892
182	0xbd292847	-0.041298177
183	0xbd3d905d	-0.046280254
184	0x3d215023	0.039383065
185	0xbebb3b80	-0.36568832
186	0xbd266533	-0.040623855
187	0x3f03673a	0.51329386
188	0x3e08be68	0.13353884
189	0xbf2c19bf	-0.67226785
190	0x3f1b3057	0.60620636
191	0x3ea9a107	0.33130667

linear1.bias f4 [64]
0	0xbef5eccf	-0.48032233
1	0xbecd0dd1	-0.40049604
2	0xbe793534	-0.24336702
3	0x3f3a1cef	0.727004
4	0x3f25a8c7	0.6471066
5	0x3ef71e33	0.48265228
6	0xbf06cd5e	-0.52657115
7	0xbea6a4f9	-0.3254774
8	0x3ec807b1	0.39068368
9	0xbf4290c5	-0.7600215
10	0x3ef43180	0.47694016
11	0xbe7ca112	-0.24670818
12	0x3f115424	0.56769013
13	0xbe349348	-0.17634308
14	0x3f1cadb6	0.6120256
15	0x3f0b5098	0.5441985
16	0x3eef7ea1	0.46776298
17	0x3e47d770	0.19515777
18	0x3eca6c67	0.3953583
19	0xbecd48bb	-0.4009455
20	0x3e855873	0.26044044
21	0xbe2fc59e	-0.17165229
22	0x3ebd4564	0.36967003
23	0x3f0bc916	0.5460371
24	0x3e2e8590	0.17043138
25	0x3c647b45	0.013945405
26	0xbeed9be0	-0.46407986
27	0xbea26354	-0.31716406
28	0x3e65679b	0.22402804
29	0x3f26ef95	0.65209323
30	0x3e02803f	0.12744235
31	0xbcf1273d	-0.029437656
32	0x3ef861db	0.48512158
33	0x3e98a949	0.29816654
34	0xbccbd83c	-0.024883382
35	0x3ef94cdf	0.4869146
36	0x3ec550b1	0.38538125
37	0x3e124f4b	0.1428806
38	0xbdae5443	-0.085121654
39	0x3ee80a38	0.45320296
40	0xbea8e125	-0.32984272
41	0xbec2d61c	-0.38053977
42	0xbf48077a	-0.7813641
43	0xbeefc415	-0.46829286
44	0xbee00a2a	-0.43757755
45	0x3e8347b1	0.25640634
46	0xbf115b57	-0.5678
47	0xbe63abc5	-0.22233494
48	0x3eaf834f	0.34279868
49	0x3e36a772	0.17837313
50	0xbed44558	-0.41459155
51	0xbefa9cc6	-0.48947734
52	0x3ebe4a64	0.3716613
53	0xbec8ebae	-0.3924231
54	0xbf091e0d	-0.5356148
55	0x3d82349c	0.06357691
56	0x3da502d5	0.08057181
57	0xbe809747	-0.25115415
58	0x3ec26c07	0.37973043
59	0x3dc9e8a2	0.09858824
60	0x3f161647	0.5862774
61	0xbd4211bd	-0.047380198
62	0x3e8abf2c	0.27098978
63	0xbf09678f	-0.5367364

linear2.weight f4 [64, 64]
0	0x3dfbc72d	0.12293849
1	0xbe2206f5	-0.15822966
2	0x3df32dd4	0.118739754
3	0xbd85efaa	-0.06539853
4	0x3aa56df2	0.0012621267
5	0x3d8f374c	0.06992969
6	0x3d4c2e30	0.049848735
7	0x3da7a777	0.08186238
8	0x3d294fec	0.041335985
9	0xbcdeebc0	-0.027212024
10	0x3c0c7450	0.008572653
11	0xbc8132bc	-0.015771262
12	0xbcaf52d6	-0.021401804
13	0xbd8caa60	-0.06868434
14	0x3cd0c024	0.025482245
15	0xbd97e235	-0.074161924
16	0xbe0365a5	-0.12831743
17	0x3d585d7a	0.05282352
18	0x3d53aff1	0.051681463
19	0x3b6d2b0b	0.0036188986
20	0xbda49348	-0.08035904
21	0x3bab842b	0.0052342615
22	0x3d953746	0.07285933
23	0x3e0919ab	0.13388698
24	0x3c207a50	0.009794787
25	0xbd63f171	-0.05565018
26	0xbdc5150a	-0.096231535
27	0x3d8c3358	0.068457305
28	0xbd75acac	-0.059979126
29	0xbe03b612	-0.12862423
30	0xbd00e5fd	-0.031469334
31	0x3cf5ee5c	0.030020885
32	0x3e00e0b2	0.12585714
33	0xbc0e8d17	-0.008700631
34	0xbce8c960	-0.028416336
35	0x3dc0a21a	0.094059184
36	0x3d9f6b21	0.07784105
37	0xbc208010	-0.0097961575
38	0x3cecfeb2	0.028930042
39	0x3d192a46	0.03739383
40	0x3d99de45	0.07513098
41	0x3e20c058	0.15698373
42	0x3d38bb51	0.045100514
43	0xbd14c310	-0.03631884
44	0x3e06bb11	0.13157298
45	0xbdda9933	-0.10673752
46	0x3bb61874	0.0055571143
47	0xbbfc5dc3	-0.007701607
48	0xbdeb2628	-0.11481887
49	0xbd28ac18	-0.041179746
50	0x399e513b	0.0003019663
51	0x39c2da5f	0.00037165263
52	0x3df07eaf	0.11742913
53	0xbe2ef5d3	-0.17085962
54	0xbe1e47b4	-0.1545704
55	0xbe14c490	-0.14528108
56	0xbac78804	-0.0015223031
57	0xbe041364	-0.12898022
58	0xbd98de22	-0.074642435
59	0x3cea23d1	0.028581532
60	0x3e321f52	0.1739476
61	0x3dae3cfe	0.08507727
62	0x3cf91ffe	0.030410763
63	0xbd52559d	-0.05135118
64	0x3cc6e58f	0.024279384
65	0x3c5b7e06	0.013396746
66	0xbc0aabb0	-0.008463785
67	0xbcfd0892	-0.030887876
68	0xbd245011	-0.04011542
69	0x3c93c420	0.018037856
70	0x3c2c20e0	0.010505885
71	0x3b474563	0.0030406348
72	0x3de946c2	0.11390449
73	0x3d1a78d3	0.037712883
74	0x3d5f4504	0.054509178
75	0xbd9bfd9a	-0.0761673
76	0x3c3c1da0	0.0114816725
77	0x3dff4e04	0.12466052
78	0x3e57a46b	0.21058814
79	0x3d705b3e	0.058680765
80	0x3d1e9cb8	0.038723677
81	0x3e0e1721	0.1387601
82	0xbcc4a494	-0.024004258
83	0x3cd47827	0.0259362
84	0xbc3c2270	-0.01148282
85	0x3ceb88a4	0.028751679
86	0xbde609ce	-0.11232339
87	0x3d1ea810	0.038734496
88	0xbd939bd2	-0.07207455
89	0x3e013d46	0.1262103
90	0xbd96f6fc	-0.07371327
91	0x3de0cdc0	0.10976744
92	0x3bd15fa4	0.006389575
93	0xbdff577a	-0.12467857
94	0x3c9b8ec0	0.018988967
95	0xbc74b963	-0.014936778
96	0xbd44321c	-0.04789935
97	0x3e0e12ca	0.13874355
98	0x3d428300	0.047488213
99	0x3d0034f1	0.03130049
100	0xbce61f19	-0.028091
101	0xbd9cd3e0	-0.076575994
102	0x3c8024a5	0.015642473
103	0x3dcaa551	0.09894813
104	0x3ddb3a89	0.10704524
105	0x3e0af573	0.13570194
106	0x3db96810	0.090530515
107	0x3dbbc090	0.09167588
108	0x3b8e736f	0.004347257
109	0x3c7b7857	0.0153485155
110	0x3c1465cd	0.009057474
111	0xbd923634	-0.07139245
112	0x3db8a7b1	0.090163596
113	0x3dbb1685	0.09135155
114	0x3e04a855	0.12954839
115	0xbdd36fd0	-0.10324061
116	0xbd76d378	-0.060260266
117	0xbd404a65	-0.04694595
118	0xbdf0d51d	-0.11759398
119	0xbe71258d	-0.2354948
120	0xbcd0ef86	-0.025504839
121	0xbd9beb62	-0.07613255
122	0x3d86246e	0.06549917
123	0xbdf40a94	-0.1191608
124	0xbaa4b385	-0.0012565708
125	0xbd01b8c4	-0.031670347
126	0xbd970103	-0.0737324
127	0xbdb956a6	-0.0904973
128	0x3df45d18	0.11931819
129	0xbc027670	-0.007962808
130	0xbd4ae898	-0.049538225
131	0x3d2454c0	0.040119886
132	0xbdc9b896	-0.0984966
133	0x3adf4e80	0.0017036945
134	0xbdfa3a78	-0.12218183
135	0x3d57d218	0.052690595
136	0xbcf20c28	-0.029546812
137	0xbdd19c1e	-0.10234855
138	0xbc1b3190	-0.009472266
139	0x3dcce066	0.10003738
140	0xbd2c77ac	-0.042106315
141	0x3d9b6cb8	0.07589096
142	0xbdb1868a	-0.086682394
143	0x3d78c0c8	0.060730726
144	0x3c2e9890	0.010656491
145	0xbdf6fdf0	-0.120601535
146	0xbd0083c0	-0.031375647
147	0xbd979392	-0.07401194
148	0xbd51d558	-0.05122885
149	0x3d83bb6e	0.06432234
150	0xbd944684	-0.07240012
151	0x3db16744	0.086622745
152	0x3df89042	0.1213689
153	0x3d060c0c	0.032726333
154	0x3da7574a	0.08170946
155	0xbd412a64	-0.047159567
156	0x3de32c92	0.110924855
157	0xbd9a8dca	-0.07546575
158	0xbc234730	-0.009965703
159	0x3d9a9252	0.0754744
160	0x3d3a78d0	0.045525372
161	0x3c569150	0.013096169
162	0xbc707d10	-0.014678255
163	0xbc94b520	-0.018152773
164	0xbd87fd7c	-0.06640145
165	0xbcfc3be8	-0.030790284
166	0xbd0b5f5c	-0.03402649
167	0xbddd5a5e	-0.10808252
168	0xbdb368ba	-0.087602094
169	0x3ce3aed8	0.027793333
170	0x3dbc4a9c	0.09193918
171	0x3d8a70ca	0.06759794
172	0x3da5eb00	0.08101463
173	0xbdd051ae	-0.10171829
174	0x3d79a240	0.06094575
175	0xbc3178d0	-0.010832027
176	0xbc62aa10	-0.013834491
177	0x3d5c4580	0.053777218
178	0xbdc9d664	-0.09855345
179	0xbb8b3440	-0.004248172
180	0xbdd2d906	-0.102953
181	0xbd837932	-0.064196005
182	0x3d5b689c	0.05356656
183	0xbd914dca	-0.07094915
184	0xbd9c6eaa	-0.07638295
185	0xbd8a7206	-0.067600295
186	0x3c8b47d0	0.017002016
187	0x3cd8e8a0	0.026478112
188	0xbd04f2b0	-0.032458007
189	0xbd6b9f18	-0.05752477
190	0x3d374dac	0.044751808
191	0x3d3f4ea4	0.046705857
192	0xbdafc06f	-0.08581626
193	0x3dab4ff6	0.08364861
194	0xbdf1713a	-0.117891744
195	0x3d5d00fd	0.05395602
196	0x3c92f3e2	0.017938558
197	0xbd45fdbc	-0.048337683
198	0xbdfe6732	-0.12422027
199	0xbd8aa333	-0.06769409
200	0x3d0b0f40	0.03395009
201	0xbdd00ebc	-0.1015906
202	0x3c494390	0.012284175
203	0xbd1a55df	-0.03767955
204	0x3d4cb8d1	0.049980942
205	0xbce1d420	-0.02756697
206	0xbbb6bdd2	-0.0055768276
207	0x3d4b6478	0.04965636
208	0x3d976cac	0.073937744
209	0xbd04659e	-0.032323472
210	0xbc53e3ed	-0.01293276
211	0xbd843044	-0.064545184
212	0xbd4316d6	-0.0476292
213	0xbdd7a470	-0.10529411
214	0x3df01ca2	0.11724211
215	0x3d67444c	0.056461617
216	0x3c2b5e20	0.010459453
217	0xbc916a38	-0.017750844
218	0x3d1b21a4	0.03787388
219	0x3d13e2f0	0.036105096
220	0xbc316a80	-0.010828614
221	0x3d0e5a1d	0.034753907
222	0xbd6fe244	-0.058565393
223	0xbde7757f	-0.113017075
224	0xbdc16d6e	-0.094447
225	0xbda6b0d2	-0.081391945
226	0xbd654710	-0.055975974
227	0x3d962405	0.07331089
228	0xbd9e6f16	-0.07736032
229	0xbd0817e8	-0.033225924
230	0x3d038ba3	0.03211559
231	0xbcdbe0c0	-0.026840568
232	0xbc5d281b	-0.013498331
233	0x3da46e16	0.0802881
234	0xbdda6cb1	-0.106652625
235	0x3d704228	0.05865684
236	0x3c94fa40	0.018185735
237	0xbd292150	-0.041291535
238	0xbc4058c0	-0.01173991
239	0xbdbd6240	-0.09247255
240	0xbd86768e	-0.06565581
241	0xbc55069c	-0.013002064
242	0x3dd078ef	0.10179316
243	0x3d88641d	0.0665972
244	0x3d3fcdb3	0.04682703
245	0xbb55e031	-0.003263485
246	0x3dd99b8b	0.106253706
247	0xbde14e06	-0.1100121
248	0xbd367e78	-0.044554204
249	0x3d68c776	0.056830846
250	0xbd3472da	-0.044054843
251	0xbd112c09	-0.035442386
252	0x3dc4f395	0.09616772
253	0x3df4acb8	0.11947006
254	0xbdb48cfc	-0.08815953
255	0xbddab809	-0.10679633

linear2.bias f4 [64]
0	0xbded268f	-0.1157962
1	0x3d9a83c5	0.07544664
2	0x3da7d1cc	0.081943125
3	0x3c29feb7	0.01037567
4	0xbe392182	-0.18079188
5	0xbe4359e2	-0.19077256
6	0x3e925b84	0.28585446
7	0xbbbafa00	-0.005706072
8	0x3db1a168	0.08673364
9	0x3eb68cb5	0.35654226
10	0xbdbaf9b7	-0.091296606
11	0x3e36c87c	0.17849916
12	0x3d6da0de	0.058014743
13	0xbe19ec97	-0.15031658
14	0x3e463795	0.1935714
15	0xbd833156	-0.064058945
16	0x3d3eee3b	0.046613913
17	0x3e4ea6c3	0.20180802
18	0xbcc6c6c1	-0.024264695
19	0x3ca6b676	0.020350676
20	0x3e617170	0.22015929
21	0x3e61b8f4	0.2204321
22	0xbd040594	-0.032231882
23	0x3e24ceb0	0.1609447
24	0x3e4e970e	0.2017481
25	0x3e70acfb	0.23503487
26	0xbca4b7da	-0.020107199
27	0x3d9d420b	0.07678612
28	0x3e14e871	0.14541794
29	0x3df9ade0	0.12191367
30	0x3e47b981	0.19504358
31	0x3e5744be	0.21022317
32	0xbe941655	-0.28923288
33	0xbdccd8cd	-0.10002289
34	0xbda68ce4	-0.081323415
35	0x3e98f06c	0.29870927
36	0xbdb8c046	-0.09021048
37	0xbe9d8c56	-0.3077113
38	0xbe017ae7	-0.1264454
39	0x3e2896fa	0.16463843
40	0xbe08c39c	-0.13355869
41	0x3d5d9a8d	0.05410247
42	0xbe135607	-0.14388286
43	0x3d68f25d	0.05687176
44	0xbd348eb3	-0.0440814
45	0xbe2f9157	-0.17145287
46	0x3de968e9	0.11396963
47	0xbdcafc5d	-0.09911416
48	0x3e036748	0.12832367
49	0x3e612920	0.21988344
50	0xbe0d7ab7	-0.13816343
51	0x3d01d314	0.03169544
52	0xbdab857d	-0.0837507
53	0xbdca69aa	-0.09883435
54	0x3d00f36d	0.03148215
55	0x3b4827c2	0.0030541276
56	0x3e785d57	0.24254356
57	0x3e3d7fd1	0.1850579
58	0x3decafeb	0.11556991
59	0xbd66939c	-0.056293115
60	0x3caf9daa	0.021437485
61	0xbd39cf72	-0.04536385
62	0xbd98128f	-0.07425415
63	0x3e474045	0.1945811

linear3.weight f4 [64, 64]
0	0x3d929ced	0.071588375
1	0xbcba9b70	-0.022779197
2	0xbc6e2bc0	-0.014536798
3	0xbd911992	-0.07084955
4	0xbdd0a1c7	-0.101871066
5	0xbd3f686d	-0.046730448
6	0xbdc71702	-0.09721185
7	0xbde4cdc2	-0.11172058
8	0xbde6a7c5	-0.11262468
9	0xbe006ad5	-0.12540753
10	0xbdfd7415	-0.123756565
11	0x3d342fb2	0.0439908
12	0x3d10d34e	0.035357766
13	0xbd6ccbb5	-0.057811458
14	0xbe0c1246	-0.13678846
15	0x3dd2f60c	0.10300836
16	0x3c3b912e	0.011448188
17	0xbdb3b0f2	-0.08773984
18	0x3d58096a	0.052743353
19	0xbdd119a9	-0.102099724
20	0xbd6abf23	-0.05731119
21	0x3d2fa1d7	0.042878952
22	0xbdfd6856	-0.12373416
23	0xbccfa0df	-0.025345264
24	0x3d09d742	0.03365255
25	0xbb034777	-0.002003161
26	0x3de6756a	0.11252864
27	0xbd5a0645	-0.053228635
28	0x3d0cab03	0.034342777
29	0x3cb60248	0.022217885
30	0x3cbb5f5e	0.022872623
31	0xbd290e1c	-0.04127322
32	0x3c9d5fc0	0.019210696
33	0x3d3ebf5b	0.04656921
34	0x3b1806c0	0.0023197383
35	0x3d5a7357	0.053332653
36	0x3d0c0e28	0.034193188
37	0xbd845026	-0.064605996
38	0x3cd6a920	0.026203692
39	0xbac539f3	-0.0015047177
40	0xbde94098	-0.113892734
41	0x3d47c5ac	0.0487725
42	0xbd6758b0	-0.056481063
43	0x3d9b446e	0.07581411
44	0xbe002df5	-0.12517531
45	0xbd91b796	-0.07115094
46	0xbdbb5b4f	-0.09148275
47	0xbd8be388	-0.068305075
48	0xbdf59dd1	-0.11992992
49	0x3d800a13	0.062519215
50	0x3b86ed08	0.004117612
51	0xbdcde577	-0.100535326
52	0x3d489a34	0.048975185
53	0x3dd6d22a	0.10489304
54	0x3d7635d2	0.06010992
55	0x3bd8b1d3	0.006612995
56	0xbe143da8	-0.14476645
57	0x3ddd7c94	0.10814777
58	0x3de164e8	0.110055745
59	0x3d460f88	0.048354656
60	0xbdab7c50	-0.0837332
61	0x3d142281	0.036165718
62	0x3d4b0afd	0.049571026
63	0xbda5fced	-0.081048824
64	0x3d1e1bb9	0.038600657
65	0xbb5af551	-0.003341038
66	0xbd91995a	-0.071093276
67	0x3dba77b2	0.09104861
68	0xbd71c916	-0.05902966
69	0x3d024778	0.03180644
70	0xbb77ba26	-0.0037800162
71	0x3d618810	0.0550614
72	0xbb926966	-0.004468131
73	0x3d548355	0.05188306
74	0x3dac8b9a	0.084250644
75	0xbc43ab54	-0.011942703
76	0x3d308e34	0.043104365
77	0xbd0b768a	-0.034048595
78	0xbdce3b4b	-0.10069903
79	0xbd3976ec	-0.04527943
80	0x3b01cc86	0.0019805743
81	0x3d30b478	0.04314086
82	0x3ddf5a89	0.1090594
83	0x3cbe6e1d	0.023245865
84	0xbd582813	-0.052772593
85	0x3d9e194e	0.0771967
86	0x3dc4c836	0.096085
87	0x3b566d69	0.0032719022
88	0x3e0c60ee	0.1370885
89	0x3d5f8ba1	0.05457652
90	0x3d787e0f	0.060667094
91	0x3de01ef4	0.10943404
92	0x3d903409	0.07041175
93	0x3df077c2	0.11741592
94	0x3de5f7f3	0.11228933
95	0x3ddc22d8	0.107488334
96	0x3cf77c1b	0.030210545
97	0x3b41aadc	0.0029551303
98	0xbd855646	-0.06510596
99	0x3dabec37	0.08394664
100	0xbd0fbe6c	-0.03509371
101	0xbdc552b9	-0.09634919
102	0xbdc0e675	-0.09418956
103	0xbb588e2f	-0.0033043732
104	0xbd291e15	-0.041288454
105	0xbda08f8b	-0.07839879
106	0xbd482bd4	-0.048869923
107	0xbd89dc7c	-0.06731507
108	0xbd45ddf4	-0.048307374
109	0x3b76682c	0.0037598712
110	0x3db254ef	0.08707606
111	0x3d638ff9	0.055557225
112	0x3decdaa0	0.11565137
113	0x3d510a17	0.051035013
114	0xbdf624ce	-0.12018739
115	0xbd8b0302	-0.06787683
116	0xbd100404	-0.03516008
117	0xbd837178	-0.06418127
118	0x3da59e80	0.08086872
119	0x3d2f0290	0.042727053
120	0x3dc1ef19	0.094694324
121	0x3d11f1ad	0.03563087
122	0x3da80c5a	0.08205481
123	0x3d249b38	0.04018709
124	0x3d4998b3	0.04921789
125	0xbdd33d27	-0.10314398
126	0xbdb5cd83	-0.08877089
127	0xbce89978	-0.028393492
128	0x3e5ffbfb	0.21873467
129	0x3cfd2463	0.03090114
130	0x3df067e4	0.117385656
131	0xbcc125d0	-0.0235776
132	0xbe2ae2e3	-0.16688113
133	0xbd192641	-0.037389997
134	0xbdc507ed	-0.09620652
135	0xbdb55dfc	-0.08855817
136	0x3c6aecb7	0.014338664
137	0xbdf7b38b	-0.12094792
138	0xbe56b75e	-0.20968387
139	0xbc166e7b	-0.009181614
140	0x3daf0734	0.08546296
141	0xbc72cee1	-0.014819832
142	0x3cf8e121	0.030380787
143	0x3ddf6520	0.1090796
144	0x3e427792	0.18990925
145	0x3e006133	0.12537079
146	0x3e4a2f3a	0.19744578
147	0x3d2a7807	0.041618373
148	0xbddd1813	-0.107956074
149	0x3d85c272	0.06531228
150	0x3da81846	0.08207755
151	0xbd91fc5e	-0.07128213
152	0x3c55de1d	0.013053444
153	0xbc4b6ec3	-0.012416544
154	0xbda969d7	-0.082721405
155	0xbda52382	-0.08063413
156	0x3cd0c947	0.025486602
157	0xbd9271c2	-0.07150604
158	0xbd7a558a	-0.061116733
159	0xbe1aed78	-0.1512965
160	0xbe1f2398	-0.15540922
161	0x3dd65364	0.10465124
162	0xbd3f7ae8	-0.046748072
163	0x3c1ed31d	0.009693888
164	0x3c98fa20	0.018673956
165	0x3d835411	0.06412519
166	0x3ddb5a0a	0.10710533
167	0xbbc16696	-0.005902122
168	0xbd2b39e1	-0.041803245
169	0xbce91a86	-0.02845503
170	0xbab9694e	-0.0014145763
171	0xbdc470b8	-0.09591812
172	0xbc53a66b	-0.012918095
173	0xbe074a69	-0.13211979
174	0xbadcf8f6	-0.0016858864
175	0x3c3c234c	0.011483025
176	0x3da9d2df	0.082921736
177	0x3c35ef63	0.0111044375
178	0xbe6eaae0	-0.23307371
179	0xbd3854fd	-0.045002926
180	0xbd8dc646	-0.06922583
181	0x3c6ae660	0.014337152
182	0x3deb1d23	0.11480167
183	0x3e188368	0.14893878
184	0xbbcf0131	-0.0063172807
185	0xbd239821	-0.039940003
186	0xbddec11a	-0.10876675
187	0xbdd462f4	-0.10370436
188	0x3d6329b4	0.055459693
189	0x3e2fdd3e	0.17174241
190	0x3dd0bbe1	0.10192085
191	0xbe34bd33	-0.17650299
192	0x3d3d3123	0.04618944
193	0x3dd23d1a	0.102655604
194	0x3d83704e	0.06417905
195	0x3c22b38c	0.009930503
196	0xbcd434d1	-0.025904091
197	0x3e18116f	0.148504
198	0xbca9d33b	-0.020730605
199	0xbbe81500	-0.0070825815
200	0x3dd01444	0.10160115
201	0x3cef842a	0.029237825
202	0x3dae7d69	0.08520014
203	0x3e19b80a	0.15011612
204	0x3ccab413	0.02474407
205	0xbe03e6a8	-0.12880957
206	0xbdd34136	-0.103151724
207	0xbc632350	-0.0138634
208	0xbd3871b2	-0.045030303
209	0x3d9742f8	0.0738582
210	0x3d643101	0.055710796
211	0x3d1fc2d4	0.039004162
212	0xbd8b5336	-0.068029806
213	0x3dee4372	0.11633958
214	0x3df2cfba	0.11856027
215	0xbde37f23	-0.11108234
216	0xbd922133	-0.071352385
217	0xbe266ae2	-0.1625171
218	0xbe2d0c5c	-0.16899246
219	0xbd9b0364	-0.07569006
220	0x3c845c83	0.016157394
221	0xbc1e4ea0	-0.0096623
222	0xbd975db0	-0.07390916
223	0xbddc016d	-0.107424594
224	0x3d5b84eb	0.053593557
225	0x3c7a4995	0.015276332
226	0x3dd6dabc	0.10490939
227	0x3d601f3c	0.054717287
228	0x3d27e3df	0.0409888
229	0xbe796f50	-0.24358869
230	0xbd0371a1	-0.032090787
231	0x3d77bc39	0.060482237
232	0xbd549c84	-0.051907077
233	0xbd53f0f8	-0.051743478
234	0x3e418e4a	0.18901935
235	0x3d52e2d3	0.051485848
236	0xbcd28ab3	-0.025700903
237	0x3d510758	0.051032394
238	0xbcedea06	-0.029042255
239	0xbe2a271c	-0.16616482
240	0x3c10a958	0.008829437
241	0xbd132862	-0.035927184
242	0x3dcdc0ea	0.10046561
243	0xbd94a6eb	-0.072583996
244	0xbc7d9c6e	-0.01547919
245	0x3d5bce10	0.053663313
246	0x3df6ae37	0.120449476
247	0x3d893dbe	0.067012295
248	0xbcec7104	-0.028862484
249	0xbe63a15a	-0.2222952
250	0x3c15c0d0	0.009140208
251	0xbc8b8b90	-0.017034322
252	0x3dbceaa3	0.09224441
253	0xbdd15406	-0.10221104
254	0x3b9f8034	0.004867578
255	0x3df23d29	0.118280716

linear3.bias f4 [64]
0	0xbd970acc	-0.07375106
1	0x3e1b0297	0.15137707
2	0x3df42c85	0.11922554
3	0x3d55eafe	0.05222606
4	0x3df1f037	0.118133955
5	0x3cb34989	0.02188565
6	0x3cc5ae35	0.02413092
7	0x3d333b5d	0.043757785
8	0x3e4f6f14	0.20257217
9	0x3cd4f8cb	0.02599754
10	0x3d9487e4	0.072524816
11	0x3d1e4d26	0.038647793
12	0xbd2c1ee9	-0.042021666
13	0xbd80eaea	-0.06294806
14	0xbc991538	-0.018686876
15	0x3c297ab6	0.010344198
16	0x3eaf743b	0.34268364
17	0xbd16e37e	-0.036838047
18	0x3ce86e08	0.02837278
19	0xbd4a0af2	-0.049326845
20	0xbd05d934	-0.032677844
21	0x3e316996	0.17325434
22	0xbcc6eb80	-0.024282217
23	0xbe15ca29	-0.14627899
24	0xbcc6ba46	-0.024258744
25	0xbe43c9cf	-0.19119953
26	0x3e662238	0.22473991
27	0xbda8c68f	-0.08240997
28	0xbd92bd4e	-0.07165013
29	0xbdc793ac	-0.09744963
30	0xbda57678	-0.08079237
31	0xbd75e76b	-0.06003515
32	0x3e687829	0.22702087
33	0x3ea05807	0.3131716
34	0xbe85f1d1	-0.26161054
35	0x3d85db02	0.06535913
36	0xbdce837a	-0.10083671
37	0xbe8f5dca	-0.28001243
38	0x3e5e8d7a	0.21733657
39	0x3d4860f6	0.048920594
40	0x3ea2be8a	0.31785995
41	0xbe338de4	-0.17534596
42	0x3e099432	0.13435438
43	0x3e58ef0b	0.21184938
44	0xbd913ed0	-0.07092059
45	0x3d427581	0.04747534
46	0x3e04371d	0.12911649
47	0x3d9feb1f	0.07808518
48	0x3b185752	0.0023245406
49	0x3d15154d	0.036397267
50	0x3d0dc60a	0.034612693
51	0x3e011337	0.12604986
52	0x3e9b4708	0.3032763
53	0xbdd0e8dc	-0.102006644
54	0x3deddd40	0.11614466
55	0x3d9e2e6d	0.07723699
56	0x3d884a3c	0.06654784
57	0x3e09d62d	0.13460608
58	0x3e60b1f5	0.21942885
59	0x3e950fec	0.2911371
60	0x3e9f1841	0.31073192
61	0x3dda7645	0.106670894
62	0x3c95aeab	0.018271765
63	0x3e906ecd	0.28209534

linear4.weight f4 [64, 64]
0	0xbbab8f00	-0.005235553
1	0xbdc775c1	-0.09739257
2	0xbb738455	-0.0037157733
3	0xbbb546e0	-0.0055321306
4	0xbde69d34	-0.11260453
5	0xbdcf3869	-0.10118181
6	0x3d25527b	0.040361863
7	0xbd5a6d8c	-0.05332713
8	0xba4a1611	-0.00077089766
9	0xbd393fd0	-0.045226872
10	0xbd3f308c	-0.046677157
11	0x3d250ea4	0.040297166
12	0xbd463fc0	-0.04840064
13	0x3de255e2	0.11051537
14	0xbda38d18	-0.07985896
15	0xbd4ca3e4	-0.049960986
16	0xbcb98bfe	-0.022649761
17	0xbcba4ce0	-0.022741735
18	0xbd92294c	-0.07136783
19	0xbdab303a	-0.08358808
20	0x3de9d7b4	0.11418095
21	0x3b8fe626	0.0043914495
22	0xbcdae338	-0.026719674
23	0x3dcb03d2	0.09912838
24	0x3cb08628	0.021548346
25	0x3c7baa45	0.01536042
26	0xbd131c8d	-0.0359159
27	0x3d97fcca	0.074212626
28	0x3ccabd60	0.024748504
29	0x3c2fd8a0	0.0107328
30	0x3d7afdd4	0.061277226
31	0x3cd1c540	0.025606751
32	0xbddd3764	-0.108015805
33	0x3dd6ce35	0.104885496
34	0xbdff8c49	-0.12477929
35	0x3df59546	0.11991362
36	0xbdefc4ec	-0.11707482
37	0xbda23aea	-0.07921393
38	0xbc447656	-0.011991104
39	0x3d508050	0.05090362
40	0xbddfc438	-0.10926098
41	0xbe00aa26	-0.12564906
42	0x3d411759	0.047141407
43	0x3da704bc	0.081552
44	0xbca99a90	-0.020703584
45	0x3d364a30	0.044504344
46	0xbd8349eb	-0.06410583
47	0xbd30dd14	-0.043179587
48	0xbd8bfeb8	-0.06835693
49	0x3d7f2ffc	0.06230162
50	0xbdeb29e0	-0.114825964
51	0x3d0713f8	0.032978028
52	0x3c43ab88	0.011942752
53	0xbd5df538	-0.054188937
54	0xbd82a957	-0.06379955
55	0xbcde9684	-0.02717138
56	0x3cd62c8b	0.026144287
57	0x3c957ce0	0.018248022
58	0x3d04efb3	0.032455157
59	0xbdcf6212	-0.10126127
60	0xbd593ed1	-0.053038422
61	0xbd4c7d2c	-0.04992406
62	0xbdee5fb2	-0.11639346
63	0x3c42b759	0.011884534
64	0x3dc55dd9	0.09637041
65	0x3c722ec1	0.014781655
66	0xbdbe0d87	-0.09279924
67	0x3ba2d12a	0.004968782
68	0x3d88376e	0.066511974
69	0xbdb9df98	-0.0907585
70	0x3bb72a6e	0.005589775
71	0xbd9f237f	-0.07770442
72	0x3e23accc	0.15983886
73	0xbda5835d	-0.08081696
74	0x3b49d4cf	0.003079701
75	0x3dd8f695	0.10593907
76	0x3be7317d	0.00705546
77	0x3ba11bb3	0.004916632
78	0x3d03d400	0.0321846
79	0xbd2901f0	-0.041261613
80	0x3d5a47f2	0.05329127
81	0xbd87e6f3	-0.06635847
82	0x3dd6fa14	0.10496917
83	0xbdcba87d	-0.09944246
84	0x3d827a04	0.06370929
85	0xbd8ea162	-0.06964375
86	0x3dd7c2de	0.10535215
87	0xbd38c373	-0.04510827
88	0xbc627c94	-0.013823647
89	0x3d0eff99	0.034911726
90	0xbd63432a	-0.055483975
91	0x3d9c11a6	0.07620554
92	0xbd8e1f23	-0.069395326
93	0xbd53b138	-0.05168268
94	0xbb2eb680	-0.0026659071
95	0xbd6ba3ef	-0.057529386
96	0xbcb37a7a	-0.021908987
97	0x3c56238c	0.0130699985
98	0xbc20ee87	-0.009822494
99	0xbd6e7c86	-0.058224224
100	0x3dfc83b5	0.123298086
101	0xbdcbe497	-0.099557094
102	0x3da27195	0.0793182
103	0xbda24688	-0.07923609
104	0x3e3b0e33	0.18267135
105	0xbbb8a4fa	-0.005634901
106	0x3e02cf0f	0.12774299
107	0x3e0cd970	0.13754821
108	0x3d556f44	0.052108064
109	0xbb5eda1a	-0.003400451
110	0x3ce965e1	0.028490962
111	0xbe1b1a7e	-0.15146825
112	0xbe04b130	-0.12958217
113	0xbd79d588	-0.060994655
114	0x3d865523	0.06559207
115	0xbd51e7a5	-0.051246304
116	0xbba3c017	-0.004997264
117	0xbd0db8df	-0.034600135
118	0xbcf8485e	-0.030307945
119	0xbd18ff2e	-0.037352733
120	0xbd857080	-0.06515598
121	0x3da52263	0.08063199
122	0x3e36f368	0.1786629
123	0xbc1305e0	-0.008973569
124	0x3dc74171	0.09729279
125	0xbd9bc5b2	-0.07606067
126	0x3daf1053	0.085480355
127	0x3d875ec9	0.06609876
128	0xbd0a111c	-0.033707723
129	0x3c14ddd6	0.009086093
130	0xbd1d4f53	-0.038405728
131	0x3b9d6ef9	0.0048044887
132	0xbd1d694c	-0.038430497
133	0xbd6cd031	-0.057815734
134	0xbdc510a2	-0.09622313
135	0x3df044ad	0.11731849
136	0x3d756cbe	0.059918158
137	0x3ce6be9e	0.028167065
138	0x3da5359e	0.08066867
139	0x3db0e02b	0.08636507
140	0x3d77839a	0.06042824
141	0x3d15779b	0.036491018
142	0xbc9e7218	-0.019341514
143	0xbda9dc92	-0.082940236
144	0x3d85ed94	0.06539455
145	0xbdd64885	-0.10463051
146	0xbccc0bb0	-0.024907917
147	0xbcab06cd	-0.020877266
148	0xbdc25876	-0.09489529
149	0x3e0b181d	0.13583417
150	0xbdd017f2	-0.10160817
151	0xbd9393d9	-0.07205934
152	0xbdf11d54	-0.11773172
153	0x3d61a636	0.05509015
154	0x3e0ef852	0.13961914
155	0x3d50415b	0.050843578
156	0x3e138bb7	0.14408766
157	0x3dc36912	0.09541525
158	0xbdeca416	-0.115547344
159	0x3de0a387	0.1096869
160	0xbcca2977	-0.024677975
161	0x3e0e066d	0.13869639
162	0xbe086b07	-0.13322078
163	0xbd253b31	-0.040339652
164	0xbd12eb1b	-0.035868745
165	0xbe100538	-0.14064491
166	0x3dce6396	0.10077588
167	0x3d58e56a	0.05295316
168	0x3e1609d0	0.1465218
169	0xbde25ddd	-0.11053059
170	0x3ca88c3b	0.02057468
171	0x3dabadfc	0.08382794
172	0x3dbb4f2a	0.09145959
173	0xbdc416bf	-0.09574651
174	0x3e181234	0.14850694
175	0x3d52052c	0.051274464
176	0xbe6f682f	-0.23379587
177	0xbd913f68	-0.07092172
178	0xbd6bc9fc	-0.057565674
179	0xbe2ed2ae	-0.17072555
180	0x3d161752	0.036643334
181	0xbd00f3b1	-0.031482402
182	0x3d14eb13	0.036356997
183	0x3d15131b	0.036395174
184	0x3e25cabf	0.16190623
185	0xbc1986ad	-0.009370488
186	0xbc845556	-0.016153973
187	0x3d6c9d59	0.057767246
188	0x3e10cf76	0.1414164
189	0xbd37df43	-0.044890653
190	0x3baadc4b	0.0052142492
191	0x3d55885d	0.052132
192	0xbe008b12	-0.12553051
193	0x3e199329	0.14997543
194	0xbd0697ee	-0.032859735
195	0x3e410b3d	0.18851943
196	0xb9ed8b56	-0.00045307976
197	0xbe6efab5	-0.23337825
198	0xbe771284	-0.24128157
199	0x3e068c09	0.13139357
200	0x3d3755fc	0.044759735
201	0x3e2ed30d	0.17072697
202	0xbdf60d73	-0.12014284
203	0x3e4a98d1	0.19784857
204	0xbd6bfa60	-0.057611823
205	0x3d5f53cc	0.054523274
206	0xbdc3d3c4	-0.095618755
207	0x3d0533d3	0.032520127
208	0x3e0db775	0.13839515
209	0xbe0e899a	-0.13919678
210	0x3df40138	0.11914295
211	0xbd834c94	-0.064110905
212	0xbbaae8e0	-0.005215749
213	0x3d24bc88	0.04021886
214	0x3dbb39a6	0.09141855
215	0xbe93dc62	-0.28879076
216	0x3e38e7d8	0.18057191
217	0xbb549a7a	-0.0032440708
218	0xbd2590b4	-0.040421203
219	0xbda73644	-0.08164647
220	0xbe127314	-0.14301711
221	0xbd717e44	-0.058958307
222	0x3dea7d8c	0.114497274
223	0x3d4c76cb	0.049917977
224	0xbe285447	-0.164384
225	0x3a6e7679	0.00090966333
226	0xbeaf5563	-0.34244832
227	0x3d928cf7	0.07155793
228	0x3c8fafb0	0.017539829
229	0xbe5229ed	-0.20523806
230	0xbab1f0fc	-0.0013575847
231	0x3c86c0de	0.016449388
232	0x3d915351	0.070959695
233	0xbdd80645	-0.10548071
234	0xbcca6614	-0.024706878
235	0xbca92166	-0.020645808
236	0xbdfc39dc	-0.12315723
237	0xbde4d4bc	-0.11173388
238	0x3e181702	0.14852527
239	0x3e5e3a12	0.2170184
240	0x3e84cda1	0.25938132
241	0x3d064d67	0.03278866
242	0x3e4f55bd	0.2024755
243	0x3e92f14b	0.28699717
244	0xbd30e77b	-0.043189507
245	0x3c8e849c	0.017397217
246	0xbbe83e50	-0.0070875064
247	0xbd246534	-0.040135577
248	0x3d6865ff	0.056737896
249	0x3e3a8c25	0.18217523
250	0x3a9f9e69	0.0012177947
251	0x3d81a145	0.06329588
252	0x3e13c390	0.1443007
253	0xbd31106f	-0.043228563
254	0xbd86e54e	-0.06586705
255	0xbd2c1e74	-0.04202123

linear4.bias f4 [64]
0	0xbd2f546b	-0.042805117
1	0x3e97a1ae	0.2961554
2	0x3ea5ab33	0.32357177
3	0x3d785295	0.06062563
4	0xbdcecaa8	-0.10097247
5	0x3bafadcf	0.005361296
6	0x3e8cb4bf	0.27481648
7	0x3e2d4770	0.16921782
8	0x3e72f57a	0.23726454
9	0x3d51351a	0.051076032
10	0x3e4794d2	0.19490364
11	0xbe7d30c0	-0.24725628
12	0xbd6aeb1c	-0.057353124
13	0xbdc3cfcd	-0.09561119
14	0xbcd95417	-0.026529355
15	0x3d0f1344	0.034930483
16	0x3d985694	0.074383885
17	0x3e6ad360	0.22932196
18	0xbd4ca1d4	-0.04995902
19	0x3e96b5cd	0.29435578
20	0x3e5bcee2	0.21465638
21	0xbd9d8e21	-0.076931246
22	0x3e998d32	0.29990536
23	0xbdb263e9	-0.087104626
24	0xbd9bb02b	-0.07601961
25	0x3e00b6c0	0.12569714
26	0x3e87ecd2	0.26547867
27	0x3d8953d4	0.06705442
28	0x3e6d36e3	0.23165469
29	0x3d003f8a	0.031310596
30	0x3e607055	0.21917851
31	0xbcfa34a2	-0.030542675
32	0x3e20f07e	0.1571674
33	0x3d68e92b	0.05686299
34	0xbdfb84c0	-0.122811794
35	0x3e6f9715	0.23397477
36	0x3e5032c2	0.20331863
37	0x3de910d6	0.11380164
38	0x3e3e231d	0.18568082
39	0xbdf440af	-0.119264
40	0x3e936403	0.2878724
41	0x3e378a0a	0.17923751
42	0xbd692e96	-0.056929193
43	0xbd86a267	-0.065739445
44	0x3e10bb16	0.14133868
45	0xbdd26aea	-0.102742985
46	0x3d8cf120	0.068819284
47	0x3db8fc38	0.09032482
48	0x3e9545ed	0.29154912
49	0xbcb3f0c0	-0.021965384
50	0xbd791d52	-0.060818978
51	0xbd869dac	-0.06573042
52	0x3ea22f9b	0.31676945
53	0x3e3bc492	0.18336704
54	0x3d3a6be0	0.045513034
55	0x3e811d71	0.25217775
56	0x3e03d90f	0.1287577
57	0x3dd630ba	0.104585126
58	0x3da85e2a	0.08221085
59	0xbd3cd702	-0.046103485
60	0x3e6aed4f	0.22942089
61	0x3e480e7b	0.19536774
62	0x3e540a40	0.20707035
63	0x3e46c4a4	0.1941095

mean_linear.weight f4 [2, 64]
0	0xbbcbe8ba	-0.0062228115
1	0x3d470ce3	0.048596274
2	0x3d471952	0.04860813
3	0xbdd96bca	-0.10616262
4	0xbdd6b00d	-0.10482798
5	0x3ddb65b7	0.1071276
6	0x3daefcc1	0.08544303
7	0x3d133594	0.035939768
8	0x3d0d5f98	0.034514993
9	0x3db76946	0.08955626
10	0x3d525e8b	0.051359694
11	0xbe119d17	-0.14220081
12	0xbb2a1e2f	-0.0025957932
13	0xbb099e0b	-0.0020998742
14	0x3a04d85e	0.00050676416
15	0x3d4c60b2	0.049896903
16	0x3c1cae1b	0.009562994
17	0x3d8b45eb	0.06800445
18	0x3a05ec92	0.0005108799
19	0x3d442057	0.047882404
20	0x3d6fa46d	0.058506418
21	0x3c67269b	0.014108325
22	0x3d97dc15	0.07415024
23	0x3c1e5039	0.009662681
24	0x3b9934a9	0.004675467
25	0x3dc94d0c	0.09829149
26	0x3d234300	0.039858818
27	0x3d4f7bb4	0.050655082
28	0x3d40d54b	0.047078412
29	0x3cca557f	0.02469897
30	0x3d9bf9b3	0.07615986
31	0xbb325ba0	-0.0027215257
32	0x3d639be9	0.05556861
33	0x3d0a9752	0.033835717
34	0xb9bbccc4	-0.00035819982
35	0x3cb28f1c	0.021796755
36	0x3c40a474	0.011757959
37	0x39592cac	0.00020711374
38	0x3d0d15e9	0.034444723
39	0xb95cb396	-0.00021047736
40	0x3d88811c	0.06665251
41	0x3d20d815	0.039268572
42	0xbe0fc141	-0.14038564
43	0xbe2f2ebc	-0.17107671
44	0x3ccdcebe	0.025122996
45	0x3ab750fb	0.0013985926
46	0xbe525000	-0.2053833
47	0xba6b0c27	-0.00089663494
48	0x3dd2759d	0.10276339
49	0x3aee807b	0.0018196249
50	0x3a1fc665	0.0006094932
51	0x3954f354	0.00020308542
52	0x3d480754	0.048835114
53	0x3d6fc07b	0.058533173
54	0x3d8badce	0.0682026
55	0x3dd11534	0.10209122
56	0x3cd81113	0.02637533
57	0x38f9c5f4	0.00011910117
58	0x3d95a4d9	0.07306833
59	0xbb6c0765	-0.003601515
60	0x3df1750c	0.11789903
61	0x3da51dff	0.08062362
62	0x3cf5c5da	0.03000157
63	0x3c6ba8ec	0.014383536
64	0xbc0be65c	-0.008538809
65	0x3dde374e	0.10850392
66	0x3d8a4361	0.06751133
67	0x3dc481b9	0.09595055
68	0x3d11f2b5	0.035631854
69	0xbc912fcc	-0.017722987
70	0x3d956006	0.07293706
71	0x3d3aeae9	0.045634184
72	0x3d8a6458	0.0675742
73	0xbba886dd	-0.00514303
74	0x3e0f0338	0.13966072
75	0xbb3be5cd	-0.0028670907
76	0xb915ee87	-0.00014298606
77	0xb938b4fe	-0.00017615032
78	0xbc8d388a	-0.017238874
79	0xbbe0f2c2	-0.0068648765
80	0xbcf64a7e	-0.030064818
81	0x3c707f00	0.014678717
82	0xbae185ac	-0.0017205975
83	0x3d7428e8	0.059609324
84	0x3d841802	0.064498916
85	0xbcbc28a8	-0.022968605
86	0x3e212891	0.15738131
87	0xbb54500b	-0.0032396342
88	0xbbe2ff35	-0.0069273957
89	0x3c975ecb	0.018477818
90	0x3d9f9b6a	0.07793315
91	0xbcc5d83d	-0.024150962
92	0x3d7ac593	0.061223578
93	0x3d3ce626	0.046117924
94	0x3d16481a	0.036689855
95	0xbba75cda	-0.0051075043
96	0x3d960949	0.0732599
97	0x3cda0da7	0.026617838
98	0x3b949580	0.0045344234
99	0x3d24ae3b	0.04020522
100	0x3de9457f	0.113902085
101	0xba57afac	-0.0008227776
102	0x3d232a26	0.039835118
103	0xbbaf5fa6	-0.0053519784
104	0x3d148e8c	0.036268756
105	0x3d5d527d	0.054033745
106	0xbca97b4e	-0.02068868
107	0x3d508205	0.050905246
108	0x3d94c304	0.07263759
109	0xba51b244	-0.0007999281
110	0x3d5d0ae1	0.053965453
111	0x3b0fe8a8	0.0021958742
112	0x3a7a310e	0.0009544053
113	0xbb164982	-0.0022931998
114	0xbb1f8ada	-0.0024344237
115	0x3abf6f1a	0.0014605254
116	0x3da25ac8	0.079274714
117	0x3d22ae2f	0.039716896
118	0xbc8f8245	-0.017518172
119	0x3d9be4eb	0.07612022
120	0x3d8d0315	0.068853535
121	0xbaf551e4	-0.0018716422
122	0x3cbe50ef	0.023231952
123	0xbc2be484	-0.010491494
124	0x3d9353b9	0.07193703
125	0x3d2657bb	0.04061101
126	0x3d46a694	0.048498705
127	0x3dc53d7f	0.0963087

mean_linear.bias f4 [2]
0	0x3daebe9c	0.085324496
1	0x3e0778b3	0.13229637

log_std_linear.weight f4 [2, 64]
0	0x3c17ded8	0.009269439
1	0xbd8ff771	-0.070296176
2	0xbd8854f3	-0.06656828
3	0xbdd5e084	-0.104432136
4	0xbd073c17	-0.03301629
5	0x3d93dc94	0.07219806
6	0x3c9f9699	0.01948099
7	0x38c46c3e	9.36617e-05
8	0xbd2a43dc	-0.041568622
9	0x3db5780c	0.08860788
10	0xbd1c2fe8	-0.038131624
11	0xbc869bf1	-0.01643178
12	0x38ae6ac1	8.316851e-05
13	0x3ac850c9	0.0015282865
14	0xbafac486	-0.0019132055
15	0x3d800053	0.06250062
16	0xbd44240c	-0.04788594
17	0xbc271530	-0.010197923
18	0xbb904cbc	-0.0044036787
19	0xbcc28006	-0.023742687
20	0xbbd6e1a7	-0.0065576616
21	0x3d44750e	0.047963195
22	0xbe169641	-0.14705755
23	0xbbd85331	-0.006601714
24	0x3c027747	0.007963008
25	0xbae48dd7	-0.0017437291
26	0xbc5eb71a	-0.0135934595
27	0x3ac24f0e	0.0014824586
28	0xb9bc08f3	-0.00035864822
29	0x3c9afa33	0.018918132
30	0xbd42a212	-0.047517844
31	0x3b0719b1	0.0020614679
32	0xbc60e4a6	-0.013726389
33	0x3b309a7c	0.0026947549
34	0x3b83c718	0.0040215366
35	0xbd111de3	-0.035428893
36	0xbe1e5e75	-0.1546572
37	0x39abb26b	0.00032748593
38	0xbc4bb671	-0.012433634
39	0xbb6f3cee	-0.0036504823
40	0xbcd9dd4a	-0.026594777
41	0xbc12030e	-0.008911861
42	0xbda6c102	-0.08142282
43	0xbd54f09d	-0.05198728
44	0xbcd8936e	-0.026437487
45	0xba20ac1c	-0.0006129162
46	0xbe0704e2	-0.13185456
47	0xba083eac	-0.0005197327
48	0xbd2a6ea3	-0.041609418
49	0x3b28c18c	0.0025750129
50	0xbb82ed71	-0.0039955904
51	0x39a8ea94	0.0003221823
52	0xbd541390	-0.05177647
53	0xbaee9ab6	-0.0018204066
54	0x3d0041cd	0.031312753
55	0x3cd53bb1	0.02602944
56	0xbca92a9b	-0.020650199
57	0xbaa75cc7	-0.0012768739
58	0x3d2974db	0.041371208
59	0xbbb7467f	-0.0055931206
60	0x3d6b8463	0.0574993
61	0xbb895ef5	-0.004192228
62	0xbcd4895e	-0.025944408
63	0xbd378aa6	-0.04480996
64	0x3bd8794f	0.006606258
65	0xbd0ed028	-0.034866482
66	0xbc95a89a	-0.018268872
67	0xbc8ed2d4	-0.017434515
68	0xbb832108	-0.0040017404
69	0x3c9f2cb5	0.019430498
70	0xbc353b2b	-0.01106147
71	0xbc7c8f5d	-0.01541504
72	0xbcc7ce6e	-0.024390426
73	0x3bd97b6d	0.006637028
74	0xbcef0dc8	-0.029181376
75	0x3c7ad0d6	0.015308579
76	0x380d024e	3.3619166e-05
77	0xbbd26238	-0.0064204
78	0x3c339125	0.010959898
79	0xbc87be56	-0.016570251
80	0xbbe2b8a1	-0.006918982
81	0xbc002306	-0.00782085
82	0xbb3c28c0	-0.0028710812
83	0xbcc97335	-0.024591068
84	0xbc7fe0c1	-0.01561755
85	0xbaf1b65d	-0.0018441189
86	0xbd4a8477	-0.049442735
87	0x3c864ea4	0.01639492
88	0xbbe2927d	-0.0069144354
89	0xbc3a10d2	-0.011356549
90	0xbca305a9	-0.01990016
91	0x396d713a	0.00022644261
92	0xbbea2de1	-0.0071465825
93	0xbb9028c3	-0.0043993904
94	0xbca7d428	-0.020486906
95	0x3a825ae8	0.0009945305
96	0xbcc2103f	-0.023689387
97	0xbc1310ff	-0.00897622
98	0xbc9cf735	-0.019160846
99	0xbc4d4a6e	-0.012529952
100	0xbc12b60e	-0.008954538
101	0x3b1f599c	0.0024314886
102	0xbc834b58	-0.016027138
103	0xba9472d0	-0.0011325721
104	0xbcaf3cd0	-0.021391302
105	0xbb9a03ba	-0.0047001513
106	0x3b256986	0.0025239899
107	0xbcba5bdb	-0.022748878
108	0x3acecb6f	0.0015777181
109	0xb9ae78de	-0.0003327792
110	0xbd2985bd	-0.04138731
111	0xbb0ccc35	-0.0021484022
112	0xbcb6897f	-0.02228236
113	0xba7c3ccb	-0.0009622096
114	0xbb061e9a	-0.0020465017
115	0xbb1bc7c9	-0.0023770204
116	0xbcd3ce12	-0.025855098
117	0xbc8b535d	-0.017007524
118	0x3c1397fc	0.009008404
119	0xbc0e41fa	-0.008682722
120	0x3b858527	0.004074711
121	0x3aadcf45	0.0013260624
122	0x3a8463fb	0.0010100597
123	0x3b868142	0.004104764
124	0xbbaab562	-0.005209611
125	0xbcaa2960	-0.020771682
126	0xbc927ae6	-0.017880868
127	0xbc7d6171	-0.015465126

log_std_linear.bias f4 [2]
0	0xbe11e2a2	-0.1424661
1	0xbda3533a	-0.079748586
