models/noCBF_2025-11-17 19:59:15/1/policy.pth (torch, 55714 bytes, 12 tensors)

linear1.weight f4 [64, 3]
000000 03 6a a3 be 85 6f 4b 3e 69 21 80 3d 39 79 44 be
       -0.31916818 0.1986676 0.062563725 -0.19186868
000010 e8 8a 4b 3e cf c6 f3 be 53 68 e0 be e5 8e e5 bd
       0.19877207 -0.47612616 -0.43829593 -0.112088956
000020 05 47 5f 3e bb 71 8b be 32 cc 05 3f 59 4d cc be
       0.21804436 -0.27235207 0.522647 -0.39902762
000030 7f f7 12 bf 13 af 1d be 32 c2 15 3e ce ba f2 bc
       -0.574089 -0.15398817 0.14624861 -0.029630091
000040 f5 30 0f bf c7 79 f2 3e 7d ba c0 bd d1 8a de 3e
       -0.5593408 0.47358534 -0.0941057 0.43465284
000050 3b c8 b1 bc 5b 01 dd 3d ba c8 8a be 6c 5b 75 be
       -0.021701923 0.10791274 -0.27106267 -0.23960656
000060 64 29 ef 3e a2 5b d7 3d 13 3e 39 3e 89 07 16 bf
       0.46711266 0.105155244 0.18090086 -0.5860525
000070 81 38 d9 bd 75 8d 5f be 38 fd b7 3e e1 86 79 be
       -0.106064804 -0.21831305 0.35935378 -0.24367858
000080 d9 3e 8b 3e 32 c8 5e bd f1 34 83 be 18 0c 27 3e
       0.27196386 -0.05439014 -0.2562633 0.16313207
000090 de 3a f9 be 9a 4c a6 bd 56 23 d2 3e 2b 84 9b be
       -0.48677725 -0.08120079 0.41042584 -0.30374274
0000a0 a1 18 f1 3e 70 4e 10 3e 6e ec cb be d7 3d 2d be
       0.47089103 0.14092422 -0.3982882 -0.16918121
0000b0 ef 81 e6 bd 95 66 cf 3e 56 be 0c 3e a1 0e de be
       -0.112552516 0.4050795 0.13744482 -0.43370536
0000c0 ac a0 f7 3e 29 f3 0e be 1b 40 f7 3e 72 a1 70 be
       0.4836477 -0.13959946 0.48291096 -0.23499086
0000d0 13 34 00 3e de ed 0f bf a5 0e b2 3e 85 60 d2 bd
       0.12519865 -0.5622233 0.34776798 -0.10272316
0000e0 78 25 40 3e ed 50 5f be 91 54 af be f4 86 06 bf
       0.18764293 -0.21808214 -0.34244207 -0.5254967
0000f0 c2 96 d4 be 92 af c9 be b5 40 c3 3e 23 d5 13 3f
       -0.4152127 -0.39391762 0.38135305 0.57747096
000100 e4 61 d5 be c8 2b 9f 3e 65 61 bd be a1 ff 76 be
       -0.41676247 0.3108809 -0.3698837 -0.24120952
000110 6d b0 b1 3e 05 c7 54 be 9d 96 c7 3e cc 8a 8a 3e
       0.34704915 -0.20779045 0.38982096 0.2705902
000120 4b c0 af 3e b0 c1 6b be 94 20 b5 be ee 43 f3 be
       0.34326395 -0.23023105 -0.35376418 -0.47512764
000130 02 01 be be 6c ae 7e be ed d2 e7 3e 8d 4c 09 3f
       -0.37110144 -0.24871224 0.4527811 0.5363243
000140 b8 84 cc be b1 6c c0 be f6 7e bb 3e 1c b5 3d bd
       -0.39945006 -0.37582925 0.366203 -0.046315297
000150 2e 0c 35 be 3e b1 94 3e 0a d3 8a be d1 22 09 3f
       -0.17680427 0.29041475 -0.27114135 0.5356875
000160 b3 ad d4 3e 23 d2 15 be 6e d7 87 bd 2b b9 09 3f
       0.41538772 -0.14630942 -0.06632887 0.5379817
000170 23 92 ef 3e 02 05 05 bf db e1 28 3e b3 e8 10 3f
       0.4679118 -0.51960766 0.16492407 0.5660507
000180 87 83 2f 3e ad 8d e1 3e 5f 58 0a bf 45 fb 7e 3e
       0.17140017 0.44053403 -0.54041094 0.24900539
000190 4b 14 18 bf 23 83 9c bd 48 7d 76 be f1 5a 9a 3e
       -0.59405965 -0.076422 -0.24071229 0.30147508
0001a0 47 07 d6 be e1 42 9f 3e ae 42 87 3e d1 3e 08 bf
       -0.41802427 0.31105712 0.2641806 -0.5322085
0001b0 80 49 87 3e f1 37 24 be b2 8c 0d bf 00 2b 27 be
       0.26423264 -0.16036965 -0.5529281 -0.16324997
0001c0 bf 61 90 be 4f 39 bb bd fd b2 e5 be 7a c4 fb be
       -0.28199574 -0.0914179 -0.4486312 -0.49173337
0001d0 25 fb a8 be 70 ae 14 bf b5 b1 fd 3e 75 9b 9e 3d
       -0.33004108 -0.5807867 0.49549642 0.07744495
0001e0 10 ea e8 be e4 3c 05 3e ee cd ea be 92 37 f2 3e
       -0.45491076 0.13011509 -0.45860237 0.47308022
0001f0 a8 6b df 3e 7e 6c 8f be 9e e7 56 3e 87 4f de 3e
       0.43636823 -0.2801246 0.20986792 0.4342005
000200 f6 30 c1 be b9 f9 75 be cc 80 fd 3e ed 85 b1 3e
       -0.37732667 -0.24021043 0.49512327 0.3467249
000210 af 14 10 be 9b 79 57 3d 47 ca 0d 3d e8 99 45 be
       -0.1407039 0.052606206 0.034616735 -0.19296992
000220 39 7c 48 3e da e5 f7 3d 98 de 80 bd 45 b6 04 3e
       0.19578637 0.121043876 -0.062924564 0.12960155
000230 d4 2c aa 3e 29 de ce be 9e 65 14 3f 3f 46 4b 3e
       0.33237326 -0.4040387 0.57967556 0.19851016
000240 77 cb f5 3e 1c 30 d1 bd 07 27 d4 3e cf b5 c9 3d
       0.48006794 -0.10214254 0.41436026 0.0984913
000250 f1 a0 ac 3e 20 5a 0b bf 37 c1 bc be 61 6a 1d be
       0.3371654 -0.54434395 -0.3686616 -0.15372612
000260 b5 ac be 3e 27 37 a5 be 11 6a 0c 3e fc 61 1b 3e
       0.3724114 -0.3226864 0.13712336 0.15174097
000270 d6 43 1d 3e a2 4f 9f be 4e 02 b2 3e f6 cf 07 3f
       0.15357909 -0.31115443 0.34767383 0.530517
000280 7a fa ee be 20 a8 ae bc bb f4 42 3e 5e 0a b4 3e
       -0.46675473 -0.021320403 0.1903867 0.3516416
000290 67 7d 4a 3e 81 8c 72 3e 00 27 03 3f 9b 92 ab be
       0.197744 0.2368641 0.51231384 -0.3351029
0002a0 5f 6d d9 be 14 39 85 3e c0 13 0c 3f e6 95 b9 be
       -0.42466256 0.2602011 0.54717636 -0.36247176
0002b0 d3 1b f4 3e 3e e4 e1 3e f8 1d ec be 32 1f 35 3e
       0.47677478 0.44119447 -0.46116614 0.17687681
0002c0 94 20 84 be cf d0 15 3e 80 fe ca 3e 3e 32 86 3e
       -0.25806105 0.14630435 0.39647293 0.26210207
0002d0 f1 95 b6 3e 89 b3 0e 3f 8b b5 13 bf e3 75 97 be
       0.3566127 0.557427 -0.5769889 -0.29582128
0002e0 40 75 f9 3e 33 65 02 3f 79 cf 06 3f 2b f7 fa 3e
       0.48722267 0.5093567 0.5266033 0.490167
0002f0 19 6b 8c be d2 8a a2 3e e1 c5 de 3e 26 4b de 3e
       -0.2742546 0.31746536 0.43510345 0.4341671

linear1.bias f4 [64]
000000 4f 1e 00 3f 43 76 0f bf 1f e0 8b be d2 5d a6 be
       0.5004625 -0.5603983 -0.27319428 -0.32493454
000010 79 a8 3e 3e ee f4 8a be 68 ac 60 3d a4 06 f6 be
       0.18618955 -0.27139992 0.05485192 -0.4805194
000020 05 0e 15 bf 73 fc c1 3e 10 77 e7 be e6 c3 a5 3e
       -0.5822452 0.37887916 -0.45208025 0.3237602
000030 a3 d7 71 be 6b f9 82 3d d4 d8 95 3e 3e a3 c8 be
       -0.23617415 0.06395229 0.2926699 -0.39187044
000040 08 62 ae be 5d 07 80 3e 04 b5 9e be db 45 2f 3e
       -0.34059167 0.25005618 -0.3099748 0.17116491
000050 5c d8 94 be bf ff a4 3d 42 84 0b 3e 24 be 6a 3e
       -0.2907132 0.08056592 0.13624671 0.22924095
000060 8c 57 53 3e 49 47 fc 3e 3d 14 ea be c8 fb 44 3e
       0.20638865 0.49273136 -0.45718566 0.19236672
000070 40 17 c0 3e 06 94 85 3e 88 1f a3 3e 12 c2 e3 3e
       0.37517738 0.26089495 0.31859994 0.44484
000080 04 44 87 be 76 7d 8c be d0 6f eb be ee 86 73 be
       -0.2641908 -0.2743947 -0.45983744 -0.2378194
000090 ff 46 cd 3e fe 0f 17 3f 5f c1 fa be 6e 3d 07 3f
       0.40093228 0.5900878 -0.48975655 0.5282811
0000a0 11 3a 79 bd af 96 ab bd 0c 8f 08 3e 98 8f d1 3e
       -0.060846392 -0.0837835 0.13335818 0.40929866
0000b0 6e 17 13 bf a5 e5 eb be 89 91 11 3f 29 49 c7 3e
       -0.57457626 -0.46073642 0.56862694 0.38923004
0000c0 eb 37 4d bd 22 fa 11 be bc 88 fb 3e a3 97 fb be
       -0.050102156 -0.14255574 0.49127758 -0.49139127
0000d0 ae b0 3a 3d ee 3c a8 be f1 9c 18 3e f2 06 79 bd
       0.04557865 -0.32858986 0.14903618 -0.06079764
0000e0 b1 2c ee be 4e a8 1a 3d a2 a2 c6 3e c8 a0 2f be
       -0.46518472 0.037758164 0.38795954 -0.17151177
0000f0 00 cd f9 3e b8 82 f9 3e e9 66 fc 3d d3 99 b8 be
       0.48789215 0.48732543 0.12324316 -0.3605486

linear2.weight f4 [64, 64]
000000 07 84 b3 bb c8 b2 f7 bd f8 cf 8a bd c4 0a 0e bd
       -0.0054783854 -0.12094647 -0.06777948 -0.034678236
000010 62 f2 f1 bb 26 79 92 bb 31 c0 c2 3d 80 2f e0 3d
       -0.0073836306 -0.0044700084 0.09509314 0.1094656
000020 c9 b2 d0 3d 6e bd 18 bc c6 a4 d9 3d af 01 03 be
       0.101903506 -0.009322507 0.10627131 -0.12793611
000030 1e 4c ac 3c c0 f4 9d bc 5b 5b 12 be 8c 87 67 bd
       0.02103239 -0.019281745 -0.14292662 -0.056525752
000040 38 46 5b 3c f2 56 fd bd a8 23 e9 3d 37 7f 07 3d
       0.013383441 -0.12370099 0.11383754 0.033080306
000050 35 69 d8 bd 4f 4d a5 3d cc 54 81 bd 3e ad 84 bc
       -0.10566942 0.08071386 -0.06315002 -0.01619589
000060 7c 9a 72 3d a6 e2 29 3c f8 88 bc bd a3 d1 7f bc
       0.05922936 0.010368979 -0.09205812 -0.015613946
000070 d4 bd 23 3d b4 f5 f7 bd 91 a3 ff 3d 71 7f 8a 3d
       0.039975956 -0.12107411 0.1248237 0.06762589
000080 38 b0 c8 3c 01 4f b3 3d c0 21 e5 bc e0 e4 0f bd
       0.02449809 0.08755303 -0.027970195 -0.03513038
000090 de 34 f6 bd 4f b4 ae bd e4 4e fc 3d 3c 9b 15 3d
       -0.12021802 -0.08530485 0.12319735 0.036524996
0000a0 50 ab ba 3d 90 08 f4 bc a0 d3 15 bc 91 d6 ff 3d
       0.091147065 -0.02978924 -0.009144694 0.12492097
0000b0 5c 12 b0 3d 57 3d fe 3c a2 91 eb 3c 2d e5 41 bd
       0.08597252 0.031035108 0.028755967 -0.0473377
0000c0 11 42 9f 3d 4a 5e 88 bd 7e 1b 2f bd f3 38 07 3d
       0.07776273 -0.06658609 -0.042750828 0.033013295
0000d0 10 85 bd bc c0 f7 c4 3d 62 db 67 bb 64 cd 95 bd
       -0.023134738 0.09617567 -0.0035378565 -0.07314566
0000e0 0a 34 f1 3d c0 d2 31 3d 58 61 d7 bd ce 61 f8 3c
       0.11777504 0.043413877 -0.10516614 0.030320074
0000f0 d0 81 b0 3d 2d ab e1 3d c0 94 87 3b 47 9b b2 3d
       0.0861851 0.11018977 0.0041376054 0.08721023
000100 10 fa 65 3d 80 88 ca 3d 25 95 9f 3d 9a e3 ad bd
       0.05614668 0.098893166 0.07792119 -0.08490677
000110 34 01 d9 3c 91 07 9d bc 93 e5 9e 3d 16 88 ef 3d
       0.026489832 -0.019168647 0.077586316 0.11695878
000120 b4 7f d7 bb 43 25 ee bc 14 4a aa 3c a5 b4 ad bd
       -0.0065765027 -0.029070502 0.020787276 -0.08481721
000130 83 4f 2e 3d 93 8b dd bd 56 95 d7 bd c8 19 e7 bd
       0.042556297 -0.10817637 -0.105265304 -0.11284214
000140 1f 49 4a b8 74 88 9a 3d d9 d2 3f 3d 2c 1a 02 be
       -4.8228652e-05 0.075455576 0.04683194 -0.12705296
000150 98 9e 8f 3d da 50 6f 3c 65 24 a9 bd 31 9b a9 bd
       0.07012671 0.014606679 -0.08258895 -0.082815535
000160 b6 3f a5 bd e1 c9 57 bd c8 19 cb bd 99 a1 1f bd
       -0.080687925 -0.05268276 -0.09917027 -0.03897247
000170 54 69 ef bd 08 ed 27 3d 72 61 c9 bc d0 ea a5 3d
       -0.116900116 0.040997535 -0.024582598 0.081014276
000180 60 17 54 3d 00 52 86 bd 1c e2 12 bd d0 03 22 bd
       0.051780105 -0.06558609 -0.035860166 -0.039554417
000190 3e c9 ff bd 81 83 e5 bd 04 13 6b 3d ed b8 ba 3d
       -0.12489556 -0.11206723 0.05739118 0.09117303
0001a0 66 62 47 3d 88 af ec bd 1c bc 48 bd d1 dd 9f bd
       0.048677824 -0.115569174 -0.04900752 -0.0780598
0001b0 04 8c 56 3e 01 3e 61 3d 2d f8 83 3c 70 72 ee bd
       0.20951849 0.054990772 0.01610955 -0.11642921
0001c0 b7 10 d4 bc 28 6f 22 3d da a6 3c 3d 87 9b 6d bc
       -0.025886877 0.039656788 0.04605756 -0.014502413
0001d0 04 7d dd 3d 0a e3 de 3d 04 10 a7 bd 30 d2 3d bc
       0.108148605 0.10883148 -0.081573516 -0.011585757
0001e0 4a 46 81 bc 02 99 ec bd 01 c5 6e bc f7 2b 27 bc
       -0.015780587 -0.115526214 -0.014573337 -0.010203353
0001f0 c0 2b f5 bd 84 7e 40 3d 98 3f e9 bc 65 9b d7 3d
       -0.11971235 0.046995655 -0.028472707 0.10527686
000200 ae a9 b4 3d 14 d1 97 bd c0 60 e9 bd 70 ba e7 3d
       0.08821426 -0.07412925 -0.11395407 0.11314857
000210 dc e3 d2 bd 40 60 3f 3c 60 c9 e6 3b 3c 69 4f 3d
       -0.10297367 0.011680663 0.0070430487 0.05063747
000220 04 17 98 3d 96 be d2 3d 28 ef e2 bd 32 af d7 3d
       0.07426265 0.10290258 -0.11080772 0.10531463
000230 6e 33 e0 bd c4 4a 48 3d e0 81 e8 bc 68 12 8f 3c
       -0.109473094 0.048899427 -0.028382242 0.017464831
000240 10 48 25 3c 50 84 1b bc 8a 48 ae 3d 30 5e 04 3c
       0.010087982 -0.009491995 0.085099295 0.008079097
000250 5e cd 90 3d 48 f8 b6 3d f2 52 95 bd a0 48 b4 bc
       0.07070421 0.08934075 -0.07291211 -0.022007287
000260 d6 33 da 3d 0c a0 87 bd 30 b4 da bc 3c 6e 00 3d
       0.10654418 -0.066223234 -0.026697248 0.031355128
000270 00 89 bc 3d 04 db 67 3d 74 b5 fd bd 20 f6 a8 bd
       0.09205818 0.056605354 -0.12388125 -0.082500696
000280 1e cc cf bd 2c 3e 9d bd 74 62 4b bd 32 01 d5 3d
       -0.10146354 -0.07677874 -0.04965444 0.104006186
000290 dc 67 60 3d fc f5 06 3d 70 e0 42 bc 1e 56 f1 3d
       0.054786548 0.032949433 -0.01189433 0.11784004
0002a0 4c 21 6e bd 34 16 7e 3d 40 90 e7 bb d0 0c fd bd
       -0.058137223 0.062032893 -0.0070667565 -0.123559594
0002b0 4a 2f d0 3d ce b0 8a bd 08 c9 ec 3d 30 44 a6 bd
       0.1016527 -0.06772004 0.11561781 -0.081184745
0002c0 8c 12 7e bd c0 06 6c bb 68 2c ba bd 90 ad ef 3c
       -0.062029406 -0.0036014766 -0.09090501 0.029257566
0002d0 50 59 fa 3d d8 6d f9 3d 00 12 d7 3d b0 5e 7f 3d
       0.12224066 0.12179154 0.1050148 0.06234616
0002e0 54 ac 22 bd 96 d9 d0 bd c4 ea 08 3d 38 b2 a1 3c
       -0.039715126 -0.10197751 0.033427015 0.019738302
0002f0 4a 81 9b bd a4 6f 58 3d a4 b0 96 3d 2c 13 bc bd
       -0.07593019 0.052840844 0.0735791 -0.09183344
000300 a1 bd b0 3c c0 2d 5c bd 02 6b 0d bd b0 90 44 3d
       0.021574797 -0.053754568 -0.03452588 0.047989547
000310 d4 6b 88 3c 1e 87 ff 3d 39 e6 9d bd c3 c8 6c bd
       0.016652979 0.124769434 -0.07709927 -0.05780865
000320 6d b4 19 3d 4b 7c 27 bd 80 0f 78 3c 82 4e a4 3d
       0.037525583 -0.04089002 0.015140414 0.08022787
000330 dd e4 e1 3c 21 97 52 bd 87 8d e9 3d 00 30 44 38
       0.02757495 -0.05141366 0.11403947 4.6774745e-05
000340 7d 79 5b 3d 20 40 cf 3d d2 10 b5 3d 86 ee c2 bd
       0.053582657 0.10119653 0.08841099 -0.09518151
000350 a6 02 0b bd b4 3a 20 3c 41 d6 e1 3d 21 42 82 bd
       -0.033938073 0.009779621 0.11027194 -0.06360269
000360 b8 f6 9d 3c 26 c2 6e 3c c4 f5 6e bd dd c9 a6 3d
       0.019282684 0.014572656 -0.05833985 0.08143971
000370 1c c5 80 bd f4 92 ec bd 51 f5 8e bd ba e2 34 bd
       -0.06287596 -0.115514666 -0.06980384 -0.044161536
000380 80 f8 32 bb cb 97 1c 3e ca df 98 3d 10 2d 07 3d
       -0.0027308762 0.1529228 0.074645594 0.03300196
000390 96 65 b8 3d 4e a8 2e 3e e3 92 9f 3d b1 9b a2 bd
       0.09003751 0.1705639 0.07791688 -0.07939852
0003a0 ce 6a e4 3d 68 2b f9 3c 5a b2 af bd 2f af ad 3d
       0.11153184 0.030416206 -0.0857894 0.08480679
0003b0 19 6a 2e be ad cd f1 bd 9c 6a 9d bd b8 c4 9f bd
       -0.1703266 -0.11806808 -0.0768635 -0.07801193
0003c0 27 b0 e3 3c 98 41 70 bd 63 85 e5 3d 06 c3 b5 bd
       0.027793957 -0.058656305 0.11207082 -0.088750884
0003d0 32 4c b2 bd d9 3a 7e bd 61 56 6a bb 5e 8d d4 bd
       -0.08705939 -0.06206784 -0.0035757052 -0.10378526
0003e0 ce d5 cd bd b7 be f6 3d be 33 97 bc 83 e3 d7 3c
       -0.10050546 0.12048095 -0.01845729 0.026353603
0003f0 b6 51 c5 3d 34 8d 8f bd 14 d8 00 3d b9 f9 58 3d
       0.09634726 -0.07009354 0.03145607 0.05297253

linear2.bias f4 [64]
000000 03 52 20 be bb 1a df bd f0 6b 98 3d 40 65 4e 3e
       -0.15656285 -0.1089377 0.074424624 0.20155811
000010 ef c8 47 bd d4 bf 2f 3d 02 06 b4 bd f8 84 33 3d
       -0.04877561 0.04290755 -0.087902084 0.04382798
000020 68 11 13 bd 65 16 22 3d 80 90 24 3b 3e 17 d7 3b
       -0.03590527 0.03957214 0.0025110543 0.00656405
000030 2c 93 61 bd 0e b3 5f bd 3e 1d 74 bc d0 66 1d bd
       -0.055071995 -0.05461412 -0.01489955 -0.038428128
000040 19 ae 34 bd 94 31 be 3d 8b 67 3f 3e 1a 56 c6 bb
       -0.044111345 0.092868 0.18691842 -0.0060527446
000050 78 aa a1 3c a4 b6 f1 3d a3 4d 96 bd b0 31 6b bd
       0.019734606 0.11802414 -0.07339027 -0.057420433
000060 44 f3 ff 3d 68 4e ff 3d 8d f2 b3 b9 29 44 d4 3d
       0.12497571 0.12466127 -0.00034322255 0.10364563
000070 b1 a3 43 3e 8d 98 08 3e 30 34 2c 3d f6 57 48 bd
       0.19105412 0.13339444 0.042041957 -0.04891201
000080 16 e1 ea 3d 6c 40 99 bd b9 f4 f9 bd 42 76 ca 3d
       0.11468713 -0.074829906 -0.1220488 0.09885837
000090 2e 10 67 3c 0b cb 38 3d 8b f0 4c bd 1d d3 76 3d
       0.014102979 0.045115512 -0.050034087 0.060259927
0000a0 10 a9 be bc 1c e3 28 bd 91 89 d2 3d c4 8e f7 3d
       -0.023273975 -0.041232213 0.10280145 0.12087777
0000b0 8b c1 b7 3c 61 7b 79 bd d6 8c f5 3d 8e 94 29 bd
       0.022431156 -0.06090868 0.11989753 -0.04140144
0000c0 36 37 25 3e b2 ec aa bd dd 2d 16 3e 21 4b a9 bc
       0.16134343 -0.08345927 0.14665933 -0.020665707
0000d0 54 0e da bd 88 d0 e7 bc a8 1f 79 bd 55 fa e2 bd
       -0.10647264 -0.028297678 -0.060821205 -0.11082903
0000e0 4e c5 3f 3e fe 10 c0 3d c7 01 6b bd 30 6e f7 bd
       0.1872761 0.09378241 -0.057374742 -0.120815635
0000f0 59 39 b6 bd e0 63 b6 bc 05 45 23 3e 75 c1 25 3e
       -0.08897657 -0.022264421 0.15944298 0.16187079

linear3.weight f4 [64, 64]
000000 0a db c1 bd 28 b9 30 3d 20 92 9d 3b 58 32 a5 3c
       -0.094656065 0.04314533 0.004808679 0.020165607
000010 68 e7 36 3d 86 6e 85 3d b8 a7 ab bc 58 59 82 bd
       0.04465428 0.06515221 -0.020953998 -0.06364697
000020 fc ee 75 3d 70 01 90 bd 76 77 f8 3d 32 c8 a0 bd
       0.060042366 -0.07031524 0.1213216 -0.07850684
000030 ac c7 20 bd d4 f6 cc 3d 00 a6 c3 bb d0 51 d4 bd
       -0.039252922 0.10008016 -0.0059707165 -0.10367167
000040 18 f1 33 3d 66 11 b4 3d 8c 37 70 3d b0 c9 56 bd
       0.043931097 0.08792381 0.058646724 -0.052438438
000050 62 4c a2 bd 54 61 fb bd 7c 19 df bd e4 54 c5 3d
       -0.07924725 -0.12274423 -0.10893533 0.09635332
000060 60 cd 50 3d 5e ce b6 bd d8 2a e8 bd 74 60 55 3d
       0.05097711 -0.0892608 -0.11336297 0.052093938
000070 00 6b b1 3c ba ed 94 3d f0 3c 6a bc 40 a4 94 3d
       0.021657467 0.07271905 -0.014296755 0.07257891
000080 60 a3 d2 3c 9c b3 b0 3d d8 ab 04 3d 50 02 3b 3d
       0.025712669 0.08628008 0.032390445 0.045656502
000090 2c 0f bf 3d 1a db 8b 3d fa 58 d9 bd f2 f5 8c bd
       0.09329066 0.068289 -0.10612674 -0.06882848
0000a0 30 a0 f9 bd 02 5e f7 bd c0 af e6 bd a0 f4 ac bd
       -0.121887565 -0.120784774 -0.112639904 -0.08445096
0000b0 ce 37 bd bd 44 48 ea 3d c8 81 e7 bd 70 0c 1b bc
       -0.092391595 0.11439565 -0.11304051 -0.009463415
0000c0 1a 14 b4 bd 68 ef 1f 3d d2 99 b6 bd 58 70 84 bd
       -0.087928966 0.039046675 -0.08916058 -0.0646674
0000d0 40 93 bf bc 6a 24 bf bd d0 d6 bc 3d 20 cd 46 3d
       -0.023385644 -0.09333117 0.0922066 0.048535466
0000e0 96 67 a0 bd 2a 39 ea 3d 20 b3 6a 3c 18 55 38 bd
       -0.078322574 0.114366844 0.014324933 -0.045003027
0000f0 ee 67 82 bd 06 ae 9c bd f8 56 13 3d 68 34 81 bd
       -0.06367479 -0.0765038 0.03597161 -0.06308824
000100 f0 b6 27 3c 28 b1 06 3d 6e 77 97 bd 20 ae af bc
       0.010236487 0.032883793 -0.07395826 -0.021445334
000110 c0 1b b2 bc 50 8c 5c 3c 40 36 ad bc da be c9 bd
       -0.021741748 0.0134611875 -0.021144032 -0.09850855
000120 00 6f 4b bc f8 90 2b bd 70 09 41 bd ac b7 3c bd
       -0.012416601 -0.0418863 -0.04712814 -0.0460736
000130 ec 1d a2 3d a6 93 c7 3d 40 c6 d0 bc 26 d7 9b bd
       0.079158634 0.097449586 -0.025485158 -0.07609396
000140 fc 11 aa 3d 70 e0 7c 3c 96 42 bf 3d 2c 2f e7 3d
       0.083042115 0.015434369 0.09338872 0.11288294
000150 50 94 96 bc 06 57 eb 3d 64 83 e1 3d 7c 87 cd 3d
       -0.018381268 0.11491208 0.11011389 0.10035607
000160 2a 3e bf 3d d4 70 d0 bd e8 c0 8d 3c 60 4b b0 bd
       0.09338029 -0.1017777 0.017303899 -0.08608127
000170 b8 2b c3 bd d6 54 cf 3d 10 30 37 3d 72 0e a8 bd
       -0.09529823 0.10123603 0.04472357 -0.0820588
000180 e0 e3 fd bb a4 a2 e3 bd 62 d6 ca 3d 48 87 25 3d
       -0.007748112 -0.111150056 0.099041715 0.040412217
000190 a0 5d 48 bd d0 f3 74 bd 28 68 88 3d bc 71 95 3d
       -0.048917413 -0.05980283 0.06660491 0.07297084
0001a0 56 d5 94 bd c6 ff be bd c6 bc e9 bd 9c 23 c5 bd
       -0.07267253 -0.09326129 -0.11412959 -0.096259326
0001b0 2e 5d ef bd 00 37 36 3b a4 e1 68 3d ce 17 f1 bd
       -0.116876945 0.0027803779 0.056855813 -0.117721185
0001c0 7a 0b ce bd 6a 25 80 bd 30 d4 10 3c c4 2e b7 bd
       -0.10060783 -0.06257136 0.008839652 -0.08944467
0001d0 60 05 cb 3d 98 b6 7a 3d c0 29 b1 bc dc 0e 60 bd
       0.099131346 0.06120929 -0.021626353 -0.05470167
0001e0 a4 52 1d bd dc 5c 88 3d d0 fa 68 bc 80 e1 24 bb
       -0.03840889 0.066583365 -0.014219955 -0.0025158823
0001f0 b8 4f 15 bd 98 64 dd bc f6 57 8d bd a0 92 1b 3c
       -0.03645298 -0.027025506 -0.06901543 0.009495407
000200 1b 5d 9d 3d 3d 3f b7 bd 88 ec 9d 3d 39 a7 18 3e
       0.07683774 -0.089476086 0.077111304 0.1490754
000210 89 24 cc 3d d2 b1 f5 bd 00 f6 57 3b 16 96 c7 bc
       0.09967906 -0.11996807 0.0032953024 -0.024363559
000220 a0 f8 87 3b af 6c 29 bd bc 78 60 3d 7d b9 ca 3d
       0.0041495115 -0.041363414 0.05480264 0.0989866
000230 e0 07 04 3c 51 f5 9c bd 1c de 07 bc a0 15 4b 3c
       0.008058518 -0.07663978 -0.008292701 0.0123952925
000240 e4 f2 c1 3d c1 0c 68 3d f3 b6 ab 3d fa e4 a5 3d
       0.09470156 0.056652788 0.08384504 0.081003144
000250 94 85 0e bd c8 1c 9a 3d 54 64 53 bd ec 91 b4 3d
       -0.03479536 0.07525021 -0.051609352 0.08816895
000260 46 1a 8c 3d ef 80 a1 bc d6 21 03 3e 38 d6 bb bd
       0.06840949 -0.0197148 0.12805876 -0.09171718
000270 92 98 9f 3d 4e 9c bb 3d 80 a1 0b 3b 78 c6 f6 3d
       0.07792772 0.09160672 0.0021305978 0.12049574
000280 ae 9e c2 bd da d2 b9 3d 2a c6 92 3d 05 58 41 bd
       -0.09502922 0.0907342 0.07166703 -0.047203083
000290 b3 4a b0 bd b4 ce 27 3e 59 54 bc 3b 32 c6 a9 3d
       -0.08607998 0.16387445 0.0057473597 0.08289756
0002a0 e0 7e 6c bd fc 98 f9 3d 6d cb 52 bd d6 7f 8a 3d
       -0.057738185 0.121873826 -0.051463533 0.06762664
0002b0 e7 f2 56 3b 57 df 6c 3d ae 2e 31 bc 53 66 8c bd
       0.003279859 0.05783018 -0.010814352 -0.06855454
0002c0 db ad 79 bc 9b 8b 2e 3d 4b 80 9f bd 23 bf 02 3d
       -0.015239204 0.042613607 -0.07788142 0.031920563
0002d0 44 3d 9f bd fa ad c0 bd 84 d6 95 bd fa e8 b1 bd
       -0.07775357 -0.094081834 -0.07316306 -0.08687015
0002e0 1a 55 07 3e 55 26 a4 3b 3e 4d b2 bd 40 83 0c 3c
       0.13216057 0.0050094523 -0.08706139 0.008576214
0002f0 ac f1 b8 bd f0 78 26 3c cd 00 a2 3d 71 7e da bd
       -0.0903047 0.01016067 0.07910309 -0.10668648
000300 e4 a1 ff 3d 88 73 dc bd 78 a3 3d bd b0 43 48 bd
       0.1248205 -0.10764223 -0.046298474 -0.048892677
000310 c8 f4 c1 bc f8 b1 92 3d e4 01 40 3d 70 44 8a bd
       -0.023676291 0.07162851 0.046876803 -0.06751335
000320 88 2b bb 3d 34 0d 3a bd 38 99 41 bd 60 e2 51 bc
       0.09139162 -0.045422748 -0.04726526 -0.01281032
000330 14 fa d6 3d b8 5a bb bd 1a d6 91 3d 80 45 a1 3b
       0.10496917 -0.091481626 0.07120915 0.004921615
000340 5c 85 e6 3d 82 46 b4 bd 58 a6 91 3d ec 5e 3a 3d
       0.11255905 -0.08802511 0.07111806 0.04550068
000350 1e 53 8b 3d 70 24 90 3c 0a e8 e8 3d f8 3d 6d 3d
       0.06802963 0.0175955 0.11372383 0.057920426
000360 00 3a 81 bb fc 53 21 3d 2a 96 92 bd 08 58 b6 3c
       -0.0039436817 0.039386734 -0.07157548 0.022258773
000370 42 9d 84 3d 78 c9 82 bd dc b6 15 bd f8 e4 c0 bd
       0.06475307 -0.06386083 -0.03655134 -0.09418672
000380 a0 f6 22 bc 28 8e 8f bc a0 7c 2c bd fc 78 14 3d
       -0.009946495 -0.01752384 -0.04211104 0.036248192
000390 38 3f 95 3c e0 8b e3 bd 20 a1 ca bd 18 8c 3a bd
       0.018218622 -0.111106634 -0.098940134 -0.04554376
0003a0 70 c9 58 3d e8 d6 a0 bc 8a e6 c0 bd 54 bc 33 bd
       0.05292648 -0.019633725 -0.09418972 -0.043880776
0003b0 88 5e bf 3d 08 66 5c bd 70 4d f0 bd 90 a5 39 3d
       0.09344202 -0.053808242 -0.1173352 0.04532391
0003c0 08 e2 bd 3c f0 6e bb 3d 30 4e 34 bc 30 95 6d 3d
       0.02317907 0.09152019 -0.0110049695 0.058003604
0003d0 8c 61 cf bd d8 2f e4 bc aa e2 f1 3d 64 b7 e5 3d
       -0.101260275 -0.027854845 0.11810811 0.112166196
0003e0 10 83 b0 bc ac 43 bc bd c8 20 92 3d ba 03 b4 3d
       -0.02154687 -0.09192595 0.07135159 0.08789773
0003f0 7e 2a ed bd 0c 72 3c 3d 00 eb dc bb d6 bf ed 3d
       -0.1158037 0.0460072 -0.0067418814 0.116088554

linear3.bias f4 [64]
000000 a0 d6 46 3d 50 9d 61 3d 46 e8 35 3e d0 39 1b bc
       0.048544526 0.055081666 0.17764387 -0.009474233
000010 c4 04 e4 bd 11 a2 b9 3d 59 91 d7 3d 18 b2 69 bd
       -0.111337215 0.09064115 0.1052577 -0.05705461
000020 5a 01 86 bd 32 9c c8 bd 28 7c e4 bd da e3 2e 3c
       -0.065432265 -0.09795417 -0.111564934 0.010674441
000030 52 25 a8 bd f7 1e 0c be e0 27 84 bb d0 a2 81 3d
       -0.08210243 -0.13683687 -0.004033074 0.06329882
000040 19 90 24 3e 99 1a db bd de bd a1 3c 08 fd c2 3d
       0.16070594 -0.106984325 0.019743856 0.09520918
000050 9c 54 4b bd a4 dd b8 bd 2b bd bf 3c 3e df 84 bd
       -0.049641237 -0.090266496 0.023405632 -0.064878926
000060 bc 8f cf bd df a2 f8 bd f6 ea 9d 3a 34 98 da 3d
       -0.10134837 -0.1214044 0.0012048173 0.10673562
000070 21 6d 28 3e 30 9d ca 3d 2c 4d 18 3e c8 1c b8 3c
       0.1644788 0.098932624 0.14873189 0.022474661
000080 34 9b 04 3e 71 09 f8 3a 94 5f d6 3d 8f e3 96 3d
       0.1294983 0.0018923712 0.10467449 0.07367622
000090 c3 6c 4f 3c f1 9a d4 bd e7 99 29 3b 64 be f8 bd
       0.012660208 -0.10381115 0.0025879086 -0.12145689
0000a0 b2 af 85 bd f3 05 32 bd 43 7b cf 3b 07 17 cc 3d
       -0.06527652 -0.043462705 0.0063318326 0.099653296
0000b0 1d b0 42 3e 7e 6a c5 3c 55 9a a5 3c 8a ba b6 3d
       0.19012494 0.024098631 0.020215193 0.08922298
0000c0 f6 ad 75 3d a8 42 c9 3c f0 0a 23 3d e8 e4 1a 3b
       0.059980355 0.024567917 0.039805353 0.0023634974
0000d0 e8 c0 e3 bd eb f2 d9 bb f8 8b b8 3d 05 2b 25 bd
       -0.11120778 -0.0066512725 0.09011072 -0.04032423
0000e0 27 29 98 3d 5e 97 18 3d 75 39 21 be 92 20 9f bc
       0.07429724 0.03725373 -0.15744574 -0.01942471
0000f0 a9 ed b5 3d 38 89 c8 bc 76 c8 f9 bd 49 d5 a2 bd
       0.08883221 -0.024479493 -0.12196438 -0.07950837

linear4.weight f4 [64, 64]
000000 d0 66 d1 3c b0 e4 87 bc cd 00 2d bc 4c 33 7e bd
       0.02556172 -0.016588539 -0.010559273 -0.06206064
000010 e0 e6 5c bc 0b b2 e1 3d 40 91 17 3d fd 0b d8 bd
       -0.013482779 0.11020287 0.037003756 -0.105491616
000020 00 09 0a bd c8 18 d6 bd 4c 5f 82 bd 62 16 dc 3c
       -0.03369999 -0.104539454 -0.06365833 0.026866142
000030 30 e6 7f bc 0f f0 3c bc 90 d9 3b 3c 0f d3 0e be
       -0.015618846 -0.011531844 0.011465445 -0.139477
000040 4f 6c 7c bc b5 11 d1 bd 5b 68 00 bd f0 a3 11 3d
       -0.015406682 -0.102084555 -0.03134952 0.035556734
000050 50 3b 97 bd 80 70 4e bd 46 4c bf bd 20 3f a0 bb
       -0.0738436 -0.050400257 -0.0934072 -0.0048903376
000060 d6 24 87 bd e0 c4 88 3d 38 e9 f6 bd b7 7c a5 bc
       -0.06598823 0.06678176 -0.12056202 -0.02020107
000070 32 59 0e 3e eb 01 cb 3d 95 70 96 bd 4a 1e d4 3d
       0.13901213 0.09912475 -0.07345692 0.1035734
000080 c4 b3 d1 3d 76 98 c3 3d 25 17 9c 3d 57 8f e6 bd
       0.10239366 0.09550564 0.07621602 -0.11257809
000090 ea 1b 16 3d f9 82 49 bd ba 4b a7 3d 00 19 e6 ba
       0.036647715 -0.04919717 0.081687406 -0.0017555058
0000a0 e5 f3 89 bc 00 e7 86 bd 0c c3 92 bd 03 0c ab bd
       -0.01683993 -0.065870285 -0.071661085 -0.083519004
0000b0 7e 94 36 bd 9b 46 2c bd d6 9b de bd ec 62 80 bd
       -0.044575207 -0.042059522 -0.10869567 -0.06268868
0000c0 53 8c c5 bd 62 74 ec 3d dc 54 57 3d 08 d2 2f bd
       -0.09645905 0.11545636 0.052571163 -0.04292491
0000d0 a0 46 b5 bb 00 5a 38 3d 32 f9 eb 3d f4 19 5e ba
       -0.005532101 0.045007706 0.115221396 -0.0008472495
0000e0 19 1d a8 3c 37 d0 9a bd 5b 76 ff bd dd c3 ec 3d
       0.020521687 -0.07559245 -0.124737464 0.115607955
0000f0 0c 32 4f bc db 79 7a 3b 44 2e 54 3d c1 9c a8 3d
       -0.012646209 0.0038219604 0.051801935 0.082330234
000100 10 ee 97 3c c4 b4 ca 3d d2 93 1c 3d b8 8d 21 bd
       0.018546134 0.098977596 0.03822691 -0.039441794
000110 ec 2c b8 bd 5c 59 04 3e 44 be 28 3d 7b ad 69 3d
       -0.08992943 0.12924713 0.041197076 0.05705021
000120 87 a5 af bd 57 57 56 3d 0a 06 ba 3d 60 89 9d bd
       -0.08576494 0.052329388 0.09083183 -0.07692218
000130 b0 08 67 3d ea be 15 bd b8 e4 b4 3c dc 88 94 bd
       0.05640477 -0.036559023 0.022081718 -0.07252666
000140 d9 81 b0 3c 8c 1e ae bd ac 19 f3 bd 78 60 43 3d
       0.021546291 -0.0850192 -0.11870131 0.04769942
000150 3e a1 ff bd f0 b7 0b 3c b6 31 a3 bc c8 68 ba bc
       -0.124819264 0.008527741 -0.019921165 -0.022755042
000160 6c f7 95 3d 03 be 3d bd a6 53 85 3d 32 c6 64 bc
       0.073225826 -0.046323787 0.06510095 -0.013963269
000170 e8 d1 de bd 89 da bb bd 66 72 e3 3c 88 54 b1 3c
       -0.1087988 -0.09172542 0.02776451 0.021646753
000180 ae 5d c3 3c 3e 52 ab 3d 4f 9e fe bd 21 2f c8 3d
       0.02384838 0.08365296 -0.12432539 0.09774614
000190 2b 80 be 3d ac 25 76 3d 10 57 2a bd 3c bd be bd
       0.0930179 0.06009452 -0.041586936 -0.09313437
0001a0 18 f2 fb bd 0f 96 20 3d e9 22 7e 3d e1 4c a1 3d
       -0.12302035 0.039205607 0.06204501 0.078759916
0001b0 5b 94 54 bc 46 49 ee 3d 9f 26 ff bc 66 cf 1c 3d
       -0.012974824 0.116350695 -0.031146346 0.038283728
0001c0 05 f3 83 3d 02 5f d5 3d db 1e 7c 3c 3b 49 f6 bc
       0.06442837 0.10418512 0.015388216 -0.030064216
0001d0 70 00 2c 3d b4 e4 a5 3d 58 41 be bd 52 ed c1 3d
       0.041992605 0.08100262 -0.09289807 0.094690934
0001e0 fc bf 40 3d 58 1a fc 3c 68 32 a5 3b 23 7d a4 bd
       0.04705809 0.03077428 0.0050414093 -0.080316804
0001f0 ac b3 82 3c 64 63 81 bd f0 21 86 3d 94 70 dc bd
       0.015954815 -0.063177854 0.06549442 -0.1076366
000200 36 aa b8 bd ee b8 85 bd 70 2f fa 3d e0 37 a3 bc
       -0.0901684 -0.06529413 0.12216079 -0.019924104
000210 64 f0 08 bd 10 d2 b4 3d 75 c1 7a bd 28 81 59 bc
       -0.03343238 0.08829129 -0.06121965 -0.013275422
000220 21 19 ac bc 26 e2 69 bd 7d b1 54 3d 9e b0 d7 3d
       -0.021008076 -0.057100438 0.05192708 0.10531734
000230 00 ea aa bb 50 62 58 3d 9a 65 bd bd be 14 8a 3d
       -0.0052158833 0.052828133 -0.092478946 0.067422375
000240 9a 31 c5 bd 36 52 b9 bd 5a e9 74 3d 56 3e 85 bd
       -0.09628601 -0.090488836 0.059792854 -0.0650603
000250 08 ac fd bd 1c 87 0e 3d 0f c4 8f 3c 8e 77 81 3d
       -0.12386328 0.03479682 0.017549543 0.06321631
000260 38 63 6e bd e3 82 08 3c 93 fd 9a bd 92 49 fd 3d
       -0.05820009 0.008331987 -0.07567897 0.12367548
000270 4e 9b 96 bd 55 2a 26 3e f7 d9 04 3d 84 f8 f9 bd
       -0.07353841 0.16227086 0.03243443 -0.12205604
000280 ed 6b 9f bb 4a 67 cd 3d a0 d0 a3 bd 68 8a c8 bd
       -0.0048651607 0.100294665 -0.079987764 -0.09792024
000290 43 50 a0 3c 99 b1 d1 bd 07 cc f4 3d 60 2e 17 bd
       0.019569522 -0.10238952 0.11952978 -0.03690946
0002a0 1b 5e 17 3d a0 2d 92 bc 14 64 32 3d f4 0a 23 bd
       0.03695498 -0.017844021 0.043552473 -0.039805368
0002b0 06 0f e3 3c 96 aa a7 bd 16 31 82 3d 3d 43 23 3d
       0.027717125 -0.081868336 0.06357019 0.039859045
0002c0 a2 2d ef 3d 84 3d 33 bd 22 16 0a bd 34 db 03 3e
       0.11678626 -0.043759838 -0.033712514 0.12876588
0002d0 d8 08 e6 3c f5 9a 61 bd 06 f5 8d 3d 28 2a f9 3d
       0.028080389 -0.05507942 0.069315 0.12166244
0002e0 da 6e e5 bd d9 44 3d 3d 5e f6 28 3d 18 ad 02 3e
       -0.11202784 0.046208236 0.04125058 0.12761343
0002f0 31 76 7f bd d1 63 14 bd 28 32 63 3d 6d 3b d9 bc
       -0.062368575 -0.036228005 0.055467755 -0.026517594
000300 00 7a 78 ba 10 b5 96 3c b2 e5 82 bd 9c e6 2a bd
       -0.00094786286 0.018396884 -0.06391467 -0.041723832
000310 f6 1f a3 3d c8 7a c0 bc 64 1a c6 bd c0 e6 2c 3d
       0.079650804 -0.023496047 -0.09673002 0.042212248
000320 04 bb 29 bd dc 3d c6 bd 6e 5a cf 3d b0 ab 38 bd
       -0.041438118 -0.096797675 0.1012467 -0.04508561
000330 d0 fb c3 3d 80 7a 49 3d e0 62 07 bd c8 da e0 bc
       0.09569514 0.04918909 -0.03305328 -0.027448073
000340 a0 c4 53 bc 48 3b 01 3d 1a 7a 94 3d d8 63 78 3d
       -0.012925297 0.031550676 0.072498515 0.060642093
000350 2a 40 a0 3d d8 a3 c6 bd f0 a7 2d bd 90 6f 64 3c
       0.07824738 -0.096992195 -0.042396486 0.013942614
000360 98 af 87 bd c4 75 93 bd 80 33 27 3c 16 f6 fb bd
       -0.06625289 -0.072001964 0.01020515 -0.123027965
000370 ae e5 f4 bd 44 6e da bd 44 76 8b 3d 34 72 e0 3d
       -0.119578704 -0.10665563 0.06809667 0.109592825
000380 62 99 fe bd 76 98 c0 bd 94 34 97 3d e8 d8 3c bd
       -0.12431599 -0.094040796 0.07383075 -0.046105295
000390 54 b4 88 3d 28 9f 28 3d c0 d9 52 bd 00 79 af bb
       0.0667502 0.04116741 -0.051477194 -0.0053550005
0003a0 a8 30 97 3c 88 14 0b bd 00 cf 5f bc aa 32 d5 bd
       0.018455818 -0.033955127 -0.0136601925 -0.10410054
0003b0 20 ce f8 bd 10 47 c6 3d 80 77 17 bb 5c d8 18 bd
       -0.1214869 0.09681523 -0.0023112 -0.03731571
0003c0 e4 ff 95 3d 52 14 98 bd bc 80 13 bd 08 1f c1 3c
       0.07324198 -0.07425751 -0.036011443 0.023574367
0003d0 6c 4b 40 bd 32 82 d1 bd 74 98 67 bd 14 01 1c bd
       -0.046946928 -0.10229911 -0.056541875 -0.038086966
0003e0 84 ae c3 bd 78 bd e4 3c 28 7e 9f 3d 30 44 de bc
       -0.095547706 0.027922377 0.07787734 -0.027132124
0003f0 e0 9d b9 bb 7c 59 24 bd 20 53 d6 bd 2a 6d 94 3d
       -0.005664572 -0.0401244 -0.104650736 0.07247384

linear4.bias f4 [64]
000000 56 50 03 3e 87 fe a8 3d af 40 d1 b9 9c 45 04 bd
       0.12823614 0.08251672 -0.0003991178 -0.032292947
000010 82 45 8f bd 3a 17 b8 bd b7 84 2c 3e fe b7 10 3e
       -0.069956794 -0.08988805 0.16847502 0.14132687
000020 f4 b5 cc 3c 5a 05 2c 3e b2 87 72 3d 12 5f ac 3d
       0.024989106 0.16798916 0.05921144 0.08416571
000030 87 59 1f bb f8 65 5e bc c9 f9 6e 3b 9b c0 d2 3b
       -0.0024314837 -0.013574116 0.0036464802 0.006431652
000040 91 f5 08 bd 83 d2 33 bd 85 27 39 3e 29 d8 c0 3d
       -0.033437315 -0.04390193 0.18081482 0.09416229
000050 d5 b6 b3 3d 44 92 f3 bd 3a c7 13 3e af 89 8f 3d
       0.08775107 -0.11893132 0.14431468 0.07008683
000060 2a 22 5d 3a a4 9f f8 3d b2 4a c1 bd 28 c8 72 bd
       0.0008435572 0.12139824 -0.09438075 -0.059272915
000070 1e 5c e0 3d 60 e8 ce 3d c2 0a a9 bd a8 d8 aa 3d
       0.1095507 0.10102916 -0.08254005 0.08342105
000080 0f 44 59 3d b7 56 05 3e 43 9b 1f 3d ce ce 5e 3d
       0.05304342 0.1302136 0.03896643 0.054396443
000090 d2 e3 69 3b 2a 4a ae bd a2 73 1b bb 10 f3 27 3c
       0.003568877 -0.085102394 -0.0023720046 0.010250822
0000a0 dd fe b7 bd 34 06 dc bd 4a 1b 9c 3d 38 64 ac bd
       -0.08984158 -0.10743371 0.076223925 -0.08417553
0000b0 46 0f e8 3d 01 97 b2 3d 0e 64 25 3e ff 28 ac bd
       0.11331038 0.08720208 0.16151449 -0.08406257
0000c0 39 9b ba bc c1 7a c5 3c 31 d5 ec 3d 32 6e 64 bd
       -0.022779094 0.024106385 0.115641005 -0.055769153
0000d0 17 33 5a 3d b1 bb 63 3d 46 09 73 bd 6a 21 c8 3d
       0.05327138 0.05559892 -0.059335016 0.09771998
0000e0 9c df 66 bd be b4 0c bc c2 b3 64 bd 71 72 a7 bc
       -0.056365594 -0.008588014 -0.055835493 -0.020440312
0000f0 25 cb 40 bd 91 2a 9e bd 27 bc dc 3d 86 9c f0 3d
       -0.047068734 -0.07722963 0.10778075 0.117486045

mean_linear.weight f4 [2, 64]
000000 b7 f3 fa 3c b9 04 30 bb 1b 5a 2d 3c 75 1a 20 3a
       0.03063379 -0.0026858284 0.010580565 0.0006107458
000010 ec 77 5d 3b bf 5f 38 3a 19 58 e9 3c f1 0c 6f 3c
       0.0033793403 0.000703331 0.028484391 0.014590488
000020 1c 84 56 bc 87 97 94 3c b6 c7 2b ba dd 66 8d 3c
       -0.013093021 0.01813866 -0.00065528916 0.017260963
000030 32 45 f1 3b 3d e4 80 3c 0e 45 0f 3c d4 cb e5 ba
       0.007362985 0.015733832 0.008744491 -0.0017532059
000040 96 60 8d ba 98 06 16 b9 86 12 0f 3d c9 aa da 3c
       -0.0010786231 -0.00014307571 0.034929775 0.026692765
000050 ae 7c d4 3c e4 ec 46 ba 85 ad e8 3c 26 97 1f bc
       0.025938358 -0.00075884 0.028403053 -0.009740626
000060 f8 cb 1a 3a f2 24 ca ba 2b 86 8e ba 0d f5 67 3c
       0.00059050275 -0.0015422388 -0.0010873725 0.014157546
000070 b6 ce aa ba d9 b8 c8 3c 4d 0f 6b b9 15 97 40 bb
       -0.0013031575 0.024502205 -0.00022417046 -0.0029386927
000080 3a 05 d3 3c 3f d6 b6 3c a1 0d 87 3c 30 46 26 3c
       0.025759328 0.022318957 0.016485991 0.01014857
000090 88 dc 10 3c 11 7b ce 3c cf 95 5d 3c 7a b4 8e 3a
       0.008841641 0.025205167 0.013524487 0.0010887526
0000a0 a5 83 ac ba a8 86 e9 b7 f0 38 42 bc 2a 10 1f 3b
       -0.0013161792 -2.7838469e-05 -0.011854395 0.002427111
0000b0 c4 7f a8 3c 15 e3 b2 bb 84 6a e5 3c 7d dc 63 39
       0.020568736 -0.005459199 0.028004892 0.00021730545
0000c0 a0 d7 1f 3b 5e 02 85 3c 57 6f 8e 3c 42 a1 75 bc
       0.0024389997 0.01623648 0.017387075 -0.01499206
0000d0 3f 7b b4 3c 8e 1c d7 3c 6b 13 cd 3b 54 4e 76 3c
       0.022031425 0.026258733 0.0062584183 0.015033323
0000e0 c1 25 81 3a 4c f6 6b 3b b1 0c c1 3c 4a b5 4e bc
       0.000985317 0.0036004959 0.023565622 -0.012616465
0000f0 27 97 20 3b 8b 8c e1 3a ba d8 e6 ba e5 a8 5d 39
       0.0024504156 0.0017208023 -0.0017612197 0.0002113912
000100 53 bc 01 3d d7 65 56 3c 0c 66 5c 3c 2d 65 06 ba
       0.03167374 0.013085804 0.013452064 -0.00051267707
000110 7e d1 3e 3b bf 45 93 ba 12 a0 e7 3c 28 90 81 3c
       0.0029116566 -0.0011235996 0.02827457 0.01581581
000120 f0 0d a0 3c ea bd a7 3c 46 73 06 bb 18 99 7f 3c
       0.019537896 0.0204763 -0.0020515486 0.015600465
000130 93 23 60 3c e0 cb 5f 3c 95 24 2e 3c c2 0f ec 3b
       0.013680357 0.013659447 0.010628839 0.007204027
000140 b8 f9 83 39 df d4 69 3a 36 6e 1b 3d b5 24 d1 3c
       0.00025172322 0.0008919965 0.037946902 0.025530199
000150 2e f1 e9 3c 24 6b 9f 3a bd 60 d3 3c b5 d2 1e bc
       0.028557386 0.0012162668 0.025802964 -0.009693791
000160 d6 0b 70 3b 06 45 8d 39 48 72 83 3a 12 3c 29 3c
       0.0036628149 0.00026945042 0.0010028565 0.010329263
000170 bc 06 93 3c d7 f5 cb 3c 2c e5 6c bb ed 4e 02 3b
       0.017947547 0.024897499 -0.003614734 0.001988347
000180 68 40 f5 3c 1e 0d ad 3c 43 ba 56 3c bb 2d 21 3c
       0.029937938 0.021124419 0.013105932 0.009837563
000190 ee e9 0d 3c b5 5f e4 3c a5 d8 95 3c a2 23 06 3b
       0.00866173 0.027877668 0.01829178 0.0020468016
0001a0 49 c9 55 3b 0e f5 d7 ba ce 51 cc bb 84 8e 1b bb
       0.0032621196 -0.001647623 -0.006235338 -0.002373607
0001b0 5d 24 9b 3c fe 49 77 bb 71 7e 0c 3d 87 52 15 3a
       0.018938238 -0.0037733312 0.03430027 0.00056961965
0001c0 3a a3 20 3b 69 2d 6b 3c 5b 7f 81 3c 0f 3d 45 bc
       0.0024511353 0.014354088 0.015807798 -0.012038483
0001d0 71 e3 ac 3c c7 ee 08 3d 55 3e c4 3b e6 d2 9a 3c
       0.021104546 0.03343084 0.005988876 0.018899392
0001e0 44 b7 55 ba 24 93 c9 3a 04 d0 b2 3c 0c 8e 4d bb
       -0.0008152614 0.0015378934 0.021827705 -0.0031365184
0001f0 04 03 53 bb 0a 98 7d ba d2 eb f1 ba 87 f9 a4 3a
       -0.0032197842 -0.00096738397 -0.0018457121 0.0012586572

mean_linear.bias f4 [2]
000000 1b 00 e2 3c fd 02 1a 3d
       0.02758794 0.037600506

log_std_linear.weight f4 [2, 64]
000000 90 25 8b bc 51 ef a2 bb a6 43 99 bb f8 f7 ed ba
       -0.016985685 -0.0049723764 -0.004677254 -0.0018155565
000010 16 63 15 bb ba ba 47 ba 70 09 24 bc c9 2f e3 bb
       -0.0022794656 -0.0007619072 -0.010012016 -0.0069331867
000020 c5 a6 38 3a 81 b1 da bb b3 3c 31 ba de 26 a9 bb
       0.00070438936 -0.006673992 -0.0006761059 -0.005162104
000030 dd 37 b8 bb 43 6c d1 bb 20 26 f5 bb 01 14 ab 3b
       -0.005621894 -0.0063910796 -0.0074813515 0.0052208905
000040 8f 06 fa bb 07 69 ed 3b 3f 55 6b bc e7 3e 02 bc
       -0.0076301764 0.0072451863 -0.014363586 -0.007949567
000050 14 04 24 bc ab 3c 8d 3b eb 16 06 bc f4 44 0a bc
       -0.010010738 0.0043102107 -0.008184175 -0.008439291
000060 d1 e5 c2 ba 44 9b fd 3a 8d b6 c1 3a 25 6f 73 bb
       -0.0014869516 0.0019348641 0.0014779136 -0.0037145105
000070 ab ab 36 bb 86 8c d9 bb b6 fb 93 b9 8e 70 58 ba
       -0.0027873318 -0.006639066 -0.00028225564 -0.0008256518
000080 60 ad 1b bc de bc ec bb a6 1f 34 bb 59 4a 62 bb
       -0.009501785 -0.007224663 -0.0027484684 -0.0034529178
000090 b5 6c 9b bb f4 67 6f 3a 13 d9 06 bb 7d c2 39 bb
       -0.0047431835 0.00091326167 -0.0020576164 -0.0028344684
0000a0 c6 79 bc 3b 87 d6 3c bb df b8 f1 bb 10 1a 42 3b
       0.005751821 -0.0028814392 -0.0073767747 0.0029617585
0000b0 a3 0c 07 bc 5f df 12 3c 34 69 90 bc 06 bc 38 3a
       -0.008242759 0.008964389 -0.01762829 0.00070470606
0000c0 6a 5c 3d bb 79 15 a7 bb a9 82 63 bb 22 a0 07 bc
       -0.0028894194 -0.0050989953 -0.003471533 -0.008277925
0000d0 62 42 b4 bb 78 aa 1f bc 5e 4c 87 bb 2d 48 b5 bb
       -0.0055010775 -0.009745233 -0.0041289767 -0.0055322857
0000e0 c6 bd e3 3a 79 26 67 b8 e1 99 9d bb 31 e7 cc bb
       0.0017375282 -5.5110522e-05 -0.0048096036 -0.006253146
0000f0 b3 da d5 b9 40 16 a5 3a 12 94 9b bb ed de 21 bc
       -0.0004078947 0.0012595132 -0.004747876 -0.00987981
000100 00 da 90 bc d6 e5 01 bc 3e 43 2d 3b 6b 08 5a ba
       -0.017682076 -0.007928332 0.0026437785 -0.00083172944
000110 77 1b 91 3a ee ba b3 ba ab 95 64 bc d3 44 1d bc
       0.0011070807 -0.0013712326 -0.013951699 -0.0095989285
000120 ee b2 37 bc af 30 34 bc 56 5b 87 bb 9d 9e c8 bb
       -0.011212094 -0.010997935 -0.004130761 -0.006122424
000130 1d f4 84 bb 46 83 af 3a 91 b3 8d bb ab 2a 01 3a
       -0.004057421 0.0013390563 -0.0043243845 0.00049273175
000140 8d bb b1 bc 98 75 bb ba 41 85 85 bc bf 07 96 bc
       -0.021695876 -0.0014302013 -0.016298892 -0.01831424
000150 16 4b 06 bc 0a ee 16 3b 4b cd 8f bc b9 30 46 bb
       -0.008196613 0.0023030066 -0.017553946 -0.0030241443
000160 5c dc ac bb c5 67 e6 ba 19 6b 9d ba fa 88 70 bb
       -0.0052752923 -0.0017578533 -0.0012010067 -0.0036702738
000170 f2 ed 0f bc d2 ac 4d bc db ab 5f ba 70 cb 8e 3a
       -0.008784758 -0.012553411 -0.00085323834 0.0010894369
000180 41 79 9f bc 0f 65 c8 bb b8 fb cb b9 d0 27 48 3b
       -0.019466998 -0.0061155627 -0.00038906722 0.0030541308
000190 2a d7 d1 bb ad fd 4e bb 67 16 96 bb 00 9a 12 ba
       -0.0064038234 -0.0031584308 -0.0045803073 -0.0005592406
0001a0 8a 2f 77 bb 08 0c 2e 3b ce ee 07 bc 2d cc ee 39
       -0.0037717544 0.0026557464 -0.008296682 0.0004554702
0001b0 de ab 08 bc b6 30 df 3b 22 a3 c0 bc 1a a8 80 3b
       -0.008341758 0.0068112267 -0.023515288 0.0039262893
0001c0 fc 65 25 bb bb 3f 8a bb bf 42 be ba 63 b6 20 bc
       -0.002523779 -0.004219023 -0.0014515741 -0.009809109
0001d0 de bc 9d bb 95 15 e7 bb 06 15 9a bc 08 f0 fa bb
       -0.0048137745 -0.0070521333 -0.018808853 -0.0076580085
0001e0 01 52 ac 3a e6 3c 44 ba cb dd 1b bb 9d 37 82 bb
       0.0013146998 -0.0007485881 -0.0023783322 -0.003973915
0001f0 c6 8b a0 3a c9 82 06 3b 11 c5 c9 b9 cb 10 10 bc
       0.0012248687 0.0020524731 -0.00038484533 -0.008793066

log_std_linear.bias f4 [2]
000000 59 69 93 bc 90 98 a6 bc
       -0.01799457 -0.02033642
