models/noCBF_2025-11-17 19:59:15/1/Q1.pth (torch, 37764 bytes, 7 tensors)

linear1.weight f4 [64, 5]
000000 71 de 1c be 41 76 be be 03 df ea bd 7c 92 b0 be
       -0.1531923 -0.37199596 -0.11468317 -0.3448676
000010 22 61 1b bf 9f ca 83 3e 14 f5 67 3e 97 ed 46 3e
       -0.6069509 0.25740525 0.22652084 0.19426571
000020 20 9f 22 3e a6 07 dc bc dd ee 8e be 27 67 29 3d
       0.15881014 -0.026859116 -0.27916613 0.04135814
000030 e4 5a b2 3e 83 02 98 be 71 e5 34 be 7a 1d 0a 3e
       0.3483497 -0.29689416 -0.1766565 0.13487807
000040 5e cd aa 3e 11 11 d0 be 5e b4 09 3e d9 2a a8 be
       0.33359808 -0.4063802 0.13447711 -0.3284519
000050 fa e4 89 3d 7b 67 80 3e d1 43 95 3e 27 db 88 3e
       0.06733127 0.2507895 0.29153302 0.267297
000060 62 25 ab 3e 3f 31 8f 3e 29 8f 87 3e 86 ca 52 bd
       0.33426958 0.2796726 0.2647641 -0.051462673
000070 cc 8f 84 3e fb ff bc bd ba 2f 50 be a1 5a 6b 3e
       0.25890958 -0.09228512 -0.20330706 0.22983791
000080 c7 1f ff 3d e5 36 10 be cb 8e 06 bc ef 1f ce 3e
       0.12457233 -0.1408344 -0.008212755 0.40258738
000090 6c d8 46 bd 2a d9 99 be f7 f1 a9 3e dd 90 71 3e
       -0.04854624 -0.30048496 0.33192417 0.23590417
0000a0 04 65 c0 3d ae 29 e3 be 5c 98 bc 3e f4 f6 9f 3e
       0.09394267 -0.44367737 0.3683499 0.31243098
0000b0 8f c6 13 bf 1f ee e4 be e3 a4 3b be 83 a1 e2 bd
       -0.5772485 -0.44712922 -0.18324618 -0.11065962
0000c0 e5 1c 2a bb 15 97 64 bd 58 6e 55 3c df 34 0f be
       -0.0025957164 -0.055808146 0.013026796 -0.13985012
0000d0 ab 89 0c 3e b0 6a 56 3e 6f 18 68 3e 77 6d be be
       0.13724391 0.20939136 0.2266557 -0.3719289
0000e0 ed 84 c7 3e 81 8a b5 3e af 4f 12 3c c2 29 09 bd
       0.38968602 0.35457233 0.008930131 -0.03348709
0000f0 87 0e be 3e d6 5b aa be 1f b5 ca be e5 43 39 3c
       0.37120458 -0.3327319 -0.3959131 0.011307691
000100 ae 2f b4 3e f8 0c 0a 3d 91 98 83 3e d3 fc ac 3e
       0.35192627 0.033703774 0.25702336 0.3378664
000110 28 3d 9a 3e d8 37 a2 be 05 c2 5e bd 8e 70 f2 be
       0.30124784 -0.3168323 -0.05438425 -0.47351497
000120 75 b9 ec 3e e1 a8 5b 3e c6 ed 6a be d8 bd 96 3e
       0.46235242 0.21451141 -0.22942266 0.29441714
000130 89 d0 ab bc 04 92 a0 3d 05 33 13 3e 25 50 06 3e
       -0.02097346 0.0784035 0.14374931 0.1311651
000140 06 7a 02 bf 36 a1 0a be 03 e0 19 bd db 39 00 be
       -0.50967443 -0.1353806 -0.03756715 -0.1252207
000150 15 f6 81 3e 1e 87 9e be 19 e1 cf 3e dd a0 89 be
       0.25383058 -0.3096246 0.40601423 -0.2688054
000160 e9 7a ea bd 02 28 45 be 00 c5 81 be 5e 34 d0 3e
       -0.114492245 -0.19253543 -0.25345612 0.40664953
000170 53 44 5d bd 7a 41 59 be 3a cc d9 3e d8 fa 08 be
       -0.054020237 -0.21216384 0.42538625 -0.1337694
000180 5e 71 b6 be 55 3f 1c 3d 4d 71 a8 be 9b ea f1 3d
       -0.35633367 0.038146336 -0.32898942 0.118123256
000190 2e 79 3b be 4a d2 c0 bd 64 62 7b 3e 00 fc 86 be
       -0.18307945 -0.094151095 0.24549252 -0.26364136
0001a0 2f b2 22 be 8a 99 c4 be 81 ba 7f 3e 38 bf 04 3e
       -0.15888284 -0.3839839 0.2497349 0.12963569
0001b0 e3 2c 2f bd ad 08 cc be 98 a0 0d bf 87 13 26 3e
       -0.042767417 -0.3985037 -0.5532317 0.16218387
0001c0 2f 4a 1c bc 68 aa 1f 3c ae fe 22 bf 88 aa 2a 3c
       -0.009539171 0.009745218 -0.6366986 0.010416634
0001d0 5d b2 7a 3e 67 f8 0c bd 89 60 05 bd 29 6a b1 3e
       0.24482103 -0.034416582 -0.032562766 0.34651306
0001e0 87 49 d8 3e 9d bb c6 be e3 81 55 be 44 5a c5 3e
       0.42243597 -0.38815013 -0.20850329 0.3854543
0001f0 06 1e 67 3e 45 0d e2 bd b8 7b b0 3e 82 89 8c be
       0.22570047 -0.11037687 0.3446939 -0.2744866
000200 8b f5 cb 3e 3e e8 e4 3d 49 99 98 bc 9c 60 d7 be
       0.39835772 0.11177109 -0.01862778 -0.42065895
000210 50 a6 d5 bd c6 f3 31 3e 76 7d ad bd 05 67 da be
       -0.10432112 0.17378148 -0.084711954 -0.42656723
000220 e4 93 3d be a5 d9 1f bd 4b 46 37 be c3 56 4d bd
       -0.18513447 -0.03902592 -0.17897908 -0.05013157
000230 2b 04 95 be 48 9d d8 be 5e 17 2f 3e 22 59 f7 3d
       -0.29104742 -0.42307496 0.17098758 0.120775476
000240 69 ef 9c bd 7e 0f 0c be 57 c7 dd be cc b2 d1 bd
       -0.07662851 -0.13677785 -0.43316147 -0.10239181
000250 a6 c4 ef be 90 69 4e 3d 38 75 9c be 9f 38 c4 be
       -0.46829718 0.05039364 -0.3055818 -0.38324448
000260 ba fd 05 3e 90 9a c4 3d 91 47 23 3e c5 99 97 3e
       0.1308507 0.09599793 0.15945269 0.29609504
000270 0d b8 01 3d d2 66 c3 3c 18 b1 53 be 47 5f ae 3e
       0.031669665 0.02385274 -0.20673025 0.34057066
000280 d7 bb 77 3e 64 d1 ea be 36 70 ae bc e3 b3 e9 be
       0.24192749 -0.45862877 -0.02129374 -0.45645055
000290 c9 ad da be 9f 9c 5a be 70 79 ea be d3 d8 ab 3d
       -0.42710713 -0.21348809 -0.45795774 0.08390965
0002a0 5f 82 a4 bd 9d da f5 be 44 22 41 be fd 03 4c be
       -0.08032679 -0.4801835 -0.18860728 -0.19923396
0002b0 b4 ae ee 3e 04 c4 ca be be 55 fb be e6 43 3f be
       0.46617663 -0.39602673 -0.49088854 -0.18678245
0002c0 e5 11 d0 3e 45 4f 08 bd 11 31 94 3e 92 70 8a be
       0.40638652 -0.033278722 0.28943685 -0.2703901
0002d0 0c 8e a7 3e 30 a6 8a be 8c ce 9e be 42 06 10 be
       0.3272556 -0.27079916 -0.31016958 -0.14064887
0002e0 99 53 51 3e ec 9d 9f 3e dc db 6f be 19 b4 f4 3d
       0.20442046 0.31175172 -0.23423713 0.119484134
0002f0 bf 0f a7 3e 60 3d 0b be 5c 47 80 be ed 90 bf 3e
       0.326292 -0.13597631 -0.25054443 0.37415257
000300 a4 3f c3 3c 1e 3d 9c bb 69 7d 0f 3e 5f 7f f5 be
       0.023834057 -0.004768028 0.14012684 -0.4794874
000310 6f 55 37 be fc 6e 4a be ef 63 19 bf 5b 1a b1 bd
       -0.17903684 -0.197689 -0.5991811 -0.08647605
000320 4a 8d 44 be 8e f5 d9 be b2 6f c3 3e 36 83 b6 be
       -0.19194523 -0.42570156 0.38171154 -0.3564698
000330 f7 11 8c be 65 74 72 bd f5 e5 bd be 3e 47 1d bd
       -0.27357456 -0.059193034 -0.37089506 -0.03839802
000340 ec d5 e4 be b6 57 ed bc a9 76 f8 be 0f 1c c6 3e
       -0.4469446 -0.028972488 -0.4852803 0.38693282
000350 4a b9 93 3e a4 33 44 3e 9d f3 3e bc 69 ab 44 be
       0.28852302 0.19160324 -0.011654762 -0.19206013
000360 5a ae db be 4a b0 0c 3e f5 d6 9c be 39 80 05 bf
       -0.42906457 0.13739124 -0.3063275 -0.5214878
000370 b0 cf 6b be 12 0d eb bd 16 72 79 bb 73 4f 96 be
       -0.23028445 -0.11477102 -0.0038062385 -0.2935749
000380 86 81 ee be e3 85 ee bd 3e 6e 59 be 6d 9f c9 3e
       -0.46583194 -0.116466306 -0.2123346 0.39379445
000390 61 bc 6a 3d 6a 65 ec be 81 11 36 bd 98 2e 98 be
       0.05730856 -0.46171123 -0.044450287 -0.29723048
0003a0 2f 0a 96 3e 62 93 65 bd 2d 70 80 be 94 81 58 be
       0.29304644 -0.05604876 -0.25085583 -0.2114318
0003b0 9a 69 33 be 3e 3b 10 3d 3e 61 02 bf 2f 18 2d be
       -0.17520753 0.035212748 -0.5092963 -0.16903757
0003c0 fc 0b 8a 3e 47 52 8f 3e 8b b1 99 be 6b bf 3d 3e
       0.26962268 0.2799246 -0.30018267 0.18530051
0003d0 e4 d7 90 be 18 4e a8 3e 74 6b 16 be 00 fd 4f be
       -0.2828971 0.3287208 -0.14689428 -0.20311356
0003e0 41 c1 0b bd 40 fb 37 bd 5b c0 1e 3e 52 c2 04 bf
       -0.03411985 -0.044917345 0.15503065 -0.5185901
0003f0 77 3d 59 3e 1e 6a e5 be 91 f4 15 3e df 8b 1c bd
       0.21214853 -0.44807523 0.14644076 -0.03821933

linear1.bias f4 [64]
000000 10 d0 ce 3e 02 9d 73 3e bf 4c 8a be e3 eb 80 3e
       0.40393114 0.23790362 -0.27011678 0.25179967
000010 6a 7e b8 be d4 c8 28 3d e9 98 ad be 3c 5c 94 3e
       -0.36033946 0.04120715 -0.33905724 0.2897662
000020 7f 09 eb bd 60 6b d1 3e b2 82 ea 3e 5c 16 39 bd
       -0.114764206 0.40902233 0.45802838 -0.04518734
000030 0c 29 a2 be 0b 48 72 be 0f b4 a9 be 6e 3c cb be
       -0.3167194 -0.23660295 -0.33145186 -0.39694542
000040 a5 b3 69 3e c6 60 25 be cf b6 ed 3d b9 d6 1e be
       0.22822435 -0.16150197 0.116071336 -0.15511598
000050 97 67 96 be 9e 83 e2 3e ed 84 10 3f 8d 0f 80 be
       -0.29375908 0.4424104 0.5645283 -0.25011864
000060 a1 2a 1a be 78 44 9e be a5 78 8a be 5d 11 f6 3e
       -0.15055324 -0.30911613 -0.2704517 0.48060122
000070 6f 68 16 3f 05 be 07 3d 5c 40 57 3e 74 59 34 3d
       0.58753103 0.0331402 0.21020645 0.04403062
000080 23 d1 18 3f d2 2d 43 3e 00 d3 32 3e bf a4 6b 3e
       0.5969412 0.19060448 0.17463303 0.23012064
000090 ef 2a 19 3e 37 0b d0 be 60 3d 92 be 6d ea d7 3e
       0.14957784 -0.40633556 -0.2856245 0.4217104
0000a0 8d 5c 79 be a9 4f ca bd da dd 74 be b5 53 de 3e
       -0.24351712 -0.09878475 -0.23912755 0.43423238
0000b0 4d de 25 3e c3 ec af be 30 30 06 3d 3a 44 99 3e
       0.16198082 -0.34360322 0.0327608 0.29934865
0000c0 e1 a7 4b 3e 1c b8 5b 3e 2d 94 60 3e 1e a6 a3 be
       0.1988826 0.21456951 0.21931525 -0.31962675
0000d0 18 5a e7 3e af b1 a8 bd b5 c3 b4 3e fc 67 52 be
       0.45185924 -0.082370155 0.35305563 -0.2054748
0000e0 c9 b9 05 be 9a 2f a8 be 34 6f 7a 3e da 5a fa bd
       -0.13059153 -0.32848817 0.24456483 -0.1222436
0000f0 d3 8e 80 3e bc 83 db 3e ca cd 02 3f 79 53 b7 3e
       0.25108966 0.42873943 0.5109526 0.35805872

linear2.weight f4 [64, 64]
000000 bc 97 0e 3e 1b cf 34 bd 2f f0 fc ba 04 ec 23 bd
       0.1392507 -0.044142824 -0.0019297655 -0.040020004
000010 00 de 92 bc e0 ac 79 3d 45 b2 d3 3d 38 1c 6c bd
       -0.017928123 0.060955882 0.103367366 -0.0576441
000020 5c 14 18 3e 47 82 5e 3e 71 fe 88 3d 5a 7f 9f bd
       0.14851516 0.21729384 0.06689156 -0.07787962
000030 94 fa 6f 3d cd 1a c5 bd c0 93 5b bd d0 79 39 be
       0.05858858 -0.096242525 -0.053607702 -0.18112874
000040 b6 c5 f1 3d 5e 87 fa 3d 8e eb 34 bd 18 ef 75 bd
       0.118052885 0.122328505 -0.044169955 -0.06004247
000050 5d 50 0b 3d 80 42 54 bd ca f0 c3 3d d0 11 b8 bc
       0.034012187 -0.05182123 0.09567411 -0.022469431
000060 f8 32 2d 3d c0 a7 0e bb 29 a3 8c 3d 84 cf 10 3e
       0.042284936 -0.0021767467 0.06867058 0.14141661
000070 7d 98 e5 bc 67 2b 06 3e e0 d9 58 3b 3b a4 ce 3c
       -0.028026814 0.13102494 0.0033088848 0.025224796
000080 ef 05 fb 3d 34 ed a2 3d 9c 22 98 3d cf e7 9a 3d
       0.12256991 0.07955399 0.07428476 0.07563745
000090 b8 0a e4 3d 4d da d9 bd d7 3a b1 3d c2 18 4a 3e
       0.11134857 -0.10637341 0.08653801 0.19736007
0000a0 e7 d3 95 3d ea af 82 3d 09 7d ad bd aa 29 cc 3d
       0.07315808 0.06381209 -0.08471114 0.09968884
0000b0 c5 e6 4f 3c 63 eb 9d 3d 73 73 af 3d a9 3b 3c 3e
       0.012689297 0.07710912 0.08566942 0.18382134
0000c0 78 28 d5 bc fe cb e2 3d be 74 04 3d c8 d6 6d bd
       -0.026020274 0.11074065 0.032337897 -0.05806616
0000d0 91 87 5d 3d 88 1e ae bc 7c d5 e0 3d 2a 74 a0 3d
       0.054084364 -0.021254793 0.10978219 0.078346565
0000e0 77 fd e3 3a e8 a0 c1 bc 73 42 64 3e fb 99 65 3e
       0.0017394264 -0.023636296 0.22290973 0.2242202
0000f0 18 9e ea 3c 70 b4 cd 3b 25 00 1c 3e 3a 5e 06 bd
       0.028639838 0.0062776133 0.1523443 -0.032804705
000100 9d 3b c2 3d d2 9c e5 bd 63 44 78 3d a4 8f 22 bd
       0.094840266 -0.11211552 0.060612094 -0.039687768
000110 89 74 d4 bd c0 a0 8a 3c 9b 98 76 bd 66 c1 f8 bd
       -0.1037379 0.016922355 -0.06020413 -0.12146263
000120 f4 6e 68 3d c8 12 21 bd 4a 88 8e 3d de f3 47 bd
       0.05674644 -0.03932455 0.06959589 -0.048816554
000130 28 52 1a bd ee e7 a8 3c c1 11 b8 bd 94 5e 30 bd
       -0.037676007 0.020618405 -0.08987761 -0.043058947
000140 d6 03 d7 3d 18 4e b3 bd 3e bc d7 3b 73 2d 92 bd
       0.104987785 -0.087551296 0.0065837195 -0.07137575
000150 60 cf 6e 3d c6 c3 cd 3b 2c ef 3e bd 66 9d a7 bd
       0.058303237 0.0062794415 -0.04661481 -0.08184318
000160 10 34 8a 3c 20 52 77 bc 4f 24 bf bc 27 9a 92 3d
       0.016870528 -0.015095264 -0.023332743 0.071583085
000170 86 88 1b 3d 7a fa c9 3d c4 07 c6 bd 24 10 92 3d
       0.037971996 0.09862228 -0.0966945 0.07131985
000180 ec d4 0c bd 47 e2 58 bd b5 1b 0f bd b8 2d b8 3d
       -0.034382746 -0.05295017 -0.034938533 0.08993095
000190 40 e1 07 3c 07 af cc 3d 71 54 d0 3d a7 ac ba bd
       0.00829345 0.09994321 0.10172356 -0.09114962
0001a0 c1 c1 b9 3b 64 7a ef bd 66 1e 34 3d ea 17 c9 3d
       0.005668849 -0.11693266 0.043974303 0.09819014
0001b0 c8 99 f7 bd a3 c2 e6 3d e9 9d bf bb c0 23 2b bc
       -0.12089878 0.11267593 -0.005847682 -0.010445535
0001c0 1c e4 93 3d b0 82 3c bd a2 0e c7 bd 86 8f ac 3d
       0.07221243 -0.04602307 -0.09719588 0.084258124
0001d0 fb 4a f3 bd 98 1d a8 bc ac 7e ec 3d 6c 82 71 3d
       -0.11879536 -0.020521924 0.11547598 0.05896227
0001e0 9a 0a 70 bb 4a e3 db bd d9 63 e6 bd 3f bc 5d 3d
       -0.0036627413 -0.10736711 -0.11249513 0.054134604
0001f0 c0 4a 36 bd 71 37 a6 bd db 37 7a 3c 42 fd ef bc
       -0.04450488 -0.08116043 0.015272106 -0.029295567
000200 49 a7 96 b9 86 91 61 bb a5 f1 a6 bd 00 d3 e1 bb
       -0.00028734867 -0.0034419014 -0.08151559 -0.0068916082
000210 e9 db 05 3d 70 05 17 3d 6a e2 9d 3d b0 d4 c9 bc
       0.032680426 0.03687042 0.07709201 -0.02463755
000220 c2 91 d4 3c 19 96 d5 3d fe 1a 29 3e bf 5c 0b 3e
       0.025948409 0.104290195 0.16514203 0.13609599
000230 98 92 06 3d 08 9b a3 bb 51 d1 ef 3d 33 11 5c be
       0.032854646 -0.0049928464 0.11709846 -0.21490936
000240 a1 28 d1 3d 46 c3 fb 3d e1 f0 ff 3d 80 13 c2 3d
       0.102128275 0.12293105 0.12497116 0.094763756
000250 bb 7b dd bc 54 0d 99 3d 26 49 54 3e 7a 27 f6 bd
       -0.027036538 0.07473245 0.20731029 -0.12019248
000260 ca 70 f5 3d 7c 83 70 bd 5b b0 ea 3c e8 ed 3f 3e
       0.119844034 -0.058719143 0.028648546 0.18743098
000270 87 5a fd 3d 59 53 40 3e 25 27 04 bd 8a 08 8c bb
       0.12370782 0.18781795 -0.032263894 -0.004273479
000280 dc 4c 42 3e 10 3e ac 3d 63 be d1 3d c9 9f ca bd
       0.18974632 0.08410275 0.102413915 -0.09893758
000290 aa 3e 35 bb 8e d4 bb 3c 5a c5 c5 3d 52 6d 1d 3d
       -0.002765576 0.022928502 0.096567824 0.038434334
0002a0 a8 e4 be 3d 7c 59 2e 3e 2b 2f 2c 3d 6f 8e be 3d
       0.093209565 0.17026323 0.04203717 0.09304511
0002b0 3a 4c 38 3c ae 3a 93 3c c6 59 8e bd f4 22 49 3d
       0.011248643 0.017972317 -0.06950717 0.0491056
0002c0 1c 49 12 bd 98 83 17 3d 68 e1 a8 bd 00 73 86 bd
       -0.035714254 0.036990732 -0.08246118 -0.06564903
0002d0 f2 9f 1a 3e c0 97 5e 3d 1a 19 c9 bd b8 da 05 bd
       0.15100077 0.05434394 -0.09819241 -0.03267929
0002e0 20 21 8f bd a0 b1 a8 3c 61 0b a3 3e c1 be bc 3d
       -0.0698874 0.02059251 0.3184462 0.09216071
0002f0 12 0e af 3d 26 71 0f 3e a4 7c a9 bd 19 58 c6 3d
       0.085476056 0.14008006 -0.082757264 0.09684772
000300 00 22 44 3d e8 e2 58 bd f0 b2 b6 bc 00 06 20 ba
       0.047883987 -0.05295077 -0.02230212 -0.00061044097
000310 48 6d 22 3d 68 5f b1 bd bc 00 a3 3d c0 75 a1 bd
       0.039655 -0.086607754 0.079591244 -0.07883787
000320 96 ab bf bd c0 4d 31 3b 94 b6 b6 bd c4 2f 2a 3d
       -0.09358899 0.00270544 -0.08921543 0.04154946
000330 d0 b5 5a bd 10 c3 c4 bd de 52 ce 3d 86 ed bc bd
       -0.053396046 -0.09607518 0.100743994 -0.092249915
000340 c0 23 45 bd e8 1d 2a 3d 90 a8 d5 bd 68 84 89 bc
       -0.048129797 0.041532427 -0.10432541 -0.016786769
000350 80 f7 b7 3c 2c 10 a7 3d 08 bb 78 bd 40 21 a6 bd
       0.022456884 0.081573814 -0.060725242 -0.08111811
000360 30 0d b9 3d e0 89 db 3d 2c f9 9b bd 08 b5 22 3d
       0.090357184 0.10719657 -0.07615885 0.039723426
000370 62 54 90 bd 30 56 96 3c b0 c3 3e 3d 7c 8a 39 bd
       -0.07047345 0.018351644 0.04657334 -0.045298085
000380 f0 91 45 bd 3c b2 f0 bd 88 4a ae bc 20 0b ff 3b
       -0.04823488 -0.117527455 -0.021275774 0.0077833086
000390 98 60 66 3d d4 6c c2 bd 1a fa b8 bd 92 5a e7 bd
       0.056244463 -0.094934136 -0.09032078 -0.11296572
0003a0 c8 58 f9 3d 68 3d 10 bd de 46 80 bd 12 46 af 3d
       0.12175137 -0.03521481 -0.06263517 0.08558287
0003b0 44 4e b4 bd c4 5e 82 bd d8 72 15 bd ca c2 f8 bd
       -0.088039905 -0.06365731 -0.036486477 -0.12146528
0003c0 96 df e5 bd 7c 62 5d 3d ea eb ae bd 18 30 a6 3d
       -0.11224286 0.054049 -0.08541091 0.08114642
0003d0 40 21 12 bc ce cb b5 3d b4 bd 8b bd 38 bb bd bd
       -0.00891906 0.08876763 -0.068232924 -0.09264225
0003e0 98 87 8b bd 0a 81 c3 bd 50 74 1b 3c 00 08 d1 b9
       -0.06812972 -0.095460966 0.00948818 -0.00039869547
0003f0 40 08 3b 3b cc 61 27 3d c4 6d 93 bd e0 02 e2 3b
       0.0028538853 0.04086475 -0.071986705 0.0068973154

linear2.bias f4 [64]
000000 07 07 a0 3d a9 75 bf 3d eb 70 0d bd c6 d5 dc 3d
       0.0781384 0.09348614 -0.034531515 0.107829615
000010 6b c2 f9 3d 78 4c 2c 3e e8 13 ab 3c d0 7c 2c 3d
       0.121952854 0.16826046 0.020883515 0.042111218
000020 5f 8b a6 3c ab d5 cf bb e8 07 9b 3c 21 8d e8 3b
       0.02033013 -0.00634261 0.018924668 0.007096902
000030 e9 24 01 be 39 ae e9 3c cb 45 03 3e 64 f8 af 3d
       -0.12611736 0.028525459 0.12819593 0.085922986
000040 cd 85 8d 3d e7 8d e9 ba 98 07 9c 3d 33 33 6b 3d
       0.06910286 -0.001781878 0.07618636 0.057421874
000050 96 37 15 3e 79 b8 85 3d 4d 23 57 3d 76 f8 05 bd
       0.14571986 0.06529326 0.0525239 -0.032707654
000060 85 12 e6 3d f1 f1 9b bd cc 85 44 3e ee b2 ab bc
       0.11234001 -0.07614506 0.19191664 -0.020959344
000070 d1 22 2f 3c 54 be f9 3d 14 42 2f 3d 9f 7f 2d 3e
       0.010689453 0.12194505 0.042787626 0.16943215
000080 ec 75 3b 3d e8 5a 33 3e 66 a8 6b 3d 23 31 ca 3c
       0.045766756 0.17515147 0.057533644 0.024681633
000090 03 09 27 3e 40 97 a4 bd e5 a6 f9 bb 0b a4 23 3e
       0.16312031 -0.08036661 -0.0076187723 0.15980546
0000a0 42 22 a3 3d 4e 17 e5 3c 2d 4f 9b bd f8 7f d3 3d
       0.079655185 0.027965214 -0.07583461 0.103271425
0000b0 35 53 2d 3e 11 43 4b 3e ba 83 62 3c 43 63 91 3d
       0.16926272 0.19849803 0.013825351 0.07099011
0000c0 5a 97 c8 bc 1c e6 2d 3e fd 41 b6 3d 90 ee b4 3d
       -0.024486233 0.16982311 0.08899305 0.08834565
0000d0 d8 4e f2 3c 65 90 53 3d f3 e8 0f 3e 10 f9 b2 3c
       0.029578611 0.051651377 0.14053707 0.021847278
0000e0 63 9d da bd 18 a1 de 3d 42 ba ef 3d 24 20 62 3d
       -0.106745504 0.1087057 0.11705448 0.055206433
0000f0 18 29 1a 3d d6 90 c9 3d 2b 77 44 3e c4 b8 05 bd
       0.037636846 0.098420784 0.19186084 -0.03264691

linear3.weight f4 [64, 64]
000000 a8 4b ba 3c 73 e3 b2 3a 95 bd c1 3d 70 30 88 3d
       0.022741154 0.0013648107 0.09459988 0.06649864
000010 f9 c3 64 3d 00 bd 4c 3c 7e cf 90 3d d0 0b 53 3c
       0.055850957 0.012496233 0.07070826 0.012881234
000020 98 86 0b 3d 7a 08 f6 3d e0 bf a2 3c 77 5d cc 3c
       0.034063905 0.120133355 0.019866884 0.024946911
000030 f6 4b d6 bd 28 04 0d bd 72 8e 94 3d e0 60 7d bd
       -0.10463707 -0.03442779 0.07253732 -0.061859965
000040 51 6b c8 3d 8f de 12 3e 36 a5 b2 3d 6e 33 50 3d
       0.09786094 0.14342712 0.08722918 0.050830297
000050 b2 d2 bf 3d 2a 0b af 3d 15 5e e3 3d 56 cb 10 3e
       0.09366359 0.08547051 0.11101929 0.14140067
000060 e6 4a 1a 3e 0a 8e ea bd 52 d4 1b bd 3d f8 23 3e
       0.15067634 -0.11452873 -0.03804428 0.16012664
000070 12 97 83 3b 14 52 8c 3c e0 0c 3c bc b8 02 8f 3b
       0.0040158117 0.017128982 -0.011477679 0.004364338
000080 83 a6 92 3d c3 56 8e bd 01 c9 0e bd 6a 8c 01 3e
       0.07160666 -0.06950142 -0.03485966 0.1265122
000090 08 4c 8c bc 30 7b 1b bc be 82 04 bd ec 61 33 3e
       -0.017126098 -0.009489819 -0.032351248 0.17517823
0000a0 35 94 28 3d 41 8f af 3d 22 fd 18 be a1 24 f2 3d
       0.041156966 0.085722454 -0.14940313 0.11823393
0000b0 a1 b1 f2 3d 1d 50 3a 3e d2 af 12 be a9 fe 37 bd
       0.11850286 0.18194623 -0.14324883 -0.044920597
0000c0 56 e2 bc 3d 35 2e 63 3d 3d 5c f7 3d a0 ca 33 bc
       0.09222858 0.05546399 0.1207814 -0.0109736025
0000d0 3c 56 24 3d e0 ff 53 bc 43 9d ed 3d a8 74 dc bb
       0.040121302 -0.012939423 0.11602261 -0.0067277737
0000e0 b0 25 ed 3d 22 e0 9a bd 1b 6d 27 3c ac 5f 81 bd
       0.11579454 -0.07562281 0.010218884 -0.06317076
0000f0 cd f3 54 bd 20 de 4b bd 1c 29 ad 3d da f6 d9 bd
       -0.05199032 -0.04977238 0.084551066 -0.10642786
000100 82 33 93 3d a3 49 b0 3d b8 aa e2 bc 7a d9 d6 3d
       0.07187559 0.08607795 -0.027669296 0.10490699
000110 97 b6 f5 3d 45 ee 20 3d 84 5c 8f 3d 1a 04 b5 bd
       0.11997717 0.03928973 0.07000068 -0.08838673
000120 4a 69 98 bd e2 26 55 3d 60 58 02 bd dd 80 a2 bd
       -0.07441957 0.052039035 -0.031822562 -0.07934735
000130 fe ba ab bd 47 c1 02 3e 22 0f a3 3d ac 9d e3 bd
       -0.08385275 0.12769042 0.07961871 -0.11114058
000140 b1 55 23 3e 86 78 f4 bc ce 87 5b 3e 3f 1f 6b bc
       0.15950657 -0.029842626 0.21438524 -0.014350711
000150 73 f9 3a 3e 44 77 1d 3e a1 91 51 bd 69 27 54 3d
       0.1825922 0.15377527 -0.051164273 0.051795397
000160 8e 4f ce bc 1b 76 3e bc 99 2e 00 3e c7 d4 a4 3d
       -0.025184419 -0.011624838 0.12517776 0.080483966
000170 16 7e cb bc 76 02 01 3d 26 a1 bf 3d ca 88 b3 3c
       -0.024840396 0.031496488 0.093569085 0.021915812
000180 aa 5b 18 3e 10 ec 51 3c 75 91 75 3d e0 36 3b bd
       0.14878717 0.012812629 0.05995317 -0.04570663
000190 14 e0 88 3a 30 93 46 3c 44 eb 0a 3e 76 8c 79 3e
       0.0010442757 0.012120053 0.13566309 0.24369988
0001a0 b4 69 36 3e 90 d9 f0 3d 17 cf 82 3d 77 6b 5c 3d
       0.1781376 0.11760247 0.063871555 0.053813424
0001b0 f5 e2 d0 3c 74 57 2c 3e d7 90 c8 bd c7 78 2a 3e
       0.025498847 0.16830236 -0.09793251 0.16647635
0001c0 5f f5 0c bd de 1a 26 bc 55 2c b0 3b e4 3a 14 bd
       -0.03441369 -0.010138242 0.0053763785 -0.036188975
0001d0 f8 cb 8c bc 42 d3 dc 3d 41 34 66 bd f2 d4 b7 3d
       -0.017187104 0.10782482 -0.056202177 0.08976163
0001e0 b7 2f 2c 3d f1 8f 8a 3d b2 36 88 3d 82 f3 f6 3a
       0.042037692 0.06765736 0.06651057 0.0018840882
0001f0 33 e3 10 3e 34 89 01 3e 17 a9 2f 3d 4c d3 fd 3d
       0.1414917 0.12649995 0.042885866 0.12393817
000200 b2 5c 25 bd d1 e8 8d 3d cd 53 10 3e 68 eb f0 3d
       -0.040371604 0.06929172 0.14094467 0.1176365
000210 7e 47 d1 bc 94 e6 4e 3e e4 b0 d7 3d 84 5a db 3d
       -0.025546785 0.20205146 0.10531786 0.10710624
000220 1c a6 82 bd 98 01 eb 3d 66 93 e1 bd d7 52 bb 3d
       -0.06379339 0.11474913 -0.11014442 0.0914666
000230 b5 5f 0a bc cf b8 70 bc da bd ad 3d f0 73 04 bc
       -0.00844567 -0.014692499 0.08483477 -0.008084282
000240 ba 0b 87 3d bb b1 08 bc db 05 64 3d 4b db a2 bc
       0.065940335 -0.0083431555 0.055669647 -0.019879958
000250 9f f0 42 3e c5 e8 24 3e 26 54 a1 3d fa a2 ca 3c
       0.19037102 0.1610442 0.07877378 0.024735916
000260 d8 26 0d 3e 34 b4 98 3d 79 f0 48 3b 1a 56 b8 3d
       0.13784349 0.07456246 0.003066091 0.090007976
000270 c0 d2 cb bc 0c 76 2c 3e 30 5e 7c bc 66 80 91 bd
       -0.024880767 0.16841906 -0.015403315 -0.07104568
000280 68 13 c1 3d 35 0d 95 3d a0 91 eb bc 6a 72 fd 3a
       0.094275296 0.0727791 -0.028755963 0.0019336466
000290 5c 07 08 3e d4 2a d9 3d 21 ad 8e 3d 75 a2 65 3e
       0.13284057 0.10603872 0.069666155 0.22425254
0002a0 ad 8c 6a 3d 77 00 c0 ba 0f 85 63 bd c0 69 20 3e
       0.057263065 -0.0014648576 -0.055546816 0.1566534
0002b0 a3 c5 5b 3d 7b 81 80 bd 6f 74 3e 3d 31 70 bd 3d
       0.053655278 -0.062746964 0.04649776 0.092499144
0002c0 00 b4 f7 3d 21 51 ce 3d ac 7f 85 3d 74 46 a1 3d
       0.12094879 0.10074068 0.06518492 0.07874766
0002d0 1c 5d eb 3d 32 d0 b3 bd fe 10 d4 3d 7b 25 8d 3d
       0.114923686 -0.087799445 0.103548035 0.068919145
0002e0 b0 6e 6d bc 43 f6 97 bd db 05 0a 3e 7f 6f 9f bd
       -0.014491722 -0.074200176 0.13478796 -0.07784938
0002f0 24 99 0c 3e 7b 83 a8 3d 37 f2 1a bd 8e f1 93 bd
       0.13730294 0.08228203 -0.03782865 -0.07223807
000300 74 36 37 3d 7f 63 c7 3d 2c 9c 90 3d 00 db 1c bd
       0.044729665 0.09735774 0.070610374 -0.038294792
000310 6a 37 f8 3d eb f4 25 3e 52 0c c7 3d 40 b5 1c bc
       0.121199444 0.1620671 0.09719147 -0.009564698
000320 4c 0c 9b 3d 5b 10 83 bd b2 57 9c 3d 2e cc 00 3e
       0.07570705 -0.06399604 0.07633914 0.12577888
000330 5d 07 9a 3c 0a 1d a6 bd fb 7e f4 3d 04 c6 35 bd
       0.01880234 -0.081110075 0.11938282 -0.044378296
000340 e8 b6 96 3d f4 f6 b7 3d 2a 08 09 3a e1 0b 20 bd
       0.07359105 0.089826494 0.0005227352 -0.03907383
000350 5a 4c 2f 3e 1e e4 f9 bc 0d 11 ff bc 0a cf c1 3d
       0.1711897 -0.030504283 -0.03113606 0.09463318
000360 52 86 19 3d 7a 27 a6 bd ac f2 37 3d 2f 60 f3 bc
       0.037481613 -0.08112998 0.044909164 -0.02970895
000370 34 57 f2 bc dc 8e 10 bd 90 97 eb 3d 2b be c6 3c
       -0.029582597 -0.03529249 0.11503518 0.024260601
000380 0f 2c d2 3d 3b f3 c0 3d 5b 7a f7 3d 19 5e 8f bc
       0.1026231 0.094213925 0.12083884 -0.017500924
000390 76 79 44 3d 00 84 7b 39 e2 d3 b4 bc fa a5 80 3e
       0.047967397 0.00023986399 -0.02207369 0.2512663
0003a0 c1 55 b0 3d bb 1f c8 3d 7b bf f3 bd 9b 70 7f 3c
       0.08610106 0.09771677 -0.119017564 0.015590812
0003b0 32 91 66 3d 05 ee 9e bc 62 26 29 be bd 65 2b 3d
       0.056290813 -0.019400606 -0.16518548 0.041845072
0003c0 0b 7c b1 3d 52 06 2a 3e fc 3d aa 3d e8 d2 80 3d
       0.086662374 0.16603974 0.08312604 0.06290227
0003d0 bc 13 4d bd c1 92 f7 3d 37 dd d6 3d 36 6e 2d 3e
       -0.05006765 0.12088538 0.10491412 0.16936573
0003e0 ec f9 2f 3d 07 33 5d 3d d3 2a 1c 3d 33 20 13 3d
       0.042962953 0.05400374 0.038126778 0.03591938
0003f0 32 75 eb 3d a5 11 93 bd a9 c0 62 bd 80 a6 7d bb
       0.114969626 -0.071811 -0.055359516 -0.0038703978

linear3.bias f4 [64]
000000 2a f8 df 3d 24 e5 0a bd f8 9e 47 3d 62 8e 59 3d
       0.109360054 -0.03390993 0.04873559 0.053114302
000010 1e 15 df 3d c8 17 0a 3c 48 99 20 3d d9 7c 1c 3e
       0.108927 0.008428521 0.03920868 0.15282
000020 f5 2d 35 3e 2f aa d4 bc 00 2c d7 bb 9d df 9e 3d
       0.17693312 -0.025960056 -0.0065665245 0.077574946
000030 f0 06 b4 3c d5 f3 82 bb 00 73 ee bd be 0f 0f bd
       0.021975964 -0.003996352 -0.11643028 -0.034927122
000040 52 61 a5 3d 02 93 89 3d 23 74 3a 3e 3b 9d 2d 3e
       0.08075203 0.06717493 0.18208365 0.1695451
000050 9b cf 63 3d ab c8 3d 3d 3b 4a 05 3e 1a 54 9d 3d
       0.05561791 0.04633395 0.13016598 0.07682057
000060 df 43 a5 bc 3e 84 ae 3d 41 9c 31 3e 04 ec 54 bd
       -0.020173965 0.08521317 0.17344762 -0.051982895
000070 38 47 9e bd 5e f4 52 3d fa 52 6f 3d 69 30 76 bc
       -0.07728428 0.051502578 0.058428742 -0.01502619
000080 96 d0 f8 bd 16 e1 f3 3c 90 54 9d 3c 03 04 c3 3c
       -0.121491596 0.029770415 0.019205362 0.023805624
000090 c0 5d 51 3b 79 e6 69 3d 54 39 8c 3d 44 af ca bd
       0.0031946748 0.05710456 0.06846872 -0.098967105
0000a0 95 1f 84 3d fc b1 d2 bc e1 0b 6d bb c1 c3 7f 3c
       0.06451336 -0.025719635 -0.003617041 0.015610636
0000b0 92 49 03 3e 4b 52 1f 3e bb 0c dd 3d 3d 28 0b 3e
       0.12821034 0.15558736 0.10793444 0.13589568
0000c0 e4 62 d7 3d 06 3d 9d 3d e3 e7 23 3e c3 61 ac bb
       0.10516909 0.07677655 0.16006427 -0.0052606775
0000d0 44 bf 34 bd 04 e4 4c bd ba 84 6d bd a6 c2 e8 3d
       -0.044127718 -0.05002214 -0.057987906 0.11365251
0000e0 9a e1 ee bd bc 58 5a 3d 2c 16 2f 3e c4 b3 d5 3c
       -0.11664124 0.05330728 0.17098302 0.026086695
0000f0 a7 56 11 bd 00 ed 19 3d 16 12 ff 3d 80 2b 01 bb
       -0.03548303 0.037579536 0.124546215 -0.0019709766

linear4.weight f4 [1, 64]
000000 ab 1b 5e bd 52 cf 77 bd da d7 41 bd 25 87 55 bd
       -0.054225605 -0.06050045 -0.047324993 -0.052130837
000010 29 6e 2e 3b c5 1a 50 bd 7d b1 53 bd 0f 2a 4d bd
       0.0026615954 -0.05080678 -0.051682938 -0.05008894
000020 bc e6 2f bd d2 2b 54 bd 21 b3 d4 3a 9d 11 8f bd
       -0.042944655 -0.051799603 0.0016227701 -0.06985781
000030 6c a7 58 bd 57 e5 49 bd f2 91 d2 ba 7d 9c ab ba
       -0.05289404 -0.04929098 -0.0016065224 -0.0013092902
000040 3b 56 68 bd 5f 89 3a bd a2 73 39 bd 43 06 58 bd
       -0.05672286 -0.045541164 -0.04527629 -0.052740347
000050 51 64 4a bd 40 8a 4a bd 81 6e d4 bd 41 2f 93 ba
       -0.049412075 -0.04944825 -0.103726394 -0.0011229293
000060 53 f2 a8 bd 7d dd 83 b9 2e 3e 5c bd 5e 42 f4 39
       -0.08249345 -0.0002515129 -0.053770237 0.00046588754
000070 e5 15 35 3a a7 c0 36 bd da eb 58 bd 04 ad 51 bd
       0.00069078646 -0.04461732 -0.0529593 -0.05119039
000080 f1 35 1c bb 59 79 29 bd 7c 7e 3c bb 09 24 36 bb
       -0.0023835863 -0.04137549 -0.0028761914 -0.0027792475
000090 22 5e 16 3b db b5 45 bd 3b 61 34 3b 7f a9 35 ba
       0.002294429 -0.048269134 0.0027523774 -0.0006929859
0000a0 6f a7 39 bd e4 ca 76 bd b1 d6 4f bd ca 7e 50 bd
       -0.045325693 -0.060252085 -0.050741855 -0.050902165
0000b0 01 02 38 bd eb 1e 89 bd b6 f4 9a bd bf 2a 5e bd
       -0.044923786 -0.0669535 -0.07566206 -0.054239985
0000c0 a2 45 05 39 2a 19 00 3b d9 40 41 bd 60 36 3f bd
       0.00012709809 0.001954625 -0.047180984 -0.046682715
0000d0 51 93 58 bd 42 0e 6d 3a c1 ea 6f bd f6 f3 1c be
       -0.052874867 0.0009042957 -0.05857349 -0.15327439
0000e0 ba 1b a0 ba 30 b6 08 3b 01 45 9e bd 34 e4 53 bd
       -0.0012215294 0.0020860545 -0.07728005 -0.051731303
0000f0 e4 af b3 bb 93 47 f8 ba c1 a4 87 bd 85 95 e1 39
       -0.0054836143 -0.0018942229 -0.06623221 0.00043026745
