models/noCBF_2025-11-17 19:59:15/1/Q2.pth (torch, 37764 bytes, 7 tensors)

linear1.weight f4 [64, 5]
-0.47384554 -0.45808977 -0.20288652 -0.029906476 -0.48566806 0.009383638 -0.1559648 0.39247853
-0.37190613 -0.4360852 -0.35115957 0.19436097 0.21533392 0.23811312 -0.2376347 -0.1624506
0.19610941 0.12169074 0.07655831 0.45863727 0.149108 0.40733582 -0.38491392 -0.06416128
0.3061007 0.34378156 -0.13630293 -0.1730622 -0.0021211784 0.13756292 -0.006661302 0.37648743
0.05972913 -0.07061688 -0.39776203 0.044304322 -0.07865234 0.17034714 -0.12505157 -0.51881456
0.014742784 -0.2331705 0.35742363 -0.2775507 -0.25809443 -0.06408355 -0.4083526 -0.04433456
-0.3302488 0.21946862 -0.29832095 0.42008892 0.43754715 0.37413692 -0.07658914 -0.5110785
-0.5170428 0.4140863 -0.059756853 -0.3305441 -0.44397652 -0.24290869 0.24697632 0.13035914
0.035737585 0.06940174 0.2356623 -0.21986967 -0.43767974 0.029810745 -0.091964796 -0.2896401
-0.21131511 0.05857385 -0.20589541 0.29537687 -0.16047023 0.12369767 -0.24784853 0.2792499
0.20215634 -0.1812986 0.017505411 0.117809966 -0.5483926 0.012704651 -0.13611591 0.23952161
-0.32247263 -0.18137833 -0.5040589 0.18666972 0.0034141645 -0.13442595 -0.31798193 -0.2663583
-0.29536882 0.019652626 -0.18224272 0.026825193 -0.20727392 0.42684415 -0.24275637 0.18857738
-0.27932692 -0.53151155 -0.4458777 -0.11265366 0.18984704 -0.24069645 -0.2992745 -0.101735786
0.21457374 -0.20101249 0.039995987 -0.3965154 -0.4669827 0.013016089 0.15718938 -0.17796287
-0.23586899 -0.5232122 -0.24535123 -0.44862512 0.27655515 -0.3238024 -0.38435742 0.44729075
-0.5562162 -0.38487735 -0.19101499 -0.4257115 0.3380076 -0.12426023 -0.032405164 0.33337712
-0.031976104 0.20112133 0.34190026 0.38289174 0.27108517 0.3249365 0.29662332 0.3007401
0.27569944 -0.010444991 -0.3237376 0.3814427 0.21386062 -0.37926328 0.27012795 0.047363322
0.2937555 -0.5744669 -0.5085019 0.22895625 0.40639728 0.05343473 -0.17748956 -0.241004
0.27129987 -0.28791583 0.4571862 -0.5281718 -0.597386 0.30645895 0.27194697 0.46548334
0.19776542 -0.22984746 -0.13991725 0.11220469 0.055159435 -0.18400168 0.20460545 0.36487788
-0.053582218 0.4103045 -0.05669642 -0.16340953 0.4050797 0.27658424 0.33582413 0.26097938
0.12874137 0.4210769 0.06213462 -0.3971341 0.081268996 -0.35208204 0.022180412 -0.012489947
0.38430163 -0.20669726 -0.19185483 0.14846474 -0.0487355 -0.0048159407 -0.22488362 -0.10743064
-0.01904437 -0.34924433 -0.021555146 -0.3276992 -0.4919717 -0.20376517 -0.33023712 -0.09028391
-0.5215852 0.006864226 -0.49415916 0.106955305 0.31712416 -0.3699279 0.06762888 0.21259077
0.0651886 -0.389947 0.022592565 0.40221834 0.4164142 0.16331933 0.05577486 -0.018429903
0.13472451 -0.19107367 -0.24124533 -0.073218696 0.13856071 0.12760232 -0.15468727 -0.03339997
0.06279487 0.03248593 -0.59734946 -0.11437778 0.36918443 -0.44322905 0.26580438 0.4141048
-0.22589841 0.40468282 -0.13250291 -0.19284864 -0.28472972 -0.17450045 -0.4006621 0.17111856
-0.11150322 -0.0053371247 0.22087765 0.07409927 -0.11565215 -0.10826481 -0.34880516 -0.22108111
00000000: e29b f2be be8a eabe 7cc1 4fbe 6dfe f4bc
00000010: 7ca9 f8be d5bd 193c 3db5 1fbe f2f2 c83e
00000020: 7b6a bebe 8f46 dfbe 30cb b3be 9006 473e
00000030: 7f80 5c3e edd3 733e 8356 73be 7359 26be
00000040: e8d0 483e ff38 f93d 9aca 9c3d 81d2 ea3e
00000050: c4af 183e 528e d03e 7013 c5be fd66 83bd
00000060: 3bb9 9c3e 2304 b03e ff92 0bbe 3837 31be
00000070: 7803 0bbb 4bdd 0c3e 0d47 dabb f6c2 c03e
00000080: 88a6 743d 959f 90bd 77a7 cbbe 7378 353d
00000090: 7a14 a1bd 7b6f 2e3e 850d 00be 08d1 04bf
000000a0: b88b 713c 3fc4 6ebe 3b00 b73e 201b 8ebe
000000b0: f424 84be 3c3e 83bd 9813 d1be 2898 35bd
000000c0: 5f16 a9be 62bc 603e 86bd 98be e515 d73e
000000d0: 2e06 e03e e08e bf3e c4da 9cbd 0ad6 02bf
000000e0: eb5c 04bf 1f03 d43e 9ac3 74bd 143d a9be
000000f0: e450 e3be 0ebd 78be 5ce7 7c3e de7c 053e
00000100: 9361 123d 8022 8e3d 7551 713e 8425 61be
00000110: 8f17 e0be aa35 f43c 0a58 bcbd b54b 94be
00000120: fd62 58be 22eb 6f3d 3fd6 52be a33b 973e
00000130: 4f52 24be 3455 fd3d 01cc 7dbe d8f9 8e3e
00000140: 1202 4f3e 57a6 39be 8267 8f3c 5a46 f13d
00000150: 7563 0cbf 2b27 503c f861 0bbe 2745 753e
00000160: 221b a5be 3ebb 39be 010a 01bf 5926 3f3e
00000170: 2dc0 5f3b f5a6 09be 87ce a2be 1d60 88be
00000180: 953a 97be 8bfe a03c d69d 3abe 82c0 db3c
00000190: 9d3f 54be 518b da3e 2095 78be 6e1a 413e
000001a0: f003 8fbe 2411 08bf 154a e4be f6b6 e6bd
000001b0: 4367 423e 2179 76be 823a 99be da5a d0bd
000001c0: 38b9 5b3e 38d6 4dbe d5d2 233d 1104 cbbe
000001d0: 5b18 efbe 6f41 553c 41f6 203e e63b 36be
000001e0: a487 71be 3cf1 05bf 5a3d 7bbe 31b2 e5be
000001f0: a398 8d3e 6ec9 a5be 7fca c4be 4b03 e53e
00000200: 2f64 0ebf a50e c5be 6f99 43be dcf6 d9be
00000210: 550f ad3e 267c febd 47bb 04bd 68b0 aa3e
00000220: 60f9 02bd c0f2 4d3e 8d0d af3e 630a c43e
00000230: adcb 8a3e 145e a63e 03df 973e 9bfa 993e
00000240: 7a28 8d3e 7821 2bbc efc0 a5be 754c c33e
00000250: 47fe 5a3e cc2e c2be 364e 8a3e 0b00 423d
00000260: 1f67 963e 4310 13bf 2e2d 02bf 8273 6a3e
00000270: 4e13 d03e 60de 5a3d d3bf 35be c1c9 76be
00000280: d1e7 8a3e b469 93be 4f14 ea3e 4436 07bf
00000290: 4aee 18bf 30e8 9c3e a23c 8b3e d553 ee3e
000002a0: 0583 4a3e 225d 6bbe 7846 0fbe 93cb e53d
000002b0: dcee 613d f06a 3cbe 1784 513e 46d1 ba3e
000002c0: 0779 5bbd 6e13 d23e 813a 68bd d454 27be
000002d0: 9b66 cf3e 739c 8d3e 24f1 ab3e 179f 853e
000002e0: c7d4 033e 6497 d73e df80 7e3d 2955 cbbe
000002f0: 5c70 a63d 1944 b4be b2b3 b53c a2a2 4cbc
00000300: 2fc3 c43e 72a8 53be 9875 44be 2407 183e
00000310: e09e 47bd 0acf 9dbb e447 66be 9804 dcbd
00000320: f002 9cbc 27d0 b2be 6b94 b0bc 31c8 a7be
00000330: b7e3 fbbe d1a7 50be d714 a9be c5e6 b8bd
00000340: 9c86 05bf 4ded e03b 6e02 fdbe 620b db3d
00000350: 195e a23e 3167 bdbe 0381 8a3d 65b1 593e
00000360: 9a81 853d 22a7 c7be 0b14 b93c 90ef cd3e
00000370: 3e34 d53e 2f3d 273e 2e74 643d 4ffa 96bc
00000380: 39f5 093e d1a8 43be 0409 77be aff3 95bd
00000390: dce2 0d3e 2faa 023e 5766 1ebe 68ce 08bd
000003a0: 999a 803d f70f 053d e5eb 18bf e63e eabd
000003b0: be05 bd3e ebee e2be 8317 883e 8b05 d43e
000003c0: ea51 67be 9632 cf3e d8ae 07be 1d7a 45be
000003d0: 18c8 91be 3fb0 32be 9523 cdbe b439 2f3e
000003e0: cd5b e4bd 0ce3 aebb c02d 623e 5cc1 973d
000003f0: 09db ecbd f1b9 ddbd 9796 b2be 1663 62be

linear1.bias f4 [64]
-0.20598651 0.29822642 -0.23226365 -0.3904504 -0.3898648 -0.36928603 0.26245895 0.5186802
0.46852127 -0.11565974 -0.5090428 -0.08807486 0.13250066 0.37840736 0.58670866 -0.19281599
0.2585641 -0.18822412 0.14137755 0.51144326 -0.25889295 -0.25231242 0.03191967 -0.055488084
0.4306252 0.41053057 0.022048851 0.057240408 -0.46566933 0.07104001 0.4764546 0.13548091
0.392309 -0.014688435 -0.4657028 0.105931155 0.050551094 -0.12010216 -0.20409063 -0.26807466
-0.06277591 0.58482885 -0.3057998 0.39675313 0.08327556 0.19501486 0.5856288 -0.018150074
-0.3350916 -0.2857218 -0.31224832 -0.31657913 -0.02185638 -0.020211918 0.16378006 0.27059242
0.43294632 0.4501409 0.5644933 0.042524185 0.27873018 0.22327717 -0.45432815 0.15965174
00000000: 21ee 52be 22b1 983e 86d6 6dbe 1de9 c7be
00000010: 5c9c c7be 0f13 bdbe 0561 863e 3ac8 043f
00000020: 05e2 ef3e 04df ecbd a150 02bf 9860 b4bd
00000030: 41ae 073e 9cbe c13e 8a32 163f 8e71 45be
00000040: 8462 843e d3bd 40be 47c5 103e f2ed 023f
00000050: 9e8d 84be 182f 81be 33be 023d 7947 63bd
00000060: e87a dc3e 1031 d23e cb9f b43c eb74 6a3d
00000070: 366c eebe 6d7d 913d dbf1 f33e 82bb 0a3e
00000080: badc c83e c3a7 70bc 9970 eebe 6ff2 d83d
00000090: aa0e 4f3d 1ff8 f5bd 22fd 50be 1541 89be
000000a0: a890 80bd 58b7 153f cb91 9cbe 3a23 cb3e
000000b0: 608c aa3d fab1 473e c5eb 153f 77af 94bc
000000c0: 2091 abbe 214a 92be 03df 9fbe a916 a2be
000000d0: 270c b3bc 7793 a5bc f6b5 273e 178b 8a3e
000000e0: 24ab dd3e de78 e63e a282 103f d72d 2e3d
000000f0: b9b5 8e3e c5a2 643e b39d e8be bf7b 233e

linear2.weight f4 [64, 64]
0.13825656 -0.051486697 0.03125684 -0.12520264 -0.029473126 -0.09626965 0.12777206 0.096281745
0.09065399 0.17249231 0.05666327 0.04712195 0.10529262 0.06199427 0.04627718 0.096340336
0.03763183 0.022847375 0.06356861 0.192955 -0.08724238 0.089007996 0.15349814 -0.01662233
0.011188538 -0.036528897 0.050833505 0.029604625 -0.018514276 0.07773958 -0.048495825 0.061144426
-0.095683895 -0.08883208 -0.06326989 0.08657342 0.06838405 0.040526435 0.049683306 -0.08535041
0.1409384 0.074070536 -0.0071945963 -0.007261902 -0.08845212 0.01807096 0.19030762 0.029991403
0.0925931 0.10702024 -0.121055394 0.0101210745 0.11949609 0.15513746 0.10666715 0.082409926
0.12878114 0.04962022 0.10759304 0.3015508 0.11300936 -0.07194671 -0.13011429 -0.10435656
0.11948021 0.058975752 0.075999886 0.0023387698 0.0014226437 0.007787317 0.11426291 -0.0156142255
-0.014496034 0.17083195 0.09633091 0.14265522 -0.0526841 0.01942569 0.14555824 0.059965786
-0.11292163 0.108843 0.20863585 -0.043644506 -0.0026356727 0.03422832 -0.019142916 0.1526785
-0.020600658 -0.09553684 0.090196595 0.012449624 0.04809923 0.099605694 -0.02812512 -0.09574057
0.11758934 0.053565677 0.030914137 0.005289554 0.086403824 0.0058600307 0.056766823 0.09879282
-0.037182357 0.22611311 0.10420716 0.089484826 -0.17715427 0.04049684 0.03463639 -0.0134958625
0.069373354 -0.055514514 0.10279274 -0.09915135 -0.023604766 0.0059910053 -0.15339524 0.028665699
0.060164023 -0.1454274 -0.009237063 0.059980445 0.072601795 0.005003318 0.03450627 0.040592812
0.02873689 -0.034707714 -0.04044901 0.08477034 -0.09867141 0.104780465 0.011492545 -0.02498691
0.106997624 0.18220419 -0.04301281 0.10053234 -0.038634844 -0.055096507 0.27367872 -0.054564256
0.14532197 0.06189679 0.15796871 0.073625624 -0.10312082 0.18335079 0.108685605 -0.0142583605
0.093611516 0.11990458 0.057345074 0.07940724 -0.050270047 0.103920616 -0.056935538 -0.15244012
-0.08939325 0.016007971 -0.03559233 0.03965522 0.011072296 0.0754872 0.11722735 0.056158304
0.004398407 0.24734612 0.13203801 -0.009835631 -0.013709053 0.078380495 0.11137852 -0.0032310635
-0.0397878 0.17965846 -0.09432219 -0.044660904 0.026919976 0.23644523 -0.10389974 0.05324286
0.058860566 0.054338574 0.15672657 0.09140895 0.079360425 -0.08089578 -0.046155065 0.077859804
0.15261643 0.03565442 0.14555606 -0.08497197 -0.0022447556 0.04493019 -0.0031139287 0.12314267
0.10132555 0.06050154 -0.0418706 0.13094 0.04456395 0.025318637 0.25903592 -0.09754737
-0.0003891112 0.023377303 0.20376247 0.039068945 0.12243581 0.21503273 0.05993535 0.003550627
0.19410047 0.12581822 0.07937742 0.018672723 0.015437857 0.07433696 -0.08933401 0.0012925783
0.026910396 -0.12151411 -0.14463623 -0.08760288 -0.11356847 -0.044186473 0.11104095 0.017063737
0.22040649 0.26240537 -0.0041278563 0.066936895 -0.062110454 0.06551454 -0.027965778 -0.045256957
0.02704537 0.14601335 0.08176255 0.11054192 -0.11869666 0.067489155 -0.09300368 0.032743853
-0.018822253 0.02694705 0.108391635 0.20397861 -0.07488704 0.00058060884 -0.0938791 -0.13331448
00000000: 2193 0d3e b7e3 52bd 2c07 003d 1f35 00be
00000010: a071 f1bc 0629 c5bd aed6 023e 5d2f c53d
00000020: cda8 b93d d3a1 303e bf17 683d f202 413d
00000030: a8a3 d73d b4ed 7d3d 248d 3d3d 154e c53d
00000040: d523 1a3d 6b2a bb3c 4230 823d ff95 453e
00000050: 22ac b2bd d349 b63d 9e2e 1d3e 8d2b 88bc
00000060: 2150 373c 539f 15bd cb36 503d 6685 f23c
00000070: 40ab 97bc ee35 9f3d 8fa3 46bd 9472 7a3d
00000080: ebf5 c3bd 98ed b5bd a593 81bd 684d b13d
00000090: f00c 8c3d 0cff 253d b980 4b3d 32cc aebd
000000a0: 2852 103e 4bb2 973d a6c0 ebbb 40f5 edbb
000000b0: 6326 b5bd 8d09 943c 00e0 423e 88b0 f53c
000000c0: 74a1 bd3d 6d2d db3d e4eb f7bd ddd2 253c
000000d0: 5eba f43d 5bdc 1e3e 4f74 da3d 89c6 a83d
000000e0: 34df 033e 923e 4b3d bd59 dc3d de64 9a3e
000000f0: 7471 e73d cc58 93bd ae3c 05be e4b8 d5bd
00000100: 0ab2 f43d 8f90 713d d4a5 9b3d 0c46 193b
00000110: 0078 ba3a c02c ff3b ac02 ea3d cfd2 7fbc
00000120: c680 6dbc 92ee 2e3e 2449 c53d 3614 123e
00000130: 48cb 57bd a022 9f3c 380d 153e af9e 753d
00000140: 7543 e7bd 14e9 de3d a3a4 553e 95c4 32bd
00000150: 40bb 2cbb ff32 0c3d 9bd1 9cbc c157 1c3e
00000160: b6c2 a8bc d2a8 c3bd feb8 b83d 82f9 4b3c
00000170: b303 453d 12fe cb3d a766 e6bc a213 c4bd
00000180: aed2 f03d af67 5b3d a53f fd3c ff53 ad3b
00000190: 7df4 b03d 8005 c03b 5484 683d e453 ca3d
000001a0: 874c 18bd 328a 673e 906a d53d d243 b73d
000001b0: ee67 35be 04e0 253d e3de 0d3d c01d 5dbc
000001c0: 9e13 8e3d 3063 63bd 0085 d23d dd0f cbbd
000001d0: c85e c1bc 3250 c43b a413 1dbe 54d4 ea3c
000001e0: 8d6e 763d ecea 14be 0d57 17bc 0eae 753d
000001f0: 40b0 943d e0f2 a33b 7256 0d3d a644 263d
00000200: a069 eb3c ad29 0ebd dcad 25bd 129c ad3d
00000210: 3c14 cabd 2497 d63d 3a4b 3c3c 59b1 ccbc
00000220: 9221 db3d bc93 3a3e 332e 30bd e6e3 cd3d
00000230: 923f 1ebd e0ac 61bd 9e1f 8c3e c57e 5fbd
00000240: 48cf 143e 7d87 7d3d 8dc2 213e 08c9 963d
00000250: 0231 d3bd 4fc0 3b3e 8f96 de3d e69b 69bc
00000260: 65b7 bf3d 8890 f53d abe2 6a3d 43a0 a23d
00000270: f7e7 4dbd 55d4 d43d 3d35 69bd 4319 1cbe
00000280: cf13 b7bd 2623 833c 43c9 11bd 836d 223d
00000290: 9368 353c 0899 9a3d e514 f03d 4006 663d
000002a0: 8320 903b 4d48 7d3e f934 073e a025 21bc
000002b0: f09b 60bc f485 a03d 6c1a e43d 40c0 53bb
000002c0: 88f8 22bd 63f8 373e fe2b c1bd 5aee 36bd
000002d0: 4887 dc3c b31e 723e 63c9 d4bd 2f15 5a3d
000002e0: c717 713d 2092 5e3d ee7c 203e 9e34 bb3d
000002f0: b887 a23d b0ac a5bd 180d 3dbd f674 9f3d
00000300: 7b47 1c3e 5e0a 123d a60c 153e c905 aebd
00000310: c01c 13bb b808 383d 0e13 4cbb 3932 fc3d
00000320: c583 cf3d 76d0 773d 8280 2bbd 2315 063e
00000330: b088 363d 0869 cf3c 5ba0 843e eac6 c7bd
00000340: 9f01 ccb9 c281 bf3c 1ca7 503e c206 203d
00000350: a0bf fa3d 8a31 5c3e c57e 753d a3b1 683b
00000360: 46c2 463e 7ed6 003e a190 a23d 8af7 983c
00000370: 11ef 7c3c fa3d 983d c0f4 b6bd bb6b a93a
00000380: 3173 dc3c 64dc f8bd 851b 14be 2469 b3bd
00000390: 9696 e8bd e0fc 34bd 7069 e33d 40c9 8b3c
000003a0: 3db2 613e ff59 863e f842 87bb 3616 893d
000003b0: 8867 7ebd 7d2c 863d 7d18 e5bc 5c5f 39bd
000003c0: 408e dd3c 8684 153e 2073 a73d cd63 e23d
000003d0: 3c17 f3bd c137 8a3d b778 bebd 6b1e 063d
000003e0: 2031 9abc 0fc0 dc3c 6ffc dd3d c5df 503e
000003f0: 605e 99bd 0034 183a b043 c0bd 9783 08be

linear2.bias f4 [64]
0.20205684 0.13916405 0.15796983 0.21731906 0.2065878 0.064739026 0.038695514 -0.0040488094
-0.0044874726 -0.06928299 0.20715788 -0.0016831894 -0.106042564 0.08732797 0.22024675 0.0066746674
-0.103171855 -0.04604025 0.2470921 0.13148052 -0.0771296 -0.07074575 0.22091854 -0.07108529
0.09194713 -0.119571984 0.20985945 0.037327364 -0.017054036 -0.11268233 0.18436839 0.032716967
0.14880541 0.22979909 -0.0091295 -0.051403105 0.20701604 -0.05064274 0.027376875 0.043305174
-0.0051778434 0.06155233 0.06939532 -0.05675268 -0.09490905 0.24927843 0.102266155 0.22370882
0.094609596 0.108405 0.06574943 -0.036619548 0.0328722 0.09785032 0.0657379 -0.08769798
0.21288398 0.024183875 0.075688526 0.14857426 0.2468583 0.06251624 0.047580916 -0.10843742
00000000: fde7 4e3e 0581 0e3e d8c2 213e e388 5e3e
00000010: c18b 533e e595 843d 307f 1e3d e0ab 84bb
00000020: a60b 93bb 3ee4 8dbd 3221 543e 779e dcba
00000030: d82c d9bd 02d9 b23d 5d88 613e 2bb7 da3b
00000040: c44b d3bd b494 3cbd b605 7d3e d4a2 063e
00000050: 20f6 9dbd 26e3 90bd 7838 623e 2a95 91bd
00000060: c74e bc3d 28e2 f4bd 65e5 563e 94e4 183d
00000070: e8b4 8bbc fec5 e6bd 11cb 3c3e 3a02 063d
00000080: 7260 183e 7450 6b3e e693 15bc 108c 52bd
00000090: 03fc 533e c36e 4fbd 7845 e03c c460 313d
000000a0: e6aa a9bb 4c1e 7c3d 221f 8e3d 8075 68bd
000000b0: ad5f c2bd d842 7f3e eb70 d13d ed13 653e
000000c0: adc2 c13d 7103 de3d a3a7 863d 61fe 15bd
000000d0: 00a5 063d c065 c83d 98a1 863d 009b b3bd
000000e0: 42fe 593e 431d c63c 9602 9b3d da23 183e
000000f0: 6cc8 7c3e 8408 803d 35e4 423d 7014 debd

linear3.weight f4 [64, 64]
0.08575456 0.088828035 -0.0035005156 -0.0144613115 -0.02181966 0.13362293 -0.11920203 -0.022778854
0.00910816 -0.03454471 -0.00061692105 0.13536796 -0.11221693 0.032397874 0.024681225 0.13235164
-0.0011260211 0.049132407 0.19785917 0.09466544 0.012199894 -0.09875505 0.059560593 0.0003889352
0.063531965 -0.10779156 0.16068788 0.015387163 -0.100089066 -0.0069779158 -0.036104493 0.041315082
0.055004396 0.14162593 -0.0006783564 0.011918798 0.104844086 -0.045110274 0.05870773 -0.034749076
-0.07954284 0.09631851 0.15214767 0.09571561 0.07925679 0.21568482 0.110847525 0.13749626
0.1661385 -0.06761295 0.08239191 -0.09900705 0.021071091 -0.033259105 0.1935938 0.0636954
0.15070392 0.10440607 0.11473882 -0.015953539 0.20249335 0.06813693 -0.025099559 -0.0772786
0.03199992 0.00080275506 -0.003852389 0.15809001 -0.026479831 0.008502696 -0.10244997 0.0028801113
0.06723969 -0.016623717 0.007543579 0.04222773 0.10043685 -0.104061216 -0.064618304 0.0076416
-0.10800825 -0.088612735 0.094909385 0.069933906 0.04468684 0.010146638 0.09403164 0.025758028
0.011914767 0.006649792 0.16954845 -0.10796797 0.05882341 0.10301137 0.11893615 0.16531534
0.103612676 0.1351179 0.00891481 0.017742425 0.11224029 0.061012343 -0.06992729 0.029930994
0.013363518 -0.08666502 0.13429207 -0.027291685 -0.010084074 0.050782323 0.13440113 0.11590249
0.098705664 0.07603793 0.19306767 0.056874067 0.09543212 -0.073680565 0.06339536 0.027242387
0.07573169 -0.025169292 0.06943153 0.07606448 0.15250267 -0.042179987 0.02352464 0.11482975
0.091443434 -0.06268197 -0.045229197 -0.09789698 -0.08785543 -0.011860907 0.04572539 0.055635154
0.08493994 0.018298283 0.006812647 0.06184344 0.060431063 0.09312992 -0.0029197335 -0.02507779
-0.07892358 -0.040825024 0.046163082 -0.0053514093 0.106407955 0.043892995 -0.019217461 -0.010520458
-0.07574044 0.11424601 -0.05228302 -0.086804226 0.11020106 -0.034885854 -0.0036771148 0.06463733
0.100055575 -0.11551131 -0.048906162 0.06617932 0.058974102 0.09546353 -0.05696687 -0.04743749
-0.042015657 -0.015666544 0.06436215 0.019136935 0.10536787 0.07105477 0.12484115 -0.12186073
-0.065509245 0.06244199 0.030844614 -0.014695823 0.11773169 -0.11696035 0.06415428 0.0793322
-0.062974826 -0.045667768 0.05065885 0.035461053 0.066446885 0.061301395 -0.093921855 0.0021172315
0.05938442 -0.027733266 0.117608696 0.04983577 -0.026884183 0.005665511 -0.047893316 -0.039320603
-0.094131306 -0.016324073 0.08210443 -0.11459887 -0.022500843 0.021116912 0.053800195 0.055293977
-0.06401965 0.013780832 0.02207759 -0.027713448 -0.024999186 0.083079055 -0.0703039 -0.04257986
-0.053027704 -0.080456585 -0.059697777 -0.10683216 0.034762308 0.04922986 -0.122811526 0.023425743
-0.030503035 -0.11293435 -0.04387042 0.089181304 -0.1034998 -0.0864332 0.08269797 -0.06558961
-0.04795246 -0.08886759 0.08056913 0.044386774 -0.0098734945 -0.043185294 0.031978697 -0.028854847
-0.11673528 0.07135445 0.10482834 -0.1140413 0.11457534 -0.05783777 -0.042642936 0.10555023
0.008134127 -0.095136404 -0.03861682 0.09890087 0.014134124 0.047509477 0.11441752 -0.012428939
00000000: 16a0 af3d 79eb b53d e868 65bb 23ef 6cbc
00000010: 25bf b2bc 73d4 083e 3220 f4bd b89a babc
00000020: 643a 153c c17e 0dbd dfb8 21ba e69d 0a3e
00000030: fdd1 e5bd a2b3 043d 4830 ca3c 3087 073e
00000040: 0097 93ba 103f 493d 989b 4a3e f4df c13d
00000050: 10e2 473c 1640 cabd cff5 733d 00ea cb39
00000060: 0c1d 823d d2c1 dcbd 5d8b 243e 701a 7c3c
00000070: 7ffb ccbd 00a7 e4bb 4ee2 13bd 013a 293d
00000080: 4a4c 613d 6306 113e bad3 31ba 1047 433c
00000090: 7fb8 d63d 8dc5 38bd 8477 703d 0c55 0ebd
000000a0: 5be7 a2bd a442 c53d 99cc 1b3e 8c06 c43d
000000b0: 6251 a23d 7bdc 5c3e 0704 e33d d2cb 0c3e
000000c0: 3620 2a3e a978 8abd 17bd a83d 35c4 cabd
000000d0: 489d ac3c b33a 08bd 743d 463e bc72 823d
000000e0: 2152 1a3e dad2 d53d 30fc ea3d ffb0 82bc
000000f0: 6b5a 4f3e 608b 8b3d 979d cdbc 3e44 9ebd
00000100: 5912 033d fb6f 523a 5d78 7cbb 59e2 213e
00000110: 3bec d8bc e44e 0b3c 4ad1 d1bd 40c0 3c3b
00000120: f6b4 893d 762e 88bc 2130 f73b fcf6 2c3d
00000130: d6b1 cd3d 0c1e d5bd 9a56 84bd 6366 fa3b
00000140: 6e33 ddbd 987a b5bd da5f c23d 8239 8f3d
00000150: 8c09 373d 163e 263c a993 c03d 8002 d33c
00000160: 2836 433c 80e6 d93b 1c9e 2d3e 501e ddbd
00000170: d1f0 703d a0f7 d23d cc94 f33d 6d48 293e
00000180: e232 d43d 595c 0a3e 6c0f 123c 9058 913c
00000190: 3dde e53d 14e8 793d 0a36 8fbd d831 f53c
000001a0: a8f2 5a3c 6e7d b1bd dc83 093e d092 dfbc
000001b0: ac37 25bc 2001 503d 73a0 093e 495e ed3d
000001c0: 3226 ca3d c6b9 9b3d 88b3 453e c8f4 683d
000001d0: ea71 c33d d6e5 96bd 6dd5 813d 6d2b df3c
000001e0: 3719 9b3d d52f cebc 1e32 8e3d b2c7 9b3d
000001f0: a929 1c3e ecc4 2cbd bfb6 c03c dc2b eb3d
00000200: b246 bb3d 685f 80bd 4042 39bd 367e c8bd
00000210: 8ced b3bd 4054 42bc 8c4a 3b3d b0e1 633d
00000220: fef4 ad3d 48e6 953c a03c df3b 8c4f 7d3d
00000230: 9086 773d e6ba be3d 0059 3fbb f06f cdbc
00000240: b0a2 a1bd 2438 27bd 8015 3d3d e05a afbb
00000250: 6aec d93d 24c9 333d f06d 9dbc 005e 2cbc
00000260: ce1d 9bbd d0f9 e93d b826 56bd 6ac6 b1bd
00000270: 18b1 e13d 78e4 0ebd c0fb 70bb 9460 843d
00000280: f0e9 cc3d 3291 ecbd d451 48bd 0689 873d
00000290: d48e 713d 6282 c33d 1856 69bd d04d 42bd
000002a0: 9c18 2cbd 2057 80bc 4ed0 833d 10c5 9c3c
000002b0: 1ccb d73d 2a85 913d b8ac ff3d 1e92 f9bd
000002c0: b629 86bd 2cc3 7f3d d8ad fc3c c0c6 70bc
000002d0: 501d f13d e888 efbd 5263 833d ec78 a23d
000002e0: f2f8 80bd 200e 3bbd a87f 4f3d 9c3f 113d
000002f0: 4e15 883d 2c17 7b3d 1a5a c0bd 40c1 0a3b
00000300: 143d 733d e030 e3bc d4dc f03d 9820 4c3d
00000310: 383c dcbc c0a5 b93b c82b 44bd a40e 21bd
00000320: eac7 c0bd 10ba 85bc 5e26 a83d d0b2 eabd
00000330: b053 b8bc 60fd ac3c 985d 5c3d f07b 623d
00000340: bc1c 83bd 00c9 613c 10dc b43c 5007 e3bc
00000350: 18cb ccbc 5a25 aa3d 7efb 8fbd 3868 2ebd
00000360: 9433 59bd 6cc6 a4bd a885 74bd d2ca dabd
00000370: ec62 0e3d 40a5 493d 9c84 fbbd 58e7 bf3c
00000380: 80e1 f9bc 204a e7bd 78b1 33bd b0a4 b63d
00000390: b4f7 d3bd e403 b1bd 8e5d a93d d853 86bd
000003a0: cc69 44bd 3600 b6bd 6e01 a53d e8ce 353d
000003b0: 70c4 21bc 10e3 30bd 18fc 023d 0061 ecbc
000003c0: e812 efbd 4822 923d 3eb0 d63d 7c8e e9bd
000003d0: 7aa6 ea3d 4ce7 6cbd 5caa 2ebd b82a d83d
000003e0: 0045 053c e0d6 c2bd ac2c 1ebd 8a8c ca3d
000003f0: d092 673c 4c99 423d bc53 ea3d c0a2 4bbc

linear3.bias f4 [64]
0.12155141 0.02637064 -0.052002206 -0.046277717 0.00583376 0.20143417 -0.025429249 -0.023650697
0.01522924 0.19258907 0.087537475 0.14203873 0.17811154 -0.013820391 0.03201349 0.059764
0.08083819 0.1777639 0.0797768 0.09376723 0.004211472 0.10983597 0.043259293 0.11452081
0.03902508 0.050921276 0.076188624 -0.018069802 0.19316866 0.16471155 -0.0149333365 0.012775466
0.044329315 -0.017108982 0.1966454 -0.03403567 0.107245564 0.17916287 0.19734246 0.03622356
-0.12232992 -0.03906407 0.09213295 -0.04901261 -0.059994698 0.19797362 -0.035088174 0.1094654
0.17797947 0.176144 0.12453405 0.14173447 0.050025195 -0.014724133 -0.04213767 0.15643819
0.009016498 0.1181729 0.11018707 0.085116215 0.041399125 -0.04380203 0.087501116 0.07958061
00000000: f2ef f83d 3e07 d83c 4400 55bd b48d 3dbd
00000010: 2029 bf3b c244 4e3e 0051 d0bc 1bbf c1bc
00000020: 1084 793c 1236 453e d946 b33d 9a72 113e
00000030: df62 363e ec6e 62bc 9420 033d 19cb 743d
00000040: 7e8e a53d bd07 363e 0562 a33d 0909 c03d
00000050: 6300 8a3b aef1 e03d a830 313d e389 ea3d
00000060: c3d8 1f3d d492 503d c808 9c3d 1f07 94bc
00000070: 01ce 453e 25aa 283e f4aa 74bc 3050 513c
00000080: a892 353d 2328 8cbc 695d 493e fd68 0bbd
00000090: 90a3 db3d 7976 373e 2414 4a3e 285f 143d
000000a0: 1c88 fabd a501 20bd 33b0 bc3d 72c1 48bd
000000b0: 00bd 75bd 99b9 4a3e 9eb8 0fbd 652f e03d
000000c0: 4040 363e 185f 343e b50b ff3d d722 113e
000000d0: 38e7 4c3d 7d3d 71bc 8d98 2cbd 5531 203e
000000e0: efb9 133c a204 f23d c2a9 e13d 6951 ae3d
000000f0: 2192 293d c269 33bd c933 b33d 29fb a23d

linear4.weight f4 [1, 64]
-0.053890206 -0.077279575 0.0025237864 0.0023643493 -0.0022386278 -0.108036354 -0.04638263 -0.044973023
-0.0012584134 -0.051792752 -0.094529085 -0.11299907 -0.056779828 -0.04561484 -0.05615607 -0.056435347
-0.055697434 -0.054612212 -0.05695324 -0.04797665 -0.07806727 0.002455313 0.00018526733 -0.06297595
-0.059985664 3.2875203e-05 -0.0016670543 -0.0007608023 -0.07474143 -0.06315698 -0.056341317 -0.0015832189
-0.05555621 -0.04939363 -0.08401542 -0.045526277 0.0020352567 -0.05275004 -0.06547491 0.001969616
0.0008279586 -0.062865466 -0.060456425 -0.049666155 -0.0028247077 -0.11142433 -0.06091699 -0.055011995
-0.063979745 -0.050753128 -0.05840951 -0.05825498 -0.05723623 -0.060501914 -0.055611808 -0.08922488
-0.06107402 -0.0013721506 0.0016606393 -0.05014232 -0.06464876 -0.057582352 -0.056153275 -0.056536134
00000000: fabb 5cbd c144 9ebd 1c66 253b 33f3 1a3b
00000010: f1b5 12bb 2a42 ddbd b6fb 3dbd a235 38bd
00000020: 59f1 a4ba a324 54bd 7798 c1bd 0e6c e7bd
00000030: f791 68bd a0d6 3abd e803 66bd c028 67bd
00000040: fe22 64bd 0eb1 5fbd cd47 69bd 2a83 44bd
00000050: bce1 9fbd 51e9 203b 5244 4239 89f9 80bd
00000060: 87b3 75bd 7be3 0938 0f81 daba 9470 47ba
00000070: 0912 99bd 7258 81bd 27c6 66bd 0384 cfba
00000080: e98e 63bd fa50 4abd 4710 acbd c379 3abd
00000090: f161 053b 6d10 58bd b617 86bd ac14 013b
000000a0: 5c0b 593a 9cbf 80bd 28a1 77bd bd6e 4bbd
000000b0: bb1e 39bb 7032 e4bd 1884 79bd 4254 61bd
000000c0: d007 83bd 83e2 4fbd cf3e 6fbd c69c 6ebd
000000d0: 8970 6abd dbd0 77bd 35c9 63bd 89bb b6bd
000000e0: c028 7abd bcd9 b3ba cfa9 d93a 0962 4dbd
000000f0: 9266 84bd 79db 6bbd fa00 66bd 6f92 67bd
