models/2025-11-24 13:57:04/1/policy.pth (torch, 55714 bytes, 12 tensors)

linear1.weight f4 [64, 3]
000000 5c 50 2d be cb d6 9e 3e 0e 4d 84 be 4a 75 e1 be
       -0.16925186 0.3102325 -0.25840038 -0.44034797
000010 fb 71 16 3f 90 28 0b be 1b 04 23 3f 7f 84 e7 3e
       0.5876767 -0.13589692 0.6367814 0.45218274
000020 6a 66 31 3e 95 ba ad be cf ee cb bd a0 d8 b9 3e
       0.17324224 -0.33931413 -0.099576585 0.36298084
000030 df 57 d6 be 04 52 02 bf c4 a1 65 3c 26 3b b9 3e
       -0.41863915 -0.50906396 0.014015619 0.3617794
000040 ad 61 8f be 87 88 c3 be eb 16 31 be 6f a1 84 3d
       -0.28004208 -0.381901 -0.17293899 0.064761035
000050 6a 8c 7c 3e 8d ee c0 bd 6d 72 89 bb 85 a3 66 3d
       0.24662939 -0.094205 -0.004194549 0.056308288
000060 70 b8 02 bf 3d e0 1e be 12 cb 98 3e 96 69 ce 3d
       -0.5106268 -0.15515228 0.2984243 0.10078733
000070 ef 6d 36 3d 1e bb bf be 37 e5 f0 bc 8e 80 13 bd
       0.044538435 -0.37447447 -0.029406173 -0.03601127
000080 08 65 b5 3e ba 09 1a 3f 5c ca 11 3f e7 ef 4a be
       0.35428643 0.6017109 0.569494 -0.19818078
000090 55 d5 03 bf a6 77 1f bf 1e 1d 08 3f e5 dc a6 be
       -0.51497394 -0.62291944 0.5316943 -0.32590404
0000a0 fc 25 23 bd 5c 10 31 3e a6 0f 38 3e 0a a6 94 be
       -0.039831147 0.17291397 0.1797472 -0.29032928
0000b0 64 01 b3 be d3 76 ca 3e f4 42 61 be 81 d7 3b be
       -0.34961998 0.3954378 -0.21998197 -0.18343927
0000c0 9f 81 c0 be a5 c0 ed 3e 3a c7 75 3e a4 00 bc 3d
       -0.37598893 0.4643604 0.2400178 0.0917981
0000d0 f5 44 7c bd 4e ee 9a be 27 bf 07 3f e9 fb 07 be
       -0.0615892 -0.30259937 0.5302605 -0.1327969
0000e0 07 f8 66 be db df ea 3e cf 5f 16 be db 5e 02 3f
       -0.22555552 0.45873913 -0.14684986 0.5092599
0000f0 78 9c e8 be 71 30 a7 be 49 17 09 3e 8a 8c 84 be
       -0.45431876 -0.32654145 0.13387789 -0.25888473
000100 34 78 06 bb 34 88 db be 26 bd c0 be b1 8e 07 3f
       -0.0020518424 -0.42877352 -0.3764431 0.52952105
000110 00 5e ca be 4e bd b0 3e 0c 13 d3 be d5 e7 77 3e
       -0.3952484 0.34519428 -0.4122547 0.2420953
000120 69 ae ab be 95 d3 06 bf b3 ba d3 be d8 4e f0 3e
       -0.33531502 -0.526666 -0.41353378 0.46935153
000130 59 2a 1e 3e c2 17 b6 be f0 d8 b4 bd 14 ff ad be
       0.15445842 -0.35565 -0.0883044 -0.33983672
000140 74 76 c0 3e 8d 88 13 bf 33 e6 ff 3d 30 f2 b4 be
       0.37590373 -0.57630235 0.12495079 -0.35341024
000150 4f 0e 28 bd c8 9d dc 3e 8e 78 f5 3d d6 46 12 3f
       -0.04102927 0.43089128 0.119858846 0.5713934
000160 d5 21 b3 3d 3f 7a 0d be fe 9e ee 3e 3f e7 01 3e
       0.08746687 -0.13816164 0.46605676 0.1268587
000170 8d b6 52 bd b4 93 6b 3e bf 49 7a be e4 79 d5 3e
       -0.051443625 0.23005563 -0.24442194 0.41694558
000180 eb db b1 3e fe f1 8e 3e 88 97 14 3e 2d 73 0f 3f
       0.34738097 0.27919 0.1451093 0.5603512
000190 58 69 ad be fc b6 83 3e e9 41 92 bd 8f a7 a6 bd
       -0.33869433 0.25725543 -0.071414776 -0.08137428
0001a0 28 45 99 3e b3 d9 37 be b2 b0 10 bf ab eb 75 3e
       0.29935575 -0.1795414 -0.56519616 0.24015681
0001b0 38 c9 ae 3e 88 c7 1b 3f 5b 4a 95 3e 1e 90 1c bf
       0.34137893 0.60851336 0.2915829 -0.61157405
0001c0 34 4e 3c 3e a2 c3 2b 3e 08 b0 96 3d d4 98 82 3e
       0.18389207 0.16773847 0.07357794 0.25507224
0001d0 1d d5 83 3e f7 d3 f9 3e 92 64 09 3f 60 22 20 be
       0.2574853 0.4879453 0.53669083 -0.15638113
0001e0 32 76 b3 3e 98 de f9 be 4e 96 f6 be c8 e7 9b be
       0.35051113 -0.48802638 -0.48161548 -0.30450273
0001f0 8c 48 14 bf e6 77 e5 be b9 68 ed be 05 5e 0d bc
       -0.579232 -0.44818038 -0.4636896 -0.008628373
000200 2a df ef 3d d7 9c f4 3e 61 60 6f 3e df 03 34 be
       0.11712487 0.4777591 0.2337661 -0.17579602
000210 a1 99 14 bd 81 ec b8 be 73 cd 3c 3d 4f c2 30 3f
       -0.036279324 -0.36117938 0.04609437 0.6904649
000220 b6 09 23 bf 2c d2 17 be 3c 86 9a 3e 8e b7 e8 be
       -0.6368669 -0.14826268 0.30180538 -0.4545254
000230 57 94 91 be 22 e3 07 bf ee cd 92 bd e7 fb 6d 3e
       -0.28433487 -0.5308095 -0.07168184 0.23240624
000240 62 e7 0c bf b9 ce 0a 3f c2 ed 02 bd e3 94 c1 3e
       -0.5504056 0.54221684 -0.031965025 0.37808904
000250 77 cf ff be 0f 6c 63 3e 5d a1 0a 3f f2 fc 0e 3e
       -0.4996297 0.2220919 0.5415247 0.13963678
000260 40 ef 08 bf 7c 61 eb be 8a 4c 82 be 42 ce 93 bc
       -0.53490067 -0.45972812 -0.2544902 -0.018042687
000270 59 7d 2a 3d 92 65 0b 3f b8 96 ab 3d 5b 83 44 3e
       0.041623447 0.5445186 0.08378357 0.19190733
000280 09 39 e4 3e 4a c1 be 3e a6 91 13 3f 67 56 86 3e
       0.44574764 0.37256843 0.57644117 0.26237795
000290 54 8d 62 bd 99 00 4c 3e c5 d8 da be fe f0 b2 be
       -0.055310562 0.19922103 -0.42743507 -0.34949487
0002a0 6b b1 d8 be 7f 9a bd 3e be 90 85 be 84 a9 04 bf
       -0.4232286 0.37031934 -0.26086992 -0.5182116
0002b0 49 53 2f 3e 05 0a ce 3e aa f3 85 3e f5 21 fe be
       0.17121615 0.4024202 0.26162463 -0.49635282
0002c0 24 f1 bb be 5c 8c 25 3d 22 75 26 3e f5 b5 4c be
       -0.36707413 0.04041706 0.1625562 -0.19991286
0002d0 d3 55 34 3e 51 20 14 3f 70 04 d9 3d 7b 52 99 3e
       0.17610864 0.5786181 0.105965495 0.2994574
0002e0 71 12 2b 3f 83 5a 45 bd 5d 4f 89 3d e4 97 10 3f
       0.66825014 -0.04818202 0.067045905 0.56481767
0002f0 4e 27 91 bd ef 41 e2 3d 83 1a 0e 3f e1 05 c5 bd
       -0.07087575 0.11047732 0.55509204 -0.09620262

linear1.bias f4 [64]
000000 ce 28 c2 be c5 14 85 3e b9 13 03 3e 6e 0c 17 bc
       -0.37921757 0.25992408 0.12800492 -0.009219272
000010 7b f0 e8 be 0c bc 73 3e 4e e4 00 bf 53 df 24 bf
       -0.45495972 0.23802203 -0.50348365 -0.64403266
000020 4f e0 3f 3f 61 74 3c be 21 bc 0b 3d e2 23 90 3c
       0.7495164 -0.1840377 0.03411496 0.017595235
000030 4e 20 5e be af 76 0f bf 7d 3f d2 be 40 de 02 bf
       -0.21692011 -0.5604047 -0.41064063 -0.51120377
000040 05 bb 1c 3f 11 b6 f3 3e c0 06 d8 be f1 76 d8 be
       0.6122287 0.47599843 -0.4219265 -0.42278245
000050 9a 90 08 bf 7f f3 f5 3a 64 46 ff 3e 7b c4 e6 3e
       -0.53345644 0.0018764584 0.4985839 0.45071778
000060 3e fb 99 3e df 0d 11 3f 17 38 12 bf 52 c6 2c be
       0.30074495 0.5666179 -0.57116836 -0.16872528
000070 72 6d 99 3e 3b 95 25 be dc e0 c8 be ba 20 84 be
       0.29966313 -0.16170208 -0.39234054 -0.25806218
000080 12 52 88 3e 86 c1 3c be 27 99 1a bf a2 a6 34 3e
       0.26625115 -0.18433198 -0.6038994 0.1764169
000090 73 31 04 bf 0b 93 b3 3e 36 d7 43 be 8b a7 0d be
       -0.51637954 0.35073122 -0.19125065 -0.13833444
0000a0 22 ba 96 3e cc 6c 29 3e ca f1 2a 3f 25 00 cf be
       0.29438883 0.16545409 0.6677519 -0.40429798
0000b0 ee f9 f4 be b9 9f ae 3e 42 0c 06 bf 3f d0 8b 3e
       -0.4784693 0.34106234 -0.52362454 0.27307317
0000c0 e2 9c d4 bc 88 43 b1 3d a6 f5 c3 be e3 be f6 be
       -0.025953714 0.08655459 -0.38273352 -0.4819251
0000d0 f2 2e e7 be 64 60 0f 3c 19 57 1f 3e 3b f5 06 3f
       -0.45153004 0.008751009 0.15560569 0.5271794
0000e0 5b a6 45 3d 6f f7 a4 be 8d f1 4c 3c 9a d7 45 3d
       0.048254352 -0.32220027 0.012508762 0.048301317
0000f0 54 0d 0a bf fa 7f b5 be cc b3 1e 3f 1f bd 05 bf
       -0.5392659 -0.354492 0.619931 -0.522417

linear2.weight f4 [64, 64]
000000 e5 c8 be bc 0e f6 65 3d 2e be a0 bd 54 28 b3 3d
       -0.023289153 0.05614286 -0.07848774 0.08747926
000010 fe 16 ac 3c f0 84 41 bd 3a 3a b2 bc 2e 0c 15 3e
       0.021007057 -0.04724592 -0.02175628 0.14555427
000020 5d f8 16 bd 48 c2 d8 bc 77 02 8c bc f7 94 c4 3c
       -0.03685795 -0.026459828 -0.01709102 0.023996813
000030 8d 73 d3 3d 0b 8d 11 3e 4e c4 c5 bd 2c 03 e1 bd
       0.10324774 0.1421396 -0.09656583 -0.10986933
000040 8c f0 44 3c 9a 63 c3 3d f0 cd 9e bd 25 7f b1 3d
       0.0120202415 0.09540482 -0.07754123 0.08666829
000050 7b bb d4 bb 28 8b ad 3c db 7f 81 bd 7e 69 0a 3d
       -0.006492076 0.021184519 -0.063232146 0.03379201
000060 70 22 52 bc 68 78 fc 3c 11 16 83 3d 10 91 0b bd
       -0.012825593 0.030819133 0.06400693 -0.03407389
000070 45 1f b2 3c 3b 09 0d 3e 11 9f 36 3d fa 55 a6 bd
       0.021743426 0.13773052 0.04458529 -0.081218675
000080 42 b0 e3 bd 60 d3 8f bd 38 0e 0e bd e3 b1 87 bc
       -0.11117603 -0.070227385 -0.03468153 -0.016564315
000090 50 8c d4 3d 8a 75 f1 3c 7a 95 d4 3d a6 d3 38 be
       0.10378325 0.029474992 0.10380073 -0.18049487
0000a0 f0 7d cb 3c b8 c1 e5 3d 41 89 3b bd 43 e4 94 bb
       0.024840325 0.112185895 -0.045785192 -0.0045438125
0000b0 90 b8 47 bd 96 ac cf bd 00 2d 37 3d ce 49 77 bd
       -0.048759997 -0.1014034 0.04472065 -0.06037312
0000c0 4f 50 e7 3c a3 e3 f8 bd 54 d2 d6 bd b4 b6 bf 3c
       0.028236536 -0.12152793 -0.10489336 0.02340255
0000d0 27 81 bd bc bc 1f dc 3d 2d 20 11 3d 08 98 77 3d
       -0.023132874 0.1074824 0.035431076 0.060447723
0000e0 85 6c bb bd 8a d8 85 bd 9a a1 9f bd af 10 dd 3c
       -0.09151558 -0.06535442 -0.07794495 0.026985494
0000f0 e0 0c 67 3e 0e 3a a4 3d 3c 6e a3 3d cd 29 8d 3d
       0.22563505 0.080188856 0.0798001 0.068927385
000100 aa 69 12 be ed 9b 7a bc c4 e7 be 3d 28 de 19 bd
       -0.1429812 -0.015295965 0.093215495 -0.03756538
000110 32 bf 87 bc 88 72 65 bd 69 fa 39 3d fd 68 99 be
       -0.016570661 -0.05601743 0.045404825 -0.29962912
000120 ae 14 16 3e fc 1d b6 3d 23 ee 9e 3d 56 6b 9f bd
       0.14656326 0.08892438 0.07760265 -0.077841446
000130 c7 e6 bb 3a b7 81 fd bd 58 c5 4f 3d d8 86 b2 bc
       0.0014335745 -0.12378257 0.05072531 -0.021792814
000140 55 4d fb bc 68 3b a0 bc 44 3f 19 3d 20 cf 49 bc
       -0.030676523 -0.019559577 0.03741385 -0.012317449
000150 c9 6d b4 bd c1 7f 34 3d 1c d3 32 be f3 6b 15 be
       -0.08810002 0.044067148 -0.17463344 -0.1459196
000160 7d 47 9b 3d 0c 69 58 3d 6c 0e b2 3c d4 9b 68 be
       0.07581995 0.052834556 0.021735393 -0.22715694
000170 97 2b 4b bd ee 11 ba bd c0 5e ce 3b a0 b3 41 bd
       -0.049602117 -0.09085451 0.006297916 -0.047290444
000180 03 a4 1e bd 25 9c 0c be ef d1 0e bd 8a 09 9e bd
       -0.038730633 -0.1373144 -0.034868177 -0.07716663
000190 e7 00 85 bd 3a f1 b7 3d 84 12 81 3d 54 19 a5 3d
       -0.06494313 0.08981557 0.0630236 0.080614716
0001a0 68 e6 bf bd bc 97 26 bd 4a f7 80 3d 88 39 fd 3d
       -0.093701184 -0.04067205 0.06297167 0.12364489
0001b0 98 22 ee bd 78 e5 de 3d 02 17 e6 3d a9 e9 f0 3d
       -0.11627692 0.108836114 0.11234857 0.11763317
0001c0 45 c1 98 3c df ec a4 bc f8 4b 23 bd 60 3d 17 be
       0.018646846 -0.02013248 -0.03986737 -0.14769506
0001d0 c9 8a 01 be 9b e8 ca bc 28 df 0c 3d 58 0d e0 bc
       -0.12650599 -0.024769118 0.034392506 -0.027350113
0001e0 10 af 05 be 61 95 b0 3b aa f1 c6 bd d2 c0 25 bd
       -0.13055062 0.005388901 -0.097140625 -0.04046709
0001f0 f1 46 84 be 15 31 3b bd 52 c4 95 bd 2e 4a 82 be
       -0.25835374 -0.045701105 -0.07312836 -0.2544722
000200 c0 e1 0a be f6 0e 1a be eb dd d6 3d 60 70 03 3c
       -0.1356268 -0.1504477 0.10491546 0.008022398
000210 66 a8 3a bd a6 a7 81 bd 8f 32 b1 bb 8f 1b 84 be
       -0.045570754 -0.063308045 -0.0054076384 -0.25802276
000220 58 13 ad 3d fc e0 06 3d 04 30 0e bc 54 27 32 bd
       0.08450955 0.032929406 -0.00867844 -0.043494537
000230 93 01 e2 bd 2b c4 25 3d ce e0 9d bd 9c 86 b7 3d
       -0.110354565 0.040470283 -0.07708894 0.089612216
000240 04 b3 21 3d 1e d6 be bd 84 c0 d9 bd d1 55 89 3d
       0.039477363 -0.09318183 -0.106324226 0.06705821
000250 db 51 2b bd c0 77 20 be 6f b0 b1 bd a3 36 2d bd
       -0.04182611 -0.15670681 -0.0867623 -0.042288434
000260 88 eb 77 3c 80 91 05 bb 0c c1 86 3d 80 b8 d0 3b
       0.015131839 -0.0020380914 0.065797895 0.0063696504
000270 04 42 2e 3d 43 f8 08 3d 1f 5f cb bd 1a 2f f1 bc
       0.042543426 0.033439886 -0.09930252 -0.029441405
000280 de 04 c3 bd 4f bd c8 3c e9 73 91 3d 9d b8 25 3d
       -0.09522413 0.024504332 0.07102186 0.040459264
000290 bb 78 98 bd 1c c6 86 3d 50 22 b7 3c e8 5f b5 3d
       -0.074449025 0.06580755 0.022355229 0.08856183
0002a0 c8 77 72 bd 19 58 ba 3d 7d 88 c6 bd 6e b5 b6 3d
       -0.059196264 0.090988345 -0.09694002 0.08921324
0002b0 6e 48 6e bd db ce af 3d c6 58 c4 bd 5e 89 a0 3d
       -0.058174543 0.085843764 -0.09587245 0.07838701
0002c0 6a 1f 04 3d 90 9b 51 bd 12 e8 8b 3d da 0f 5d bd
       0.03225652 -0.051173747 0.06831373 -0.053970195
0002d0 d1 62 03 bd 3e c5 f6 bd 1a bc 05 be 00 88 f6 bc
       -0.03207666 -0.1204934 -0.13060036 -0.030094147
0002e0 7a fe 40 be d5 65 b8 3d c0 99 42 3d a2 73 ac bc
       -0.18847075 0.09003798 0.04750991 -0.021051232
0002f0 83 34 22 be 1e ec e0 3d 73 e1 29 3e 37 8c 80 bd
       -0.15840344 0.10982536 0.16589908 -0.06276744
000300 e0 44 d8 3c 6a cd c2 bd d6 98 35 3d ad 64 c1 3d
       0.02640003 -0.09511836 0.04433521 0.094430305
000310 ef 16 bf bc c8 f6 a3 bd bb 73 0d 3e 14 7f 67 3e
       -0.023326365 -0.08006054 0.13813679 0.2260707
000320 ca 15 9b bb c8 47 cd bc 29 d1 70 bd 2a ce 76 3d
       -0.004732822 -0.025058642 -0.05879322 0.060255207
000330 2c 84 ae bd 77 c6 ba 3d 26 af f2 3d 74 57 99 bd
       -0.085213035 0.091198854 0.11849813 -0.074873835
000340 ee 16 11 3c 40 47 41 3b f4 41 66 bd af 0f 0e 3c
       0.0088555645 0.0029491931 -0.05621524 0.008670731
000350 ad a5 f4 3d 34 a3 56 3d fe 1b 8e 3d 6a 52 06 be
       0.11945663 0.052401736 0.06938933 -0.13117376
000360 58 29 9a 3c 80 a6 96 bb 60 1c 01 3e f3 d7 c8 bd
       0.018818542 -0.004597485 0.1260848 -0.09806814
000370 d7 df 4c 3c ff 59 9a 3d f5 15 e9 3d 06 4c c7 bb
       0.012504539 0.07536697 0.11381141 -0.0060820607
000380 6f 58 14 bc 66 f7 2e 3d 2c c1 21 bd 3b a1 94 bd
       -0.009054287 0.042716406 -0.039490864 -0.07257315
000390 0f d8 5c 3d 33 d8 d5 bb ed 1d f0 3d a1 01 c0 3c
       0.053916987 -0.006526017 0.11724458 0.023438277
0003a0 0c c8 14 bd be ac c0 3d 97 21 da 3b 55 bd f6 3d
       -0.036323592 0.09407948 0.0066568363 0.12047831
0003b0 8b d4 04 3e 21 16 b5 bd 10 84 71 3c d6 34 d0 bd
       0.12971704 -0.088421114 0.014740959 -0.10166328
0003c0 65 83 8f 3d eb 61 ce 3c 76 72 a0 bd b8 1b 8d 3d
       0.070074834 0.025193175 -0.07834332 0.068900526
0003d0 2c 12 08 3e 42 87 6a bd 5d dc ea bd f2 7b e7 3d
       0.13288182 -0.0572579 -0.11467812 0.113029376
0003e0 aa 72 88 bd bf 66 b4 3c e8 f9 cd 3d 4b 00 36 3d
       -0.066624954 0.02202165 0.100574315 0.044433873
0003f0 b9 8e a2 bc f7 68 8f 3c 60 d9 a5 bc 50 4a ff 3d
       -0.019843446 0.017506106 -0.020245254 0.12465346

linear2.bias f4 [64]
000000 c3 35 7a be bf d3 81 3e 8d 08 3d 3e 98 d8 4f be
       -0.24434571 0.25356862 0.18460293 -0.20297468
000010 7e 6b 9a 3e 98 61 92 3e 4f d4 c4 bc a9 fd dc 3d
       0.30160135 0.28590083 -0.024027018 0.10790569
000020 ed f7 83 3e 03 6a 93 3e bb e1 ab 3c b5 fc 1b bb
       0.2577509 0.28791818 0.02098166 -0.0023801748
000030 36 aa 9a be 37 00 2e 3e 81 91 bf 3d 23 94 0f 3d
       -0.30207986 0.1699227 0.093539245 0.035053384
000040 06 23 8c bd bd 2a 8e bd e5 c4 28 3e 29 58 9f 3e
       -0.06842618 -0.069417454 0.1648136 0.31121948
000050 69 70 a9 3d 69 80 56 bd c6 66 11 3d af 33 9d 3e
       0.08273394 -0.052368555 0.035498403 0.30703494
000060 97 54 8a be 55 17 b8 3e 95 97 6c 3e 97 2a 10 bd
       -0.27017662 0.359553 0.23104699 -0.035196867
000070 76 5e 31 3c e0 d4 c4 3e 34 20 99 bd 3a 63 f4 3d
       0.010825744 0.3844366 -0.074768454 0.119329885
000080 4a a4 7f bd 57 e8 6d 3e 96 72 86 3d a0 81 0f be
       -0.062412538 0.23233162 0.06564824 -0.14014292
000090 11 91 a2 3d 17 b1 22 be 80 c1 c7 ba cb 89 43 3d
       0.079378255 -0.15887867 -0.0015240163 0.04773883
0000a0 25 e7 e8 3d 88 71 ec 3d 64 a4 82 3d 1c 20 a3 bd
       0.11372212 0.11545092 0.06379011 -0.07965109
0000b0 ea ea 9e 3e 0a 96 d6 3d 6e f5 2b 3e 3e d4 8a 3d
       0.310386 0.104778364 0.16792843 0.06778763
0000c0 7f eb 5c 3e cd 15 0f 3c fd fc 8c 3e ad b1 d2 3d
       0.2157421 0.008733225 0.27536765 0.10287795
0000d0 63 ce 3a 3d c2 c8 95 3e 7f 99 92 3e 5d ff c7 3d
       0.045606982 0.2925473 0.28632733 0.097655036
0000e0 8a 81 8f be 75 76 fc bd b1 0f 7d 3e 9a f5 a1 3d
       -0.28028518 -0.123272814 0.24713017 0.07908173
0000f0 c7 cc fe 3d 8c 69 99 3e 3c 76 17 3e 8c f5 12 bc
       0.12441402 0.29963338 0.14791197 -0.008969676

linear3.weight f4 [64, 64]
000000 57 ce b8 bd 52 06 a5 bc 17 73 60 3d bb 56 0e be
       -0.09023731 -0.020144615 0.05479726 -0.13900273
000010 98 18 9c bc fb ca ff 3b 6e ef f7 bd 20 55 99 3d
       -0.019054696 0.0078061796 -0.121062145 0.074869394
000020 d8 68 42 3d 9a 0b 93 3d 0c 9e 14 3d 59 e7 a9 bd
       0.047463268 0.07179947 0.036283538 -0.08296079
000030 8c c5 90 3d e3 b8 a9 3d c5 72 f7 3d 14 43 68 3d
       0.07068929 0.082872175 0.120824374 0.056704596
000040 89 bd c3 bb a5 e2 ac bd 7d 23 ca 3d db c3 8e bd
       -0.005973522 -0.084416665 0.0987005 -0.0697095
000050 e6 18 b2 bd 79 e8 eb 3d 46 63 c2 bd 8c 25 f9 3d
       -0.08696155 0.1151895 -0.09491591 0.121653646
000060 bb e5 2c be da 29 18 3d e1 a0 5d 3d 83 cf a7 bb
       -0.1688451 0.037149288 0.054108504 -0.005121173
000070 b1 ac a5 3d 46 a5 15 3d 10 12 dd 3d 8e c3 d2 bd
       0.08089579 0.03653457 0.10794461 -0.10291205
000080 0e e8 c4 3c 9d a8 00 3e 96 29 da bd 0f 8c f9 bd
       0.024036434 0.12564321 -0.10652463 -0.12184917
000090 80 a1 75 3c ea b7 2a be 20 56 02 bc eb cb 26 bd
       0.014992118 -0.1667172 -0.007955104 -0.040721815
0000a0 65 7f b7 bd e0 e0 f2 3b 84 5c 88 bd 44 b1 10 3d
       -0.089598455 0.007412061 -0.06658271 0.035325304
0000b0 43 37 bd bc a6 90 97 3d 18 52 ef 3d a7 63 8b bd
       -0.02309764 0.074006364 0.1168558 -0.068061166
0000c0 02 83 c9 3d 30 fe 02 be 67 59 96 bc 9b 3c b6 3d
       0.09839441 -0.12792277 -0.018353177 0.08898278
0000d0 67 55 21 bd 84 9e e8 3d e0 cc 58 bc fc 8c 81 bd
       -0.039388087 0.113583595 -0.01323244 -0.06325719
0000e0 5b 23 24 3c 81 84 ae bc 21 85 be bc 2a 79 99 3d
       0.010018195 -0.021303417 -0.02325684 0.07493813
0000f0 16 d4 67 bd 92 a2 83 bd 5f 40 27 3d 35 e0 9b 3c
       -0.056598745 -0.06427492 0.040832873 0.019027809
000100 89 4c 77 3d a8 5f 8a 3d b5 6f 5c bb 83 db 34 bc
       0.060375724 0.06756526 -0.0033635919 -0.011038664
000110 5a 83 4a bd a7 9d 28 3d c6 fe fd bd a1 6d 56 3d
       -0.049441673 0.041165974 -0.1240211 0.052350644
000120 63 b4 a8 bd b8 d3 49 bd 0c b5 47 3d 98 cc 2f bd
       -0.08237531 -0.049274176 0.048756644 -0.042919725
000130 50 08 cd 3d e1 47 97 bd c1 23 9c 3c af 7d 52 3d
       0.10011351 -0.07386757 0.019060018 0.051389392
000140 74 78 79 bb 9d 13 94 bc 21 2d 07 be 8b 0f 00 be
       -0.003806618 -0.018075759 -0.13200809 -0.12505929
000150 ce 47 f4 bb c8 89 f9 bd 58 4a a5 3c 8d 3a c0 bd
       -0.007454849 -0.12184483 0.020177051 -0.09386168
000160 85 08 f4 bd 1d 11 a7 3d 61 19 06 bb f3 c7 b8 bd
       -0.119156875 0.08157561 -0.0020461904 -0.09022512
000170 e4 50 ec 3d 69 52 06 3d 52 cf e3 3d d4 de 3d 3d
       0.11538866 0.032793436 0.111235276 0.046355084
000180 94 34 c3 bd 42 cb a6 3d d1 f5 9d bc d6 ac 5a 3d
       -0.09531513 0.08144237 -0.019282253 0.053387485
000190 20 a4 b6 3b 6d f9 b4 bd f0 d8 89 bc 82 ce b3 3b
       0.0055737644 -0.08836637 -0.016827077 0.005487264
0001a0 6d dc 63 bd 76 4f 80 3d 7c 0d 3a bd da 9a 8b 3d
       -0.055630136 0.06265156 -0.045423016 0.06816645
0001b0 e2 05 a5 bd 63 b7 c5 3d 3e c0 bf 3d b7 ff dd 3c
       -0.08057763 0.09654119 0.09362839 0.027099473
0001c0 02 bb 9d bb 72 77 82 3d aa d8 21 be be 07 d2 3d
       -0.004813553 0.06370439 -0.15805307 0.10255383
0001d0 a4 a0 68 3d e4 54 be bd 55 b4 64 bd ea d9 ce bc
       0.056793824 -0.09293535 -0.05583604 -0.025250394
0001e0 be a9 2f bd 6d e7 e9 bc 7f cd b3 3d 01 69 1b be
       -0.04288649 -0.028552735 0.0877943 -0.15176775
0001f0 d1 70 b6 3d f1 1b 91 bd 21 46 ed bc 6c 6d cd 3d
       0.08908237 -0.070854075 -0.028964104 0.10030636
000200 c5 27 ff 3c 29 ee 5a 3e 57 14 8d bd c8 1a 26 bc
       0.031146893 0.21379913 -0.06888645 -0.010138221
000210 b8 a0 07 3e 67 21 4b 3a 38 c0 b2 bd 52 4f aa 3c
       0.13244903 0.0007748813 -0.08728069 0.020789776
000220 74 da a1 be 5b ab 4e 3d e5 ee a5 3d 6c c5 e7 3c
       -0.3161198 0.050456386 0.08102206 0.02829238
000230 b5 e9 a5 bd 27 fa 62 3d ae ee 35 bd b2 70 8b bd
       -0.08101217 0.055414345 -0.044417076 -0.06808604
000240 91 be 14 3e 86 e2 a2 3d 0f 23 53 3d 55 c3 f9 3c
       0.1452582 0.07953362 0.051547106 0.03048865
000250 7b ff 61 be cf 8e 54 bd 90 37 52 3d d2 af a4 bd
       -0.22070114 -0.051894005 0.05132252 -0.080413476
000260 d1 39 42 3e ab 5b de bd 62 46 26 be 25 3f 70 be
       0.18967368 -0.10857328 -0.16237786 -0.23461588
000270 36 c4 95 bd bb 30 9d bd 63 32 7f bd fc 1e 2c 3d
       -0.07312815 -0.0767531 -0.062303912 0.042021737
000280 28 71 a2 3c b8 23 09 be d1 a8 4a bd 2a 3d 10 be
       0.019829348 -0.13392532 -0.049477402 -0.14085832
000290 c1 3c b1 bd f8 1c 84 3e c4 d4 0a bd 7e 58 47 3e
       -0.08654166 0.2580335 -0.033894315 0.19467351
0002a0 96 b8 f5 bc a8 d2 35 3d 88 c6 f7 bc 4e 4b 8a bd
       -0.029995244 0.04439035 -0.030246034 -0.067526445
0002b0 c8 48 bf be 6b eb fa ba 18 de 9a 3d 57 53 be bd
       -0.37360215 -0.0019143646 0.07561892 -0.092932396
0002c0 63 e2 0c 3e 74 b0 9f 3d 4c 30 5c 3d 46 5c 8f 3d
       0.13758235 0.07797328 0.053756997 0.07000022
0002d0 a4 41 bd 3d 85 16 35 bc df 6b d6 bc a0 55 5d bd
       0.092410356 -0.011052732 -0.026174484 -0.054036736
0002e0 e9 51 05 bd e9 75 7c 3d 47 1a 52 be 76 2a 30 3e
       -0.03254882 0.061635885 -0.20517837 0.17203698
0002f0 47 02 e7 3d 28 29 cd 3d ee b7 db 3d 81 eb 2c bd
       0.11279731 0.100176156 0.10728441 -0.04221678
000300 66 47 dc bd 09 5b e9 3d b2 59 59 bd c0 e9 d6 3c
       -0.10755806 0.11394317 -0.053064056 0.026234508
000310 b4 97 7f bd a5 fb 1d be bb 07 37 bd 48 75 d0 3d
       -0.062400535 -0.15428026 -0.044685107 0.101786196
000320 4c 8d b9 3d 25 2b 08 be 34 99 27 bd 74 10 b0 bd
       0.09060153 -0.13297708 -0.04091759 -0.08596888
000330 2d 0f 2e 3e 86 ed 46 3c 80 50 a7 bd b1 cf 6a 3d
       0.16997977 0.012141591 -0.08169651 0.057326976
000340 78 b7 64 be 71 cc da bd d5 51 7c 3d 3d 40 e9 bd
       -0.22335613 -0.10683525 0.06160148 -0.113892056
000350 b8 90 d0 3d 5c 10 0f bd a1 9f a1 3d af 5f b6 3d
       0.10183853 -0.03492771 0.07891775 0.08904969
000360 1f 61 02 bd 8e 9e cd 3d b2 83 a9 bc 83 4b d7 3d
       -0.031830903 0.100400075 -0.02069268 0.105124496
000370 d9 35 2e 3c 6e 60 69 bd 25 b9 78 3c 2c b7 8f 3d
       0.0106329555 -0.05697673 0.015180861 0.07017359
000380 c7 03 f4 3c 35 28 dc 3d fe 44 81 bc e5 a8 e9 3d
       0.029786957 0.107498564 -0.015779968 0.11409167
000390 9b 8a de 3d de 64 13 be 80 56 16 bc fe e7 9d bd
       0.10866281 -0.14393947 -0.009175897 -0.077102646
0003a0 89 c8 7b bc 64 f4 f2 bd 6c f3 d6 3d 0a 87 91 3d
       -0.0153676355 -0.1186302 0.10495648 0.07105835
0003b0 29 8e d5 3d 8b ce c7 bd 87 2f 06 3e a8 d8 7d bc
       0.104275055 -0.09756192 0.13104068 -0.015493549
0003c0 d0 e5 b9 bd 15 ea ea bb c1 80 e3 bd 49 95 ae 3d
       -0.090770364 -0.007169018 -0.11108542 0.08524568
0003d0 a7 aa f2 bd 9b 20 92 bd 8a e3 8f 3d ab 7b f0 bc
       -0.118489556 -0.07135125 0.070258215 -0.029355844
0003e0 34 18 43 3d e9 96 16 3c 0a 66 53 3d 98 5b fa bd
       0.047630504 0.009191253 0.051610984 -0.12224501
0003f0 55 ca 38 bd 43 24 d3 bd 57 11 97 3c 87 c3 bb 3c
       -0.045114834 -0.10309651 0.018440885 0.022920383

linear3.bias f4 [64]
000000 b9 99 b3 3e 0d 13 da 3c d3 a3 24 be 8f 75 e8 bd
       0.3507822 0.026620412 -0.16078119 -0.113505475
000010 94 c9 4e 3d 90 e3 e9 3d a1 d4 94 3e 10 ca 8b 3d
       0.05048521 0.11420357 0.29068473 0.0682565
000020 77 78 b7 bd 32 2a a2 bd fe ef 24 3e c2 23 3f be
       -0.08958524 -0.07918204 0.16107175 -0.18665984
000030 49 cc cc bd e1 93 a3 3e 60 a5 4e 3e 36 11 cd bb
       -0.09999902 0.3194876 0.20180273 -0.006258155
000040 e2 4d 88 3e 49 b3 21 3e d5 bf 84 bd 98 31 80 3e
       0.2662192 0.15791048 -0.064819016 0.25037837
000050 13 22 2b 3e 38 91 b3 3d a8 26 59 3e ad 43 92 3c
       0.16712217 0.08767933 0.21206152 0.017854536
000060 fb 82 c5 3d 3b 88 ec bd a1 35 7c bd bb 87 93 3e
       0.09644123 -0.115494214 -0.061574582 0.28814492
000070 0a ea f8 3c 62 20 53 3d 01 29 11 be 92 6f bf 3e
       0.030385036 0.051544555 -0.14175798 0.3738981
000080 fd 89 c0 bc 28 a8 af 3e af 4b 22 3d 50 28 9f 3e
       -0.023503298 0.3430798 0.03962296 0.31085443
000090 76 64 29 be b2 b1 84 3e 56 08 99 bd 62 20 42 be
       -0.16542229 0.2591682 -0.07472293 -0.18957666
0000a0 a0 ac 82 be d1 bb 64 3e 89 f5 e3 bd 7b 82 77 3e
       -0.25522327 0.22337271 -0.111308165 0.24170868
0000b0 d7 ce ce bb 74 e4 46 bd 24 f7 fc bc cb c0 59 be
       -0.0063112783 -0.048557714 -0.030879565 -0.21264951
0000c0 6d d0 c1 3d ad b4 9e 3d 08 c0 60 bd 32 f4 c6 bd
       0.09463582 0.07749305 -0.054870635 -0.09714545
0000d0 0f fb 59 3e 64 b2 6c be cc d4 0f bd 00 98 4d bc
       0.21287178 -0.23114926 -0.03511505 -0.012548447
0000e0 26 ec 84 be 6f 0e 25 be f8 8d b2 bd ae e3 9d 3e
       -0.25961417 -0.16118787 -0.08718485 0.30837768
0000f0 c3 d4 8d 3d d0 a1 8a 3e 02 65 20 3e 45 6c 8d be
       0.06925347 0.27076578 0.15663531 -0.27621666

linear4.weight f4 [64, 64]
000000 8a d5 24 3d 05 5b cb bc b1 8b 99 be ef d6 9d bd
       0.04024271 -0.024823675 -0.2998939 -0.07707011
000010 e7 78 4d 3d 21 a9 35 3c 41 29 d4 3d 21 cd 68 3d
       0.05016413 0.011087687 0.10359431 0.05683625
000020 8f b5 e1 bd 16 bb c1 3d 3f 52 92 bd ec 27 f6 bd
       -0.11020958 0.09459512 -0.071445934 -0.12019333
000030 fa da 37 bd 6c 66 ce 3c 29 d0 cb 3d 16 46 a1 3b
       -0.044886567 0.025195323 0.09951813 0.004921685
000040 e6 f6 58 bd e9 46 3f 3c 20 ac 01 be 11 24 73 bb
       -0.052969836 0.011674621 -0.12663317 -0.0037100355
000050 c5 af 02 3e 14 9c 0d bd 93 17 0b be f3 09 27 3d
       0.12762363 -0.034572676 -0.13583212 0.040780973
000060 05 26 a6 bc 52 d8 99 bd ee 58 3d bd 99 d7 a0 3d
       -0.020281801 -0.07511963 -0.046227388 0.07853622
000070 50 41 ac 3c b0 ae 0e 3e bf 1e 45 be 6d 9d 9d 3d
       0.021027237 0.13933825 -0.1925001 0.07696042
000080 ea 18 95 3b 88 a0 e7 3c b8 04 27 3d 57 5b 07 bd
       0.004550089 0.02827479 0.040775985 -0.033046093
000090 83 68 f3 bd 61 a2 f2 bd db dd 9b 3d 92 ba df bd
       -0.118851684 -0.118473776 0.07610675 -0.10924257
0000a0 3a ae c5 be 16 e8 a7 3d 6a 99 46 3b 9a 0b f3 3c
       -0.38609487 0.08198564 0.0030303844 0.029668618
0000b0 4a 12 cf 3d c9 95 82 bc 06 5a 5a bd e5 2d d8 bd
       0.1011091 -0.015940564 -0.05330851 -0.10555629
0000c0 d8 41 b0 3d 34 bc ce bd 8e b4 d8 bd 94 af 9c 3d
       0.08606309 -0.10094491 -0.10581313 0.07650676
0000d0 6a 0d 21 3e 3d 32 4a 3c 92 79 cc bd 5c d9 fd bc
       0.15727773 0.012341079 -0.09984125 -0.030987434
0000e0 eb 3e 6d bd e8 26 b1 be ca d5 7a 3d 94 88 15 3e
       -0.05792133 -0.34599996 0.06123904 0.14602882
0000f0 41 84 2a 3e 76 6e 89 3d 7a b8 e9 3d c2 bb 66 bd
       0.16652013 0.06710522 0.11412139 -0.056331404
000100 43 7e 14 3e 46 c2 bf 3d e9 e6 4d 3c 35 09 00 bd
       0.1450129 0.093632266 0.01256726 -0.03125878
000110 17 ec 12 3e f5 57 c3 3d 74 a5 0b bd 92 6c 02 be
       0.14347874 0.09538261 -0.034093335 -0.12736729
000120 41 6b 84 bd e8 8d b3 bd 09 e0 1d 3e 72 49 42 be
       -0.064657696 -0.08767301 0.15417494 -0.1897333
000130 71 96 08 3c ce 1c 1a 3e df 73 9f 3b aa b7 50 3d
       0.008336649 0.1505005 0.004866108 0.050956406
000140 2d c5 cc 3d 45 a3 8a bd 88 ff 8d bc 69 51 71 bd
       0.09998546 -0.067694224 -0.01733376 -0.05891553
000150 ac 2d 61 bd 64 cc 0e bd d1 81 91 bd 9a 38 c5 bc
       -0.054975197 -0.03486289 -0.07104839 -0.024074841
000160 63 3f 89 3d db f2 de 3d 4c 5c b2 3d 0a 3c 97 3d
       0.06701543 0.10886165 0.087090105 0.073844984
000170 ca d7 e6 3d 80 e0 cc 3c e9 0e 52 3c 65 8c b0 bd
       0.11271627 0.025009394 0.012820938 -0.08620528
000180 15 c1 fb bc 54 19 1d 3e 9b f7 64 3d eb df d0 3d
       -0.030731717 0.15341693 0.055900197 0.10198959
000190 a2 45 1f bd 25 30 fd 3d 9e 14 0e bc 19 c4 90 bc
       -0.038884766 0.123626985 -0.008671908 -0.017671632
0001a0 7a 07 64 bd 87 9b fb 3c 1d 7a 45 3d d8 b9 c7 bc
       -0.055671193 0.03071381 0.04821216 -0.02438061
0001b0 43 20 b5 bd f5 fe 2e bd 06 20 90 bd 99 e5 a0 bd
       -0.08844044 -0.042723615 -0.07037358 -0.07856292
0001c0 25 f2 c8 3d d7 b1 6e 3d 65 dd 09 3c df 54 2d bd
       0.098118104 0.05827507 0.008414601 -0.042317268
0001d0 a0 a9 1c 3e 11 66 1c 3b dc 12 28 3d 91 8c 91 3d
       0.15299082 0.0023864547 0.04103361 0.07106889
0001e0 a4 90 9e bd 9e 74 0c be a5 c9 32 3d b0 0f 9f 3d
       -0.07742432 -0.13716361 0.043649334 0.07766664
0001f0 c7 09 8f bd 2f 63 bf ba 4e f6 b6 3c 95 66 9e bc
       -0.06984287 -0.0014601703 0.022334244 -0.019336024
000200 96 bf ea 3d 31 e8 43 bd c3 f3 84 be 19 71 bf bd
       0.11462323 -0.047828857 -0.25967225 -0.093477435
000210 0c c5 86 bd 8e c5 f9 3d 08 7d 1f 3e f3 ed bb bd
       -0.065805525 0.12195884 0.1557504 -0.091762446
000220 da c3 9a bb 00 c0 7e 38 95 0e 64 3d 60 ee 44 3d
       -0.0047230544 6.0737133e-05 0.05567797 0.048078895
000230 0b 9f bd bd 43 82 d1 bc 84 d6 a3 3d 42 83 fc bb
       -0.09258851 -0.025574809 0.079999 -0.007706077
000240 76 41 22 3b e4 8f c2 3d 09 e0 92 3d 87 f8 17 3e
       0.0024758256 0.09500101 0.071716376 0.148409
000250 ef 63 e3 bb 0c 81 27 3d 9a 5e f9 bd 00 2a 71 3d
       -0.0069394032 0.040894553 -0.12176247 0.058877945
000260 14 9a c8 3d 90 2e 2f bd 20 38 b7 3d f0 ea 2c 3e
       0.09795013 -0.042769015 0.08946252 0.16886497
000270 d5 b6 93 bc 5a 72 9f bd 4c bf e0 bb c4 cc 03 3e
       -0.018031517 -0.07785483 -0.006858742 0.1287108
000280 57 19 80 3d f0 40 77 bd b1 d9 8a bd 28 d0 b7 3d
       0.06254833 -0.060364664 -0.067798026 0.089752495
000290 da b2 21 bd 75 4c b8 bd ac b2 d1 bd 32 17 e5 bd
       -0.039477207 -0.08998958 -0.10239157 -0.11186065
0002a0 e6 4f b1 be 10 a6 44 bd e7 51 05 bd f7 dc 4d 3d
       -0.3463127 -0.048009932 -0.03254881 0.050259557
0002b0 70 3e cc bc e0 66 c3 bc 14 aa cf bd f2 47 82 be
       -0.024932116 -0.023852766 -0.10139862 -0.25445515
0002c0 1d fb 27 3d 4a 9d a0 3d 8b c2 07 3e 1a e1 bc bd
       0.041010965 0.078425005 0.13257806 -0.09222622
0002d0 c1 21 19 3e 0f 6e c1 3b 90 37 f6 3d cd 01 03 3e
       0.14954282 0.0059030126 0.120223165 0.12793656
0002e0 1b 7e 2e be a0 55 53 be ef d3 7f bd 68 4e cb 3d
       -0.17040293 -0.20638132 -0.062457975 0.09927064
0002f0 db 84 af bd 28 1f c4 bd fc 85 f9 3d c8 d8 d8 bd
       -0.08570262 -0.09576255 0.121837586 -0.10588223
000300 63 0f fd 3d d8 b8 43 3d 2f cb fc bd ae e8 1b bc
       0.123564504 0.047783703 -0.12343442 -0.009515924
000310 73 fa 30 3d 73 bc 6b 3d cd 36 8f 3d 2f 3c 3c 3d
       0.043207597 0.057552766 0.06992874 0.045955833
000320 02 0c cf 3d a8 8e 91 bd 89 6c 39 3d 7c 15 cc bd
       0.10109712 -0.07107288 0.045269523 -0.09965035
000330 f5 86 a1 bd e1 00 9a 3c 32 ad b9 3d 2c 3a 83 bd
       -0.07887069 0.018799247 0.090662375 -0.0640758
000340 52 36 c3 3b 96 8e 7f bd 09 93 8b 3d c6 be b9 3d
       0.005957403 -0.06239184 0.06815154 0.0906959
000350 fe fc 82 3d 88 04 6d 3d aa e9 d3 bd d8 77 64 3d
       0.06395911 0.05786565 -0.10347302 0.055778354
000360 d5 be 09 bd b7 ca 8f 3d f5 6e b6 3d b5 50 f8 bb
       -0.033629257 0.07021087 0.08907882 -0.0075779804
000370 8f d6 45 bd 5e 5c b8 bb 2a dd c4 bd 45 2f 02 3e
       -0.048300322 -0.0056262454 -0.09612496 0.12713344
000380 71 a9 5c bd 44 9a 94 3d 53 f6 37 bd 12 05 0c 3e
       -0.05387253 0.07255986 -0.044912647 0.13673809
000390 b8 40 18 bc 6c 8f c8 ba 62 f7 46 bd 61 f1 97 bd
       -0.009292774 -0.0015301532 -0.048575766 -0.07419086
0003a0 15 12 60 bd 4a 31 5f bd bf d9 9c bd b6 06 bc 3c
       -0.054704744 -0.054490365 -0.07658719 0.022952419
0003b0 66 1c 23 bc 95 48 0c be 0e 41 f5 3d f9 61 41 be
       -0.009955501 -0.13699563 0.11975299 -0.1888503
0003c0 d1 bf ae 3d 52 7a 4a 3d 3f 89 5a bc 91 32 ec 3d
       0.0853268 0.04943306 -0.013338386 0.11533082
0003d0 8a 98 e7 3d fc a6 93 bd a5 08 96 bd 3b a4 14 3e
       0.113083914 -0.07209584 -0.073258676 0.14515774
0003e0 fc 40 e4 bd 56 84 d2 bd 97 fd 24 bd b4 15 17 3a
       -0.11145207 -0.10279147 -0.040280905 0.0005763427
0003f0 b8 d8 eb bd 26 1b 8a be b3 46 a6 3d 6f fa 3b bd
       -0.11515945 -0.26973838 0.081189536 -0.04589313

linear4.bias f4 [64]
000000 cc c3 38 3e ea b0 88 3e ee ce 70 3e 13 7f 84 3e
       0.1804344 0.26697475 0.23516437 0.258782
000010 6c 3a 88 3e 02 74 29 3e d3 b1 99 3e 28 45 07 be
       0.26607072 0.1654816 0.30018482 -0.13209975
000020 db 4a 96 3e 14 9f 9e 3e 4d f1 b0 bd ea 84 e4 bd
       0.29353985 0.30980742 -0.086397745 -0.11158164
000030 a9 a1 34 bc db 11 ea 3b 57 64 3a 3d 85 f6 45 3e
       -0.011024871 0.007143242 0.045505848 0.19332321
000040 d3 9a 1c bc 90 c3 c8 3d 36 a1 17 3d cb a4 9f 3e
       -0.009558397 0.098029256 0.037018977 0.31180415
000050 86 db 8d 3e 21 f1 8a bd e5 55 e7 3d be 0e f9 bd
       0.27706546 -0.06784273 0.1129568 -0.12161015
000060 52 45 85 3e 5f a4 71 bd 6b 15 13 3e b3 ad 73 3e
       0.2602945 -0.058994647 0.14363639 0.2379673
000070 e4 56 e5 3b 2f e1 b6 bd 15 c7 ff bb 08 d0 51 3e
       0.0069988836 -0.08929669 -0.007805715 0.20489514
000080 32 d0 d3 bc 68 83 c1 bd 0a 44 9d 3d 5e 89 49 3e
       -0.025856111 -0.09448892 0.07678993 0.19681308
000090 67 88 24 be 59 ed a1 bb de 77 a7 bb a8 d9 33 3e
       -0.16067658 -0.004941624 -0.005110725 0.17563498
0000a0 f5 85 58 3e b8 17 c9 3c 12 0c 8e 3d ce 1e 08 3e
       0.2114485 0.024547443 0.06935896 0.13293001
0000b0 cc 67 ae bd 88 ae 94 3d aa 8e dd 3d f5 f3 c7 3d
       -0.085158914 0.07259852 0.10818227 0.09763328
0000c0 55 a9 e7 bd bc 86 fb 3d 08 eb 58 3d bf 07 8a 3e
       -0.113115944 0.12281558 0.05295852 0.26959035
0000d0 76 d6 42 bd fc 03 0a be 19 a1 e3 bd e2 cf 89 3e
       -0.047567807 -0.13478082 -0.11114711 0.26916414
0000e0 e8 41 ac 3d 92 62 21 3e 0e 6a 8f bd 44 30 87 3e
       0.08411008 0.15760258 -0.0700265 0.2640401
0000f0 50 3e e6 3d 19 a4 89 3e 39 ca 7a 3e 83 0f 43 bd
       0.11242354 0.2688301 0.24491204 -0.047622215

mean_linear.weight f4 [2, 64]
000000 a0 74 9c 3a 76 30 8d 3d 64 54 0b 3d e1 88 2d 3c
       0.0011936612 0.06894009 0.034016028 0.0105917165
000010 1d da 8e 3d c8 a0 17 bb 98 20 69 3d 6c a3 ab 3c
       0.069751956 -0.0023136605 0.05691585 0.020951949
000020 64 2b b1 3d 5b d5 96 3b 9d af ce 3b a7 68 ad bb
       0.08650854 0.0046030707 0.006307556 -0.0052920165
000030 02 3a 18 bb e6 0d 01 3c ab 9a b7 bd b8 95 87 3d
       -0.0023227935 0.007876849 -0.089650474 0.066203535
000040 a1 0d 02 be 6d 0d 71 3d ba ff 9c 3c af 9d 03 3e
       -0.12700512 0.058850694 0.019164909 0.1285312
000050 5e e3 8f 3d 2b 0c 0f 3c 07 27 9b 3d 33 7b 95 bc
       0.07025789 0.008730928 0.07575803 -0.018247223
000060 52 97 b4 3d e3 98 49 bd c2 de 70 3d 48 a6 f7 3c
       0.088179246 -0.04921807 0.05880619 0.030230656
000070 61 51 bf bb 03 89 4f bc bc cb ee bc e0 8b 99 3d
       -0.0058385585 -0.0126669435 -0.029149882 0.07497382
000080 73 8f bc b9 6e e5 44 3d bd 21 38 3c 8c 55 77 3d
       -0.00035965032 0.048070364 0.011238513 0.06038432
000090 e8 4b b7 bd 55 6c 94 3c b1 52 df 3c db f3 02 be
       -0.08950025 0.018118063 0.02726111 -0.12788336
0000a0 d3 a1 bf 3d b7 a0 1f 3c 90 5f ef 3d 13 43 2f be
       0.093570374 0.009742907 0.11688149 -0.1711543
0000b0 fb 4a 7e bb 9d e7 59 3d c0 e9 13 3d d7 a4 d4 3a
       -0.0038802016 0.0531994 0.036111593 0.0016223443
0000c0 04 58 71 3c c5 d3 96 3c 15 94 b2 3d 53 d4 07 3c
       0.014730457 0.018411526 0.08719651 0.008290368
0000d0 73 a1 9c bc 35 09 6c 3d 4c 57 48 3c 50 43 32 3d
       -0.019119954 0.057625968 0.012227844 0.043521225
0000e0 bf 55 61 be 0c 90 aa 3d 09 f3 f1 bb 59 9a 94 3d
       -0.22005366 0.08328256 -0.0073837084 0.07256002
0000f0 3f 5e 9c 39 2c f2 be 3d 2f a7 15 3d 84 3d 1f bd
       0.00029824857 0.09323534 0.03653639 -0.038877025
000100 38 73 05 be aa 29 35 3c 84 24 e9 bd 57 08 8f bd
       -0.13032234 0.011057297 -0.11383918 -0.069840126
000110 16 0e 19 be 6e a7 0a be 9e 7c 1c bc 2a ea c5 bd
       -0.1494678 -0.13540432 -0.009551195 -0.09663804
000120 f1 62 94 bd 4e 6c 23 be 19 88 a9 39 08 a6 9a 3b
       -0.07245434 -0.15959284 0.00032335593 0.0047194995
000130 5f a0 11 3e 52 25 bf bb bf 2a a3 bc 92 3f 1c 3c
       0.14221333 -0.0058333063 -0.019917844 0.009536641
000140 92 45 a3 bd 76 c0 3e 3d aa 5d 56 3c 86 06 6e 3d
       -0.07972254 0.046570264 0.013083855 0.05811169
000150 ac 8b 55 bc 00 4b 13 3e b8 7d e0 bc 5e e7 02 3e
       -0.013033789 0.14384079 -0.027403697 0.12783572
000160 b8 a3 a6 3c 7a db 6d bd 24 95 99 3c b3 01 91 3b
       0.020341739 -0.058070637 0.018747874 0.0044252514
000170 fb 09 f7 3d ca 86 ed 3d e8 af e5 bd bb 33 e5 39
       0.120624505 0.115979746 -0.11215192 0.00043716826
000180 9d 88 c5 3a e7 fb e6 3c 16 80 88 bc a4 7d ed 3c
       0.0015070621 0.028196288 -0.016662639 0.028990574
000190 a8 7b 49 3d f2 89 dc bd 52 56 3d 3e ad 5b 9a bd
       0.049190193 -0.107684985 0.1848996 -0.07537017
0001a0 c4 70 74 be 83 6d 1f 3e 87 87 9d bc 98 88 6a bd
       -0.23871142 0.15569119 -0.019229664 -0.057259172
0001b0 b0 ad 11 bc d9 7b b5 bc b2 e5 cb bb 4e f7 9f bd
       -0.008891508 -0.022153782 -0.00622245 -0.078108415
0001c0 cb 2b 3d be ed 59 d9 bd 1f e7 76 3c 8e 72 b2 bd
       -0.18473737 -0.10612855 0.015069752 -0.08713256
0001d0 84 37 f3 bd 42 8e 3e 3d cf 03 35 be 9a 36 ec ba
       -0.11875823 0.046522386 -0.17677234 -0.0018021644
0001e0 35 ff 97 bd c2 c1 15 3d 01 e9 ef bd c2 b4 cc bd
       -0.07421724 0.036561735 -0.11714364 -0.09995414
0001f0 a4 be 6e bb 2e a3 db bc 72 c2 97 bd 56 65 a1 bd
       -0.0036429549 -0.026811209 -0.074101344 -0.078806564

mean_linear.bias f4 [2]
000000 e1 26 ec 3d 4b ca 98 bd
       0.11530853 -0.07460459

log_std_linear.weight f4 [2, 64]
000000 39 d0 3c 3c 1d 27 cb bc e8 31 a9 bc 08 80 0b bd
       0.0115242535 -0.024798924 -0.02065368 -0.034057647
000010 87 56 19 3c 3e 80 a9 3a 14 bf 81 bc 73 46 e2 bc
       0.009359009 0.0012931896 -0.015838183 -0.027621483
000020 59 b5 15 bc 6b 14 ce bd 27 61 0d bc 8c 8e af 3b
       -0.009137475 -0.10062488 -0.00862912 0.005357569
000030 43 6a 24 bc 40 70 3c 3a 96 ff a1 3c ad b5 e1 39
       -0.0100351 0.00071883574 0.019775193 0.00043050703
000040 f2 7e 31 3b f2 94 8b bc 9d 9d 92 bb 1a 13 bf bc
       0.0027083722 -0.017038796 -0.0044743554 -0.023324538
000050 b4 d2 43 bb 0a c5 2d 3d e6 1d b3 bc 07 34 68 3d
       -0.0029880228 0.04242424 -0.021864843 0.056690242
000060 77 c2 eb bc 7f 36 18 3d 73 6b 6f bc a7 8f ba bc
       -0.028779252 0.037161347 -0.01461302 -0.022773577
000070 b8 b1 8a bd 87 69 81 3c 69 13 29 bd 08 04 10 bd
       -0.067721784 0.01579739 -0.041278277 -0.035160094
000080 69 2e 78 bb 06 7a 2a bd b7 18 0a 3b 92 f1 9e bc
       -0.003786946 -0.041620277 0.002107186 -0.0194023
000090 89 0f 0a 3d c6 e4 c1 3b 4c af 20 bc dd 43 8f bd
       0.03370622 0.0059171645 -0.009807419 -0.06995366
0000a0 d8 7e 75 3c 45 f4 44 bc 68 cb 16 3c e6 09 1d 3c
       0.014983855 -0.012021129 0.009203769 0.0095848795
0000b0 fb d0 7f bb e7 7f 24 3c 64 41 c5 bc 13 3d 6e bc
       -0.0039034474 0.01004026 -0.024079032 -0.014540928
0000c0 51 94 39 3c 2a 58 24 3c 10 93 94 bc 5d a7 d7 bc
       0.011326865 0.010030786 -0.018136531 -0.026324922
0000d0 ef e1 4c bc 8d 7e cf bd a0 da 2a bc 70 5f ed bc
       -0.012505039 -0.101315595 -0.010428101 -0.028976172
0000e0 08 f2 79 bc c2 39 cd bc 22 ea e7 ba 8a ed e9 bc
       -0.015255459 -0.025051955 -0.0017693678 -0.02855565
0000f0 ad 23 ae ba 2b 43 26 bc e5 8e b8 bc f4 f7 5c bb
       -0.0013285779 -0.01014785 -0.022529075 -0.0033717128
000100 0b 2a e9 bb bc b2 2d bb 3e 49 b6 bc de 0d ad bc
       -0.0071156076 -0.002650424 -0.022251721 -0.021124776
000110 76 9d e3 bc 07 60 dd bc 17 ba 41 bc 57 0d 32 bd
       -0.027785044 -0.027023328 -0.011824152 -0.043469753
000120 0b d1 04 bc 51 54 54 bd ef 44 ef bb 89 2a a9 bb
       -0.00810648 -0.051838223 -0.0073019187 -0.0051625413
000130 c8 fe 90 bd 00 e1 8c bb fb db ad bc fd 10 b0 bc
       -0.07079846 -0.004299283 -0.021223059 -0.021492476
000140 40 4a 78 3d c3 02 15 3b 17 19 5b bc 5b 83 7c bd
       0.060617685 0.0022737242 -0.013372681 -0.061648708
000150 dc 6d 75 bc 10 ad 0d bd cc 0b 8d bb d3 7a 3d 3d
       -0.014979806 -0.034588873 -0.004304385 0.046259712
000160 c6 7d c0 bc f9 87 8a 3d 37 c6 ae bc d9 a3 36 bd
       -0.023497473 0.06764216 -0.02133475 -0.04458985
000170 cb 04 b9 bc 1e 29 2e 3d 82 07 6b bd 69 ad 92 bc
       -0.022585293 0.04251968 -0.057380207 -0.017904954
000180 53 14 15 ba 03 fe 20 3d a1 a0 c9 bc 6f 56 65 bc
       -0.00056869275 0.039304744 -0.024612727 -0.013997658
000190 6a cb a5 bb ba 9d 09 3d 67 1b 8a bd 10 ee bf bc
       -0.0050596492 0.033597685 -0.06743508 -0.023428947
0001a0 09 b8 0a bc d4 94 d2 bc 53 7e 00 3d ab d8 85 bc
       -0.008466729 -0.025705732 0.031370472 -0.016338667
0001b0 2f 83 05 bc 30 c4 1f 3d ef 28 dd bc 32 df 72 bc
       -0.008148952 0.03900546 -0.026997058 -0.014823722
0001c0 d5 aa ac 3d 88 46 cf bb 1c e8 20 3c 19 ff b3 bc
       0.08431021 -0.0063255467 0.009820964 -0.021972226
0001d0 79 4d 63 bd 58 e1 3c 3c 9d 34 b7 3c 06 9d cc bc
       -0.055493806 0.0115283355 0.022363955 -0.024977218
0001e0 c9 68 70 bd e9 39 fa bb 0a 4b fb bc 64 73 c9 3c
       -0.05869368 -0.007636298 -0.03067543 0.024591155
0001f0 2b b5 86 bb eb e6 df 3c d3 07 f9 bb 06 a4 a9 bc
       -0.0041109524 0.02733179 -0.0075998097 -0.020708095

log_std_linear.bias f4 [2]
000000 ad a2 f3 bd b7 1a cb bd
       -0.11896262 -0.09917205
