models/noCBF_2025-11-17 20:01:45/1/Q2.pth (torch, 37764 bytes, 7 tensors)

linear1.weight f4 [64, 5]
0.2719954 -0.44669828 -0.024511833 0.22542799 -0.6397736 -0.49597552 -0.3713193 -0.100754485
-0.4175426 -0.39073431 0.11941772 -0.04831082 0.33547887 0.039830845 0.28512064 0.27102563
0.37264213 0.11523372 -0.35774162 0.020336127 -0.50745887 -0.05043395 0.23009753 -0.14119376
-0.32622516 0.31291205 -0.16540457 -0.33153746 -0.34167883 -0.32753345 0.21331257 0.03537604
-0.26422217 -0.23896007 -0.34711432 -0.08979406 0.30868077 -0.15051341 -0.35066986 -0.2793061
-0.55304533 0.009664827 -0.13251716 0.31606305 0.15629648 0.36415556 0.076340616 -0.07445396
-0.37706634 0.20568143 0.2142773 0.19513449 -0.01802758 -0.41368145 -0.2997581 0.0727276
0.22538905 0.1712329 0.57492167 0.4813156 0.1484805 0.08196375 0.095651135 0.26771703
0.03536473 0.315413 0.19444053 0.25577897 0.3195362 0.09472355 0.28492722 -0.148745
0.3494741 -0.48616734 -0.0005641144 0.32318318 -0.30726886 0.21443744 0.16057642 -0.10708254
-0.13636328 -0.3961072 0.3590184 0.060413245 -0.589845 -0.26083097 -0.23790386 -0.09602561
-0.29262674 -0.12947832 -0.62216955 0.19406734 -0.013370367 0.07742727 -0.5089925 -0.24562183
0.1004847 0.43638563 -0.19884682 0.11618247 -0.196472 -0.40776443 0.038708117 0.03991233
0.04666198 0.14759767 0.30840063 -0.22897537 -0.21189879 -0.2550739 0.47651047 0.0720198
0.03355062 0.17253752 -0.19758435 -0.27415854 0.028101772 0.051253438 -0.5358767 -0.16220239
0.13846628 0.0826365 -0.4385893 -0.23405297 -0.052247692 -0.4367091 0.17813471 0.41090766
-0.1876108 -0.3146202 -0.35190922 -0.2745834 -0.15035054 -0.31516144 0.09179446 -0.0808851
0.3720522 -0.17030369 0.2405501 -0.3269218 -0.29390538 0.29626414 0.030748494 0.035764154
-0.4871541 0.20127659 0.3780711 0.17872885 0.2638914 -0.10660206 0.015956605 0.23679395
-0.1117077 0.08741752 0.13246974 0.22879955 0.26149142 -0.09611538 -0.22513467 0.06794808
0.0075793634 -0.12685764 0.4584611 0.17793696 0.22380629 -0.25470334 -0.11135394 0.0065571973
0.09328949 0.25336465 0.29882237 -0.24143276 0.015526916 -0.43336555 0.21473485 0.04638625
0.068749204 -0.27022943 0.3417316 -0.3576854 -0.3644111 -0.16847378 -0.07802529 0.25283718
0.16507444 0.019860728 0.13031703 0.47169295 -0.52652925 -0.23500483 0.2847169 -0.024083916
-0.13111232 0.098273344 -0.39460534 -0.14577578 -0.038939193 0.24407314 -0.06706361 0.08944529
0.16082163 0.25836346 0.3356185 0.122877665 0.13267726 0.42092454 -0.1091741 -0.4452854
0.19610532 0.32691994 -0.34741518 0.20476767 0.3475746 -0.54705906 0.13323309 -0.2971822
-0.2919727 -0.26500648 -0.032959707 -0.06932996 -0.2286288 -0.237312 -0.04265029 -0.03225582
-0.25962892 -0.14435741 0.1424713 -0.11939396 0.14423133 -0.3747354 -0.004394243 0.41968316
-0.06959452 0.23138416 0.16351877 -0.281983 -0.35467893 0.036535498 -0.047934905 -0.32744312
0.26046598 -0.37292948 0.45278585 -0.41862667 -0.11308657 0.20846216 0.43422058 0.4753998
0.5532395 -0.20669934 0.21789502 -0.529379 -0.043132223 -0.41387534 -0.5004638 -0.41832012
00000000: fb42 8b3e a3b5 e4be 0acd c8bc 98d6 663e
00000010: 34c8 23bf 81f0 fdbe 901d bebe 5e58 cebd
00000020: 25c8 d5be 540e c8be 4791 f43d 91e1 45bd
00000030: e3c3 ab3e ab25 233d 55fb 913e dfc3 8a3e
00000040: f3ca be3e a8ff eb3d e929 b7be f397 a63c
00000050: d3e8 01bf d493 4ebd b09e 6b3e 1995 10be
00000060: fc06 a7be 0236 a03e d15f 29be 47bf a9be
00000070: 87f0 aebe 77b2 a7be 9c6e 5a3e 77e6 103d
00000080: 2148 87be f3b1 74be f8b8 b1be f3e5 b7bd
00000090: 680b 9e3e 3020 1abe 008b b3be 3601 8fbe
000000a0: 6194 0dbf 3959 1e3c 94b2 07be 04d3 a13e
000000b0: 2f0c 203e 9972 ba3e 7858 9c3d 517b 98bd
000000c0: d70e c1be 279e 523e 826b 5b3e 56d1 473e
000000d0: 93ae 93bc 0ece d3be e579 99be 35f2 943d
000000e0: 63cc 663e ad57 2f3e 112e 133f 006f f63e
000000f0: 460b 183e 9cdc a73d bee4 c33d 3512 893e
00000100: 9bda 103d d07d a13e 6b1b 473e 76f5 823e
00000110: 409a a33e 6cfe c13d fbe1 913e 9c50 18be
00000120: 45ee b23e edea f8be 14e1 13ba 4478 a53e
00000130: 5852 9dbe 7d95 5b3e 256e 243e 174e dbbd
00000140: d1a2 0bbe 90ce cabe 42d1 b73e e173 773d
00000150: 1500 17bf a38b 85be 129d 73be 13a9 c4bd
00000160: 2cd3 95be f795 04be 8146 1fbf 97b9 463e
00000170: 620f 5bbc 3092 9e3d 554d 02bf 4a84 7bbe
00000180: ecca cd3d f06d df3e 809e 4bbe 13f1 ed3d
00000190: f52f 49be 80c6 d0be 678c 1e3d 1d7b 233d
000001a0: a220 3f3d d823 173e b0e6 9d3e 8578 6abe
000001b0: fffb 58be 0c99 82be 2ef9 f33e 1e7f 933d
000001c0: 606c 093d adad 303e 8d53 4abe 825e 8cbe
000001d0: b035 e63c 20ef 513d 372f 09bf 6218 26be
000001e0: 1bca 0d3e 533d a93d c78e e0be 95ab 6fbe
000001f0: ad01 56bd 5698 dfbe f268 363e 7d62 d23e
00000200: 0c1d 40be e615 a1be 722d b4be 3296 8cbe
00000210: 7ef5 19be d75c a1be bcfe bb3d 16a7 a5bd
00000220: a07d be3e 1764 2ebe c452 763e 4b62 a7be
00000230: c47a 96be efaf 973e 44e4 fb3c 6f7d 123d
00000240: 436c f9be 731b 4e3e 8992 c13e b204 373e
00000250: c61c 873e 2e52 dabd 6db7 823c 1d7a 723e
00000260: 02c7 e4bd f507 b33d 26a6 073e 6e4a 6a3e
00000270: 34e2 853e 24d8 c4bd b489 66be 5d28 8b3d
00000280: 4f5c f83b f8e6 01be 6abb ea3e 1b35 363e
00000290: 7a2d 653e 7a68 82be 890d e4bd c2dd d63b
000002a0: 8f0e bf3d 03b9 813e 3fff 983e 263a 77be
000002b0: 9b64 7e3c 17e2 ddbe 74e3 5b3e 82ff 3d3d
000002c0: 62cc 8c3d 835b 8abe 72f7 ae3e 8a22 b7be
000002d0: 1794 babe 6484 2cbe b9cb 9fbd e073 813e
000002e0: 4609 293e f7b2 a23c d471 053e bd81 f13e
000002f0: 9fca 06bf 1ba5 70be 6ac6 913e a24b c5bc
00000300: 4f42 06be 8943 c93d b609 cabe 3f46 15be
00000310: b47e 1fbd 4fee 793e a558 89bd 182f b73d
00000320: 6dae 243e 3748 843e 30d6 ab3e 49a7 fb3d
00000330: 8cdc 073e 6c83 d73e ac96 dfbd 73fc e3be
00000340: d5cf 483e 0d62 a73e 67e0 b1be 9eae 513e
00000350: 4cf5 b13e 100c 0cbf 416e 083e 4428 98be
00000360: 727d 95be eeae 87be c200 07bd defc 8dbd
00000370: ab1d 6abe eb01 73be 12b2 2ebd ae1e 04bd
00000380: 15ee 84be 6ed2 13be ffe3 113e d284 f4bd
00000390: 61b1 133e 51dd bfbe 95fd 8fbb b6e0 d63e
000003a0: 9287 8ebd f8ef 6c3e 7771 273e 1360 90be
000003b0: 7a98 b5be 3fa6 153d 6457 44bd a0a6 a7be
000003c0: cc5b 853e 9df0 bebe 8cd3 e73e 3c56 d6be
000003d0: ee99 e7bd 1b77 553e 2952 de3e 9a67 f33e
000003e0: 1ba1 0d3f fea8 53be df1f 5f3e 6285 07bf
000003f0: 6aab 30bd 78e7 d3be 651e 00bf 0e2e d6be

linear1.bias f4 [64]
0.40833732 -0.12359079 0.13945805 -0.349437 0.2754398 -0.08740153 0.22282113 0.058105137
0.3607797 0.07217951 -0.13157216 0.09888719 -0.36305743 -0.27225533 -0.2342272 0.39096406
0.033604667 0.22926186 0.007916836 0.4639393 0.06279564 -0.37039348 -0.008381265 0.51073
-0.23696321 0.2314143 -0.09076984 -0.30779895 0.60637367 0.18754007 0.08107974 -0.13533218
-0.212788 -0.26533106 0.55946565 0.19896966 0.5848593 0.45649645 0.38263535 -0.25768843
0.118276685 0.36226317 0.28660494 -0.14231397 0.54530466 -0.23976731 -0.4197448 0.021804158
-0.28875038 -0.5309957 0.37052906 -0.021442547 -0.037562408 0.07175136 -0.03746605 0.52254236
0.55048907 -0.015684959 -0.1270005 0.004544463 0.5018273 -0.3156766 0.19421646 0.07616668
00000000: 9711 d13e 2b1d fdbd 17ce 0e3e 68e9 b2be
00000010: 7206 8d3e 93ff b2bd 392b 643e a7ff 6d3d
00000020: 1eb8 b83e dad2 933d daba 06be 5e85 ca3d
00000030: aae2 b9be 0d65 8bbe 41d9 6fbe 712c c83e
00000040: 0ca5 093d 9fc3 6a3e 9eb5 013c 7489 ed3e
00000050: 009b 803d 37a4 bdbe 9351 09bc 34bf 023f
00000060: 7ca6 72be dff7 6c3e 8ae5 b9bd d397 9dbe
00000070: 4e3b 1b3f 810a 403e 220d a63d 8594 0abe
00000080: 19e5 59be 79d9 87be 2439 0f3f b4be 4b3e
00000090: 57b9 153f e7b9 e93e c8e8 c33e bdef 83be
000000a0: 0c3b f23d 8f7a b93e e2bd 923e c1ba 11be
000000b0: 1699 0b3f 9085 75be cae8 d6be a29e b23c
000000c0: 17d7 93be 56ef 07bf fcb5 bd3e 48a8 afbc
000000d0: 0adb 19bd 61f2 923d 0076 19bd 56c5 053f
000000e0: daec 0c3f be7d 80bc 6b0c 02be b8e9 943b
000000f0: c177 003f 5da0 a1be aee0 463e 47fd 9b3d

linear2.weight f4 [64, 64]
0.26239526 0.1750135 -0.06298654 -0.035638258 0.09551222 0.11679748 0.01822044 -0.089178935
-0.04192456 0.12162365 -0.07556928 -0.08167127 0.036850292 -0.04464523 -0.028333804 0.13197526
0.09824054 0.19202699 0.18703951 -0.004698226 0.07719614 0.017617434 -0.08614797 0.024966143
0.09748481 -0.068263866 0.17866097 -0.0017941147 0.17621781 0.02133455 -0.121658936 -0.025535673
-0.10341035 0.15545733 0.13032664 0.06477003 0.2294666 -0.030502105 0.09787099 -0.054161493
-0.12655377 -0.021097183 -0.008168367 0.090148166 0.1313306 -0.012816563 -0.07062812 -0.011911738
-0.018840978 0.031054547 0.021588692 -0.03849597 0.2424676 -0.100819394 0.09670867 0.03548309
-0.02579477 0.185906 0.1347661 0.175268 0.0826715 0.06713192 0.0372031 -0.06431375
0.21549477 0.002562999 0.06396375 -0.053792484 -0.0049796095 -0.049815834 -0.013341859 -0.011262193
0.12098513 -0.031247705 0.07329761 0.06473451 -0.057788856 0.10781388 0.0924981 0.1358104
-0.05902431 0.028268024 0.14651498 0.09330635 -0.046176706 0.068009466 -0.16218525 0.1514942
0.05117674 0.1487354 0.09181573 0.0637072 0.10350347 0.06477113 0.101503894 0.040178686
0.111327454 0.03621366 0.038842864 -0.07903738 0.19557104 0.010240806 -0.109031126 -0.018521626
0.034007326 0.10264614 0.14488253 0.058543537 -0.021705424 -0.1237119 0.036982223 -0.018831985
0.11696064 0.0032317773 4.3719294e-05 0.092184275 0.039451387 0.017482936 0.037427686 0.058773804
-0.0717809 -0.020867357 0.025104301 0.04163524 -0.017618205 -0.062103514 0.06349429 -0.03046734
-0.07555826 0.009827718 -0.016755104 0.04748261 0.05631423 0.0036822706 -0.10296038 -0.10504532
-0.041792408 -0.06300177 0.0867151 -0.102783665 -0.11243194 -0.03668636 -0.07638705 -0.04780826
0.098294884 0.068605214 -0.021289751 0.010439679 -0.108744904 -0.079044595 -0.050198957 0.0032656938
0.017078102 0.114727974 -0.11791588 -0.034067765 0.0140449405 0.033941343 0.053558588 -0.0069783926
-0.10459553 -0.09087281 -0.0111747235 0.030521914 0.10449205 -0.011168271 -0.07228306 0.056595862
-0.079990804 0.07803452 -0.016914263 -0.057176232 -0.07164161 0.10837044 -0.027338937 0.06397182
-0.04611212 0.010758057 0.030692413 0.09758532 -0.036013976 -0.0057998 0.076731056 -0.082300976
-0.08513281 -0.035324425 -0.09114824 -0.10806841 -0.040319473 -0.06901415 -0.091103956 0.05325307
0.10624662 0.18444657 0.13867669 -0.021937717 0.005255485 0.05113335 0.073988736 0.023323938
0.03646079 0.008236423 -0.051651582 -0.110089 -0.027721979 -0.15674384 -0.01185575 0.030555699
0.027333643 0.10120169 0.19932835 0.009491036 0.20229268 -0.07567091 -0.18008462 0.04988869
-0.11183034 0.11143642 0.0058537927 0.07331878 0.26051024 -0.062743835 0.05458969 0.061925337
0.094297275 0.25342402 0.003939848 0.09757833 0.12723705 0.08113614 0.07776493 -0.059360996
-0.09059357 0.051980034 -0.034863345 0.047459785 0.18501079 0.058925077 0.11208019 0.19086318
0.14787883 -0.09083823 0.07637168 0.17928237 0.13962317 -0.10518649 0.002959723 0.16852279
-0.0360502 0.1440701 0.19191645 0.17035523 0.14163674 0.15309583 -0.06591837 -0.065566905
00000000: ac58 863e bd36 333e 16ff 80bd 6cf9 11bd
00000010: e99b c33d 8433 ef3d 0843 953c 72a3 b6bd
00000020: 16b9 2bbd d215 f93d 11c4 9abd 4443 a7bd
00000030: 55f0 163d ebdd 36bd 4b1c e8bc 8624 073e
00000040: 5632 c93d b9a2 443e 4987 3f3e 94f3 99bb
00000050: 0319 9e3d 7052 903c 596e b0bd cc85 cc3c
00000060: 1ea6 c73d edcd 8bbd e7f2 363e 8028 ebba
00000070: 7172 343e cbc5 ae3c 5228 f9bd 3030 d1bc
00000080: cec8 d3bd 3530 1f3e 5974 053e 26a6 843d
00000090: 4bf9 6a3e 8ddf f9bc 9670 c83d 71d8 5dbd
000000a0: 5097 01be 00d4 acbc 9dd4 05bc 9a9f b83d
000000b0: 877b 063e 90fc 51bc 7aa5 90bd 7329 43bc
000000c0: 6558 9abc 1b66 fe3c c5da b03c f3ad 1dbd
000000d0: 6d49 783e 667a cebd 320f c63d b756 113d
000000e0: 8e4f d3bc 245e 3e3e 2000 0a3e 7479 333e
000000f0: ad4f a93d 767c 893d 4762 183d edb6 83bd
00000100: a9aa 5c3e fdf7 273b 6dff 823d 8255 5cbd
00000110: fe2b a3bb b00b 4cbd d097 5abc 1085 38bc
00000120: 0dc7 f73d 30fb ffbc 0f1d 963d 8793 843d
00000130: 02b4 6cbd 86cd dc3d a56f bd3d e211 0b3e
00000140: 7ac3 71bd 5892 e73c 0608 163e 6617 bf3d
00000150: c923 3dbd 8c48 8b3d e413 26be 4c21 1b3e
00000160: b49e 513d 184e 183e e309 bc3d ec78 823d
00000170: a1f9 d33d baa6 843d 46e1 cf3d 6892 243d
00000180: a6ff e33d c654 143d b219 1f3d 5ade a1bd
00000190: c643 483e 0ec9 273c b64b dfbd aaba 97bc
000001a0: 444b 0b3d 2438 d23d 165c 143e 59cb 6f3d
000001b0: 93cf b1bc aa5c fdbd ac7a 173d 8945 9abc
000001c0: 0f89 ef3d 3acc 533b 3c5f 3738 1ccb bc3d
000001d0: c797 213d 6038 8f3c c64d 193d cdbc 703d
000001e0: dd01 93bd 05f2 aabc 89a7 cd3c b789 2a3d
000001f0: 0e54 90bc 4160 7ebd 4b09 823d a596 f9bc
00000200: 4abe 9abd 7004 213c 0042 89bc 207d 423d
00000210: c0a9 663d 4052 713b e4dc d2bd 0022 d7bd
00000220: 842e 2bbd 1207 81bd b097 b13d 3e80 d2bd
00000230: b842 e6bd 7044 16bd d070 9cbd 98d2 43bd
00000240: d44e c93d e480 8c3d d867 aebc 300b 2b3c
00000250: a6b5 debd 22e2 a1bd 6c9d 4dbd 4005 563b
00000260: 60e7 8b3c 80f6 ea3d e27d f1bd a48a 0bbd
00000270: c01c 663c 1406 0b3d 4060 5b3d 00ab e4bb
00000280: 2e36 d6bd 861b babd 3016 37bc 1809 fa3c
00000290: eeff d53d 20fb 36bc 2409 94bd 10d1 673d
000002a0: 38d2 a3bd 90d0 9f3d c88f 8abc a031 6abd
000002b0: d6b8 92bd 52f1 dd3d e8f5 dfbc a803 833d
000002c0: 10e0 3cbd 9042 303c a86e fb3c d0da c73d
000002d0: 6483 13bd 400c bebb 2c25 9d3d 6a8d a8bd
000002e0: 1c5a aebd 58b0 10bd eeab babd f852 ddbd
000002f0: 0826 25bd 4a57 8dbd b694 babd e41f 5a3d
00000300: d497 d93d 90df 3c3e 4301 0e3e bab6 b3bc
00000310: 3436 ac3b 3471 513d 6887 973d d811 bf3c
00000320: e957 153d 10f2 063c 9c90 53bd 5776 e1bd
00000330: 3419 e3bc 7581 20be 9f3e 42bc f24f fa3c
00000340: ceea df3c d542 cf3d bb1c 4c3e 4a80 1b3c
00000350: d025 4f3e 5af9 9abd 1a68 38be 1558 4c3d
00000360: 4e07 e5bd c738 e43d 2cd1 bf3b 2828 963d
00000370: 9961 853e d77f 80bd 7099 5f3d 6ca5 7d3d
00000380: ee1e c13d cbc0 813e d719 813b 26d7 c73d
00000390: 6e4a 023e b42a a63d 3843 9f3d 8424 73bd
000003a0: 1f89 b9bd 04e9 543d decc 0ebd 3165 423d
000003b0: 7873 3d3e 6c5b 713d 4c8a e53d a371 433e
000003c0: 8c6d 173e 6509 babd c168 9c3d cc95 373e
000003d0: 60f9 0e3e 046c d7bd e9f7 413b 3d91 2c3e
000003e0: 60a9 13bd 1d87 133e bf85 443e 9a71 2e3e
000003f0: 3909 113e 27c5 1c3e 3600 87bd f147 86bd

linear2.bias f4 [64]
0.2439308 0.03110162 -0.10213946 0.01437888 0.047459796 -0.084998086 0.05821359 0.05438809
0.06293095 0.019515403 0.070210576 0.03258955 0.026648136 0.15552591 0.050462388 0.11286319
0.24128084 0.07389007 0.043264557 0.010727255 0.07754342 0.10644549 0.18124455 0.002648956
-0.009090138 0.07331254 0.014002741 -0.01836127 0.12482336 0.17026715 0.034465358 -0.06881371
0.107579984 0.026112497 0.14518787 0.2020943 -0.015273194 0.010160072 -0.0892174 0.037437648
0.04471664 0.110580936 -0.049103096 -0.062141567 -0.045476317 -0.09731598 0.1996144 0.012079492
0.113064975 -0.0073797405 0.102385215 0.092088625 -0.0054864287 0.17987402 -0.022692695 0.06422143
0.105868764 -0.09952925 0.12999295 0.09276585 0.07503895 -0.11846984 0.20953754 0.039769776
00000000: ffc8 793e d3c8 fe3c 7e2e d1bd 6595 6b3c
00000010: 3465 423d 7a13 aebd 6071 6e3d 0cc6 5e3d
00000020: f1e1 803d c4de 9f3c 90ca 8f3d 9f7c 053d
00000030: 314d da3c 2f42 1f3e a6b1 4e3d d124 e73d
00000040: 5312 773e ad53 973d 2d36 313d 5ec1 2f3c
00000050: 16cf 9e3d 1800 da3d 2c98 393e 1b9a 2d3b
00000060: cdee 14bc e324 963d c16b 653c 606a 96bc
00000070: 64a3 ff3d 835a 2e3e 8c2b 0d3d 34ee 8cbd
00000080: e552 dc3d e0e9 d53c 21ac 143e cff1 4e3e
00000090: 6b3c 7abc 6e76 263c 9db7 b6bd 3858 193d
000000a0: cc28 373d 4278 e23d 5420 49bd 2888 7ebd
000000b0: 6045 3abd 9a4d c7bd b867 4c3e 10e9 453c
000000c0: 9c8e e73d c0d1 f1bb 57af d13d f698 bc3d
000000d0: 80c7 b3bb e530 383e 08e6 b9bc 8686 833d
000000e0: b9d1 d83d fed5 cbbd df1c 053e 06fc bd3d
000000f0: 05ae 993d 51a0 f2bd 0291 563e a2e5 223d

linear3.weight f4 [64, 64]
0.100531094 0.12999761 -0.0902563 0.12343768 0.0063075274 -0.01571528 0.1279793 -0.024684459
0.11194392 -0.0043727523 0.10476616 0.18018019 0.081815146 -0.007242197 0.16788755 0.17184359
0.028849501 -0.003996738 0.080719374 0.03821887 -0.01988333 0.14396952 0.07970357 -0.068958245
-0.06277184 0.15054566 -0.0044630165 -0.056571018 -0.12235765 0.1923638 0.072259665 0.10790135
-0.04630318 0.10050438 -0.025602886 -0.059090268 0.11862073 0.06771237 -0.11730045 -0.025538921
0.11560133 0.018539766 -0.092049465 0.036656007 0.004991703 0.048144758 0.13621588 0.084149465
0.15206783 0.10208738 0.07216342 -0.08919032 0.02995114 0.058726955 -0.1069171 0.06710326
0.16425481 0.08814491 0.09931109 0.16950583 0.15959433 0.042466212 0.197281 0.010668632
0.11464791 -0.049114406 0.04147981 0.13452744 -0.07399018 -0.042528376 -0.022914909 -0.033869937
0.18875687 0.058647275 -0.0096369535 0.16219087 0.027433734 0.0011137673 0.07000392 -0.017286524
0.16501926 0.07529241 0.040546577 0.1614217 0.15021674 -0.039887298 0.1572412 -0.073464476
0.064416744 0.073853426 0.15875214 0.09414609 -0.10888043 0.16151798 0.04542999 -0.021856645
0.17756487 -0.07085352 -0.047973298 0.012744912 0.0051509803 0.038929433 -0.085908554 0.02549778
0.022734955 0.044723358 -0.17079611 -0.08461717 -0.077361554 -0.015207291 -0.0077807135 -0.0038400888
-0.04580261 -0.0051341057 0.09159944 0.014338031 0.108384326 0.025015924 0.050145328 -0.025543498
-0.03541874 -0.058136076 0.028032936 0.044182323 0.05528831 -0.10535244 0.1289269 0.028870162
0.21346919 0.042115122 -0.11214049 -0.010159895 -0.018169373 -0.0045366473 0.16901205 0.0883968
-0.04390347 -0.022439532 -0.07519518 0.08981084 0.037817232 0.09610264 0.1803645 -0.053157914
0.06500758 0.14870083 0.013987919 -0.069755524 0.04528529 -0.081772245 0.13420273 -0.08176768
-0.04718517 0.08675115 0.11689269 -0.0330882 -0.02015926 0.21978897 -0.03867741 0.04829067
0.10793402 -0.04116498 -0.052853703 0.056888007 0.13089252 -0.05417528 0.09368211 -0.010651708
0.034840256 0.018510316 -0.29961327 -0.1205177 0.084982395 -0.042458788 -0.0049708006 -0.10598619
0.15033127 -0.039519995 -0.027755678 -0.040160522 -0.10131341 0.12769592 -0.091425106 -0.021975128
0.11063102 0.09085804 0.016716458 -0.027293077 0.007888281 -0.00367591 0.16664118 -0.02923644
0.023662187 -0.05550814 0.05540502 0.102002576 -0.07993227 -0.003812842 0.079403974 0.073289186
0.17802678 0.12763242 0.041506648 0.10115433 -0.046704978 0.11365072 -0.056108426 0.12625043
0.018271402 0.14001486 -0.053323403 0.0569533 0.069908306 0.015122782 0.10254223 0.061338384
0.0011832062 0.038858328 0.13395311 0.031189907 0.077379 0.21641973 0.0045049936 0.010744488
0.084361136 0.096512094 0.16308819 0.07677318 0.119199574 0.1571894 0.02989393 0.061904356
-0.06562102 0.0682183 -0.24698253 -0.06829801 0.050585266 -0.07348491 0.10058532 0.122591496
-0.03239879 -0.019728735 -0.10252009 0.047292948 0.109589756 0.051797576 0.04013221 0.021024797
0.043243363 0.035961628 0.059366748 -0.0012878047 0.050363764 -0.112467594 0.17542686 0.1692497
00000000: 3fe3 cd3d 181e 053e 4cd8 b8bd e5cc fc3d
00000010: 60af ce3b 55bd 80bc 010d 033e 1037 cabc
00000020: db42 e53d 4e49 8fbb a48f d63d 2881 383e
00000030: b38e a73d f44f edbb b7ea 2b3e c4f7 2f3e
00000040: ca55 ec3c 12f7 82bb 3350 a53d 648b 1c3d
00000050: 5ee2 a2bc bf6c 133e a03b a33d fb39 8dbd
00000060: 868e 80bd a428 1a3e 7f3e 92bb 03b7 67bd
00000070: a696 fabd 04fb 443e e0fc 933d 62fb dc3d
00000080: 67a8 3dbd 3ed5 cd3d 25bd d1bc a308 72bd
00000090: 6def f23d c8ac 8a3d 383b f0bd 0037 d1bc
000000a0: 64c0 ec3d b5e0 973c 6e84 bcbd 9c24 163d
000000b0: 7191 a33b 7033 453d 2d7c 0b3e 8e56 ac3d
000000c0: abb7 1b3e 3013 d13d 6aca 933d 6aa9 b6bd
000000d0: 185c f53c ad8b 703d 5af7 dabd 6f6d 893d
000000e0: 6a32 283e 5285 b43d 9d63 cb3d f092 2d3e
000000f0: b26c 233e 0df1 2d3d 0804 4a3e 7ccb 2e3c
00000100: 86cc ea3d 302c 49bd bce6 293d 90c1 093e
00000110: 2a88 97bd 3c32 2ebd 0cb8 bbbc 34bb 0abd
00000120: 7b49 413e 2038 703d 50e4 1dbc 5d15 263e
00000130: b6bc e03c d4fb 913a 375e 8f3d 789c 8dbc
00000140: cffa 283e e832 9a3d 2b14 263d bb4b 253e
00000150: 6bd2 193e dd60 23bd d603 213e 8b74 96bd
00000160: edec 833d 7740 973d ec8f 223e aacf c03d
00000170: b4fc debd f864 253e cc14 3a3d b50c b3bc
00000180: 91d3 353e a61b 91bd a67f 44bd 09d0 503c
00000190: 8ec9 a83b 7874 1f3d d3f0 afbd b8e0 d03c
000001a0: a83e ba3c d72f 373d 2de5 2ebe c44b adbd
000001b0: bc6f 9ebd 0028 79bc 5bf5 febb 00aa 7bbb
000001c0: 859b 3bbd 003c a8bb 7d98 bb3d 10ea 6a3c
000001d0: 9af8 dd3d 32ee cc3c 3065 4d3d 9940 d1bc
000001e0: 3e13 11bd 1820 6ebd 54a5 e53c 86f8 343d
000001f0: ff75 623d 05c3 d7bd 6a05 043e 1e81 ec3c
00000200: ab97 5a3e e880 2c3d eaa9 e5bd b075 26bc
00000210: f0d7 94bc 28a8 94bb 7f11 2d3e 6209 b53d
00000220: 20d4 33bd 1cd3 b7bc eeff 99bd bfee b73d
00000230: 3ee6 1a3d 76d1 c43d 79b1 383e 1dbc 59bd
00000240: b222 853d 0845 183e 962d 653c fcdb 8ebd
00000250: 117d 393d 3578 a7bd 716c 093e d075 a7bd
00000260: 3d45 41bd 96aa b13d 6f65 ef3d 7e87 07bd
00000270: 0825 a5bc 5c10 613e 346c 1ebd 70cc 453d
00000280: 830c dd3d 9c9c 28bd 207d 58bd 6603 693d
00000290: b008 063e e6e6 5dbd 68dc bf3d 8084 2ebc
000002a0: a8b4 0e3d f2a2 973c e966 99be fcd1 f6bd
000002b0: 400b ae3d 44e9 2dbd 19e2 a2bb 4a0f d9bd
000002c0: 71f0 193e b8df 21bd e05f e3bc 5c7f 24bd
000002d0: 687d cfbd b8c2 023e 163d bbbd 2f05 b4bc
000002e0: 8492 e23d c813 ba3d f4f0 883c bb95 dfbc
000002f0: d93d 013c 89e7 70bb fca3 2a3e 4281 efbc
00000300: 34d7 c13c 815c 63bd 60f0 623d bae6 d03d
00000310: 88b3 a3bd e0e0 79bb 8d9e a23d a418 963d
00000320: a74c 363e 13b2 023e e002 2a3d 002a cf3d
00000330: b84d 3fbd b5c1 e83d f3d1 65bd cb47 013e
00000340: e8ad 953c 0e60 0f3e a469 5abd dd47 693d
00000350: 162c 8f3d 8cc5 773c a901 d23d f53d 7b3d
00000360: d015 9b3a e929 1f3d 012b 093e fa81 ff3c
00000370: e278 9e3d 229d 5d3e a09e 933b a609 303c
00000380: 88c5 ac3d 22a8 c53d 9700 273e 423b 9d3d
00000390: e81e f43d 42f6 203e 1de4 f43c 6c8f 7d3d
000003a0: 5064 86bd 09b6 8b3d fde8 7cbe d4df 8bbd
000003b0: 7f32 4f3d 427f 96bd adff cd3d 4011 fb3d
000003c0: 98b4 04bd 289e a1bc 0ef6 d1bd 40b6 413d
000003d0: 9870 e03d b229 543d ac61 243d 323c ac3c
000003e0: f41f 313d 804c 133d 8c2a 733d 8ecb a8ba
000003f0: 3c4a 4e3d 6955 e6bd 19a3 333e cb4f 2d3e

linear3.bias f4 [64]
0.10244344 0.166304 0.115465805 0.052752845 0.18454558 -0.008167088 0.03860308 0.12443191
0.15950081 0.030496288 -0.044953972 0.14423671 0.044800445 0.036704585 -0.026843444 -0.098192245
-0.055510785 0.10617283 -0.034517176 0.08609147 0.07091591 0.017850291 -0.023417654 0.06475808
-0.032791317 0.016556248 0.10357235 0.020335576 0.022476988 0.08126353 0.07157712 -0.055269662
0.10557229 0.08128243 -0.05478903 0.08898098 0.123617575 0.15687898 0.03991534 0.191947
-0.018036425 0.063627094 0.12676482 -0.03675391 0.043614756 -0.11473411 0.1455916 -0.05529783
0.10888847 -0.12282157 -0.099806264 0.055236146 0.13341242 0.022378853 -0.12307696 0.10633787
0.2163919 0.04118876 -0.022737384 0.08680686 -0.10480271 0.046248097 -0.028312525 0.19455218
00000000: decd d13d 994b 2a3e 5679 ec3d 5e13 583d
00000010: 84f9 3c3e 40cf 05bc 431e 1e3d 28d6 fe3d
00000020: 2e54 233e 5ad3 f93c a821 38bd cab2 133e
00000030: ac80 373d 8c57 163d c8e6 dbbc 0419 c9bd
00000040: 475f 63bd 2471 d93d e261 0dbd ba50 b03d
00000050: 5c3c 913d c63a 923c 61d6 bfbc e29f 843d
00000060: 3050 06bd f8a0 873c be1d d43d cb96 a63c
00000070: a921 b83c 7e6d a63d 0697 923d 7162 62bd
00000080: 4936 d83d 6777 a63d 766a 60bd a93b b63d
00000090: 362b fd3d e2a4 203e 447e 233d c18d 443e
000000a0: 20c1 93bc ec4e 823d a3ce 013e 458b 16bd
000000b0: 63a5 323d b8f9 eabd f715 153e fa7f 62bd
000000c0: eb00 df3d e089 fbbd 3a67 ccbd 4c3f 623d
000000d0: 449d 083e db53 b73c c60f fcbd abc7 d93d
000000e0: d795 5d3e 8cb5 283d c043 babc ccc7 b13d
000000f0: cea2 d6bd a56e 3d3d abef e7bc b038 473e

linear4.weight f4 [1, 64]
-0.04639346 -0.07033934 -0.07439438 -0.05900884 -0.05076258 -0.0011057933 -0.08409442 -0.078428134
-0.05547972 -0.0030726707 -0.00062561955 -0.06014412 0.0019919751 -0.05202181 -0.0007360557 -0.0028404514
-0.045214258 0.0026006124 -0.06114346 0.0008221296 -0.057932798 -0.057068262 -0.043888364 0.0027044753
0.00050116825 -0.0022894514 -0.08678859 -0.053456753 -0.047790684 0.0025681737 -0.045714285 -4.0837644e-05
-0.059606463 -0.053365745 -0.047831837 -0.0650681 0.00069055334 -0.04906671 0.0013551611 -0.104993135
0.0012248247 -0.0004556936 -0.046089027 -0.049194843 -0.053503603 -0.0005473273 -0.05471459 -0.051853925
-0.004511638 -0.0020427732 -0.0007359052 -0.0014916772 -0.053025223 -0.09774395 -0.002938005 -0.049503356
-0.13358325 0.001669732 -0.08075136 -0.04656116 -0.0007634568 -0.046260394 -0.055539954 -0.086740546
00000000: 1207 3ebd 120e 90bd 155c 98bd 41b3 71bd
00000010: 6cec 4fbd 44f0 90ba b239 acbd ee9e a0bd
00000020: b43e 63bd dc5e 49bb 9e00 24ba ae59 76bd
00000030: cc8b 023b d214 55bd ddf3 40ba de26 3abb
00000040: 9632 39bd 096f 2a3b 9171 7abd 2f84 573a
00000050: f14a 6dbd 69c0 69bd 49c4 33bd 913d 313b
00000060: d560 033a 9f0a 16bb 37be b1bd 78f5 5abd
00000070: 2ac0 43bd ce4e 283b e73e 3bbd 1649 2bb8
00000080: e825 74bd 0a96 5abd 51eb 43bd 6d42 85bd
00000090: 4006 353a 2dfa 48bd a99f b13a a406 d7bd
000000a0: 4c8a a03a 29ea eeb9 d9c7 3cbd 8880 49bd
000000b0: 9826 5bbd 837a 0fba 681c 60bd c864 54bd
000000c0: 5dd6 93bb 0ce0 05bb c3e9 40ba 6284 c3ba
000000d0: fa30 59bd fb2d c8bd 8b8b 40bb 08c4 4abd
000000e0: 0cca 08be e9da da3a f860 a5bd eab6 3ebd
000000f0: b822 48ba 8a7b 3dbd dd7d 63bd 07a5 b1bd
