models/noCBF_2025-11-17 20:00:00/1/policy.pth (torch, 55714 bytes, 12 tensors)

linear1.weight f4 [64, 3]
0	0x3ea3e3a8	0.32009625
1	0xbe1c415a	-0.15259305
2	0xbdf954be	-0.121743664
3	0xbf18b59b	-0.5965211
4	0x3e98189a	0.2970627
5	0x3e12e670	0.14345717
6	0x3f0dbdcb	0.55367726
7	0xbe2f25ef	-0.17104314
8	0x3eb42634	0.35185397
9	0x3f116042	0.567875
10	0xbf05d8bf	-0.52283853
11	0x3ed6cd05	0.41953292
12	0xbf18c0c5	-0.5966914
13	0xbf0af02c	-0.54272723
14	0xbe5581b3	-0.20850258
15	0xbeac6f6f	-0.33678767
16	0x3ed0de7e	0.40794748
17	0x3f12654d	0.5718582
18	0x3e61cb5a	0.22050229
19	0x3e2aa285	0.16663559
20	0xbde36021	-0.111023195
21	0x3ea4c567	0.32181856
22	0x3ea51b69	0.32247475
23	0x3dab9049	0.083771296
24	0xbede10c9	-0.4337218
25	0xbb5cc547	-0.0033686922
26	0x3b623550	0.003451664
27	0x3f0b3908	0.543839
28	0xbee0b489	-0.43887737
29	0xbedc0b5f	-0.42977425
30	0x3db5ba2e	0.088734016
31	0xbecfaf3b	-0.40563378
32	0x3ecd8d78	0.40146995
33	0xbed8800c	-0.42285192
34	0xbbe1e655	-0.006893913
35	0xbea2927b	-0.3175238
36	0x3ec8ca14	0.39216673
37	0x3f05ae94	0.5221951
38	0xbe0f4c95	-0.13994057
39	0x3f0d862d	0.5528286
40	0xbf015ece	-0.50535285
41	0x3d94975b	0.07255431
42	0xbe1ad7e0	-0.15121412
43	0x3eba7615	0.36418214
44	0xbf0262ec	-0.5093219
45	0x3d039bad	0.032130886
46	0xbe467c47	-0.19383346
47	0xbec1f055	-0.3787867
48	0xbe0d78c9	-0.13815607
49	0x3f06cdcf	0.5265779
50	0x3d47c953	0.048775982
51	0x3f025259	0.509069
52	0xbdf3afb3	-0.11898746
53	0x3df26005	0.118347205
54	0xbe8aaea3	-0.27086362
55	0xbe3d62f1	-0.18494774
56	0xbea18fc4	-0.31554997
57	0xbec24218	-0.3794105
58	0x3eb3ba54	0.35103095
59	0x3f0d3f22	0.5517446
60	0x3e4158e3	0.18881564
61	0x3ead9b63	0.33907613
62	0xbf005007	-0.5012211
63	0xbe578fea	-0.21050993
64	0x3ec86199	0.3913696
65	0xbec136a0	-0.37736988
66	0x3d837ab1	0.06419886
67	0x3e5b6119	0.21423759
68	0xbe63c250	-0.22242093
69	0xbedcae8f	-0.43101928
70	0xbf0b3740	-0.5438118
71	0x3ddfc5fb	0.10926434
72	0x3ee246d1	0.44194654
73	0x3e61e2bb	0.22059147
74	0x3e1e5334	0.15461427
75	0x3e8e5f2f	0.27806994
76	0xbb9866c3	-0.004650922
77	0x3efe9367	0.49721834
78	0x3ea3e98d	0.32014123
79	0xbe985ba5	-0.2975742
80	0xbef7707c	-0.48328006
81	0x3f0c9983	0.5492174
82	0xbd8feb5b	-0.07027312
83	0xbd488d29	-0.048962746
84	0xbdb14bbe	-0.08657025
85	0xbe716d06	-0.23576745
86	0xbec68266	-0.3877136
87	0xbe0041c9	-0.12525095
88	0x3e9486dc	0.2900914
89	0x3ee65a69	0.44990852
90	0x3ee47659	0.44621542
91	0x3ee0c797	0.43902275
92	0xbe453747	-0.19259368
93	0x3ee358da	0.44403726
94	0xbe10cbaf	-0.14140199
95	0x3e1e7ee0	0.15478086
96	0x3bbc64f4	0.0057493392
97	0x3d418262	0.047243483
98	0xbe926ec9	-0.28600147
99	0xbd85203f	-0.06500291
100	0xbe892b6e	-0.26790947
101	0x3ea2959d	0.3175477
102	0xbdbb0563	-0.09131887
103	0xbe125b3f	-0.1429262
104	0xbf140cf3	-0.5783226
105	0xbeeebf5b	-0.46630368
106	0x3d80c25b	0.0628707
107	0xbdf8cb22	-0.121481195
108	0x3e9d21b5	0.3068978
109	0xbdfd97ef	-0.12382495
110	0xbec1f76a	-0.37884074
111	0x3eeb7505	0.45987716
112	0x3eace36d	0.33767262
113	0xbeb06424	-0.344514
114	0x3f105d7a	0.56392634
115	0xbda48234	-0.08032647
116	0xbdae94b8	-0.085244596
117	0xbf1139ec	-0.56729007
118	0x3efd0077	0.49414417
119	0x3ef16ea4	0.47154725
120	0x3ebfb208	0.37440515
121	0xbed6bd54	-0.4194132
122	0xbf020a78	-0.50797224
123	0x3e3e953b	0.18611614
124	0xbe4b8a5b	-0.19876997
125	0xbc5cf851	-0.013486938
126	0x3e8a22f0	0.2697978
127	0x3f05b449	0.5222822
128	0xbebcced1	-0.36876538
129	0x3ea6de3c	0.32591426
130	0xbea0abb7	-0.31381008
131	0xbe246dd5	-0.16057523
132	0x3ebec885	0.3726236
133	0xbe9e94f1	-0.30973008
134	0xbe1ea9c8	-0.15494454
135	0x3f16105c	0.5861871
136	0xbe8948e8	-0.26813436
137	0x3e3e3c3d	0.18577667
138	0xbe6bdc5d	-0.2303328
139	0x3e2351af	0.15949129
140	0xbca8b1db	-0.02059262
141	0xbd0941c6	-0.033509992
142	0x3df9d75b	0.12199279
143	0xbca6e716	-0.020373862
144	0x3edd420c	0.43214452
145	0x3eeeb9ac	0.4662603
146	0x3dad2f44	0.08456281
147	0x3dbb719f	0.09152531
148	0x3e7b1f1f	0.2452359
149	0xbcbd4db9	-0.02310835
150	0xbf0d40f2	-0.55177224
151	0xbddc47e0	-0.107558966
152	0xbd8dde32	-0.06927146
153	0xbe7b358b	-0.24532144
154	0xbe14489b	-0.14480822
155	0x3e78f584	0.24312407
156	0xbe5263c4	-0.2054587
157	0x3efe84cf	0.497107
158	0x3e5d147e	0.21589848
159	0xbef7e1c7	-0.48414442
160	0xbebbc3d4	-0.36672843
161	0x3f0d0c08	0.55096483
162	0xbd9072da	-0.07053156
163	0x3e8bfab7	0.27339718
164	0xbdc542a9	-0.09631855
165	0x3e681fb4	0.22668344
166	0xbd5ab6c7	-0.053396966
167	0xbee3f198	-0.4452026
168	0xbdfd4b5c	-0.12367889
169	0xbd0ef195	-0.03489836
170	0xbe13cce6	-0.14433631
171	0x3e46dca3	0.19420104
172	0x3edf5e22	0.43626505
173	0xbd9e93a9	-0.07743008
174	0x3de98cc5	0.11403803
175	0x3dab3f25	0.08361653
176	0x3ef044a6	0.46927375
177	0x3e2492df	0.16071652
178	0x3c8dda77	0.017316086
179	0xbda35e10	-0.079769254
180	0xbc914850	-0.017734677
181	0x3eabc873	0.33551368
182	0x3e13f49e	0.14448783
183	0xbe999699	-0.2999771
184	0xbed688fc	-0.41901386
185	0x3ece7165	0.40320888
186	0xbf20c66f	-0.62802786
187	0xbf20f8bb	-0.6287953
188	0xbeb4da48	-0.35322785
189	0xbe01fcb3	-0.12694053
190	0xbeb69f10	-0.3566823
191	0x3e33511c	0.1751141

linear1.bias f4 [64]
0	0xbebb3ca1	-0.36569694
1	0x3ef4da04	0.47822583
2	0xbdc08434	-0.09400216
3	0x3e883381	0.26601794
4	0xbefa1c69	-0.488498
5	0xbce80b7a	-0.028325785
6	0xbf13a80f	-0.5767831
7	0x3dc14415	0.09436814
8	0x3dd82121	0.10553194
9	0x3d84e532	0.06489028
10	0x3ee90913	0.45514736
11	0x3dd508b2	0.10402049
12	0x3da61708	0.081098616
13	0xbf0ebcab	-0.55756634
14	0xbef62201	-0.48072818
15	0xbe509608	-0.20369732
16	0xbeee4877	-0.4653966
17	0xbe9b118c	-0.30286825
18	0xbe6c0f34	-0.23052675
19	0xbd671875	-0.05641981
20	0xbd55ce64	-0.052198783
21	0x3e077f95	0.13232262
22	0x3dcb0995	0.09913937
23	0xbea87b69	-0.32906654
24	0xbe9bf9ef	-0.30464122
25	0xbf151ed2	-0.58250153
26	0x3f020a77	0.5079722
27	0xbe8d0dad	-0.27549496
28	0xbea9dd6d	-0.33176747
29	0xbec80eef	-0.39073893
30	0x3efd96dc	0.4952916
31	0xbf09f59f	-0.53890413
32	0x3d858363	0.06519201
33	0xbedd1504	-0.43180096
34	0xbe46614a	-0.1937305
35	0xbe90654e	-0.2820229
36	0xbec67947	-0.38764402
37	0xbee8bcac	-0.45456445
38	0xbeb71fa2	-0.3576632
39	0x3e70828a	0.23487297
40	0xbd81765d	-0.06321404
41	0x3f0ffeb3	0.56248015
42	0xbd2e3071	-0.042526666
43	0xbd0679cf	-0.03283101
44	0x3e559352	0.2085698
45	0x3ea07850	0.3134179
46	0x3deb7096	0.114960834
47	0x3c2774be	0.010220705
48	0x3ec6080f	0.38678023
49	0x3e2e372d	0.17013235
50	0xbe5c4d96	-0.21513972
51	0x3ea1ff46	0.3164007
52	0xbde7ec09	-0.11324317
53	0xbeb7b7ea	-0.35882503
54	0xbec1f31a	-0.37880784
55	0xbee9453b	-0.4556063
56	0x3ee186cf	0.44048163
57	0x3ef5f6f2	0.48039967
58	0xbecc022c	-0.39845407
59	0xbe8d2282	-0.2756539
60	0xbee68ebb	-0.4503077
61	0xbdd36ead	-0.10323844
62	0x3f166be6	0.5875839
63	0xbf00421b	-0.5010087

linear2.weight f4 [64, 64]
0	0xbce98160	-0.028504074
1	0x3d88c855	0.06678835
2	0xbcd0e40b	-0.025499364
3	0x3ccd2216	0.025040668
4	0x3dd0ba64	0.10191801
5	0xbcc9203c	-0.024551503
6	0xbdd3e8ca	-0.10347135
7	0x3ca1f526	0.019770216
8	0x3d84c9cc	0.06483802
9	0xbd685e10	-0.05673033
10	0x3d96729c	0.07346079
11	0xbb0f7ce5	-0.0021894511
12	0x3de5f06e	0.11227499
13	0xbd172051	-0.036896054
14	0xbd8256f8	-0.06364244
15	0xbd9e405e	-0.07727121
16	0xbcd6f2df	-0.026238857
17	0xbd677fa3	-0.05651821
18	0x3e0fdacc	0.14048308
19	0xbd774787	-0.06037095
20	0x3b01ff40	0.0019835979
21	0x3ce48da8	0.027899578
22	0x3dce6444	0.10077718
23	0x3de55efd	0.11199758
24	0xbcce5c3b	-0.025190463
25	0xbdff86db	-0.124768935
26	0xbd256954	-0.04038365
27	0x3d9000bc	0.0703139
28	0xbd510fb3	-0.051040363
29	0x3dad562b	0.08463701
30	0xbc7a1c60	-0.015265554
31	0xbdd8415f	-0.105593435
32	0xbbb42720	-0.005497828
33	0xbc8173b0	-0.015802234
34	0xbd91fd7e	-0.07128428
35	0xbd3d28e2	-0.046181567
36	0xbdbeb3c4	-0.09311631
37	0xbd31e7d8	-0.043433994
38	0xbccfba90	-0.025357515
39	0xbd82482a	-0.063614205
40	0x3cfc154a	0.03077187
41	0x3b8c4c9e	0.0042815944
42	0x3cf7d890	0.030254632
43	0xbc3a12d0	-0.011357024
44	0x3d860bc0	0.0654521
45	0xbd5997c1	-0.05312324
46	0x3e2c2485	0.16810806
47	0xbd3a1557	-0.045430508
48	0x3ccc3e9b	0.024932196
49	0xbd2bf7b0	-0.04198426
50	0xbc4eed1f	-0.012629776
51	0x3e008b7f	0.12553214
52	0xbcb3ce34	-0.021948911
53	0xbad7aace	-0.0016454102
54	0xb9a34800	-0.00031143427
55	0x3da133ce	0.07871209
56	0x3e20c78b	0.1570112
57	0xbd975f62	-0.0739124
58	0xbd8df205	-0.06930927
59	0xbd17ea4c	-0.037088677
60	0x3bf5db7b	0.0075029708
61	0x3de4d086	0.11172585
62	0xbd60af1e	-0.054854505
63	0x3d07a6d6	0.03311809
64	0x3dcf9a0a	0.101368025
65	0x3cdfc903	0.02731753
66	0x3da5d466	0.080971524
67	0xbde37c3e	-0.11107682
68	0x3d112c80	0.03544283
69	0xbdd485b0	-0.10377061
70	0x3d498190	0.049195826
71	0x3d2a1d04	0.041531578
72	0x3d68a172	0.05679459
73	0xbdf83f1c	-0.12121412
74	0xbdad2a31	-0.08455313
75	0x3d8a9b58	0.06767911
76	0xbd779168	-0.060441405
77	0xbc87da18	-0.016583487
78	0xbce0de08	-0.027449623
79	0x3e04b09f	0.12958
80	0xbdceadac	-0.10091719
81	0xbd0bedc4	-0.034162298
82	0x3c94c010	0.018157989
83	0xbda2ca5b	-0.079487525
84	0x3b0ea740	0.002176717
85	0x3d292be8	0.041301638
86	0xbd7aa060	-0.0611881
87	0xbd8757ef	-0.06608569
88	0x3d16c940	0.03681302
89	0x3d3adf68	0.045623213
90	0x3dc626c0	0.0967536
91	0xbce225f0	-0.02760598
92	0x3dad161a	0.08451481
93	0x3d73331f	0.059374925
94	0xbc868070	-0.016418666
95	0xbdf76850	-0.12080443
96	0xbcbb6048	-0.022873059
97	0x3db99bc7	0.09062915
98	0x3d9e0fa6	0.077178285
99	0xbd7fa752	-0.06241543
100	0x3df9409c	0.121705264
101	0xbce376d0	-0.027766615
102	0x3d63b984	0.055596843
103	0x3da6e426	0.081489846
104	0xbb2923e0	-0.0025808737
105	0x3de71ca0	0.11284757
106	0xbd192a84	-0.03739406
107	0xbd7de034	-0.061981395
108	0x3cef8ba8	0.029241398
109	0xbd51ca54	-0.051218346
110	0xbd825910	-0.063646436
111	0xbd0554e4	-0.03255166
112	0xbd513060	-0.051071525
113	0x3db4109a	0.08792229
114	0xbd5b98cd	-0.05361252
115	0xbdac1fde	-0.08404516
116	0x3dfabcaa	0.12243016
117	0xbd23cd03	-0.039990436
118	0x3c373e90	0.01118435
119	0xbd748494	-0.05969675
120	0x3d9502d9	0.07275934
121	0xbcf52220	-0.029923499
122	0x3d881676	0.06644909
123	0xbda5ba4a	-0.080921724
124	0xbd72a574	-0.05923982
125	0x3c36dac2	0.011160554
126	0x3d9c95f2	0.07645787
127	0x3dae5bb7	0.08513587
128	0x3de64998	0.11244506
129	0x3d502b32	0.050822444
130	0xbdbb6b2b	-0.091513
131	0x3d984200	0.074344635
132	0xbdcc6a85	-0.099812545
133	0x3d3863eb	0.045017164
134	0x3c6dc0a0	0.014511257
135	0x3d4e91cf	0.050432023
136	0x3d08c14d	0.03338747
137	0xbd8bc184	-0.068240196
138	0x3de45702	0.11149408
139	0x3c4c2ef6	0.012462368
140	0x3d087020	0.033310056
141	0x3ddaba0e	0.10680018
142	0xbddfc41a	-0.10926075
143	0x3dbf9720	0.09354997
144	0x3dad138d	0.08450995
145	0xbda76218	-0.08173007
146	0xbe0460a3	-0.12927489
147	0xbda47f9b	-0.08032151
148	0xbd84d398	-0.06485671
149	0x3d88b966	0.06675987
150	0x3d57f97c	0.05272816
151	0x3d981477	0.07425778
152	0x3d452c1b	0.048137765
153	0x3dec2321	0.11530138
154	0x3b09e58c	0.0021041362
155	0xbdd66a56	-0.10469501
156	0xbd49d4b0	-0.0492751
157	0x3d84fbde	0.06493352
158	0x3dd34782	0.103163734
159	0x3d970e08	0.07375723
160	0xbc920818	-0.017826125
161	0xbc917c8e	-0.017759588
162	0xbc1f9360	-0.009739727
163	0xba2a5bb9	-0.0006498653
164	0x3de6cd0e	0.1126958
165	0x3d07412c	0.033021137
166	0x3d999b38	0.07500309
167	0xbe0855ff	-0.13314055
168	0xbdbe6ae6	-0.09297733
169	0xbe0c6f7b	-0.13714401
170	0xbdb86098	-0.09002799
171	0xbdbfd2a8	-0.09366351
172	0x3d6d2ec8	0.057905942
173	0xbcf7316e	-0.030174937
174	0xbd178aa4	-0.036997452
175	0x3e03f508	0.12886441
176	0xbd4f58c1	-0.05062175
177	0x3d2d3190	0.042283595
178	0xbd0b3e55	-0.03399499
179	0x3d6b7e03	0.05749322
180	0x3d9f3081	0.07772923
181	0xbc4bc562	-0.012437196
182	0x3da5d440	0.08097124
183	0x3dde55f4	0.10856238
184	0x3d5d6bc2	0.054057844
185	0xbde17492	-0.11008562
186	0xbdce4cdc	-0.100732535
187	0x3df8fee8	0.121579945
188	0xbda97f56	-0.082762405
189	0x3c1ed1ee	0.009693606
190	0xbdfd5c8a	-0.12371166
191	0xbda701a3	-0.08154609
192	0xbc264ed0	-0.010150626
193	0x3d837b85	0.06420044
194	0xbde601ab	-0.11230787
195	0xbbd9fd14	-0.0066524837
196	0xbaff7a95	-0.0019491488
197	0xbd946cbd	-0.07247303
198	0x3cc3ee10	0.023917228
199	0x3ce754a0	0.028238595
200	0xbd7c5fc6	-0.061614774
201	0x3dcfe522	0.101511255
202	0x3dcb5005	0.09927372
203	0xbd948b4b	-0.072531305
204	0xbc1299c0	-0.00894779
205	0x3dadc972	0.08485688
206	0xbda8e892	-0.08247484
207	0xbc8503f3	-0.016237235
208	0xbd746cf4	-0.05967422
209	0xbdb7f5ce	-0.089824304
210	0x3d07f79c	0.033195123
211	0xbdcb98d7	-0.09941261
212	0x3b3fc500	0.0029261708
213	0x3dc21e00	0.09478378
214	0x3d2988f0	0.04139036
215	0x3db098bd	0.086228825
216	0x3df228e8	0.118242085
217	0xbd40ac32	-0.04703922
218	0x3da6d190	0.081454396
219	0xbd00a84c	-0.0314105
220	0x3dcd04ca	0.10010679
221	0xbde7813d	-0.11303947
222	0x3d76022c	0.060060665
223	0xbdd10cd5	-0.10207526
224	0xbdf178b6	-0.11790602
225	0x3bddfdab	0.0067746243
226	0xbd21a348	-0.039462358
227	0xbb2403c1	-0.0025026652
228	0x3c7bbbe0	0.015364617
229	0xbde79abc	-0.1130881
230	0x3d95543c	0.07291457
231	0x3da0565d	0.078289725
232	0x3d0650f7	0.032792058
233	0xbccf5b3e	-0.025312062
234	0x3d42ac90	0.04752785
235	0xbcc5cbb8	-0.024144992
236	0x3d813e3c	0.063106984
237	0xbda8e26c	-0.082463115
238	0xbce113aa	-0.027475197
239	0xbd9a38dc	-0.07530376
240	0xbdba9238	-0.0910992
241	0x3d6a1028	0.057144314
242	0xbdb93c91	-0.09044755
243	0xbdc72c71	-0.097252734
244	0xbdeee1b3	-0.116641425
245	0xbd3ca9bf	-0.04606032
246	0xbb82a200	-0.003986597
247	0x3decdc88	0.115655005
248	0xbb40b10b	-0.00294024
249	0xbd99687e	-0.074906334
250	0x3d15c74b	0.036567014
251	0x3bd27be0	0.0064234585
252	0xbbd138a0	-0.006384924
253	0x3dff653f	0.12470483
254	0x3d75a847	0.059974935
255	0xbd0745af	-0.03302544

linear2.bias f4 [64]
0	0x3e2e4a3f	0.1702051
1	0xbcf6f18b	-0.030144474
2	0x3d132212	0.035921164
3	0xbbe1d6f4	-0.0068920795
4	0xbd12cb9e	-0.035838716
5	0xbe030178	-0.12793529
6	0x3de63dcb	0.11242255
7	0x3df1a7d6	0.1179959
8	0xbdf88027	-0.12133818
9	0xbd489cfb	-0.048977833
10	0xbd163afc	-0.036677346
11	0xbca15875	-0.0196955
12	0xbcc9d868	-0.024639323
13	0xbda58198	-0.08081359
14	0xbe16adc1	-0.1471472
15	0xbd055ef2	-0.03256125
16	0x3dcd6f18	0.10030955
17	0xbdc6da48	-0.097096026
18	0xbe31ba21	-0.17356159
19	0x3debf868	0.11521989
20	0xbe2e78ac	-0.1703822
21	0x3d88214b	0.06646975
22	0xbd9d60c0	-0.07684469
23	0x3d760276	0.06006094
24	0x3dda9ab9	0.10674042
25	0x3dfed844	0.12443593
26	0x3ca3c71a	0.0199924
27	0xbd93fc50	-0.07225859
28	0x3d156538	0.036473483
29	0x3de4b2b2	0.11166896
30	0xbdce18b6	-0.10063307
31	0x3e15f212	0.14643124
32	0x3d94c090	0.07263291
33	0x3e2cf24d	0.16889305
34	0xbdd9f0ee	-0.10641657
35	0x3de93873	0.1138772
36	0xbe08f057	-0.13372932
37	0x3c346dd5	0.011012514
38	0xbd920566	-0.07129936
39	0x3e1771eb	0.1478955
40	0x3d415920	0.047204137
41	0xbcffff80	-0.031249762
42	0xbbff6419	-0.007793915
43	0xbca3f509	-0.020014303
44	0x3e137efb	0.14403908
45	0xbd08f934	-0.033440784
46	0x3e00fa68	0.12595522
47	0xbcfc83f8	-0.030824646
48	0x3d99b710	0.075056195
49	0x3e0fc66f	0.1404054
50	0x3df04648	0.11732155
51	0x3dcfcef4	0.10146895
52	0x3c5e2376	0.013558259
53	0xbd9be92c	-0.076128334
54	0x3da50629	0.080578156
55	0x3d41804e	0.0472415
56	0x393df34b	0.00018115078
57	0xbdccbf23	-0.09997394
58	0x3dd8797a	0.10570045
59	0x3dc202cb	0.09473189
60	0xbd90fbce	-0.07079278
61	0xbe0ada8b	-0.1355993
62	0x3bab8f62	0.0052355984
63	0x3d80d6a9	0.06290943

linear3.weight f4 [64, 64]
0	0xbcfbeb85	-0.030751953
1	0xbde09aac	-0.10967001
2	0xbdb0a757	-0.086256675
3	0x3b9d951b	0.0048090345
4	0xba915060	-0.0011086576
5	0x3c29f8eb	0.010374288
6	0x3d5a3d26	0.053280972
7	0x3da5a055	0.080872215
8	0x3d10a5eb	0.03531448
9	0x3c9b3ec6	0.018950831
10	0xbd8ac746	-0.0677629
11	0x3c6edc30	0.014578864
12	0xbdf63894	-0.1202251
13	0x3dcd28d2	0.100175515
14	0x3dfdfbdf	0.12401556
15	0xbdf0f7c4	-0.117660075
16	0x3b911f20	0.004428759
17	0x3d98330e	0.07431613
18	0x3c1ba51d	0.009499815
19	0xbdcc013e	-0.099611744
20	0xbdcc91cf	-0.09988748
21	0x3cfb3302	0.03066397
22	0x3cdccc2e	0.02695283
23	0xbddb83ea	-0.1071852
24	0xbd8f6c87	-0.07003122
25	0xbd94bd1f	-0.072626345
26	0x3de35831	0.111008056
27	0xbd4bb476	-0.049732648
28	0x3dba02fa	0.09082599
29	0xbdb6cf01	-0.089262016
30	0x3dbf1db0	0.09331834
31	0xbb1c0953	-0.0023809269
32	0xbdd549ee	-0.104144916
33	0x3d13513f	0.035966154
34	0x3da7fb06	0.08202176
35	0x3d943237	0.0723614
36	0xbd3db9bb	-0.046319705
37	0xbd9e036e	-0.07715498
38	0xbcc2cfa8	-0.023780659
39	0x3d97c70e	0.074110135
40	0xbdbc946a	-0.09207995
41	0xbda3a600	-0.07990646
42	0xbc184c28	-0.009295501
43	0x3c944160	0.01809758
44	0xbc292075	-0.01032268
45	0x3db3aebe	0.08773564
46	0x3d81eef9	0.063444085
47	0xbb8f8dc0	-0.0043809116
48	0xbdc1b79d	-0.094588496
49	0x3daa6bfd	0.083213784
50	0xbb9724c0	-0.0046125352
51	0x3d33364c	0.043752953
52	0xbdc0bd60	-0.094111204
53	0xbddcffd8	-0.10790986
54	0xbdd97df2	-0.10619725
55	0x3b466d36	0.0030277497
56	0x3db30f0a	0.08743103
57	0x3d8d93bc	0.06912944
58	0xbdc5cdc5	-0.09658388
59	0xbcd8c27b	-0.026459923
60	0x3da7345e	0.08164285
61	0x3dcf2c16	0.101158306
62	0xbdc507f4	-0.096206576
63	0x3dcb3110	0.09921467
64	0x3e16ffad	0.1474597
65	0x3d3460a0	0.04403746
66	0x38719d87	5.7605586e-05
67	0x3bec8513	0.007218012
68	0x3d64453b	0.055730086
69	0x3d0e2413	0.03470237
70	0x3d83b773	0.064314745
71	0x3e021f63	0.12707286
72	0xbcde5c38	-0.027143583
73	0x3d704bf1	0.058666173
74	0x3d72b3d8	0.059253544
75	0xbd9fb0bb	-0.077973805
76	0xbbccf1f3	-0.0062544285
77	0xbdfc6770	-0.12324417
78	0x3d47150c	0.048604056
79	0xbdf61b5f	-0.12016939
80	0x3d9a8024	0.07543972
81	0xbbfce160	-0.0077172965
82	0xbda1b001	-0.07894898
83	0x3d4d0ba4	0.05005993
84	0x3d8662f7	0.06561845
85	0xbd56fc0a	-0.052486457
86	0x3dc6f5f4	0.097148806
87	0xbdbf7fdb	-0.09350558
88	0x3dac767a	0.08421035
89	0xbda135f8	-0.07871622
90	0x3d97bef8	0.07409471
91	0x3df5a892	0.11995043
92	0x3dd38e85	0.10329918
93	0xbd9526ca	-0.07282789
94	0x3dc7d0a2	0.097565904
95	0x3d3a8fab	0.04554717
96	0x3e19c9e0	0.15018415
97	0x3dcb803b	0.099365674
98	0xbcc80b70	-0.024419516
99	0x3c0d2edb	0.008617128
100	0x3dcf7d82	0.101313606
101	0xbded290b	-0.11580094
102	0x3d1d82f0	0.03845495
103	0xbd8ea44e	-0.069649324
104	0x3de70afe	0.112813935
105	0xbdd3affe	-0.10336302
106	0x3d1eac72	0.038738675
107	0x3dbc47eb	0.09193405
108	0x3e007647	0.12545119
109	0xbc952fd8	-0.01821129
110	0x3df4324d	0.119236566
111	0x3cea7f08	0.028625026
112	0x3ac4259c	0.0014964822
113	0xbcfdb607	-0.030970586
114	0x3df9752c	0.12180552
115	0xbda32818	-0.07966632
116	0x3dc75cd6	0.09734504
117	0xbbd1ad60	-0.0063988417
118	0xbcb4211f	-0.02198845
119	0xbcb834a2	-0.022486035
120	0xbca36602	-0.019946102
121	0xbd9e9dac	-0.07744917
122	0xbdaa689a	-0.083207324
123	0x3d6761f1	0.05648989
124	0xbc32d1bd	-0.010914263
125	0x3ccdd1bd	0.025124425
126	0x3cd61b16	0.026135962
127	0xbd954ee4	-0.07290438
128	0x3df5ee3a	0.12008329
129	0xbdce06a3	-0.100598596
130	0x3d1bb6f6	0.038016282
131	0x3df104d2	0.117684975
132	0xbdc469bc	-0.0959048
133	0xbd7234dd	-0.059132446
134	0x3da5c7ec	0.08094773
135	0x3d35881f	0.04431927
136	0x3dc5bbea	0.096549824
137	0x3e18a229	0.14905609
138	0x3dcf0e4a	0.10110147
139	0x3a42a183	0.000742458
140	0x3dd938ed	0.10606561
141	0x3dc082d2	0.09399952
142	0xbde712f6	-0.112829134
143	0xbd838549	-0.064219065
144	0x3d3bcd6c	0.045850202
145	0x3cea79d8	0.028622553
146	0xbde7e947	-0.11323791
147	0x3cfa92a0	0.030587494
148	0xbd7e5aa9	-0.06209818
149	0x3dd39688	0.10331446
150	0xbdf6f3fd	-0.12058256
151	0x3d29289a	0.041298486
152	0x3cb14150	0.021637589
153	0x3dd5f0ce	0.104463205
154	0xbd8e6286	-0.069523856
155	0x3c9a3fa7	0.01882918
156	0xbd5b4e39	-0.053541396
157	0xbd9b9ecc	-0.075986475
158	0x3db9953e	0.09061669
159	0x3d798474	0.060917333
160	0x3da78f54	0.081816345
161	0x3d375af6	0.04476448
162	0xbd96c0da	-0.07361002
163	0x3d247ba5	0.04015698
164	0xbdad6d96	-0.084681675
165	0x3c2a2655	0.010385116
166	0x3df9be04	0.12194446
167	0x3db7e636	0.08979456
168	0xbda3d540	-0.079996586
169	0xbde97082	-0.11398412
170	0x3d8b4178	0.067995965
171	0xbdcfc4fd	-0.101449944
172	0xbd704a07	-0.058664348
173	0xbd93ae2c	-0.07210955
174	0x3e0dd4d1	0.13850714
175	0x3cc8a0b8	0.0244907
176	0x3e03bf25	0.12865885
177	0x3da655a1	0.08121801
178	0xbdabd704	-0.0839062
179	0xbd82e11c	-0.063905925
180	0x3dec7936	0.11546557
181	0xbc162fb0	-0.009166643
182	0xbcf696a8	-0.030101135
183	0x3db0e6f9	0.086378045
184	0xbde935a0	-0.11387181
185	0x3dfe17cd	0.124068834
186	0xbd1c33c7	-0.038135316
187	0xbd9170a6	-0.07101564
188	0x3c45476a	0.012040952
189	0xbcec74ba	-0.028864253
190	0xbd142f46	-0.036177896
191	0x3c5f37f6	0.013624182
192	0x3dba17eb	0.09086593
193	0x3cbd459f	0.023104487
194	0xbe08cdac	-0.13359708
195	0xbd9d48fd	-0.07679937
196	0xbd0bdeee	-0.03414815
197	0xbe050c44	-0.1299296
198	0xbd44de9e	-0.048063867
199	0xbd2aae2c	-0.04167001
200	0xbda0c1a1	-0.07849432
201	0xbb40a59b	-0.0029395584
202	0xbce68198	-0.028137967
203	0x3db3a098	0.08770865
204	0x3b07486e	0.0020642537
205	0x3da323c0	0.07965803
206	0x3b91ed5b	0.004453344
207	0x3df560d1	0.11981357
208	0x3da4eb92	0.08052744
209	0xbc020a10	-0.007936969
210	0x3c8bdeeb	0.017074069
211	0xbcb17670	-0.02166292
212	0x3ca21c07	0.019788755
213	0x3c5a46aa	0.013322512
214	0xbd416728	-0.047217518
215	0x3d13df35	0.03610154
216	0x3da9f576	0.08298771
217	0xbd0b42ab	-0.033999126
218	0xbd1b563d	-0.03792404
219	0xbd838440	-0.06421709
220	0x3dc41fa6	0.09576349
221	0x3d4620f8	0.048371285
222	0xbd7d5700	-0.061850548
223	0x3d86ccb9	0.065820165
224	0x3bc8ef8c	0.006132072
225	0xbd5b4251	-0.05353004
226	0x3ccd4c48	0.025060788
227	0x3d4af5a1	0.049550656
228	0x3d8b5103	0.06802561
229	0x3dbcbc0f	0.09215557
230	0xbdec76f4	-0.11546126
231	0x3e0703fb	0.13185112
232	0xbd49f778	-0.04930827
233	0x3d033abc	0.032038435
234	0x3dc3bd0f	0.095575444
235	0x3dbf51de	0.09341787
236	0x3d9e70cc	0.07736358
237	0xbd5b6604	-0.053564087
238	0xbd8907ae	-0.06690918
239	0x3dd69f72	0.104796305
240	0x3de916a7	0.11381274
241	0xbddfd51e	-0.10929321
242	0x3d9fb26c	0.07797703
243	0x3c8cf040	0.017204404
244	0x39f12082	0.00045991322
245	0xbc6fc880	-0.014635205
246	0xbdd485d6	-0.1037709
247	0x3deb5535	0.11490861
248	0x3cdb3411	0.026758226
249	0x3d8c76a1	0.06858564
250	0x3d2a8628	0.041631848
251	0xbdb24473	-0.08704462
252	0x3bae0a75	0.005311305
253	0xbcddc1e4	-0.027069993
254	0xbdd3e4d5	-0.103463806
255	0xbd897b37	-0.067129545

linear3.bias f4 [64]
0	0xbe1fd50c	-0.15608615
1	0x3d860c1d	0.06545279
2	0x3de20558	0.110361755
3	0x3da57404	0.08078769
4	0xbcee048c	-0.029054902
5	0xbd892e7a	-0.06698318
6	0xbd391e2e	-0.045194797
7	0xbcdcc22b	-0.026948055
8	0x3d423fd6	0.04742416
9	0x3d4878ee	0.048943453
10	0xbcfdaafc	-0.03096532
11	0x3dd5af4e	0.10433827
12	0x3e0ac1b6	0.13550457
13	0xbaa7e2ae	-0.0012808645
14	0x3caa1db9	0.020766126
15	0x3e23bff9	0.159912
16	0xbd591d00	-0.053006172
17	0xbdca6090	-0.09881699
18	0x3e1ebafe	0.1550102
19	0x3e052fe2	0.13006547
20	0xbd523675	-0.051321466
21	0x3d4482fe	0.047976486
22	0xbdfff4fc	-0.12497899
23	0x3dbba37a	0.0916204
24	0xbd586ebd	-0.052839983
25	0x3ba37500	0.0049883127
26	0x3cd59678	0.026072726
27	0x3dd094f2	0.10184659
28	0x3cedba2c	0.029019438
29	0x3de37c0e	0.11107646
30	0xbd38100f	-0.04493719
31	0xbda4ad5c	-0.08040878
32	0x3c66f875	0.014097323
33	0xbd41c314	-0.04730518
34	0x3dee7992	0.116442814
35	0xbc0da10f	-0.008644356
36	0x3db10472	0.08643426
37	0xbdf9a924	-0.12190464
38	0x3e0c7edc	0.13720268
39	0xbdacff99	-0.08447189
40	0xbc65ed55	-0.014033635
41	0x3dafad3e	0.08577965
42	0x3dc23e9e	0.094845995
43	0xbd85d76d	-0.0653523
44	0x3d64f104	0.055893913
45	0xbd0f57ac	-0.03499572
46	0x3dc2870f	0.09498417
47	0xbcec3001	-0.028831484
48	0xbd2980cc	-0.041382596
49	0xbd0ff32c	-0.035144016
50	0x3c999008	0.018745437
51	0x3d951322	0.0727904
52	0x3e1967ba	0.14980975
53	0xbc032455	-0.008004268
54	0xbdbb1ef8	-0.09136766
55	0xbae52d9c	-0.0017484906
56	0x3b8cb24f	0.004293717
57	0x3ceae768	0.028674796
58	0xbdc46ee6	-0.09591465
59	0x3dda4b91	0.106589444
60	0xbdb9a28d	-0.09064207
61	0xbdf1248f	-0.11774551
62	0xbd488204	-0.048952118
63	0xbcfa3630	-0.030543417

linear4.weight f4 [64, 64]
0	0xbdaef95c	-0.08543655
1	0xbd35ce36	-0.04438611
2	0x3df90e76	0.12160961
3	0x3cc3d6db	0.023906162
4	0x3e0d8e7f	0.13823889
5	0x3b670780	0.0035252273
6	0xbd470916	-0.04859265
7	0xbc99ffb8	-0.018798694
8	0xbda685e0	-0.081310034
9	0x3d73351e	0.05937683
10	0x3e0ac5be	0.13551995
11	0x3dcd63e4	0.10028818
12	0xbd020cf3	-0.03175063
13	0x3c5b5e84	0.0133892335
14	0xbca7fb6a	-0.020505626
15	0xbd1b858e	-0.037969165
16	0x3d28a5a5	0.041173596
17	0x3dd4351e	0.10361694
18	0x3dbd81c8	0.092532694
19	0xbc756930	-0.014978692
20	0xbda12234	-0.07867852
21	0xbdaeb6a7	-0.08530932
22	0x3da62b6e	0.08113752
23	0x39918f09	0.00027763125
24	0x3cd1f192	0.025627885
25	0xbdbd8d5c	-0.09255478
26	0xbdc35f11	-0.09539617
27	0x3cdf4850	0.027256161
28	0x3da4ec5a	0.08052893
29	0x3cf221e3	0.029557174
30	0x3c5abf7a	0.013351316
31	0x3d4f2662	0.050573714
32	0x3d96f1b0	0.07370317
33	0x3bc74d54	0.0060822163
34	0x3d82c3d8	0.063850105
35	0x3bcbde24	0.0062215496
36	0xbd6dd1e5	-0.0580615
37	0xbdb0892e	-0.08619915
38	0xbd0b0b2b	-0.033946197
39	0xbcadd88f	-0.021221427
40	0xbdefc361	-0.117071874
41	0xbd9e422f	-0.07727467
42	0xbd69f590	-0.057118952
43	0xbc8c2d63	-0.017111486
44	0x3da83e23	0.08214977
45	0xbc69d680	-0.014272332
46	0x3c2f176d	0.0106867375
47	0x3d8a0681	0.06739522
48	0xbdd2cab4	-0.10292569
49	0xbd706558	-0.0586904
50	0xbdad3b4e	-0.08458577
51	0x3cac5eb0	0.021041244
52	0x3dbf2280	0.09332752
53	0xbd55bc3a	-0.05218146
54	0xbd5fb60c	-0.054616973
55	0x3d36cfe2	0.044631846
56	0x3d6b07f8	0.057380646
57	0x3dd5af43	0.10433819
58	0x3dcad488	0.09903818
59	0x3c27bceb	0.010237913
60	0xbdefd486	-0.117104575
61	0x3d9aac48	0.07552391
62	0x3d8fb08e	0.07016097
63	0xbd27d6ac	-0.04097621
64	0xbd7619ac	-0.060083076
65	0x3d6a457f	0.057195183
66	0x3e194cf7	0.14970766
67	0x3e01668f	0.12636779
68	0x3ca3aea5	0.019980738
69	0xbdd722e2	-0.105047
70	0x3d197cbe	0.03747248
71	0x3dd691ec	0.10477051
72	0xbd9965b5	-0.07490102
73	0x3de661d2	0.112491265
74	0x3e0bcceb	0.13652389
75	0x3d94e48e	0.07270156
76	0x3d91737d	0.07102106
77	0x3dafde9e	0.08587383
78	0xbcab5c2f	-0.02091798
79	0xbd481963	-0.048852336
80	0x3dbdf1fb	0.0927467
81	0x3d3c489c	0.045967683
82	0x3e084363	0.13306956
83	0xbd466f0e	-0.048445754
84	0xbdda44c6	-0.10657649
85	0xbdca1edf	-0.098691694
86	0x3db627a2	0.08894278
87	0xbdadfac4	-0.08495095
88	0x3db9cd43	0.09072354
89	0xbd685584	-0.05672218
90	0x3df33851	0.11875976
91	0xbc804db0	-0.015662044
92	0x3c755b19	0.014975333
93	0x3ae3e2cb	0.0017386315
94	0xbd8fe0db	-0.0702531
95	0xbddbea67	-0.10738068
96	0x3d0f92a5	0.03505196
97	0xbd53bd53	-0.051694226
98	0x3de107e2	0.10987832
99	0x3de6d92e	0.112718925
100	0xbd3d5af5	-0.04622932
101	0x3d9422cc	0.072331995
102	0xbd022c94	-0.031780794
103	0x3c66dfe8	0.014091469
104	0xbde41c12	-0.111381665
105	0x3d0d6331	0.034518424
106	0x3c935a50	0.0179874
107	0xbd33c76e	-0.043891363
108	0xbcee6675	-0.02910159
109	0xbd7bfd08	-0.061520606
110	0x3d98faf8	0.074697435
111	0xbd7dd633	-0.061971854
112	0x3dc9251e	0.09821533
113	0x3d9c6292	0.07635988
114	0xbdf4b00c	-0.11947641
115	0x3db84918	0.089983165
116	0x3d78ac9a	0.06071148
117	0xbcea1a54	-0.028577007
118	0x3cb009a8	0.02148898
119	0xbddbff44	-0.107420474
120	0xbd120f0b	-0.035658877
121	0x3ce4ce54	0.027930416
122	0x3daf6932	0.08564986
123	0x3e04a3a4	0.12953049
124	0x3d53e195	0.051728804
125	0xbd6c06bc	-0.05762361
126	0x3dd79224	0.10525921
127	0x3d6b7e98	0.057493776
128	0xbd657134	-0.056016162
129	0x3dd1f7ef	0.10252368
130	0xbe0fd4af	-0.14045976
131	0xbde9b53d	-0.114115216
132	0xbde08263	-0.10962369
133	0x3ddcba10	0.10777676
134	0xbd030524	-0.031987324
135	0xbd4b3ba4	-0.049617425
136	0xbcd5e374	-0.026109435
137	0x3da08b5f	0.07839083
138	0xbd8b0108	-0.06787306
139	0x3b9f01e0	0.0048525184
140	0xbdcb0d3e	-0.09914635
141	0x3d95b763	0.07310369
142	0x3ddd710a	0.10812576
143	0xbd80fa08	-0.0629769
144	0x3d4346a9	0.04767481
145	0xbded4a50	-0.115864396
146	0xbc89dd03	-0.01682902
147	0x3ddc5f54	0.1076037
148	0x3d1849d7	0.037179794
149	0xbc1f97e3	-0.009740802
150	0xbd1a4900	-0.037667274
151	0x3da906b4	0.08253232
152	0xbc1b5890	-0.009481564
153	0xbd5281bc	-0.051393256
154	0xbc8ce600	-0.017199516
155	0x3deff2a6	0.117162034
156	0xbdad5703	-0.08463862
157	0xba643566	-0.0008705467
158	0x3957a44e	0.00020565206
159	0xbd621ade	-0.055201404
160	0xbcc33903	-0.023830896
161	0xbdb71fe0	-0.089416265
162	0xbd177fd0	-0.036987126
163	0x3dd45fe9	0.10369856
164	0x3dfcb732	0.12339629
165	0x3d291f6e	0.04128974
166	0xbc5da6cf	-0.01352854
167	0xbd2bec1a	-0.04197321
168	0xbdf997eb	-0.12187179
169	0x3c62f15e	0.013851492
170	0xbddba4d0	-0.10724795
171	0xbdbf65bd	-0.09345577
172	0x3dbd9bd1	0.09258235
173	0x3ce6b1b0	0.0281609
174	0x3b53c0df	0.0032311005
175	0xbd8ff355	-0.07028834
176	0xbd6a3b6c	-0.057185575
177	0xbddeaf2e	-0.108732566
178	0xbdf1c235	-0.1180462
179	0xbdb84080	-0.089966774
180	0x3e09d682	0.13460734
181	0x3de84da1	0.113429315
182	0x3df3e118	0.119081676
183	0xba575a27	-0.0008215033
184	0x3d86161e	0.06547187
185	0x3c48b22d	0.012249512
186	0xbc6ebfa0	-0.014572054
187	0x3e04a3fc	0.1295318
188	0x3dc7ecec	0.09761986
189	0xbdcb4a16	-0.0992624
190	0xbd73ef20	-0.05955422
191	0x3d979aa8	0.07402545
192	0xbb9cc0b8	-0.004783716
193	0x3c0c576d	0.008565766
194	0xbd36e71f	-0.044654008
195	0xbcc50b3e	-0.024053212
196	0x3dd666a4	0.10468796
197	0xbd5646e8	-0.052313715
198	0x3da9b2a2	0.08286025
199	0xbac27ac7	-0.0014837616
200	0xbdc50e9e	-0.09621929
201	0x3d897658	0.067120254
202	0xbdd1d503	-0.10245707
203	0x3dd9fa8e	0.10643493
204	0xbbd327da	-0.0064439597
205	0x3d8b0b54	0.0678927
206	0x3da76426	0.08173399
207	0x3d08d8c2	0.03340984
208	0xbbba2c4f	-0.0056815515
209	0x3c105100	0.008808374
210	0xbd92d8f3	-0.07170286
211	0x3de58a9c	0.11208078
212	0x3df0496f	0.11732756
213	0xbc3718c0	-0.011175334
214	0xbd4dfb78	-0.050288647
215	0xbc603bd3	-0.013686138
216	0x3d97495d	0.0738704
217	0x3dab3b4a	0.08360918
218	0x3da92d42	0.08260585
219	0xbd82ca26	-0.06386213
220	0x3d1856bb	0.037192088
221	0xbd18bb1d	-0.03728782
222	0xbdc9400e	-0.098266706
223	0x39925583	0.00027911
224	0xbda8ae71	-0.08236397
225	0xbda57206	-0.08078389
226	0x3c5eed60	0.013606399
227	0x3d8f7ce2	0.070062414
228	0x3cd0b771	0.025478097
229	0x3d425e82	0.04745341
230	0xbda26c07	-0.07930761
231	0x3da3214a	0.07965334
232	0xbd875dd3	-0.066096924
233	0xbd6ceacd	-0.05784111
234	0xbd2b7e40	-0.04186845
235	0xbdc0865e	-0.094006285
236	0xbe047f8b	-0.12939279
237	0xbc02eb80	-0.007990718
238	0x3d754142	0.059876688
239	0xbd277c23	-0.04088987
240	0x3dbdbcf6	0.09264557
241	0xbda6793c	-0.08128592
242	0xbd958d31	-0.07302321
243	0x3d97738c	0.07395086
244	0xbb56d2b7	-0.0032779404
245	0xbd11b4c3	-0.03557278
246	0xbd3ed6dc	-0.046591625
247	0x3d56f20f	0.05247694
248	0xbbefd574	-0.007319147
249	0xbd63f085	-0.0556493
250	0x3db7ee0c	0.08980951
251	0x3dccb0f2	0.09994687
252	0x3daf6fb4	0.085662276
253	0xbde4234a	-0.11139543
254	0xbd7e0dc4	-0.062024847
255	0xbd821584	-0.0635176

linear4.bias f4 [64]
0	0x3daaa17a	0.083315805
1	0x3c8c5209	0.017128961
2	0xbe05b3eb	-0.13056915
3	0x3cf21ece	0.029555704
4	0x3e2b2538	0.16713417
5	0xbdc8a8c7	-0.09797817
6	0x3de07930	0.10960615
7	0x3d129c9b	0.035793882
8	0x3dd7c126	0.10534887
9	0xbdb46835	-0.088089384
10	0x3d84838f	0.06470405
11	0xbd3bfea4	-0.04589714
12	0xbd999bfa	-0.07500453
13	0xbd9858ee	-0.07438837
14	0xbc8f805c	-0.017517261
15	0x3d9d1cd5	0.07671515
16	0xbe05f27f	-0.13080786
17	0x3c8d6daa	0.017264206
18	0xbc350de1	-0.011050672
19	0x3d2bb39c	0.041919336
20	0xbd2187d0	-0.03943616
21	0xbc44c1b7	-0.012009076
22	0x3d8c1af0	0.068410754
23	0x3dd34a8c	0.10316953
24	0x3dfcf43d	0.12351272
25	0x3db0bfde	0.08630346
26	0x3e0d60a7	0.13806401
27	0x3e11b780	0.14230156
28	0xbc917ce0	-0.01775974
29	0xbc8d19c0	-0.017224193
30	0xbd921e6d	-0.071347095
31	0x3cfdd1ba	0.030983794
32	0x3e1ca0bf	0.15295695
33	0x3d43d619	0.0478116
34	0x3df14428	0.11780578
35	0x3d428114	0.04748638
36	0x3dd7573e	0.10514687
37	0x3d88214a	0.066469744
38	0xbd2c058a	-0.04199747
39	0x3c079eb5	0.008277585
40	0x3c31ee91	0.010860101
41	0xbd802452	-0.062569275
42	0x3df3ab2d	0.118978836
43	0x3d8b718e	0.06808768
44	0x3d2e3968	0.042535216
45	0x3e0df2a4	0.13862091
46	0x3d629ead	0.055327106
47	0x3d0cf5d0	0.034414113
48	0x3dd490d1	0.10379184
49	0x3e110277	0.14161097
50	0xbc8e055e	-0.017336544
51	0xbc37b710	-0.011213079
52	0xb9506499	-0.00019873901
53	0x3dacc31a	0.0843565
54	0x3e3711d8	0.178779
55	0xbddfc516	-0.10926263
56	0xbc269d66	-0.010169363
57	0x3e2c6956	0.16837057
58	0xbccdf5e0	-0.025141656
59	0x3e2fadde	0.17156169
60	0xbd548997	-0.05188903
61	0x3da89225	0.08231
62	0xbc870bc8	-0.01648511
63	0x3d3b5264	0.04573287

mean_linear.weight f4 [2, 64]
0	0x3cfd2f22	0.030906264
1	0x3cacb93a	0.021084417
2	0xbc3ae6ce	-0.011407567
3	0x389ac52e	7.38002e-05
4	0x3c9622c9	0.018327134
5	0xb909c665	-0.00013139246
6	0x3c99aa92	0.018758092
7	0x3c845d00	0.016157627
8	0x3c9006cc	0.017581366
9	0xbb229384	-0.0024807164
10	0x3c957091	0.018242152
11	0xba80e34d	-0.0009833366
12	0xbac4b20a	-0.0015006673
13	0x3c81b27c	0.015832178
14	0x3c192a81	0.009348513
15	0x3c98e921	0.018665852
16	0xbc50bf3e	-0.012740908
17	0x3c2cf029	0.0105553055
18	0x3c76cedf	0.01506397
19	0xbb070a9a	-0.0020605684
20	0x3c380d17	0.01123359
21	0x3b8fb21a	0.004385245
22	0x3c59aa3b	0.013285215
23	0x3c9d5658	0.019206211
24	0x3ca30fa0	0.019904912
25	0x3c7e614b	0.015526126
26	0x3cc1e48e	0.023668554
27	0x3cbbd146	0.022926938
28	0x3a7f1053	0.00097299105
29	0xbb188be2	-0.0023276736
30	0x3c11869a	0.008882189
31	0x3c78e033	0.015190172
32	0x3c933021	0.017967286
33	0x3c48c81f	0.012254744
34	0xbaf14718	-0.0018408028
35	0x3c66c003	0.014083865
36	0x3cac2bfc	0.021017067
37	0x3c7a9178	0.0152934715
38	0xbb9194db	-0.004442794
39	0x3b90035f	0.004394933
40	0x3c58aef9	0.0132253105
41	0x3b24eca6	0.0025165468
42	0x3c807d57	0.015684767
43	0x3ca6cd29	0.0203615
44	0x3cd1a509	0.02559139
45	0x3d0e9f1d	0.03481971
46	0x3cefb05d	0.029258901
47	0x3ce3894f	0.027775435
48	0x3d0bebd3	0.034160446
49	0x3c949d68	0.018141463
50	0xba050ebf	-0.00050757447
51	0xba970915	-0.0011523092
52	0xbb8f075b	-0.0043648905
53	0x3c9ec28e	0.01937988
54	0x3cc333fc	0.023828499
55	0xb9ca3a42	-0.00038571848
56	0x3c81f432	0.015863512
57	0x3c6b56fb	0.0143639995
58	0x3b2e80d2	0.0026627076
59	0x3cbfa98f	0.023396282
60	0x3aeb0920	0.0017931797
61	0x3c97679a	0.018482018
62	0xb9e5249c	-0.0004370556
63	0x3d01febe	0.03173708
64	0x3cba5ccd	0.022749329
65	0x3ccb17d5	0.024791637
66	0xbcecfc03	-0.028928762
67	0xbaeee841	-0.0018227176
68	0x3c9a8656	0.018862884
69	0x3b7c7b5a	0.0038525672
70	0x3c8733fa	0.016504277
71	0x3bf44c23	0.0074553653
72	0x3d0437e3	0.03227986
73	0xbb56d79f	-0.0032782329
74	0x3ccc6791	0.024951728
75	0x3ce9219e	0.028458413
76	0xbb214b60	-0.0024611577
77	0x3c220253	0.009888249
78	0x3c1c93a8	0.009556688
79	0x3c80161e	0.015635546
80	0xbc7fdc08	-0.015616424
81	0x3c9fe8e1	0.019520225
82	0x3c9a4a03	0.01883412
83	0x3b31376e	0.0027041095
84	0x3c137302	0.008999588
85	0xb9c4f61b	-0.00037567396
86	0x3c76d86a	0.015066246
87	0x3d45c6e1	0.04828537
88	0x3c842632	0.016131494
89	0x3b9dc2b1	0.004814469
90	0x3ca64d02	0.020300392
91	0x3d19b81f	0.037529107
92	0x3cef41db	0.029206207
93	0x3abac6c5	0.0014249912
94	0xbac9e586	-0.0015403486
95	0x3c0c77e9	0.008573511
96	0x3c7376c2	0.014859857
97	0x3c9385e3	0.018008178
98	0xba3b075c	-0.00071345805
99	0x3c5ed4a1	0.013600499
100	0x3c684ffa	0.014179224
101	0x3c202f1d	0.009776858
102	0xbb5f00c3	-0.0034027554
103	0x3c0c85c6	0.008576816
104	0x3c6b5362	0.014363142
105	0xb985024a	-0.00025369442
106	0x3c6490a4	0.013950501
107	0x3c3945ed	0.0113081755
108	0x3cb4ddd2	0.022078428
109	0x3cc6e870	0.024280757
110	0x3ceed903	0.029156214
111	0x3d133073	0.035934877
112	0x3ba69aa4	0.0050843526
113	0x3c383761	0.011243672
114	0x3b254688	0.0025219042
115	0xbb3f1d60	-0.0029161796
116	0x3bdbfbf0	0.006713383
117	0x3c264c64	0.010150049
118	0x3cf93fd9	0.030425953
119	0xb9a3d3aa	-0.00031247485
120	0x3c696de0	0.014247388
121	0x3cd22fd1	0.025657566
122	0xbb0cf535	-0.002150846
123	0x3c78f56f	0.015195235
124	0x3abc328c	0.0014358326
125	0x3c19d4e8	0.00938914
126	0xbb06b7e0	-0.0020556375
127	0x3cc05e35	0.023482421

mean_linear.bias f4 [2]
0	0x3d0f4df7	0.034986462
1	0x3ccd6150	0.025070816

log_std_linear.weight f4 [2, 64]
0	0xbc8b4ffd	-0.017005915
1	0xbc0cbf9e	-0.008590607
2	0x3a9bd455	0.0011888841
3	0xbb72cd3d	-0.00370486
4	0xbc25007d	-0.010070917
5	0x37bb8587	2.2354316e-05
6	0xbbc0d3e3	-0.005884634
7	0xbbafec4a	-0.005368744
8	0xbb2d23e5	-0.00264191
9	0xbb368d27	-0.002785513
10	0xbba7f7db	-0.005125982
11	0x3c11a789	0.008890041
12	0xbb4365fc	-0.0029815426
13	0x3a4fc786	0.00079261546
14	0xbb8ae8d1	-0.0042391797
15	0xbbee713c	-0.007276682
16	0x3aada325	0.0013247473
17	0xbb060e3f	-0.0020455269
18	0x39eec1b2	0.00045539212
19	0xbafd0a45	-0.0019305429
20	0xbb8f5544	-0.004374178
21	0xb9a78af2	-0.00031956244
22	0xba54394f	-0.0008095698
23	0x3ba5fb9f	0.005065396
24	0xbc37774f	-0.011197879
25	0xbc16dc0c	-0.009207737
26	0xbbd9e29b	-0.006649328
27	0xbc5f2efd	-0.013622043
28	0x3b938daa	0.0045029717
29	0xbad90a1a	-0.0016558797
30	0xbb58ebcd	-0.0033099533
31	0xbbb2937a	-0.0054497095
32	0xbc106ddf	-0.008815258
33	0xbb9be01b	-0.00475694
34	0xbb7a385f	-0.0038180572
35	0xbaf3a05f	-0.0018587223
36	0xbc0ec3e9	-0.008713701
37	0xbc01434b	-0.007889579
38	0x3a831653	0.001000116
39	0xb9c39b9d	-0.0003730924
40	0xbbb3afae	-0.005483589
41	0xba504c9e	-0.0007945987
42	0xbbfa2bfe	-0.007634639
43	0xbbb547c7	-0.005532238
44	0xbc372322	-0.01117781
45	0xbc26cccc	-0.010180663
46	0xbc583f45	-0.013198678
47	0xbbb40b6b	-0.005494525
48	0xbc7e7857	-0.015531621
49	0xbbb193ac	-0.005419215
50	0xbb32f420	-0.0027306154
51	0x3b1da8bc	0.0024056872
52	0x3bb90898	0.0056467764
53	0xbbecbad5	-0.0072244206
54	0xbbbd7254	-0.0057814512
55	0x39ad2fec	0.00033032836
56	0xbb46fd77	-0.003036348
57	0xbbb4296c	-0.005498102
58	0x3aad2a5d	0.0013211478
59	0xbc35e2c7	-0.011101431
60	0xba63758e	-0.000867688
61	0xbbc5e568	-0.0060393102
62	0xbaa6fcd9	-0.0012740149
63	0xbc540868	-0.012941457
64	0xbc385687	-0.0112510985
65	0xbc5a42d0	-0.013321593
66	0x3c8987dd	0.016788417
67	0xbb117812	-0.0022196812
68	0xbc0b7f03	-0.008514169
69	0xbb7ffb78	-0.00390598
70	0xbb8e80db	-0.004348857
71	0xbaa3ee93	-0.0012507014
72	0xbc866340	-0.016404748
73	0xba5cd201	-0.0008423627
74	0xbc09ba4f	-0.008406236
75	0xbb9d4f2d	-0.0048006983
76	0xbb088271	-0.0020829702
77	0xbbca9287	-0.006182018
78	0xba09b275	-0.00052527274
79	0xbba39cda	-0.0049930634
80	0x3bf9f631	0.0076282253
81	0xbb3dc362	-0.0028955569
82	0x3a5f87f4	0.00085270335
83	0x3b3ec071	0.0029106403
84	0xbb8f1aaf	-0.0043671946
85	0xbb106912	-0.0022035283
86	0xbba5e295	-0.005062411
87	0xbc04f799	-0.0081156725
88	0xbbfe4cce	-0.0077606207
89	0xbaf04bf5	-0.0018333184
90	0xbbd0ddbb	-0.0063740886
91	0xbc883e81	-0.016631367
92	0xbb6d5e86	-0.003621967
93	0x3aae8b7a	0.0013316714
94	0xba995a08	-0.0011699805
95	0xbb93e0cc	-0.004512882
96	0xbc066d09	-0.008204707
97	0xbb170587	-0.0023044066
98	0xbab38293	-0.001369553
99	0xba83ccff	-0.00100556
100	0xbc05df15	-0.008170863
101	0xbb2e0074	-0.0026550563
102	0x3bc7699c	0.0060855877
103	0xbb2e7c2c	-0.0026624305
104	0xbbb752e9	-0.0055946005
105	0x3ab50096	0.0013809379
106	0xbbb0107b	-0.0053730584
107	0xbbbb9a58	-0.0057251863
108	0xbc2f3d1c	-0.010695722
109	0xbb9b7de3	-0.0047452315
110	0xbc5ea5b4	-0.013589311
111	0xbb871d4a	-0.0041233646
112	0xbc158cfa	-0.00912785
113	0xbb8618a8	-0.0040922947
114	0xba06ac3d	-0.000513736
115	0xbb1c2960	-0.0023828372
116	0x3b74506c	0.003727938
117	0xbbcf309a	-0.0063229324
118	0xbc46f119	-0.012142443
119	0xb9ab7760	-0.00032704603
120	0x3a9e4426	0.0012074753
121	0xbc14b7c5	-0.009077017
122	0xbb346978	-0.0027528685
123	0xbc285fe0	-0.010276765
124	0x3974c979	0.00023344708
125	0xbbc34b77	-0.005959924
126	0x3b2e81e5	0.0026627716
127	0xbc4d566b	-0.012532811

log_std_linear.bias f4 [2]
0	0xbcad9f34	-0.021194078
1	0xbc875b68	-0.016523078
