models/noCBF_2025-11-17 20:00:00/1/Q1.pth (torch, 37764 bytes, 7 tensors)

linear1.weight f4 [64, 5]
00000000: 3e3b 66be 5700 d13e 7d20 debe d27b 843e
00000010: c077 063e 62b2 ccbe 72ab 153e c899 adbb
00000020: d663 d83d 723c a6be c84a 0abf dd16 4e3e
00000030: ad1a 87bd 7d12 8d3d cb59 20bf a465 d6bd
00000040: 1371 edbe d6c8 583e e0ad 10bf 4558 a2be
00000050: 3c98 30be 86ea d63e 3190 3bbe 3cbf d0be
00000060: c196 debe e726 e3be c27d 2c3e 9dd4 793d
00000070: 3580 ab3d 1d34 053e 0644 ba3d 89c2 d2be
00000080: 5d38 85bd 9b65 843e d4c4 1a3e 23d5 ebbe
00000090: 7462 23be f8ab 3d3e 0777 acbe b99e 5d3d
000000a0: 7949 583e 676f 933e eb7a ddbe ff81 c43e
000000b0: 6f29 a23e 5535 3b3e 6964 2f3c 4491 843e
000000c0: bc98 ed3d 1a3c 98be 5a55 773e ad46 dfbd
000000d0: 058a bebe 08d2 96be bcba 79be ffd4 80bd
000000e0: 3c36 813e 564a c53d bb23 ba3d 2fe9 7cbe
000000f0: 34eb db3e 132f 3abd df4d e5bd cf5b 703e
00000100: e60f 8b3e 974f 49be 2615 ddbe 10d9 193e
00000110: b27d 9dbe e2f6 433e 810c 79bd 0931 923e
00000120: b8c8 e8bd 5d5e 8b3c d39e 693d 2795 4a3e
00000130: 275b 153e a2e2 7f3e 77bc e43d 9b8c ce3e
00000140: e500 17be 5e04 e4be 7185 ad3c cc29 42bd
00000150: b136 b0be 502b 403e 33ed 9e3e a30e 05be
00000160: 604c 943e 2aff de3e a67d d03e 17e6 363e
00000170: 1427 c4be a86c 85be bc2d ca3e 914a 3fbe
00000180: 8f00 c7be 6938 0abe 2ab2 173e a4d5 07bf
00000190: b6e2 05bf 61cd b5be b709 bebd e1fd febe
000001a0: 8dea 89bc dfb1 5c3e 11a1 aabe 0638 a33e
000001b0: 7de8 febd 4c1d 1b3e 4df8 95be f21f 0dbd
000001c0: feec 1bbc 0eea 043e 73e2 16be 59b3 503e
000001d0: d69c d0be d15b 81be 58cf f9be 6f9c f0be
000001e0: 5f5d a23d a3d6 5f3e d8fe 3fbd b8de 7f3e
000001f0: e5fc 4b3e 4928 25be 856c a73d cbc9 7c3e
00000200: ed5d 5bbe def1 94be b315 99be e138 f1be
00000210: cba5 d4bd 83fd a33d 192b 83be 9507 6a3d
00000220: 22d4 d63e 91f6 dcbe 373f df3c 0661 f73c
00000230: 5281 06bf 1cc3 94be 5ef8 733d 0dda 6f3e
00000240: b99b 1b3d 1a51 bd3e d93f d9be 87d2 bf3e
00000250: d971 99be 6708 97be 3ba8 3c3e 5089 733e
00000260: c97b 1a3e 0cb9 a53e 773b a2be dfd5 d23c
00000270: ffe8 09bd 84af ab3d 3d21 05bf d5b8 39be
00000280: c359 e0be 175a c7be b6ef bf3e 5f87 b9be
00000290: efc4 29bc 6c29 a9be 69e4 c6be 29d4 8c3d
000002a0: 291a 66be ce48 e5be 402d aa3e 4a48 41be
000002b0: 9014 b03e 0cbe 793e 1506 263e a81a f13d
000002c0: 12ce 03bf f53e 353e b262 5a3e e678 b8bc
000002d0: f4ed 9dbd 3366 2e3e 9cc6 cabe c275 893e
000002e0: 3cb7 e0bd 0f9b 993e d096 c23e cf1b e4be
000002f0: cda9 093e 9bc3 d4be 8c04 043d 70bb bd3e
00000300: 3cb1 c93d 850c 8dbe 125a e13e c274 07be
00000310: cc5b b7be 5762 d7bc 2905 adbe e285 a13d
00000320: 9afc 19be e95a 9abe c654 14be 68c7 f13d
00000330: 2e5d 28bf 689b db3d 550c 71be 538e e53e
00000340: 989d d5be 1dbe e53d 6d84 463e e85b aebe
00000350: b5ad 013e e432 02bf e382 a8be 2299 5fbe
00000360: 4a10 b0bd e1fc 193e 6fb9 d9be ca51 a4be
00000370: db11 fabd 5bb3 39be 05c1 ec3e 01f5 e7bd
00000380: 12d1 2c3d a0dd 9a3d 2e0a 993e 9982 cdbe
00000390: b111 2e3e a86c aa3e 26df 05bf 8eb5 afbe
000003a0: af82 70be ad5b 9ebe bf5a 583e b03f c4be
000003b0: 23a6 4bbe ca52 0ebd 46ad 96be fabb 91be
000003c0: 34ff a6bd d908 0dbe 6d67 9a3e 7684 80be
000003d0: ff2f 553e 8336 cdbe ac48 d0be 1e32 1ebe
000003e0: 2077 01bf 9e13 af3d b4be aebe 5ce2 25be
000003f0: 955d 29bc d372 a2bd a562 19bd 4116 bc3e
-0.22483537 0.40820572 -0.43384162 0.25875717 0.13131618 -0.39979845 0.14616182 -0.005297873
0.10565917 -0.3246799 -0.5402036 0.20125909 -0.06596885 0.06888292 -0.62637013 -0.10468605
-0.4637533 0.21170363 -0.5651531 -0.3170797 -0.17245573 0.41975802 -0.18316723 -0.407709
-0.4347439 -0.44365618 0.16844848 0.06099378 0.08374063 0.13008161 0.09095006 -0.41164044
-0.06504891 0.2585877 0.15114146 -0.46061048 -0.15955526 0.18522632 -0.3368456 0.054106448
0.21121778 0.2879593 -0.4325784 0.3838043 0.31672236 0.18282063 0.010705092 0.2589208
0.116013974 -0.29733354 0.24153653 -0.10902152 -0.37214676 -0.29457116 -0.2438764 -0.06290626
0.2523669 0.09633319 0.09088846 -0.24698327 0.42952883 -0.04545505 -0.11196493 0.23472522
0.27160567 -0.19659267 -0.43180197 0.15024209 -0.3075996 0.19137147 -0.06080294 0.28553036
-0.11366409 0.01701277 0.057036232 0.1978346 0.14585553 0.24988797 0.11168759 0.40341648
-0.14746435 -0.44534582 0.021181794 -0.04740314 -0.34416726 0.18766522 0.31040344 -0.12993865
0.2896452 0.4355405 0.40720862 0.1786121 -0.38311064 -0.2605946 0.39488018 -0.18680789
-0.38867614 -0.13498081 0.14814058 -0.53060365 -0.5229906 -0.35508254 -0.09279197 -0.4980307
-0.016835475 0.21552227 -0.3332601 0.3187868 -0.12446687 0.15147895 -0.29291 -0.034454294
-0.009516953 0.1297991 -0.14734821 0.20380916 -0.40744656 -0.25265363 -0.48791003 -0.4699435
0.079279654 0.21859221 -0.046873897 0.24987304 0.1992069 -0.16128649 0.08174995 0.24686353
-0.21422549 -0.2909078 -0.29899368 -0.47113708 -0.10383185 0.08007338 -0.25618818 0.057136137
0.4195872 -0.43156865 0.027251823 0.030197632 -0.5254108 -0.29055107 0.059563033 0.23423024
0.037990306 0.36975938 -0.42431524 0.37465307 -0.2996967 -0.29498598 0.1842355 0.2378285
0.15086283 0.32367742 -0.31685993 0.025736747 -0.033669468 0.08383086 -0.5200384 -0.18136914
-0.43818483 -0.3893592 0.37487572 -0.36236092 -0.010361894 -0.33039415 -0.38846138 0.06876404
-0.22470917 -0.44782108 0.33237648 -0.18875232 0.34390688 0.24388903 0.16213258 0.117726624
-0.51486313 0.17699797 0.21326712 -0.022518586 -0.077114016 0.17031173 -0.39604652 0.26847655
-0.10972449 0.30001113 0.38005686 -0.44552466 0.1344368 -0.41555485 0.0322309 0.37057066
0.09848258 -0.27548614 0.4401403 -0.13228133 -0.35812223 -0.02629201 -0.33793 0.07886864
-0.15037766 -0.30147484 -0.14485464 0.11805612 -0.6576718 0.10723001 -0.2353986 0.44835147
-0.41721797 0.11217902 0.19386454 -0.34054494 0.1266392 -0.508589 -0.3291236 -0.2183576
-0.08596857 0.15037872 -0.42524287 -0.3209365 -0.12210437 -0.18134825 0.46241012 -0.11326028
0.042191572 0.07561803 0.2989058 -0.401387 0.16998936 0.33286023 -0.5229362 -0.34318203
-0.23487352 -0.30929318 0.21128367 -0.3832984 -0.19887595 -0.034746923 -0.29429072 -0.28463727
-0.08154145 -0.13772906 0.30157033 -0.2510106 0.2081909 -0.40080652 -0.40680444 -0.15448806
-0.50572395 0.085486636 -0.3412987 -0.1619963 -0.010337253 -0.07932057 -0.03744759 0.36735728

linear1.bias f4 [64]
00000000: 7839 13be 5213 0c3f a380 1d3f cd6f 743c
00000010: 7b22 833e 6620 a33e f598 f9bd 05df 95be
00000020: 3a57 b4be 2ffd b9bc f8a7 1fbe d9fb 2cbe
00000030: b5fb 4c3e 97f7 9f3d b1a6 7f3d 8265 7d3e
00000040: c562 a53e 693d b8be a78f ab3e 2fa4 19bd
00000050: 0016 b5bc 2a44 0dbe 04e8 bd3e f9a4 ff3e
00000060: b429 d6bb 4197 a03e 1041 fdbd 20d6 b3be
00000070: 312a a8bd d6f9 5a3e 291c c9bd 9355 223d
00000080: 8113 013b 7ebe c03d 7ead 1ebe adce f4bd
00000090: 2d9c a93e 5a82 9ebe 9aa3 5bbe 9f8b 8cbe
000000a0: 96aa 133f 8ee5 fa3e 87e6 59bb 9211 0c3f
000000b0: 5ab5 8c3e c170 a8be f1c4 9c3e 65c7 b63e
000000c0: 27d1 ef3e c891 b93e aa64 8ebe 9dd1 38be
000000d0: d3b1 c33c e8b2 833d ec40 d23c 9f11 b33e
000000e0: 982a dd3e 6ac3 633e eba9 fb3d cf5f e23d
000000f0: b5bf 15be 0f92 c43d 78e2 54be 7df2 8abe
-0.14377391 0.5471698 0.6152441 0.0149192335 0.25612244 0.31860656 -0.12187377 -0.29271713
-0.352228 -0.022703735 -0.15591419 -0.16892947 0.20017894 0.07810896 0.06241483 0.24745753
0.32301918 -0.35984352 0.33508036 -0.037510093 -0.022105217 -0.13795534 0.37091076 0.49930552
-0.006535733 0.31365398 -0.12365925 -0.35124302 -0.08211172 0.21384367 -0.09819824 0.03963239
0.0019695463 0.094113335 -0.1549587 -0.11953483 0.33126965 -0.30958825 -0.21449128 -0.27450272
0.5768217 0.4900326 -0.0033248977 0.5471431 0.2748211 -0.32898524 0.30619004 0.35699
0.46839258 0.36244035 -0.27811176 -0.18048711 0.023888504 0.06430608 0.025665723 0.3497438
0.4319656 0.22242513 0.12288269 0.1105343 -0.14623912 0.09598171 -0.20789516 -0.2713813

linear2.weight f4 [64, 64]
00000000: 30f6 e53d 0806 12bd 1840 193d 76b7 dabd
00000010: a05d d2bc 2073 a0bd cef6 f8bd e06f a6bb
00000020: 007e 88b9 1cad d5bd b0ff 8f3c a2cc 8cbd
00000030: a00f 51bc 70bc 3f3d a0e5 c93c 802e ecbc
00000040: 3a3d acbd a2d3 c13d 009b 7cbc 50e8 f43d
00000050: a84a 073d a6a7 b3bd 2c4e 5fbd 6e7e e73d
00000060: 4e2c a43d 0050 a0bb 3cd5 33bd 000c d03c
00000070: f8b4 cd3d fa96 a83d 64f0 ebbd 4068 db3c
00000080: 504d 8fbd 880b 073d 8685 cf3d c89d 273d
00000090: 9019 233d 40f7 b33b 5cbc 3ebd ea7a 8fbd
000000a0: 24e6 693d 607e 9bbc b00a 32bc da3f fe3d
000000b0: 8e80 f1bd d0e0 0cbc e811 ccbd 203f 453c
000000c0: c89b f4bc 50f1 7b3c 2212 d6bd 902f 633c
000000d0: 6268 c2bd 042c 98bd aa16 98bd a087 b2bd
000000e0: f80b 1ebd 54d2 3c3d 50c1 4dbd d060 72bd
000000f0: aaa1 94bd d0f8 21bc e0d7 a9bd 523a eb3d
00000100: aebe e1bd 302b 56bc e8b8 463d a0be ebbd
00000110: 8036 c73b 1819 9f3d 5406 963d 68fd f33d
00000120: 1c7c 78bd b893 a73d 6a85 b53d 2416 0abd
00000130: 10e0 f13c 48e3 ac3c a0bc 66bd 7c62 88bd
00000140: 6089 823c 8cff 0f3d a0d9 9bbb b25d ae3d
00000150: 107b dbbd b0fd 2a3c 40a8 1cbd 604c debc
00000160: 28a5 82bc 9cfe fbbd 929e c7bd 4065 463b
00000170: 6e58 9a3d 347c e0bd d4f2 cd3d 70d7 953d
00000180: a67b c4bd fa34 cdbd 089c b6bc 0047 66bc
00000190: 203d 773c e884 d53c 544d 86bd 5842 a33c
000001a0: eed5 8fbd a057 c4bb 404c 493b b66e 9c3d
000001b0: 94f5 3cbd 506f c93d c029 b0bd bc81 0abd
000001c0: 347e cebd d034 503c 9476 4d3d 44ac 9a3d
000001d0: d00c e63d 6816 093d 1e8c c43d 5c1f 4ebd
000001e0: 3079 33bc 3c87 1bbd 9449 9dbd 0a0c d5bd
000001f0: fa84 ecbd 42d6 febd 3867 723d ca23 cbbd
00000200: ec71 8e3d d939 da3d 1dd5 8f3e 95bf 2d3c
00000210: 3854 f43c 22a9 03bd 221e b13d 5ea0 603c
00000220: 8094 ddbc 8487 5139 0816 8c3d b99f 283d
00000230: 6cd0 54bd 90d3 213d b22e c2bd 6ccc e73d
00000240: dedb 203e ccdc e13d c0e4 44bc e3f0 4a3e
00000250: fab6 483e 0722 14bd db1d 8f3e 45c5 c33d
00000260: 5622 d8bd b7fa 7c3c 9fd7 a6bc d82e 49bd
00000270: 1530 84bc a6e5 e63d 5e49 dd3d 52fb 103e
00000280: fa5c 363d 20d8 bc3c 75a4 283c d229 6abd
00000290: 6853 cd3d 3044 c0bd 721a b2bd 3aea 633d
000002a0: cd6a a13d 5dca 8a3c 3cdb 1f3e 235c 173e
000002b0: 0b6a d83c 2289 813d e8d8 2d3e 145e 023e
000002c0: 48fb 143d f2bc 113e 248c e63d 52db 54be
000002d0: 9b4c 8e3d b733 a8bd 0e91 153d 54e3 c63d
000002e0: d86d 513c bafd 5a3d a5f9 98bd ce8d 9f3d
000002f0: 00de 35bc 0ca4 363e 286f a6bd c47c c73d
00000300: e863 b8bd dde0 6f3e 9900 903e 037d 993d
00000310: 786c bbbd e7d8 073e d50a 873c 2170 76bd
00000320: 0428 dfbd bb38 80bd 2825 97bc efaf 943d
00000330: 88de 3d3d f3b3 b73c 6819 abbc 2043 00bd
00000340: fa59 58bc befc 8e3d ec47 2d3d d8be 303d
00000350: f9a9 553e 6d77 233c ab3b 4a3d 9ade 503e
00000360: 0291 9a3d eed1 013e 290e 273d 30f3 4a3d
00000370: adc9 373e 98ec 843d d83b d9bd a989 c8bd
00000380: 4120 893d b6d1 7b3d 95f2 d43d de8b 14bd
00000390: 34a7 6bbd c8d7 84bd 153e 07be d45f 243e
000003a0: 45b5 e8bb 85c6 25bd 0902 30bd b34a d93d
000003b0: edbc b53d 4259 8abd 029a 533e d4d1 803d
000003c0: 86a7 9e3d 6681 d9bc 1b7d 433e 1e45 7fbd
000003d0: c5ff 113e dc6e f23d 2ef4 943d aaca 593d
000003e0: 5b33 0f3d 549a 053d 6267 953d 449d efbd
000003f0: 18c0 8abc e83c 3a3c 86ac f63d 5ba9 453e
0.11228597 -0.035650283 0.03741464 -0.10679524 -0.02567941 -0.07834458 -0.12156449 -0.0050792545
-0.0002603382 -0.104334086 0.017577976 -0.06874968 -0.012760073 0.046810567 0.024645627 -0.028830767
-0.084101155 0.09464194 -0.015417814 0.119583726 0.033030182 -0.08772211 -0.05451791 0.113034114
0.08016263 -0.0048923492 -0.043904528 0.025396347 0.10044283 0.082319215 -0.1152046 0.026783109
-0.06997168 0.03296998 0.101328894 0.040921956 0.0398193 0.005492121 -0.046566352 -0.07005866
0.057104245 -0.018981159 -0.010866806 0.124145225 -0.11792098 -0.008598521 -0.09964353 0.012038976
-0.029859439 0.015377358 -0.10452677 0.01386632 -0.09492566 -0.0743027 -0.07426198 -0.08717275
-0.038585633 0.046099022 -0.050233185 -0.05917436 -0.072573975 -0.009885982 -0.08293128 0.11485733
-0.110226974 -0.01307182 0.048516184 -0.11510968 0.006079495 0.07768458 0.07325426 0.11913568
-0.060665235 0.08182472 0.08863337 -0.03371252 0.029525787 0.02110447 -0.05633223 -0.066594094
0.015934646 0.035155818 -0.0047561675 0.08513965 -0.10716832 0.01043646 -0.038246393 -0.027136028
-0.015947893 -0.12304422 -0.09747042 0.0030272752 0.07536398 -0.1096119 0.100560814 0.07316482
-0.095938966 -0.1001987 -0.022291198 -0.014055014 0.015090257 0.026064351 -0.06557718 0.019929096
-0.07023226 -0.005991891 0.0030715615 0.07638304 -0.04613264 0.09835684 -0.08601713 -0.03381513
-0.10082665 0.012707904 0.050161913 0.07552388 0.112329125 0.033468634 0.09597038 -0.050322875
-0.010954186 -0.037970766 -0.076800495 -0.10402687 -0.11548801 -0.1244321 0.05918047 -0.099189356
0.069553226 0.10655565 0.2809228 0.010604759 0.029825315 -0.03214372 0.086483255 0.0137101095
-0.02704835 0.00019982277 0.068401396 0.04116795 -0.05195658 0.039508402 -0.09481563 0.11318287
0.15708873 0.11028442 -0.012017429 0.19818453 0.1960105 -0.036165264 0.27952465 0.095591106
-0.10553424 0.015440634 -0.020366488 -0.04911694 -0.016136209 0.11274271 0.10805009 0.14158371
0.044522263 0.023052275 0.010293116 -0.05716879 0.10025674 -0.09388006 -0.0869645 0.055643298
0.07881699 0.016942197 0.15610975 0.14781241 0.026417753 0.06324984 0.16977274 0.127312
0.036372453 0.14232233 0.112571985 -0.20786789 0.06948205 -0.08212989 0.036515288 0.09711328
0.012782536 0.05346463 -0.07469491 0.07790719 -0.011100292 0.17836016 -0.0812667 0.09740594
-0.090034306 0.23425622 0.28125456 0.07494547 -0.09151548 0.13266335 0.016484657 -0.06016553
-0.10896304 -0.062608205 -0.018450335 0.07260119 0.0463548 0.022424674 -0.020886138 -0.031314015
-0.013205046 0.069818005 0.04230492 0.043150753 0.2086562 0.009977204 0.04937331 0.20397416
0.07547189 0.12677738 0.04078499 0.049548328 0.17948027 0.06490439 -0.106071174 -0.097918816
0.06695605 0.061479293 0.10397831 -0.0362662 -0.057532504 -0.064864695 -0.13207276 0.1605218
-0.007101687 -0.040472526 -0.04297069 0.10609951 0.08873925 -0.06755306 0.20664218 0.062900215
0.07746796 -0.02655096 0.19090693 -0.062321775 0.14257725 0.11837551 0.07273136 0.05317179
0.034961086 0.032617882 0.07295109 -0.11699918 -0.0169373 0.01136706 0.12044625 0.19302885

linear2.bias f4 [64]
00000000: d82b 93bd 001d cabd 8114 8dbc 1747 fc3b
00000010: 50f6 05bd 0f0b 6d3c cc40 93bd 8461 00be
00000020: a9cb 683d 06e9 ff3d 3c56 46bd 3b20 f63d
00000030: 666e e73d 64ea 483e 175d 353d 6d65 973d
00000040: 0a22 873e 7e8a b0bd 096f 183e 32b5 ee3d
00000050: fc9b 5f3d 5ea2 9a3a 1b23 07bd 6c3f 72bd
00000060: 6af2 f73d 9c55 b03d 066c 263e a40e 443d
00000070: 0429 a3bc 6972 9b3c ff6b 443e 08ba c53d
00000080: 1dc5 1e3d 5b68 203e 3b95 0e3d a085 9f3c
00000090: ee17 e63d 2c4f b8bd 4bb9 463e 080e a53c
000000a0: 7dc7 86bc 43e6 103e cfae 493e f813 653c
000000b0: bbef 683c 0bae 4fbc 70ef cbbc 033e 313e
000000c0: 9f0c 02bd 0a06 20be 22f5 b9ba 203d f8bb
000000d0: 2f8c cdbd 1ad1 a4bd d808 713e 1771 c63c
000000e0: 5edf dbbd fdf7 623d 1990 3e3e 9592 aa3d
000000f0: ae80 b23d a727 a1bd 0696 a43d c63a 493e
-0.07186097 -0.098688126 -0.017221691 0.0076989043 -0.032705605 0.014467969 -0.071900934 -0.125372
0.05683485 0.124956176 -0.048422083 0.12017866 0.11300354 0.19620663 0.04427823 0.07392392
0.26393157 -0.08620165 0.14886107 0.11655654 0.054592118 0.0011797657 -0.032992464 -0.059142515
0.12106784 0.08610079 0.16252145 0.047865525 -0.019917019 0.018975453 0.19181822 0.09654623
0.0387622 0.15664808 0.034810286 0.019472897 0.11235033 -0.08999476 0.19406621 0.020148292
-0.016452545 0.14150338 0.1969559 0.013981812 0.014217312 -0.012675772 -0.024894446 0.17308812
-0.031750318 -0.15627304 -0.0014187435 -0.007575646 -0.100365035 -0.080476955 0.2353853 0.024223847
-0.10735963 0.05541228 0.18609656 0.083287396 0.0871595 -0.07868891 0.08036427 0.19651327

linear3.weight f4 [64, 64]
00000000: f057 37bc fa54 973d c87d 243e 95ff 1b3e
00000010: baac 033e b30f d73d 525d debd 0b77 813d
00000020: 75cd 29bd 8057 7e3d 78fc 723d 9f8a 873d
00000030: 1428 88bd 40ab 1b3e 3076 0a3d 2e52 023e
00000040: 8c82 393e 48de a73d 1bee 8fbd 3019 f23c
00000050: 5a4d b4bd d663 363d dfa4 49bd 5221 1bbd
00000060: d818 bfbc dc5b 33bd 9225 323e ca41 cdbd
00000070: d160 8cbc c3a1 623c 08ba 973d d419 593e
00000080: 4e82 12bd fd2c f83d a14c 6a3d d164 1bbd
00000090: f0ff 2e3c 586f c73c 6bc8 053e f2a6 cd3c
000000a0: dd12 2c3d a240 f33c 830f 073d 5e38 8abb
000000b0: 8790 013e c355 033e 30da febc 9f27 2d3a
000000c0: 9561 a53d 5685 73bd 96e5 01bc de7b db3d
000000d0: 55b3 a13c 38c9 01bd 5cf5 3f3e e6f6 92bb
000000e0: b48e d5bd bf52 8bbd 8cb9 da3c 6f83 d93d
000000f0: c00e 6f3c e920 e5bd 4e13 d93d 0454 1abc
00000100: 0007 7ebb 7e49 eb3d 14a5 b6bb 1264 0c3e
00000110: 73d5 fe3a 022a 903d 824f c83d d8d1 fcbc
00000120: 6d68 f9bd 9686 dd3d 5097 9ebd 3b86 4d3d
00000130: 2cbc e3bd 8432 e63b 7fa2 183e 904b 8a3d
00000140: 29c3 f83c ccba 21bd fced c6bc f849 92bd
00000150: 0859 c8bc c3dd 09ba d6dc c73d 21e4 0a3e
00000160: 4e60 bf3d 14e9 9dbd edcd 28bc 68ac efbc
00000170: 6a10 0d3b 9c2e 5abd d1f4 2abd b0bc 113e
00000180: 6c7b 043e 5c21 d63d e6b7 1a3e 791a 703d
00000190: 48e7 a8bc 18d4 fe3c 94a1 303e d99b 0c3e
000001a0: a3e8 b73d 8d53 a63c 1f67 0bbd 750e 1637
000001b0: 1bd3 15bd a0c4 1f3e d8fc 42bd e328 1b3e
000001c0: 1f4d 2a3d 0f10 10bd cbb7 de3d 1aee b03d
000001d0: c178 1a3b 9824 94bd 5d7b 3f3e d359 963d
000001e0: 0c3d d9bd d86e 993d 0555 b1bc 9e20 823c
000001f0: ecd6 f7bd 56c0 cfbd 9086 0e3c 416c 38bd
00000200: 0084 093b b8d0 a53d ee7f 8b3d 24f8 58bd
00000210: ce55 c6bd a8ca 523d f8ef 7e3d 5429 96bd
00000220: e807 82bd f007 053d ac73 0bbd e86d 2c3d
00000230: 4617 ca3d 7025 c5bd 70ff a8bc 38e7 d53c
00000240: fc71 34bd dccf 683d ba35 d23d 4c6b 07bd
00000250: cc1b 70bd ae46 c8bd 60c3 c53b ee28 e7bd
00000260: 36c7 ca3d 8c35 00bd e85a 0dbd 00c4 2fba
00000270: 181a cebc e8c2 233d 948b 3fbd 766e a83d
00000280: 729c ccbd 82dd 9dbd 002e 993d a4c2 66bd
00000290: 34ed 073d f884 e3bd f894 85bd f438 fdbd
000002a0: 82eb cdbd d003 cc3d 9e54 91bd 7459 56bd
000002b0: 5654 b03d 00a6 2a3b c83b 893d 3c44 d8bd
000002c0: 303f fcbc 8475 833d 04c0 c33d 1ce0 0b3d
000002d0: 709c 37bd f6e9 acbd b453 f73d 24c5 91bd
000002e0: 40bd f7bc 4c35 6ebd 504c db3d b015 793c
000002f0: c056 533c a041 02bc d487 0abd 8a7d abbd
00000300: 804c 37bb 5c57 753d d55e 4cbd 44cb 6f3d
00000310: 1d8f f43d f14a 563d 3031 b83d c137 0c3d
00000320: 4afd b33d 5cbe 243e 080e 513d 14a6 d23d
00000330: 8a58 a23d faa8 0c3e fe13 40bd 5a87 0d3c
00000340: 0367 9b3c 781f 2fbd f7e7 1e3d 3ea9 cfbd
00000350: 1847 a9bd 7c40 493b bea3 a13d a9b1 1bbd
00000360: e024 da3d 70ce 303d c8aa ca3d 92a4 a13d
00000370: 6caf eebc 85dc 853d 6398 9d3d e544 273e
00000380: 4d7d 0b3a 4706 b53c d45e 163e 528c 333d
00000390: 5eb6 ddbd f8c4 3fbd c6d6 cd3d 908a 2c3d
000003a0: 5b42 ed3d 996b 983d 1a24 a53d fa1c b33d
000003b0: 7bbd 043e fb34 243e f8a0 bb3c f192 033d
000003c0: f87a c53d 4035 703d ec2c 393d 7444 bf3d
000003d0: 342e e7bd 1ce6 81bd d242 623e 4017 a83c
000003e0: deef fc3d a791 41bd c3a2 a93c 574f 6bbd
000003f0: f013 633d 2454 5f3c e672 813d e5ce f23d
-0.0111903995 0.07389255 0.16063607 0.15234216 0.12858859 0.10501041 -0.10857643 0.06321534
-0.041455705 0.062095165 0.059322804 0.06618237 -0.06648269 0.15202045 0.03380412 0.12726662
0.18116206 0.08196694 -0.07027837 0.029553026 -0.08803816 0.044528805 -0.0492295 -0.037873574
-0.023327276 -0.043788776 0.17397144 -0.10022314 -0.01713601 0.013832512 0.074085295 0.21201259
-0.0357688 0.12117956 0.057201985 -0.037937943 0.010681137 0.024345085 0.13064735 0.02510402
0.042010177 0.029693905 0.032973778 -0.0042181453 0.12652789 0.12825684 -0.0311099 0.000660533
0.08075253 -0.05945333 -0.007928273 0.10716985 0.019738832 -0.031686038 0.18745941 -0.004484999
-0.10427609 -0.06802892 0.026699804 0.10620772 0.014590919 -0.11187918 0.10599385 -0.009419445
-0.0038761497 0.11488627 -0.005573878 0.13710049 0.0019442275 0.07039262 0.0978079 -0.03086178
-0.12178121 0.10816686 -0.07743704 0.05017684 -0.11119875 0.007025065 0.14905737 0.06752694
0.030366497 -0.039484784 -0.024283402 -0.07143015 -0.024456516 -0.00052591803 0.09758918 0.13563587
0.093445405 -0.07710472 -0.010303003 -0.029257014 0.0021524676 -0.053267106 -0.04173738 0.14232135
0.12937707 0.104555815 0.15109214 0.058618996 -0.020618096 0.031106994 0.17249137 0.13731326
0.08979919 0.020303512 -0.03403389 8.944063e-06 -0.03657828 0.1560235 -0.04760441 0.15152316
0.041577455 -0.035171565 0.108748995 0.08639164 0.002357051 -0.07233542 0.18699403 0.07341351
-0.10607347 0.07491845 -0.021646986 0.015884694 -0.1210154 -0.10144107 0.008699074 -0.045025114
0.002098322 0.080964506 0.0681151 -0.05297102 -0.09684335 0.0514628 0.06224057 -0.073321015
-0.06349164 0.032478273 -0.03404586 0.042097002 0.0986772 -0.09626281 -0.020629615 0.02611123
-0.044054016 0.056838855 0.10264154 -0.03306131 -0.05862026 -0.09779106 0.0060352534 -0.112871036
0.09901278 -0.031301066 -0.034510523 -0.00067049265 -0.025158927 0.0399808 -0.04676397 0.08224194
-0.09990777 -0.07708265 0.07479477 -0.056337968 0.0331852 -0.11109346 -0.06522554 -0.123643786
-0.10054685 0.09961665 -0.070962176 -0.052331403 0.08609836 0.0026038885 0.067008555 -0.1055989
-0.030791849 0.06418899 0.095581084 0.034149274 -0.044826925 -0.08443062 0.12076512 -0.0711768
-0.030241609 -0.058156297 0.10707915 0.015202925 0.012899101 -0.0079502165 -0.033820942 -0.08373554
-0.0027969182 0.059897766 -0.049895126 0.05854346 0.11941359 0.052317563 0.08993757 0.03423286
0.087885454 0.16088241 0.051038772 0.10285583 0.07927044 0.13736334 -0.046894066 0.008638227
0.018970018 -0.04275462 0.038795438 -0.10139702 -0.08265513 0.0030708602 0.078925595 -0.038011227
0.106515646 0.043165624 0.09895855 0.078927174 -0.029136382 0.065362014 0.07695081 0.16334875
0.00053211005 0.02209772 0.14684612 0.04383499 -0.108257994 -0.046818703 0.100507304 0.04212433
0.11584922 0.074423976 0.080635265 0.08745761 0.12962906 0.16035835 0.022903904 0.032122556
0.09642595 0.058644533 0.045208856 0.09339228 -0.112881094 -0.06342718 0.22095802 0.020518899
0.123504385 -0.047258046 0.020707494 -0.05744871 0.055438936 0.0136309005 0.06320743 0.11855868

linear3.bias f4 [64]
00000000: f5bb 863d e5b9 d63d e60c 913d bd77 3abd
00000010: 7e44 14ba 5fe7 493e 9a82 0cbd 0fa3 a03c
00000020: 221d 033e c02c d73d bb0c 5b3d 1fa9 c93d
00000030: c8fc 79bd 4588 8a3a 196e 173e c064 843d
00000040: c8d7 253d e26d 1d3e 175c 683d a6d4 f73d
00000050: 7079 773c b760 053e 7e2e bcbd 4f99 70bc
00000060: 1bb1 103d 1256 273e c6d6 243e 9797 123e
00000070: 91ed 2e3e b64b f1bc 2d31 053d e01d 323c
00000080: c028 473e 0cb4 053d 0121 70bd e86c dd3c
00000090: bbff b73d a82a cf3c 58c0 aa3d 947e 8dbc
000000a0: 9fe0 c93d e6fd a93d 3686 213c 69cd c03d
000000b0: fb7f 313e 0dae e73c f2ad 063e 5939 e83d
000000c0: 237d 273e 9af5 8a3d cca6 943d 6847 e4bc
000000d0: 88c5 453d 16a7 393e f71e b33d c494 363e
000000e0: 01a9 e43d 9660 f6bd b309 19bd 0c3c ecbd
000000f0: bd54 c13d 37eb 263d 25fd 5b3c 8f43 263e
0.06578819 0.10484675 0.07082538 -0.045524348 -0.0005655958 0.19717167 -0.03430424 0.019609002
0.12804082 0.10506582 0.053478938 0.098467104 -0.061032087 0.0010569176 0.14788093 0.06464529
0.04048899 0.15373948 0.05672845 0.12101106 0.015104637 0.13025175 -0.09188555 -0.014684989
0.03532515 0.16341427 0.16097555 0.1431564 0.17082812 -0.029455047 0.0325176 0.010871381
0.19449139 0.03264241 -0.058625225 0.02702947 0.089843236 0.025288895 0.08337468 -0.017272271
0.09857296 0.083003804 0.009858659 0.09414179 0.17333977 0.028281236 0.13152292 0.11339063
0.1635633 0.06785126 0.072583765 -0.02786608 0.048284084 0.18130144 0.087461405 0.17830187
0.111650474 -0.12030141 -0.037362766 -0.115348905 0.09439991 0.040751662 0.013427054 0.16236709

linear4.weight f4 [1, 64]
00000000: bebb 5fbd 080d 84bd c7ed b23a f354 49bd
00000010: 5287 57bd ba88 abbd 01ad 53bd 1ecf 51bd
00000020: 842e 58bd e568 35bb 9143 6abd c455 61bd
00000030: ee99 8cba 0304 91bd 427c 5dbd 60c7 3dbd
00000040: 0ec0 3b3b ae46 40bd a390 5bbd 6516 20bb
00000050: 2f10 50ba 5ccd 48bd a782 9d3a 140b 7fbd
00000060: c986 44bd b116 97bd d9cb 99bd a3eb 52bd
00000070: 6f28 5dbd d1f6 74bd 8b38 2cbd a8dc d5ba
00000080: c215 babd b664 40bb b136 73bd 25f3 313a
00000090: 5b3f 85ba 103c 44bd c8d2 1abb b9e5 47bd
000000a0: 375d 43bd 3823 7fbd 39e6 6dbd 6ec5 d4ba
000000b0: d57a 3dbd 090b 67bd e710 5ebd f7a1 09be
000000c0: e1bc 31bd 886b c5bd aee5 72bd b44c ffb9
000000d0: aa73 053b e119 96bd e909 50bd 924e 88bd
000000e0: d070 41bd d8ed 9b3a 80df 71bd 74c4 c9ba
000000f0: 77e3 96bd e7bd 45bd 4c75 9ebd 85a5 71bd
-0.054622404 -0.06447798 0.0013651185 -0.04915328 -0.052619286 -0.08375688 -0.05167866 -0.051222913
-0.052778736 -0.002768093 -0.057193343 -0.055013433 -0.0010727027 -0.07080843 -0.05407358 -0.046332717
0.002864841 -0.046942405 -0.053604733 -0.002442741 -0.0007936982 -0.04902397 0.0012017087 -0.062266424
-0.047980104 -0.07377375 -0.07509584 -0.051494252 -0.05399364 -0.059805695 -0.04204611 -0.0016316371
-0.09086181 -0.0029356903 -0.05937833 0.00067882455 -0.0010165976 -0.047908843 -0.002362417 -0.048803065
-0.04769632 -0.062289447 -0.058080886 -0.0016233155 -0.04625972 -0.05640701 -0.054215338 -0.13440691
-0.04339302 -0.096396506 -0.05930107 -0.00048694538 0.002036313 -0.07329155 -0.0507907 -0.06655611
-0.047226727 0.0011896444 -0.059051037 -0.0015393631 -0.07367604 -0.048276808 -0.07737216 -0.058995742
