models/Working_policy/1/policy.pth (torch, 55714 bytes, 12 tensors)

linear1.weight f4 [64, 3]
0.32449672 -0.3365732 0.09260281 -0.15319411 0.4337363 0.5288054 -0.31070232 -0.03718023
-0.44144443 0.18897283 -0.04476384 -0.37985697 -0.4097845 -0.018660853 0.039322603 0.11086829
0.4168835 0.12432401 -0.1024002 -0.14959353 0.30766705 0.46876538 0.49780825 0.48848093
-0.50729764 0.53591865 0.050935052 0.2631799 0.00020478705 0.38673186 0.35202524 0.14713836
-0.4074138 -0.5295184 0.539543 0.08742974 0.5519488 0.20089082 -0.08429021 -0.4338835
-0.22476767 -0.047292892 0.11134305 -0.41589743 0.12166645 -0.38090026 -0.40881914 0.08214448
-0.05896521 0.66667694 -0.086420186 -0.0026380545 0.62212324 -0.048097763 0.6645207 0.3205962
0.052266706 -0.083624855 -0.49045235 -0.35510963 0.10312768 -0.07468437 0.120483115 0.43472624
-0.565231 0.4120481 -0.5065733 0.6966303 0.06875313 0.22654544 0.15027818 0.043573875
-0.0674196 0.2838109 -0.24060279 -0.36798704 -0.42747554 -0.63291556 -0.5653458 0.1074248
-0.34683535 0.34435144 0.46566966 0.103544086 0.123475105 -0.4615249 -0.32706407 0.17788851
-0.41384035 0.24531254 -0.15733176 0.32374787 -0.2849835 0.5773431 0.16302954 -0.5671386
0.30128175 -0.25761658 -0.20474592 0.24250115 0.3779872 0.45666474 -0.5889535 0.18311356
0.51110834 0.032782946 -0.29779613 0.4724954 0.13789096 -0.10644578 0.08928069 0.1529698
0.39239907 0.0970053 0.4017259 -0.5063512 -0.09996608 -0.3124853 0.16930641 0.09502911
0.6260356 -0.20644435 0.032400876 0.37900203 0.01790061 0.4556233 -0.039577223 0.47153005
-0.006617634 0.023550231 0.14913465 0.13750637 0.3714692 -0.08091967 -0.17805381 0.058641106
-0.078015395 0.1475772 0.057587363 0.44831896 0.30808157 -0.43095404 -0.42220277 -0.51824015
0.4885875 -0.23104608 -0.27899882 -0.3914612 -0.21046893 -0.17524023 0.53648555 0.3469737
0.41478476 -0.17511575 -0.35282096 -0.14397834 0.36906463 -0.26676232 0.08832392 -0.42254257
0.6125969 0.2531973 0.51556724 -0.48779374 -0.35189337 0.03044766 0.546655 0.2159104
0.28242537 -0.4261678 -0.25860974 -0.29808173 -0.7517281 0.14876936 0.4894255 0.15098003
0.013849279 -0.14897113 -0.2116455 -0.13230999 -0.1793578 0.06773992 0.2304636 0.4030149
-0.113725476 0.39113897 0.2813941 -0.6312107 0.4021484 0.5975984 0.25997803 -0.11731499
00000000: 6f24 a63e 5353 acbe 8ba6 bd3d ebde 1cbe
00000010: af12 de3e ca5f 073f 6014 9fbe 4c4a 18bd
00000020: 0105 e2be 1882 413e 4a5a 37bd 9d7c c2be
00000030: 46cf d1be a5de 98bc bd10 213d ea0e e33d
00000040: c171 d53e 969d fe3d 32b7 d1bd 0c2f 19be
00000050: 8986 9d3e 0402 f03e b9e0 fe3e 2c1a fa3e
00000060: 42de 01bf f731 093f 46a1 503d 84bf 863e
00000070: 1bbc 5639 b801 c63e a73c b43e 70ab 163e
00000080: 8b98 d0be 858e 07bf 7d1f 0a3f 5d0e b33d
00000090: 844c 0d3f 53b6 4d3e 58a0 acbd fa25 debe
000000a0: 7f29 66be 31b6 41bd d307 e43d 82f0 d4be
000000b0: 422c f93d 5c05 c3be be50 d1be 5d3b a83d
000000c0: 8185 71bd 57ab 2a3f 11fd b0bd 36e3 2cbb
000000d0: 7843 1f3f 2902 45bd 071e 2a3f 2f25 a43e
000000e0: 9d15 563d 8243 abbd 921c fbbe eed0 b5be
000000f0: 9b34 d33d 1ef4 98bd dabf f63d 7094 de3e
00000100: fbb2 10bf f8f7 d23e caae 01bf 5d56 323f
00000110: 71ce 8c3d 87fb 673e 86e2 193e 857a 323d
00000120: 4a13 8abd aa4f 913e 9460 76be cc68 bcbe
00000130: 13de dabe c106 22bf 81ba 10bf 8901 dc3d
00000140: 6794 b1be d54e b03e 416c ee3e ec0e d43d
00000150: 84e0 fc3d fe4c ecbe f174 a7be 6828 363e
00000160: e2e2 d3be 3633 7b3e 941b 21be 48c2 a53e
00000170: 5be9 91be c2cc 133f 37f1 263e ff2f 11bf
00000180: 9a41 9a3e 52e6 83be eaa8 51be 3952 783e
00000190: 8a87 c13e f6cf e93e a8c5 16bf 1f82 3b3e
000001a0: ffd7 023f 6947 063d bc78 98be ebea f13e
000001b0: 4a33 0d3e 3f00 dabd cbd8 b63d 1ea4 1c3e
000001c0: 88e8 c83e b7aa c63d 04af cd3e 3ba0 01bf
000001d0: 04bb ccbd 13fe 9fbe a95e 2d3e 9f9e c23d
000001e0: de43 203f 2666 53be c8b6 043d 8e0c c23e
000001f0: 4da4 923c 7547 e93e ba1b 22bd 636c f13e
00000200: bdd8 d8bb 6aec c03c c1b6 183e 78ce 0c3e
00000210: 3631 be3e 36b9 a5bd bd53 36be a831 703d
00000220: 89c6 9fbd 7a1e 173e bae0 6b3d 108a e53e
00000230: debc 9d3e 02a6 dcbe f62a d8be 63ab 04bf
00000240: 2428 fa3e 5897 6cbe efd8 8ebe 9a6d c8be
00000250: 2b85 57be 2d72 33be 1e57 093f 89a6 b13e
00000260: ab5e d43e 8b51 33be f3a4 b4be 0f6f 13be
00000270: 0af6 bc3e 1295 88be 2ce3 b43d 8057 d8be
00000280: 27d3 1c3f 14a3 813e 37fc 033f 1ac0 f9be
00000290: 5e2b b4be 5f6d f93c 95f1 0b3f 9e17 5d3e
000002a0: 0f9a 903e aa32 dabe 7f68 84be 2b9e 98be
000002b0: 4171 40bf ff56 183e fb95 fa3e 829a 1a3e
000002c0: 16e8 623c e38b 18be 99b9 58be 457c 07be
000002d0: 92a9 37be 3abb 8a3d a6fe 6b3e f857 ce3e
000002e0: e7e8 e8bd 5e43 c83e e312 903e 0697 21bf
000002f0: 65e6 cd3e 35fc 183f d71b 853e d742 f0bd

linear1.bias f4 [64]
0.66926557 0.012356381 0.12381219 0.1882764 0.49415255 -0.72270584 0.538252 -0.5294478
-0.44190305 -0.4193526 -0.4650878 -0.45245168 -0.038417187 0.19235665 0.46832675 -0.29132825
0.28511286 -0.39288884 -0.124615885 0.056939486 -0.6483427 -0.030200649 0.48694682 0.82387507
-0.43126127 -0.4574983 0.5614163 0.048830353 -0.35049763 -0.78034264 0.2866433 -0.15391628
0.13620707 -0.66542196 0.1257835 0.13112001 0.7085544 -0.20849463 0.4712081 0.44412735
-0.51520616 -0.5465361 0.21608572 -0.58453494 -0.1728952 -0.72065127 0.07775526 -0.30736467
-0.20211479 -0.60008484 -0.3835147 0.110843256 0.6994653 0.61530536 -0.2588913 0.50610816
0.49489433 0.096663386 0.3176046 0.34078443 -0.28474954 0.26969105 -0.02131083 -0.053654198
00000000: fd54 2b3f 6b72 4a3c 3f91 fd3d 87cb 403e
00000010: 9001 fd3e 4003 39bf e2ca 093f e489 07bf
00000020: 1e41 e2be 62b5 d6be fd1f eebe bfa7 e7be
00000030: 575b 1dbd 24f9 443e 86c8 ef3e fa28 95be
00000040: 50fa 913e ba28 c9be 9d36 ffbd 6139 693d
00000050: caf9 25bf 5a67 f7bc 1851 f93e 7ae9 523f
00000060: 47ce dcbe 383d eabe fbb8 0f3f 5602 483d
00000070: 6d74 b3be 89c4 47bf e9c2 923e 3b9c 1dbe
00000080: de79 0b3e 1859 2abf 64cd 003e 5344 063e
00000090: d263 353f 9e7f 55be 3042 f13e a964 e33e
000000a0: 8de4 03bf cae9 0bbf 9345 5d3e 15a4 15bf
000000b0: 700b 31be 9a7c 38bf 263e 9f3d e75e 9dbe
000000c0: 2ef7 4ebe 299f 19bf 0a5c c4be ca01 e33d
000000d0: 2810 333f a784 1d3f 678d 84be 4e90 013f
000000e0: ca62 fd3e 74f7 c53d 129d a23e 4c7b ae3e
000000f0: b1ca 91be f214 8a3e 0d94 aebc 81c4 5bbd

linear2.weight f4 [64, 64]
0.06531463 0.095057055 0.05122383 0.09553006 0.11739381 0.061445396 0.09302758 -0.051193826
-0.09473415 0.055184457 -0.097096816 0.025647447 -0.053594217 -0.020832658 -0.00068053755 -0.0015257819
-0.056821227 0.04985787 -0.094507635 0.08850172 -0.018446496 -0.113977514 -0.10581124 0.0201936
0.0957105 0.035837427 -0.017998874 -0.09119017 -0.11925931 -0.050875 0.11843079 -0.0224538
-0.06501113 -0.05205965 -0.12953858 0.008499267 0.08048429 -0.06978878 0.067093804 -0.050668746
0.04689365 0.07379143 0.07097162 0.10010111 -0.020187825 -0.11584518 -0.012887226 -0.094210476
-0.069720596 -0.12341146 0.004167063 -0.07771619 0.008970037 -0.09381511 -0.07603082 0.017213622
-0.012290314 -0.06267919 -0.067016825 -0.11338052 -0.12263176 -0.124949984 0.07032339 0.0036590695
-0.22724245 -0.08370826 0.040363815 0.015672669 0.06213143 0.1218701 0.04729696 -0.11032422
0.10890799 0.023301762 0.059975788 0.1556879 0.14589722 -0.006727303 -0.18038379 0.039978303
-0.027140541 -0.1383034 0.0023725433 0.06130497 -0.118472226 0.0150004495 -0.082710855 -0.014759994
-0.0768987 0.03946909 0.12382973 0.0648739 0.117645174 0.043590896 -0.010864227 0.1055333
0.068002135 0.06382817 -0.009415733 -0.054131124 0.06502386 0.056930665 0.01441884 0.10492469
-0.091253646 0.018279659 0.1258643 -0.041439496 0.05910924 -0.12769394 -0.112775184 0.097305395
0.07342325 -0.024035439 -0.029401317 -0.07656928 -0.3260932 0.065943286 -0.062399015 0.029638512
-0.10776611 0.04937536 -0.014411519 0.08945077 0.053250033 0.021480195 -0.054217327 0.10923781
0.012099528 0.09562639 -0.05489686 0.06262267 -0.14605494 0.0814867 0.08808913 -0.062344696
-0.027109245 0.09986916 -0.070593014 -0.11640544 -0.07792976 0.15022023 0.0013557884 -0.04864867
-0.120829105 0.14357135 0.12864782 -0.09280312 0.12439912 0.0496123 -0.09367978 0.0067962175
-0.080832295 -0.12407033 0.0023542256 -0.11995612 -0.016730413 0.17636672 0.031303015 0.04690197
0.053675577 0.021344448 -0.11590416 0.04024573 0.0074171135 0.018320214 0.004308914 -0.07954762
-0.021644797 0.09180687 -0.1708421 0.043158226 0.0471351 0.14191407 0.07862894 -0.0846454
0.06562954 0.10643143 0.11992345 -0.115219355 0.036974397 0.063248806 0.08001676 0.04580196
-0.09114376 0.026569191 0.028148826 -0.039844457 0.002715534 -0.05093533 0.15310942 0.042232055
-0.1586308 0.049074918 -0.056175184 -0.10595624 -0.034931965 -0.14067036 -0.03215763 -0.055750187
0.122234374 0.05836712 -0.04537624 0.105844654 -0.095807076 0.11680475 0.12632452 0.24934559
-0.12723722 -0.16335802 -0.50621784 -0.059159115 0.094026774 -0.07066769 0.14020663 -0.17440018
0.0676831 -0.026823187 -0.04353966 -0.18950248 0.016853824 0.04893667 0.019344723 -0.0039570034
0.05931057 0.060021758 0.028259693 0.14942923 0.09943364 -0.16288917 0.08844872 0.08987209
0.19798602 0.07613337 0.07831673 0.00062279333 0.06772798 -0.0073751006 0.04797804 -0.082173884
-0.08908342 -0.0936757 -0.06805389 0.086779624 -0.15506433 -0.099857144 0.023383602 -0.097148485
-0.06374936 0.023805883 -0.36702806 -0.05289251 0.14000191 -0.05160034 -0.060880363 -0.03752374
00000000: adc3 853d 46ad c23d 14d0 513d 44a5 c33d
00000010: 2a6c f03d 2bae 7b3d 3e85 be3d 9eb0 51bd
00000020: fa03 c2bd 1909 623d b2da c6bd 981a d23c
00000030: 9c85 5bbd 40a9 aabc 1a66 32ba bffc c7ba
00000040: 60bd 68bd c437 4c3d 388d c1bd 6440 b53d
00000050: 1b1d 97bc 0b6d e9bd 90b3 d8bd 0c6d a53c
00000060: de03 c43d 44ca 123d 6072 93bc e9c1 babd
00000070: 3a3e f4bd 4e62 50bd d88b f23d 08f1 b7bc
00000080: 8e24 85bd 803c 55bd c3a5 04be 8240 0b3c
00000090: f3d4 a43d 6bed 8ebd 7a68 893d 088a 4fbd
000000a0: 8e13 403d f61f 973d 9259 913d d001 cd3d
000000b0: f060 a5bc 3d40 edbd f224 53bc 6cf1 c0bd
000000c0: acc9 8ebd 26bf fcbd dc8b 883b aa29 9fbd
000000d0: 10f7 123c 2322 c0bd 0cb6 9bbd 9503 8d3c
000000e0: 505d 49bc f25d 80bd 1e40 89bd 0c34 e8bd
000000f0: 5c26 fbbd c7e5 ffbd b605 903d 00cd 6f3b
00000100: 3fb2 68be 3c6f abbd 8754 253d f863 803c
00000110: 877d 7e3d 0897 f93d 75ba 413d aaf1 e1bd
00000120: 270b df3d 56e3 be3c 2ca9 753d a66c 1f3e
00000130: 1566 153e b570 dcbb 87b6 38be 4ac0 233d
00000140: d755 debc 689f 0dbe ac7c 1b3b ec1a 7b3d
00000150: 91a1 f2bd 72c4 753c 4f64 a9bd e7d3 71bc
00000160: 117d 9dbd 57aa 213d 719a fd3d 9bdc 843d
00000170: f4ef f03d 5e8c 323d dfff 31bc d821 d83d
00000180: b444 8b3d 58b8 823d 7244 1abc 99b8 5dbd
00000190: 3b2b 853d 2130 693d 003d 6c3c c2e2 d63d
000001a0: 31e3 babd 39bf 953c 92e2 003e 76bc 29bd
000001b0: 881c 723d 33c2 02be adf6 e6bd 0d48 c73d
000001c0: ee5e 963d f8e5 c4bc 08db f0bc 5bd0 9cbd
000001d0: b0f5 a6be 460d 873d 1c96 7fbd 77cc f23c
000001e0: 7ab4 dcbd d13d 4a3d 4b1e 6cbc f731 b73d
000001f0: b51c 5a3d 3cf7 af3c fd12 5ebd 13b8 df3d
00000200: 193d 463c c5d7 c33d 88db 60bd 5040 803d
00000210: 6d8f 15be 80e2 a63d 1368 b43d 275d 7fbd
00000220: 3514 debc 3488 cc3d 1293 90bd fa65 eebd
00000230: a399 9fbd 55d3 193e b6b4 b13a d443 47bd
00000240: 4075 f7bd 5e04 133e 41bc 033e 900f bebd
00000250: f7c4 fe3d 4436 4b3d 2fdb bfbd ceb2 de3b
00000260: 678b a5bd 9618 febd 5a49 1a3b 8eab f5bd
00000270: 380e 89bc 7a99 343e 9737 003d 481c 403d
00000280: ecda 5b3d 8dda ae3c 295f edbd b5d8 243d
00000290: 420b f33b 4614 963c ca31 8d3b dde9 a2bd
000002a0: 6e50 b1bc 3e05 bc3d 3bf1 2ebe aec6 303d
000002b0: bc10 413d ec51 113e 3608 a13d 915a adbd
000002c0: c868 863d b9f8 d93d 6d9a f53d 20f8 ebbd
000002d0: 7772 173d 9788 813d d4df a33d d69a 3b3d
000002e0: 94a9 babd a2a7 d93c 5e98 e63c f133 23bd
000002f0: 1af7 313b 91a1 50bd b7c8 1c3e 85fb 2c3d
00000300: 1d70 22be c802 493d f317 66bd 96ff d8bd
00000310: d214 0fbd e40b 10be b8b7 03bd 4f5a 64bd
00000320: 0456 fa3d 5c12 6f3d 70dc 39bd 15c5 d83d
00000330: 8036 c4bd 5437 ef3d 375b 013e 7354 7f3e
00000340: 794a 02be 5347 27be 7e97 01bf d450 72bd
00000350: 1c91 c03d 39ba 90bd 5492 0f3e f695 32be
00000360: 709d 8a3d 4dbc dbbc a456 32bd f00c 42be
00000370: 0811 8a3c d171 483d d378 9e3c c0a9 81bb
00000380: a4ef 723d 60d9 753d df80 e73c fa03 193e
00000390: dda3 cb3d 6bcc 26be 9a24 b53d dc0e b83d
000003a0: d9bc 4a3e d0eb 9b3d 8664 a03d f442 233a
000003b0: f8b4 8a3d d4aa f1bb 9f84 443d c84a a8bd
000003c0: 5e71 b6bd 0cd9 bfbd d65f 8bbd 84b9 b13d
000003d0: 2fc9 1ebe e781 ccbd f88e bf3c c9f5 c6bd
000003e0: 068f 82bd 8e04 c33c 1aeb bbbe d1a5 58bd
000003f0: a95c 0f3e e15a 53bd b05d 79bd 7eb2 19bd

linear2.bias f4 [64]
0.09818823 -0.08242979 -0.17446539 0.059657577 -0.017598674 0.27211696 0.15048927 0.10989305
0.19908117 0.24334684 0.031985037 -0.06512106 0.019570488 0.11406466 0.28664604 -0.0338153
0.21238677 -0.093747154 0.05892731 0.12616782 -0.112251915 0.07539059 0.1256121 -0.087162346
0.24064389 -0.3655563 -0.061774954 -0.07787593 0.04357107 0.34274778 0.32535487 -0.06843482
0.054549962 0.31276932 -0.040093645 -0.13668443 -0.022591017 -0.047669362 0.060304135 -0.13753901
-0.2460213 0.07766851 -0.27493474 0.3567637 0.004055437 0.026582628 0.052008897 0.2165369
0.10458844 0.11495982 -0.015891697 0.14569841 -0.02720572 -0.022089131 0.062453344 0.1040099
-0.103685886 0.024779007 -0.10931966 -0.04101138 0.10525934 0.0268803 0.021913206 0.2987061
00000000: e916 c93d f3d0 a8bd 0ea7 32be 815b 743d
00000010: 182b 90bc ea52 8b3e dc19 1a3e 9b0f e13d
00000020: efdb 4b3e ea2f 793e be02 033d 315e 85bd
00000030: 4a52 a03c bc9a e93d 45c3 923e e981 0abd
00000040: eb7b 593e 82fe bfbd c35d 713d 2332 013e
00000050: 55e4 e5bd 6266 9a3d 75a0 003e 2c82 b2bd
00000060: 5a6b 763e 322a bbbe bc07 7dbd 6a7d 9fbd
00000070: 9477 323d a37c af3e ea94 a63e 8e27 8cbd
00000080: c86f 5f3d 4d23 a03e 3c39 24bd 01f7 0bbe
00000090: cc10 b9bc f340 43bd 7801 773d 07d7 0cbe
000000a0: 02ed 7bbe ab10 9f3d 3fc4 8cbe bba9 b63e
000000b0: 79e3 843b d0c3 d93c 4807 553d d9bb 5d3e
000000c0: 7732 d63d 0e70 eb3d 4e2f 82bc f731 153e
000000d0: 88de debc 44f4 b4bc 14cf 7f3d 2403 d53d
000000e0: 4459 d4bd 58fd ca3c fce2 dfbd 8cfb 27bd
000000f0: 3592 d73d 1334 dc3c 5383 b33c 02f0 983e

linear3.weight f4 [64, 64]
-0.044227704 0.07413125 -0.08607283 0.10926774 0.050143257 0.11671269 -0.050762832 -0.016732931
0.05545163 0.003111139 0.030456737 -0.104293376 -0.033094376 0.058299705 -0.08983019 0.080770075
-0.113402605 -0.029354349 0.0018836558 -0.026954666 -0.12098612 -0.06892003 0.07840651 -0.10259476
0.0825883 -0.02862686 -0.012148738 0.08854042 -0.016059145 0.003404349 0.02305293 -0.0883629
-0.09347676 -0.022620052 -0.04553069 -0.09490572 -0.066070005 0.076271445 -0.06345467 0.09676339
-0.059422806 0.040688813 -0.09632166 0.042590737 -0.0035815835 0.11526586 -0.123527065 0.038677603
0.04370278 0.048850328 -0.11430925 -0.07941139 0.0011644512 -0.029024288 0.10398792 0.017183319
-0.05801101 -0.07759893 -0.119592935 0.03276512 -0.040718436 0.0441577 -0.0911181 -0.027318224
-0.11392631 -0.039346468 -0.016424837 0.07883982 -0.02321349 0.0041537303 0.055247176 0.09192046
-0.044350795 -0.11513391 -0.030476447 -0.112678275 -0.022121793 -0.0050686747 0.073430344 -0.115173966
-0.082605414 -0.10219577 0.013161242 -0.07264512 -0.12000321 -0.10374696 -0.11691933 -0.11323577
-0.040135257 0.053336725 0.08762409 0.11508612 -0.07797426 0.03365101 -0.041199457 -0.019909605
-0.023644209 -0.11440919 0.045216173 -0.04348882 0.054566443 0.022239942 0.063261524 0.08046017
0.09031262 0.027137658 -0.11823592 -0.06074914 -0.12243459 0.06741661 -0.027548239 -0.076513626
0.09114033 -0.07771756 0.124723986 -0.095845066 0.027719304 -0.0590784 -0.10625456 0.12364547
0.07999975 -0.03332038 -0.015035266 0.07507363 -0.0069768783 0.047266312 0.032671362 -0.042059552
-0.017244054 0.058578875 0.14573494 -0.03836168 -0.08987315 0.0372887 -0.085879356 0.15966864
-0.03706179 0.05161502 0.11920995 0.07145 -0.040268507 0.01319672 0.11120176 0.05176793
-0.1932069 -0.05238697 -0.060690656 -0.05597394 0.078285575 -0.11744736 0.088598564 0.11167476
-0.03121392 -0.06195559 -0.04217322 -0.10982975 -0.028598694 -0.00663615 0.031685647 -0.074032634
0.062099133 0.023541529 -0.065305024 0.03578968 0.10604215 0.052206006 0.107064664 0.06846592
-0.049745686 -0.06518678 -0.041674204 0.15709257 0.16279092 -0.012837082 -0.063582465 0.07357989
-0.11532044 0.00053291547 0.0010619462 0.1492071 -0.11172825 -0.023839576 0.09756267 -0.007986009
0.0079599675 0.041815676 0.058251493 0.020802468 -0.07961983 -0.057553466 0.0665738 -0.077751815
-0.09609166 0.10545911 0.038037512 -0.032880545 0.018145993 -0.17717975 -0.024343662 0.08867629
-0.027923444 -0.013416046 0.13529035 -0.07115796 -0.005583643 0.013875989 0.013932961 -0.047371436
-0.050069265 0.074719205 -0.004405169 -0.16142862 -0.007683534 -0.35401052 0.03525274 -0.041558165
0.15467195 0.044324197 -0.08934678 -0.001129955 0.14303195 -0.015249733 -0.015176442 -0.027491584
-0.09525457 0.14206176 0.111478075 -0.08287779 0.030746028 -0.065749854 -0.086150914 0.19955212
0.115611 -0.07439447 0.08913377 -0.00048672457 -0.060163114 0.021057136 -0.08572206 -0.16213882
-0.07249421 0.020131769 -0.0579821 0.015307082 0.0026705712 0.030608604 0.10219784 -0.03666772
-0.0738693 0.10726938 0.15554512 0.003593877 -0.14274922 0.06983347 -0.004485644 0.0153814135
00000000: 1c28 35bd 20d2 973d f446 b0bd c4c7 df3d
00000010: 0463 4d3d 1007 ef3d b0ec 4fbd 8013 89bc
00000020: 4021 633d 40e4 4b3b 6880 f93c c497 d5bd
00000030: f88d 07bd accb 6e3d e4f8 b7bd c86a a53d
00000040: a03f e8bd 8878 f0bc 00e5 f63a 08d0 dcbc
00000050: 92c7 f7bd f225 8dbd 9893 a03d 341d d2bd
00000060: 0e24 a93d e082 eabc 800b 47bc ae54 b53d
00000070: 788e 83bc 801b 5f3b 80d9 bc3c 9cf7 b4bd
00000080: be70 bfbd b04d b9bc 647e 3abd ee5d c2bd
00000090: b64f 87bd 3434 9c3d 86f4 81bd e22b c63d
000000a0: 5465 73bd 50a9 263d 4a44 c5bd a073 2e3d
000000b0: 00b9 6abb 8210 ec3d c2fb fcbd 686c 1e3d
000000c0: b001 333d 4817 483d f81a eabd 70a2 a2bd
000000d0: 80a0 983a 58c4 edbc 9ef7 d43d 08c4 8c3c
000000e0: f49c 6dbd 30ec 9ebd 24ed f4bd b834 063d
000000f0: 60c8 26bd b4de 343d 209c babd 78ca dfbc
00000100: 3252 e9bd c329 21bd 618d 86bc c676 a13d
00000110: 382a bebc 041c 883b dd4a 623d cb40 bc3d
00000120: 2ea9 35bd 54cb ebbd bea9 f9bc dec3 e6bd
00000130: c338 b5bc 2017 a6bb a662 963d 54e0 ebbd
00000140: 072d a9bd 044c d1bd 40a2 573c f7c6 94bd
00000150: 3ec4 f5bd 4979 d4bd 6773 efbd 28e8 e7bd
00000160: de64 24bd 9c77 5a3d 4274 b33d 46b2 eb3d
00000170: f8b0 9fbd a4d5 093d c3c0 28bd 7819 a3bc
00000180: 80b1 c1bc 5e4f eabd 9834 393d 5521 32bd
00000190: 1081 5f3d 8a30 b63c 428f 813d 4dc8 a43d
000001a0: d3f5 b83d cb4f de3c ad25 f2bd 17d4 78bd
000001b0: fcbe fabd b811 8a3d d8ac e1bc 2db3 9cbd
000001c0: c8a7 ba3d 622a 9fbd 4a6f ff3d 6b4a c4bd
000001d0: 9813 e33c 31fc 71bd fe9b d9bd d639 fd3d
000001e0: e9d6 a33d f37a 08bd 7a56 76bc 34c0 993d
000001f0: 4c9e e4bb 529a 413d 68d2 053d a346 2cbd
00000200: 6743 8dbc 67f0 6f3d 8a3b 153e 2321 1dbd
00000210: 6a0f b8bd 09bc 183d 84e1 afbd 2d80 233e
00000220: 1ace 17bd 456a 533d 5924 f43d 6154 923d
00000230: 97f0 24bd 0e37 583c c0bd e33d 9c0a 543d
00000240: 08d8 45be b893 56bd c496 78bd ee44 65bd
00000250: 3054 a03d 3e88 f0bd 2a73 b53d bdb5 e43d
00000260: 56b4 ffbc 25c5 7dbd d4bd 2cbd 6cee e0bd
00000270: cf47 eabc 1074 d9bb cfc8 013d 6c9e 97bd
00000280: a95b 7e3d 2ada c03c a4be 85bd 3398 123d
00000290: a02c d93d f7d5 553d b844 db3d dc37 8c3d
000002a0: 22c2 4bbd a680 85bd 92b2 2abd e0dc 203e
000002b0: aab2 263e a052 52bc 8637 82bd 0eb1 963d
000002c0: 1f2d ecbd 5ab3 0b3a 0031 8b3a bfc9 183e
000002d0: c8d1 e4bd 374b c3bc f0ce c73d c0d7 02bc
000002e0: 866a 023c ea46 2b3d 1e99 6e3d f069 aa3c
000002f0: b90f a3bd 2fbd 6bbd d857 883d 583c 9fbd
00000300: b4cb c4bd f2fa d73d 39cd 1b3d c0ad 06bd
00000310: e8a6 943c 9c6e 35be 5c6c c7bc ea9b b53d
00000320: b5bf e4bc face 5bbc 8e89 0a3e 44bb 91bd
00000330: fef6 b6bb 1e58 633c 1347 643c 8d08 42bd
00000340: 6e15 4dbd 6206 993d 3c59 90bb 8b4d 25be
00000350: 28c6 fbbb de40 b5be 2d65 103d e538 2abd
00000360: 5362 1e3e 4a8d 353d 72fb b6bd 001b 94ba
00000370: f876 123e 04da 79bc 9da6 78bc 0836 e1bc
00000380: d414 c3bd a378 113e 9e4e e43d d5bb a9bd
00000390: 18df fb3c dca7 86bd e46f b0bd 6457 4c3e
000003a0: 76c5 ec3d 215c 98bd c48b b63d 112f ffb9
000003b0: 996d 76bd 0480 ac3c 0c8f afbd b807 26be
000003c0: d877 94bd 61eb a43c a37e 6dbd 8eca 7a3c
000003d0: c004 2f3b e5be fa3c 1a4d d13d e430 16bd
000003e0: ca48 97bd 0cb0 db3d 3847 1f3e 4087 6b3b
000003f0: da2c 12be da04 8f3d 4ffc 92bb 5302 7c3c

linear3.bias f4 [64]
-0.082749695 -0.022024188 -0.0058216485 -0.011441473 -0.13728176 0.05530996 0.04323128 0.07489418
0.116074435 -0.07772803 -0.07023813 -0.10115583 -0.024459295 -0.017158046 0.03866062 -0.10522188
0.2969437 0.06429367 -0.029625481 0.117042646 -0.06414425 -0.07822554 0.21427047 0.0797559
0.2406839 0.15066348 0.17313704 -0.026672527 0.32042515 -0.07924066 0.25071958 0.28182796
-0.14466208 0.010434563 -0.06571491 -0.013392016 0.15507877 0.064795 0.22545205 -0.0446466
0.011246981 0.20088 0.26581463 0.22346978 0.2548372 0.2089218 -0.1061807 -0.0023671815
-0.11591663 0.01376946 0.02312623 -0.028731119 0.19642457 0.040287796 0.23727685 0.05587159
-0.07409525 0.17783605 -0.05456901 0.036557056 0.23033954 -0.08335824 -0.23554562 0.1412334
00000000: ac78 a9bd 126c b4bc 87c3 bebb 0475 3bbc
00000010: 9793 0cbe b28c 623d 4813 313d 1f62 993d
00000020: 6fb8 ed3d e02f 9fbd 02d9 8fbd ca2a cfbd
00000030: dc5e c8bc 088f 8cbc 995a 1e3d 927e d7bd
00000040: 0109 983e 66ac 833d 23b1 f2bc 0eb4 ef3d
00000050: 0f5e 83bd b634 a0bd b869 5b3e 1057 a33d
00000060: d775 763e 8747 1a3e d64a 313e 5880 dabc
00000070: c40e a43e ed48 a2bd 515e 803e c14b 903e
00000080: 4c22 14be bbf5 2a3c 8a95 86bd 306a 5bbc
00000090: f8cc 1e3e 3eb3 843d e7dc 663e 5adf 36bd
000000a0: 4245 383c 7db3 4d3e db18 883e 43d5 643e
000000b0: 057a 823e 99ef 553e 4475 d9bd b722 1bbb
000000c0: b365 edbd 4d99 613c 3873 bd3c 865d ebbc
000000d0: 8623 493e d104 253d b4f8 723e 9cd9 643d
000000e0: 40bf 97bd a71a 363e c183 5fbd dabc 153d
000000f0: 21de 6b3e bab7 aabd df32 71be 7d9f 103e

linear4.weight f4 [64, 64]
-0.025054783 -0.024532378 -0.046686746 -0.18091805 -0.015811788 0.10383083 0.09907737 0.05705444
-0.042290926 -0.049050257 -0.17205226 -0.09375979 0.004946409 -0.07772343 -0.004326889 -0.087586686
-0.020037593 -0.029393924 0.05219586 0.028826062 0.076293126 -0.056281 0.022347705 -0.02236861
-0.08447666 -0.12268021 -0.0308135 0.08369394 -0.013271245 0.017390575 0.022588192 0.12103777
-0.03119128 -0.04668145 -0.016193472 0.09144592 0.060266167 0.051413536 -0.079881534 0.028815672
-0.04568448 -0.0594391 -0.1202058 0.13289346 0.08354113 -0.08172507 -0.08267905 0.055461764
0.058776557 -0.0053224564 0.07335127 -0.11233962 0.04091705 -0.065096885 -0.11015069 -0.079799965
0.04690509 0.042087108 0.045343623 -0.074132025 -0.08703846 -0.11392963 0.05803575 0.016959967
0.10069403 0.04531209 -0.2752397 0.086249314 -0.031709112 -0.0994975 -0.0059389398 -0.0887544
-0.0897511 -0.15583558 -0.13162217 -0.03339598 -0.04816541 0.04637327 -0.010950714 -0.101351365
0.025610615 0.14724405 0.032272402 0.06964019 -0.07791498 0.04169474 -0.018604355 0.06212013
0.06901261 0.08922889 -0.075879596 -0.026151316 -0.018793078 0.097022824 -0.03402375 0.112477295
-0.06648425 -0.08429872 -0.08854525 -0.051593326 0.046339147 -0.13964061 -0.02252455 0.089623064
0.019767046 0.015954094 -0.18387787 0.110754505 0.0076138317 -0.091755316 -0.109121434 0.10240631
-0.20572911 -0.04726418 0.07444046 0.09799479 -0.028745495 -0.015129005 -0.08425768 0.0102871405
-0.13894871 -0.13716388 0.08803097 -0.119996704 0.098934956 -0.037733957 0.13970329 -0.063465156
-0.08214681 0.07008361 0.18725437 -0.34111053 -0.05820335 0.015161419 0.08788673 -0.036806308
-0.091082744 0.08805516 -0.06326378 0.13023084 -0.10703062 0.03344276 -0.11660298 0.094550416
-0.050011836 0.11945323 0.066254206 -0.042678412 0.07178309 0.06161338 0.19575746 0.037434354
-0.09724455 0.04386392 0.15200391 -0.07795553 0.10783328 -0.20961614 0.011203762 0.015102686
-0.23838718 0.043497786 -0.29630747 0.02561829 -0.38131756 0.34610787 -0.04248827 -0.2310835
0.07792967 0.18223216 0.37585002 0.13097121 0.09169835 -0.07230837 0.011692729 0.13028201
0.17788357 0.0679411 -0.021055488 0.019928327 0.04542858 0.106019884 -0.35157058 0.025568955
-0.06007276 -0.2380258 -0.07855475 0.037987605 0.021200519 0.10210301 -0.13666864 -0.05235989
0.029848933 -0.09776221 -0.018998517 -0.032785747 -0.14270222 -0.05083864 0.035054456 -0.009761989
-0.17555682 -0.055590253 -0.060508452 -0.03332353 -0.08172026 -0.032814752 -0.067492165 0.07022533
0.056216847 0.09986654 -0.036682375 0.031156173 0.08135722 -0.10439166 0.14668298 0.022520157
-0.072270334 0.03675273 0.103916384 0.10617488 0.06502533 -0.0649599 -0.059804194 0.13337411
-0.10749125 0.12449159 -0.013763233 0.055493224 -0.14078754 -0.008961296 0.004392008 -0.12040419
0.05110133 0.078969926 0.16211076 -0.09806078 -0.0271998 0.058371454 0.054570258 0.07041435
-0.032665204 -0.07066772 0.00029325782 0.056034647 -0.019663597 -0.11529805 -0.04110227 0.11928023
0.012134613 0.0021837286 -0.05151056 -0.017439201 0.061152723 -0.04601559 0.032735158 0.022516456
00000000: b03f cdbc 20f8 c8bc 9a3a 3fbd 9542 39be
00000010: b987 81bc 42a5 d43d 13e9 ca3d ebb1 693d
00000020: 4039 2dbd ece8 48bd 782e 30be 2205 c0bd
00000030: 7c15 a23b 762d 9fbd 93c8 8dbb a660 b3bd
00000040: e125 a4bc 87cb f0bc 53cb 553d a224 ec3c
00000050: 923f 9c3d e886 66bd 8912 b73c 603e b7bc
00000060: 1902 adbd c33f fbbd 986c fcbc ba67 ab3d
00000070: a36f 59bc ae76 8e3c df0a b93c a6e2 f73d
00000080: db84 ffbc 0c35 3fbd 2ca8 84bc 0048 bb3d
00000090: a8d9 763d 0097 523d ee98 a3bd d80e ec3c
000000a0: a61f 3bbd 6a76 73bd 752e f6bd 3915 083e
000000b0: 9d17 ab3d 795f a7bd a253 a9bd e02b 633d
000000c0: b0bf 703d 0068 aebb 3139 963d 5112 e6bd
000000d0: a398 273d 8451 85bd af96 e1bd 2a6e a3bd
000000e0: 8d1f 403d 8863 2c3d 3cba 393d 88d2 97bd
000000f0: 3841 b2bd f053 e9bd e5b6 6d3d a1ef 8a3c
00000100: ac38 ce3d 2c99 393d 38ec 8cbe 7ba3 b03d
00000110: 6ae1 01bd 58c5 cbbd 709b c2bb dec4 b5bd
00000120: 6dcf b7bd 5d93 1fbe f6c7 06be 39ca 08bd
00000130: 1849 45bd e6f1 3d3d a06a 33bc 4e91 cfbd
00000140: 5acd d13c 25c7 163e 1130 043d 849f 8e3d
00000150: e491 9fbd 1bc8 2a3d 2968 98bc ad71 7e3d
00000160: 7c56 8d3d a3bd b63d c366 9bbd 493b d6bc
00000170: f1f3 99bc e7b3 c63d 7d5c 0bbd 7f5a e63d
00000180: e528 88bd cfa4 acbd 3657 b5bd 8653 53bd
00000190: 1ece 3d3d f3fd 0ebe 6885 b8bc 4c8c b73d
000001a0: 80ee a13c 29b2 823c 7b4a 3cbe 42d3 e23d
000001b0: 737d f93b 36ea bbbd 0f7b dfbd 66ba d13d
000001c0: a7aa 52be 1698 41bd 3d74 983d 7eb1 c83d
000001d0: ac7b ebbc a5df 77bc 4a8f acbd 658b 283c
000001e0: 9248 0ebe b074 0cbe 9549 b43d d5c0 f5bd
000001f0: 699e ca3d ec8e 1abd 610e 0f3e 05fa 81bd
00000200: 963c a8bd ff87 8f3d 9cbf 3f3e 0aa6 aebe
00000210: a366 6ebd 9a67 783c f5fd b33d 36c2 16bd
00000220: 9789 babd 4456 b43d 7190 81bd 3c5b 053e
00000230: df32 dbbd 47fb 083d 8bcd eebd a6a3 c13d
00000240: 36d9 4cbd e5a3 f43d 49b0 873d 8fcf 2ebd
00000250: 0303 933d 505e 7c3d a574 483e c454 193d
00000260: 2728 c7bd a7aa 333d eaa6 1b3e 26a7 9fbd
00000270: b2d7 dc3d 9da5 56be fc8f 373c 4271 773c
00000280: c51b 74be bc2a 323d 9db5 97be 73dd d13c
00000290: 0e3c c3be 0d35 b13e 2e08 2ebd 27a1 6cbe
000002a0: 9799 9f3d 119b 3a3e 6a6f c03e 511d 063e
000002b0: 58cc bb3d 6916 94bd dc92 3f3c a668 053e
000002c0: 1c27 363e b424 8b3d 8f7c acbc bb40 a33c
000002d0: 5213 3a3d f420 d93d 0f01 b4be fc75 d13c
000002e0: db0e 76bd 09bd 73be 50e1 a0bd e498 1b3d
000002f0: b6ac ad3c 621b d13d ddf2 0bbe 5377 56bd
00000300: c085 f43c 8e37 c8bd c7a2 9bbc 594a 06bd
00000310: 8820 12be 2e3c 50bd 4395 0f3d c0f0 1fbc
00000320: 2bc5 33be 9bb2 63bd b6d7 77bd 417e 08bd
00000330: f45c a7bd c368 06bd 5539 8abd 4cd2 8f3d
00000340: a343 663d d486 cc3d 4240 16bd 3b3b ff3c
00000350: 9d9e a63d 4bcb d5bd 1034 163e 317c b83c
00000360: 7802 94bd 088a 163d 1dd2 d43d 3772 d93d
00000370: 002c 853d b209 85bd 3ef5 74bd 3993 083e
00000380: 5f24 dcbd 72f5 fe3d 2f7f 61bc dd4c 633d
00000390: 9c2a 10be 66d2 12bc d5ea 8f3b 7996 f6bd
000003a0: a14f 513d fcba a13d 5d00 263e 17d4 c8bd
000003b0: 1dd2 debc e816 6f3d 1085 5f3d 6635 903d
000003c0: f3cb 05bd 3dba 90bd 66c0 9939 9684 653d
000003d0: 8d15 a1bc 6221 ecbd db5a 28bd 3149 f43d
000003e0: 41d0 463c e31c 0f3b bdfc 52bd a8dc 8ebc
000003f0: 477b 7a3d d87a 3cbd 4d15 063d 6e74 b83c

linear4.bias f4 [64]
0.021024602 0.27321747 0.11952244 0.1315128 0.0146842515 0.009423541 0.2451745 0.264977
0.028238384 0.038911212 -0.097047634 -0.012118945 -0.056206547 0.24847712 -0.025089774 0.25707015
0.23103952 -0.15148853 0.1786492 0.19121481 0.27979568 0.27201188 0.004230172 -0.095806435
0.21530098 -0.12293057 0.10704449 0.22424887 0.26950318 0.27764297 0.09000059 0.12541907
-0.020011328 0.20233423 -0.0024299456 0.041197456 -0.1265681 -0.14363845 0.22907609 0.080541626
0.09835355 0.20535097 0.015971623 -0.13965715 -0.12623248 0.059358355 0.28661475 0.28515586
0.26517826 0.10455043 0.15026884 -0.07969779 0.23026648 0.14472432 0.20389804 0.044216305
0.10317673 0.25425777 0.060591146 -0.043128345 -0.074463606 0.07054707 0.2657912 0.06620124
00000000: c93b ac3c 29e3 8b3e 2ec8 f43d 4bab 063e
00000010: 3796 703c 3265 1a3c 060f 7b3e 11ab 873e
00000020: 2f54 e73c 5d61 1f3d e9c0 c6bd 8a8e 46bc
00000030: d638 66bd c970 7e3e 1289 cdbc b39e 833e
00000040: a095 6c3e cf1f 1bbe d1ef 363e d1cd 433e
00000050: 6141 8f3e 2445 8b3e 419d 8a3b 2a36 c4bd
00000060: dc77 5c3e 06c3 fbbd 243a db3d 7fa1 653e
00000070: 52fc 893e 3827 8e3e 3b52 b83d db6d 003e
00000080: ccee a3bc b430 4f3e b93f 1fbb aabe 283d
00000090: 119b 01be f515 13be ec92 6a3e 02f3 a43d
000000a0: 966d c93d 8647 523e ecd6 823c 4902 0fbe
000000b0: 1643 01be bf21 733d 2bbf 923e f3ff 913e
000000c0: 72c5 873e 891e d63d 13e0 193e 9838 a3bd
000000d0: faca 6b3e 9d32 143e a6ca 503e 281c 353d
000000e0: 524e d33d 132e 823e 6c2e 783d 59a7 30bd
000000f0: 6080 98bd fb7a 903d c915 883e 8494 873d

mean_linear.weight f4 [2, 64]
0.0061887037 0.078187205 0.016630618 0.04680772 -0.071891256 0.00062846305 0.07825915 0.070693016
0.04062468 0.059933342 0.0020927 -0.08080113 -0.05433812 0.08869623 -0.10033323 0.1118302
0.051025767 0.050793186 -0.05974233 0.0037700091 0.062302187 0.018114258 -0.007984789 -0.011223656
0.040983953 -0.024269024 0.020247884 -0.026272565 0.05168362 0.072786756 -0.0038076744 0.0626795
0.010238395 -5.1471972e-05 0.12190675 -0.010305469 -0.006949637 0.1302317 0.06704413 0.09443778
-0.08473542 0.07125125 -0.07497227 -0.164566 0.01484069 0.057550017 0.15640655 0.10974662
0.013616554 0.09414055 0.095113106 -0.09302755 0.08931849 0.054118536 0.045954682 0.039794844
-0.038488805 0.09885496 0.051442854 -0.005743248 0.0013632277 0.051553823 0.0946233 0.10209606
0.012511105 -0.08662166 0.20446496 0.003185051 -0.1285564 -0.08806075 0.018307144 -0.021696439
-0.023027357 -0.052204456 0.01900938 -0.10800126 -0.038545717 -0.037229292 -0.022540148 0.07264026
-0.021504356 0.05451108 -0.0530693 -0.02412278 0.015715878 -0.058003124 -0.008233417 -0.012112088
-0.08274177 0.11263783 0.088736996 -0.09750533 -0.031193903 -0.023122767 -0.0015726329 -0.052135102
0.0068707396 -0.11641635 0.06788368 -0.0885364 -0.00051024137 0.07564317 -0.092834644 -0.2045634
-0.09640876 -0.01918007 -0.11662646 -0.12067027 -0.010215701 -0.02141024 0.15011963 0.14607576
-0.08566929 -0.13345374 -0.08086182 0.056501273 -0.05404474 0.027313208 -0.023325872 -0.017604025
-0.13662298 -0.101750895 -0.032653682 -0.0021906565 -0.00019425202 0.015170805 0.029234655 0.010035531
00000000: 9cca ca3b 9d20 a03d ef3c 883c 74b9 3f3d
00000010: b93b 93bd 71bf 243a 5546 a03d 80c7 903d
00000020: 1166 263d aa7c 753d ae25 093b 107b a5bd
00000030: a691 5ebd 5ea6 b53d 827b cdbd 3b07 e53d
00000040: 6500 513d 840c 503d 60b4 74bd 4212 773b
00000050: 9430 7f3d 5a64 943c a2d2 02bc 6de3 37bc
00000060: cade 273d d5cf c6bc e4de a53c 9039 d7bc
00000070: 34b2 533d 3911 953d 2d8a 79bb 1c5e 803d
00000080: f1be 273c 9ce3 57b8 3faa f93d 45d8 28bc
00000090: c8b9 e3bb 755b 053e 6f4e 893d 9868 c13d
000000a0: c489 adbd 2dec 913d 108b 99bd fd83 28be
000000b0: 5e26 733c 91b9 6b3d 0a29 203e d6c2 e03d
000000c0: f817 5f3c c3cc c03d a9ca c23d 3a85 bebd
000000d0: 9dec b63d 66ab 5d3d fa3a 3c3d ebff 223d
000000e0: 70a6 1dbd 7874 ca3d beb5 523d db31 bcbb
000000f0: 55ae b23a 1a2a 533d dcc9 c13d bd17 d13d
00000100: 61fb 4c3c b266 b1bd 435f 513e 4abc 503b
00000110: 4aa4 03be 3259 b4bd ddf8 953c bbbc b1bc
00000120: dea3 bcbc 57d4 55bd 8fb9 9b3c c42f ddbd
00000130: 1de2 1dbd be7d 18bd 1ea6 b8bc 6bc4 943d
00000140: e729 b0bc 0347 5f3d 325f 59bd 239d c5bc
00000150: 96be 803c af94 6dbd 74e5 06bc c771 46bc
00000160: 8474 a9bd aaae e63d bebb b53d e0b0 c7bd
00000170: 5b8a ffbc f56b bdbc ce20 ceba 9e8b 55bd
00000180: f123 e13b b26b eebd 9906 8b3d 9252 b5bd
00000190: b8c1 05ba ceea 9a3d 1720 bebd 1179 51be
000001a0: f571 c5bd 861f 9dbc dad9 eebd f921 f7bd
000001b0: c15f 27bc 8764 afbc f6b8 193e e294 153e
000001c0: 6173 afbd 19a8 08be e29a a5bd e16d 673d
000001d0: 045e 5dbd f3bf df3c e615 bfbc 5136 90bc
000001e0: e5e6 0bbe c662 d0bd debf 05bd 1e91 0fbb
000001f0: 21b0 4bb9 f88e 783c 847d ef3c 116c 243c

mean_linear.bias f4 [2]
0.094055876 -0.047699552
00000000: 5ea0 c03d 9b60 43bd

log_std_linear.weight f4 [2, 64]
0.06700212 -0.025621291 0.033518124 -0.015852407 -0.007826771 -0.015342765 -0.018039083 -0.011465451
-0.008551766 0.03676996 -0.003754446 0.0011218672 -0.022279637 -0.017046249 -0.04699505 -0.033875488
-0.015734542 6.0532333e-05 0.009737879 -0.05487255 -0.029217873 -0.015688188 0.0050810147 0.016743418
0.030559499 0.20158824 0.010263231 -0.023642784 -0.019444019 -0.0067095975 0.015312827 -0.014414079
0.007503704 0.004545038 0.019995928 -0.032624315 0.0043093846 0.10671318 -0.0204248 -0.009715601
-0.02588084 0.026731899 -0.018163582 0.06306015 -0.007591816 0.01722039 -0.083103664 -0.055822562
-0.023824329 0.024173535 -0.023298727 -0.04647217 -0.038007483 -0.013523458 -0.019532409 0.030815642
-0.026098112 -0.030184492 0.021573542 -0.0019748183 -0.0014985251 -0.01741347 -0.0038761543 -0.0012539804
-0.01392335 0.01908769 0.01859499 -0.023635179 -0.025761683 0.025225809 -0.0637362 -0.011047186
0.021377778 0.024029447 0.025965424 -0.048872802 0.026981058 0.007246626 -0.0068999943 -0.01544694
-0.0033251788 0.181181 -0.06947405 -0.055984177 -0.039830938 -0.058114186 0.009861436 -0.006034016
-0.00089239015 0.05059818 -0.109107524 -0.025721109 -0.0077223424 -0.04901277 -0.0014736748 -0.021679074
0.008799331 -0.046919852 0.037089214 0.014964821 0.005073286 0.026074547 -0.049101457 0.056922544
-0.0025017862 -0.03672536 -0.028127717 0.034048688 -0.006121837 -0.046868533 -0.027953008 -0.019416494
-0.00800376 0.10645815 0.06283677 -0.054904785 0.011838182 -0.005981806 0.008139233 -0.012736395
-0.014978673 0.033846926 0.040601645 0.008438056 -0.0004877808 0.005356626 -0.026505543 -0.0030344015
00000000: 6838 893d bee3 d1bc 4d4a 093d e8dc 81bc
00000010: db3b 00bc 3860 7bbc b3c6 93bc 96d9 3bbc
00000020: b51c 0cbc 199c 163d 270d 76bb 9e0b 933a
00000030: c983 b6bc 93a4 8bbc e27d 40bd 06c1 0abd
00000040: bae5 80bc 19e4 7d38 a08b 1f3c 0ac2 60bd
00000050: 525a efbc 8484 80bc a47e a63b 7e29 893c
00000060: ea57 fa3c 266d 4e3e 1c27 283c 83ae c1bc
00000070: 1049 9fbc 2fdc dbbb a7e2 7a3c 0729 6cbc
00000080: a2e1 f53b 8bee 943b 80ce a33c 13a1 05bd
00000090: bd35 8d3b 718c da3d e951 a7bc 2f2e 1fbc
000000a0: 0e04 d4bc dbfc da3c cbcb 94bc ae25 813d
000000b0: c5c4 f8bb c611 8d3c 4132 aabd 33a6 64bd
000000c0: 3d2b c3bc 9407 c63c f9dc bebc 9a59 3ebd
000000d0: bcad 1bbd 7e91 5dbc 6e02 a0bc 1671 fc3c
000000e0: b5cb d5bc 7845 f7bc ffba b03c f46b 01bb
000000f0: 296a c4ba b2a6 8ebc 1407 7ebb 9a5c a4ba
00000100: c31e 64bc ca5d 9c3c 8554 983c 909e c1bc
00000110: 2a0a d3bc 5ba6 ce3c 2088 82bd 42ff 34bc
00000120: 7320 af3c 67d9 c43c 71b5 d43c d92e 48bd
00000130: 6107 dd3c 1b75 ed3b 5919 e2bb 2a15 7dbc
00000140: 3eeb 59bb 8387 393e 6948 8ebd aa4f 65bd
00000150: c425 23bd 2409 6ebd dc91 213c ffb8 c5bb
00000160: 4aef 69ba 0a40 4f3d c473 dfbd 13b5 d2bc
00000170: b40b fdbb 9dc1 48bd 5228 c1ba 5098 b1bc
00000180: 122b 103c 082f 40bd dcea 173d 022f 753c
00000190: cf3d a63b 4a9a d53c 9c1e 49bd 9d27 693d
000001a0: 02f5 23bb 556d 16bd 196c e6bc a376 0b3d
000001b0: b199 c8bb 38f9 3fbd b5fd e4bc 570f 9fbc
000001c0: 3422 03bc bb06 da3d 91b0 803d d7e3 60bd
000001d0: eff4 413c 0703 c4bb 6b5a 053c 50ac 50bc
000001e0: 1c69 75bc 13a3 0a3d e94d 263d c63f 0a3c
000001f0: d5bc ffb9 a386 af3b 2722 d9bc cfdc 46bb

log_std_linear.bias f4 [2]
-0.09971767 -0.092573576
00000000: c738 ccbd 3797 bdbd
