models/2025-11-24 13:54:47/1/Q1.pth (torch, 37764 bytes, 7 tensors)

linear1.weight f4 [64, 5]
0.06522145 0.4054902 -0.30378973 -0.09343466 0.080808125 0.106046066 0.009458884 0.52614987
0.6741763 -0.12363826 -0.6446395 0.6965197 0.1990542 -0.4669019 -0.04444929 0.11761776
0.022804374 -0.3230144 -0.09142328 0.26582468 -0.33749208 -0.18951711 0.36623502 -0.19589086
0.36787271 0.124159046 0.37901357 0.23337264 0.02594475 -0.15502256 -0.64385206 -0.26972243
-0.02608337 -1.2031821 -0.11691921 -0.23789391 -0.079831704 -0.44324434 -0.26555985 0.03932312
0.002973755 -0.055620227 -0.34020358 0.096062616 -0.3415419 -0.72331053 -0.32841083 0.17480926
-0.6728436 -0.29046002 -0.39361277 -0.020252163 -0.38282275 -0.14664972 0.03608876 -0.537551
-0.20481059 -0.05995133 -0.10674201 0.39371693 -0.124298215 -0.010632629 -0.6322399 -0.33394963
0.13758655 0.24447723 0.25171572 -0.14432842 0.036909826 -0.040726967 0.17852397 0.28615892
0.12243301 0.21531096 0.51903266 0.32332745 0.27528766 0.3879126 0.23604393 -0.045318723
0.08915269 0.07292547 -0.52912956 0.10857463 0.22761169 -0.45939922 0.35093078 0.12032211
-0.02286011 0.3989546 -0.45752445 0.22452883 -0.16404256 -0.824684 0.03203913 0.0013990585
-0.17597257 0.20749447 0.19419478 -0.058206256 0.6662419 -0.250695 -0.09905812 0.49428147
-0.033708543 0.009590938 -0.28065625 -0.2210548 0.16166921 -0.41539606 0.22624223 0.5468293
0.035092678 -0.2030875 0.6744253 0.30495316 -0.4080096 -0.37879312 0.28503263 0.17547409
0.5889993 -0.14965619 0.41931307 0.65243673 0.14348455 -0.57959175 0.003230931 -0.10005713
-0.21007411 0.10712915 -0.35550907 -0.3259764 -0.09682781 -0.51518595 -0.34708694 0.4396179
0.4179107 -0.25092888 0.2585573 -0.106959894 -0.35856304 -0.30105975 0.22525066 -0.33082905
-0.123942785 0.38663322 -0.36928517 0.10397797 0.5003538 -0.73808575 0.54079294 -0.20427407
0.4138373 -0.09790301 0.24894805 0.09637766 -0.13990204 0.40532973 0.25532266 0.13472468
0.015893124 0.20546593 -0.31293774 0.113611974 -0.13645087 0.44216186 0.3858481 -0.20497584
0.43819538 -0.097904 -0.468406 -0.49371636 0.42095312 -0.52720857 -0.46419677 0.42407686
-0.6285962 0.06157267 0.26631668 -0.65244293 -0.3460881 0.11858074 -0.08479521 -0.19670111
-0.029896496 -0.18442965 0.626066 -0.03274105 -0.19027384 0.37344262 0.2643296 0.6988368
0.350079 0.82111615 0.5506157 -0.3362815 -0.11916818 -0.40644068 0.07998696 -0.04977565
-0.20931832 -2.0694473e-05 0.37305343 0.15785894 0.03256276 -0.5818386 0.4019367 -0.12969613
-0.65529186 -0.0009085831 -0.016299482 0.20532463 0.24364828 -0.3163588 0.5169709 0.028791647
0.0033788274 -0.3172392 0.34433186 0.21118355 -0.3886202 -0.33277082 0.08666388 -0.19934557
-0.7140613 0.47029763 0.24867405 0.19432962 -0.15156904 -0.08179221 -0.10862627 0.12991449
0.17165089 0.35547736 0.23295493 0.22085392 0.3087359 -0.43924692 0.40212196 0.075793535
-0.40510705 -0.16967867 0.3846268 0.08104623 0.1223401 -0.5839324 -0.49257123 0.18491696
-0.78403234 -0.27869684 0.43260685 -0.1085721 -0.4117491 -0.32754138 0.36551335 -0.18725152
00000000: d392 853d 699c cf3e 548a 9bbe ac5a bfbd
00000010: bb7e a53d ae2e d93d 6ff9 1a3c c2b1 063f
00000020: d196 2c3f 0e36 fdbd 1807 25bf 1d4f 323f
00000030: ddd4 4b3e c40d efbe 7510 36bd 95e1 f03d
00000040: 3dd0 ba3c 2562 a5be 213c bbbd 2c1a 883e
00000050: c3cb acbe c610 42be 2883 bb3e 9d97 48be
00000060: d059 bc3e 1947 fe3d 110e c23e 3df9 6e3e
00000070: 168a d43c 3cbe 1ebe 7dd3 24bf 0f19 8abe
00000080: cbac d5bc df01 9abf 5773 efbd 769a 73be
00000090: ce7e a3bd ecf0 e2be 76f7 87be 4811 213d
000000a0: 54e3 423b 09d2 63bd 2a2f aebe 7abc c43d
000000b0: 94de aebe e12a 39bf 7725 a8be 3301 333e
000000c0: 7a3f 2cbf 2db7 94be 9d87 c9be dde7 a5bc
000000d0: 5801 c4be 582b 16be cfd1 133d f19c 09bf
000000e0: deb9 51be 878f 75bd 8e9b dabd 4495 c93e
000000f0: 1090 febd 7a34 2ebc 79da 21bf 72fb aabe
00000100: 7de3 0c3e 3d58 7a3e e2e0 803e d4ca 13be
00000110: c22e 173d 52d1 26bd fdce 363e 6c83 923e
00000120: 28be fa3d 7a7a 5c3e 53df 043f 2d8b a53e
00000130: 81f2 8c3e 7b9c c63e 80b5 713e 20a0 39bd
00000140: af95 b63d f359 953d 0975 07bf 605c de3d
00000150: 0a13 693e 6036 ebbe 33ad b33e 706b f63d
00000160: 2045 bbbc c743 cc3e a540 eabe e3ea 653e
00000170: c6fa 27be 7e1e 53bf 763b 033d 9d60 b73a
00000180: 2732 34be 6e79 543e ffda 463e af69 6ebd
00000190: d48e 2a3f 185b 80be fcde cabd 7612 fd3e
000001a0: f811 0abd 4f23 1d3c 2db2 8fbe 315c 62be
000001b0: 9d8c 253e cbae d4be 0bac 673e 01fd 0b3f
000001c0: 57bd 0f3d 2bf6 4fbe 23a7 2c3f d222 9c3e
000001d0: a2e6 d0be 2cf1 c1be ccef 913e 7baf 333e
000001e0: a8c8 163f 793f 19be 34b0 d63e 1806 273f
000001f0: 9ded 123e 2060 14bf 07be 533b c1ea ccbd
00000200: ab1d 57be 8766 db3d 4905 b6be 61e6 a6be
00000210: a94d c6bd 3ae3 03bf 61b5 b1be 9915 e13e
00000220: 64f8 d53e c079 80be 9f61 843e ca0d dbbd
00000230: 9395 b7be 8124 9abe 1ca8 663e 6d62 a9be
00000240: b7d5 fdbd caf4 c53e f212 bdbe 67f2 d43d
00000250: 3017 003f 30f3 3cbf 6871 0a3f 392d 51be
00000260: 7ce2 d33e 6081 c8bd 3dec 7e3e a761 c53d
00000270: 7b42 0fbe 6187 cf3e a7b9 823e 44f5 093e
00000280: 4c32 823c a965 523e 6039 a0be 65ad e83d
00000290: c7b9 0bbe 0a63 e23e e28d c53e 30e5 51be
000002a0: 255b e03e e481 c8bd e9d2 efbe 64c8 fcbe
000002b0: 2b87 d73e 24f7 06bf 33ab edbe 9a20 d93e
000002c0: aeeb 20bf a033 7c3d a95a 883e 8006 27bf
000002d0: 7632 b1be 76da f23d 1ca9 adbd 046c 49be
000002e0: 7fe9 f4bc 20db 3cbe dd45 203f 7b1b 06bd
000002f0: 25d7 42be df33 bf3e 3656 873e f8e6 323f
00000300: 8e3d b33e ab34 523f 27f5 0c3f 172d acbe
00000310: 720e f4bd fe18 d0be 34d0 a33d 8de1 4bbd
00000320: 8b57 56be 0b99 adb7 dc00 bf3e c6a5 213e
00000330: 8760 053d 60f3 14bf a6ca cd3e 10cf 04be
00000340: 35c1 27bf fb2d 6eba 7e86 85bc 9f40 523e
00000350: ef7e 793e c8f9 a1be 3458 043f 76dc eb3c
00000360: 516f 5d3b 2d6d a2be 444c b03e 8040 583e
00000370: 3af9 c6be f060 aabe d57c b13d 3f21 4cbe
00000380: b9cc 36bf daca f03e 69a4 7e3e 58fe 463e
00000390: ea34 1bbe ad82 a7bd 7377 debd 4e08 053e
000003a0: 40c5 2f3e 2101 b63e bd8b 6e3e 8827 623e
000003b0: a212 9e3e f9e4 e0be eee2 cd3e a439 9b3d
000003c0: 316a cfbe 3fc0 2dbe ceed c43e 91fb a53d
000003d0: 728d fa3d 987c 15bf 4c32 fcbe df5a 3d3e
000003e0: 58b6 48bf 5ab1 8ebe a57e dd3e 0d5b debd
000003f0: c7d0 d2be 81b3 a7be 9124 bb3e ddbe 3fbe

linear1.bias f4 [64]
-0.35113892 -0.13326967 0.9250488 0.02530572 0.5298244 0.9036418 0.5444867 -0.115943626
-0.1188107 0.13102135 -0.24365139 0.785589 0.23790191 -0.0828079 0.8554692 0.697636
0.16145958 0.4233361 0.07955827 -0.963271 -0.027636245 -0.06853393 -0.29462868 0.33047372
0.81028783 0.07401195 0.63572216 -0.23150134 0.5520802 0.32810682 -0.29209208 -0.8007754
0.14493486 -0.3613297 0.36298245 0.035787042 0.98387986 -0.33393013 0.4274887 0.031522054
0.6327391 0.5661083 0.2674558 -0.17352489 0.3386992 1.0010682 0.7631854 -0.018160524
0.13142672 0.68065923 0.3575107 0.9017435 0.7545021 0.85572225 0.019275812 0.302301
0.5687283 -0.3373674 0.15258294 0.26528084 0.22950147 0.12950087 0.06808238 0.41594735
00000000: 7bc8 b3be d877 08be 00d0 6c3f f14d cf3c
00000010: 92a2 073f 1255 673f 7b63 0b3f da73 edbd
00000020: 0653 f3bd 762a 063e c07f 79be 5c1c 493f
00000030: 8f9c 733e 3097 a9bd 0800 5b3f 4698 323f
00000040: a955 253e 82bf d83e 72ef a23d ee98 76bf
00000050: 6865 e2bc 845b 8cbd 92d9 96be da33 a93e
00000060: 066f 4f3f 9493 973d b0be 223f b00e 6dbe
00000070: 2155 0d3f 9efd a73e 188d 95be 9eff 4cbf
00000080: ce69 143e 3500 b9be d6d8 b93e 6f95 123d
00000090: 8ddf 7b3f e4f8 aabe cddf da3e 451d 013d
000000a0: 31fb 213f 79ec 103f f7ef 883e 82b0 31be
000000b0: fb69 ad3e 0123 803f 1e60 433f 61c5 94bc
000000c0: ba94 063e af3f 2e3f a40b b73e a9d8 663f
000000d0: 0d27 413f 9d10 5b3f 4fe8 9d3c 32c7 9a3e
000000e0: 2e98 113f 6bbb acbe b43e 1c3e e4d2 873e
000000f0: 6f02 6b3e e09b 043e c66e 8b3d 0df7 d43e

linear2.weight f4 [64, 64]
0.2683437 0.1983669 -0.17692387 0.12084922 0.06351531 -0.013987114 -0.24014002 0.083167806
-0.12178062 0.1350693 -0.1022588 -0.20583647 -0.11923051 0.038906172 -0.11353238 0.14060678
-0.0054346323 0.009539056 0.17552932 0.16455016 -0.38477975 0.07418063 -0.364745 0.02536805
0.1210094 0.024385177 -0.413654 -0.0967226 0.14662096 0.30707386 0.13122764 0.05406989
0.3038604 0.052063152 0.15068768 0.2623458 -0.13292405 0.2656014 -0.027639007 -0.061606374
-0.06593437 -0.17746301 0.0549739 0.07041691 0.10845178 0.004182317 0.027470348 0.12485914
0.0011671367 -0.079255074 -0.024863616 -0.04037821 0.06682705 0.12683085 -0.07838556 -0.06852625
-0.06527489 -0.04430023 0.070256755 0.17671035 0.14381857 -0.02528231 -0.055271998 0.15670796
0.20187019 0.0250769 0.19290592 -0.08218406 0.1536135 0.014015181 0.36651498 -0.10642941
0.039182466 0.021592472 -0.05934417 0.15369622 -0.058613442 0.047293037 -0.020651598 0.015118273
0.013263301 0.07667628 0.13134697 -0.25612625 0.354102 -0.01505287 0.28082597 0.11834268
0.09825714 0.06570686 0.4802015 -0.09203926 0.028131241 -0.30433658 0.12082748 -0.010956492
0.1726948 -0.063909024 -0.040358864 -0.2432181 0.082106955 -0.10864184 0.15567504 -0.016824074
0.15333204 0.05869287 0.054271776 0.034420487 -0.012300213 0.21287538 0.1369956 0.052044943
0.034350466 -0.05542541 -0.12326589 0.14968535 0.22240305 0.13909683 -0.044113174 -0.039957844
-0.08111791 0.039172024 -0.003262485 0.030529208 0.100970276 0.13946067 0.10142751 0.11351233
0.09162256 -0.029676698 -0.023796426 0.08234663 0.0021585543 -0.034249753 -0.09131719 0.04363057
0.1143477 0.022056995 -0.0802681 -0.08423622 0.044869408 0.0047166646 0.11670758 -0.12696272
-0.059240058 -0.059757814 -0.064557835 0.0795858 0.010097084 -0.03264962 -0.081385896 0.1083547
0.0366279 0.10347018 -0.054542765 -0.071942165 0.006524789 -0.0713692 -0.07230535 -0.06463838
-0.03093876 0.063497886 -0.0810821 0.10916146 0.07913014 -0.08056499 -0.037805986 -0.097378224
0.029712116 -0.008028373 0.05953673 -0.024922162 0.09316469 0.08948615 -0.11270242 0.052631408
-0.049455438 0.06627645 0.090014726 -0.09461806 -0.07942262 0.113766775 -0.09514314 -0.0037217885
-0.09419387 0.04929544 -0.021229133 0.07167882 -0.041223988 -0.009114101 0.018866867 0.007798562
-0.013795162 0.1503084 0.14753705 0.043418974 -0.12976745 0.08578594 -0.25243568 -0.096212685
-0.10659531 -0.5994317 0.017895369 -0.46959066 -0.06803891 -0.091879755 0.21615145 0.10352028
0.07990079 0.17142269 0.0009227725 0.06881348 0.39963928 -0.02570334 0.46573743 0.08067866
0.17281187 0.37740156 -0.48522404 0.06134823 -0.0920704 0.094156675 0.063901044 -0.02749521
0.043108933 -0.07690896 -0.15899645 0.057490963 -0.6672916 0.8724959 0.09045477 -0.01616857
-0.01831673 -0.12232616 0.06624528 0.024793893 -0.45646337 0.16904688 0.026212899 0.0068899095
-0.09055626 -0.39166227 -0.08511467 -0.019680759 0.23139596 -0.026816098 0.106865674 0.11474641
0.06709857 -0.11397086 -0.0017800541 0.03775779 0.3229041 0.0004120113 -0.0711246 -0.13282418
00000000: 5864 893e b120 4b3e 882b 35be cc7f f73d
00000010: 5114 823d 352a 65bc 44e7 75be e253 aa3d
00000020: 1e68 f9bd 9b4f 0a3e 106d d1bd ccc6 52be
00000030: 202f f4bd 145c 1f3d aa83 e8bd 39fb 0f3e
00000040: 0015 b2bb b349 1c3c f5bd 333e d67f 283e
00000050: da01 c5be 04ec 973d dbbf babe a8d0 cf3c
00000060: c7d3 f73d 6cc3 c73c 75ca d3be 8016 c6bd
00000070: ce23 163e c938 9d3e 8a60 063e 6478 5d3d
00000080: 9793 9b3e 2c40 553d df4d 1a3e 3052 863e
00000090: 3e1d 08be e8fc 873e 336b e2bc f756 7cbd
000000a0: 9908 87bd ddb8 35be 502c 613d be36 903d
000000b0: f81b de3d d10b 893b 7f09 e13c 26b6 ff3d
000000c0: 9cfa 983a 7c50 a2bd c8ae cbbc 9f63 25bd
000000d0: 9fdc 883d f2df 013e 9c88 a0bd 7e57 8cbd
000000e0: d7ae 85bd 2874 35bd c6e2 8f3d 8ff3 343e
000000f0: 2d45 133e d91c cfbc e464 62bd 0d78 203e
00000100: 0fb7 4e3e 126e cd3c 2189 453e 1e50 a8bd
00000110: db4c 1d3e ee9f 653c daa7 bb3e aaf7 d9bd
00000120: cb7d 203d b2e2 b03c df12 73bd 8b62 1d3e
00000130: a614 70bd 58b6 413d 8a2d a9bc a2b2 773c
00000140: 514e 593c 7408 9d3d d27f 063e fb22 83be
00000150: db4c b53e 50a0 76bc 6cc8 8f3e a65d f23d
00000160: 0a3b c93d 5191 863d f9dc f53e 147f bcbd
00000170: 7d73 e63c 01d2 9bbe 6674 f73d dc82 33bc
00000180: e8d6 303e bce2 82bd 564f 25bd 2a0e 79be
00000190: b127 a83d 9d7f debd 4769 1f3e a4d2 89bc
000001a0: 1303 1d3e ef67 703d 154c 5e3d 7ffc 0c3d
000001b0: d586 49bc 01fc 593e 9348 0c3e 142d 553d
000001c0: 13b3 0c3d c105 63bd d472 fcbd 1e47 193e
000001d0: a0bd 633e 666f 0e3e 04b0 34bd d6aa 23bd
000001e0: 2621 a6bd d872 203d 6acf 55bb 6418 fa3c
000001f0: 81c9 ce3d c7ce 0e3e 3ab9 cf3d 2779 e83d
00000200: 9ca4 bb3d 8c1c f3bc b9f0 c2bc 5aa5 a83d
00000210: 8876 0d3b 7849 0cbd 8204 bbbd f8b5 323d
00000220: 202f ea3d dfb0 b43c 9a63 a4bd 0a84 acbd
00000230: fcc8 373d 408e 9a3b 6204 ef3d 8402 02be
00000240: b4a5 72bd 9cc4 74bd e636 84bd e1fd a23d
00000250: 3d6e 253c 9cbb 05bd a6ad a6bd 12e9 dd3d
00000260: 2307 163d 2ce8 d33d 3c68 5fbd 6a56 93bd
00000270: e6cd d53b 042a 92bd d414 94bd 2161 84bd
00000280: 4873 fdbc 2e0b 823d 5f0e a6bd 0b90 df3d
00000290: fc0e a23d 42ff a4bd 73da 1abd 3c6e c7bd
000002a0: d366 f33c 7089 03bc c9dc 733d 9029 ccbc
000002b0: 21cd be3d 8444 b73d 87d0 e6bd 0894 573d
000002c0: c991 4abd f3bb 873d a459 b83d 1dc7 c1bd
000002d0: 54a8 a2bd 8efe e83d 68da c2bd 40e9 73bb
000002e0: b7e8 c0bd 04ea 493d b8e8 adbc 58cc 923d
000002f0: 7cda 28bd 4f53 15bc b08e 9a3c 148b ff3b
00000300: 1a05 62bc 72ea 193e f413 173e 18d8 313d
00000310: c2e1 04be 8ab0 af3d 403f 81be 280b c5bd
00000320: a44e dabd 5b74 19bf 4f99 923c 306e f0be
00000330: fc57 8bbd 742b bcbd ce56 5d3e 7102 d43d
00000340: 06a3 a33d 6e89 2f3e 37e6 713a 15ee 8c3d
00000350: 859d cc3e d08f d2bc 2375 ee3e da3a a53d
00000360: 98f5 303e c73a c13e 496f f8be 4848 7b3d
00000370: 688f bcbd 37d5 c03d 8dde 823d a23d e1bc
00000380: fe92 303d 7282 9dbd f7cf 22be a57b 6b3d
00000390: 9fd3 2abf e45b 5f3f 5a40 b93d f373 84bc
000003a0: f80c 96bc 2386 fabd 9bab 873d 901c cb3c
000003b0: 91b5 e9be a01a 2d3e 6fbc d63c c0c4 e13b
000003c0: 8f75 b9bd f587 c8be 9a50 aebd 8b39 a1bc
000003d0: 10f3 6c3e 6fad dbbc 64dc da3d 2a00 eb3d
000003e0: fa6a 893d 8e69 e9bd b450 e9ba eaa7 1a3d
000003f0: b053 a53e 3803 d839 c6a9 91bd 1003 08be

linear2.bias f4 [64]
-0.59849095 0.40115088 -0.07362153 0.050880644 0.3445669 0.5171706 -0.33770132 0.61060214
0.6173842 -0.5710341 -0.21438667 -0.3700982 0.398487 0.3240587 0.38574386 -0.0517101
0.38503385 0.4111286 0.37658226 0.43142584 0.34759542 -0.10941902 0.46815786 -0.55496585
0.3559353 0.56366587 -0.010827154 0.46018475 0.31992558 -0.026664611 0.40772545 -0.07709528
0.41320276 -0.058991157 0.5834093 -0.11036733 0.56775343 0.03074731 0.55750763 -0.10443396
0.03758871 -0.0626321 0.46709174 -0.12560111 -0.028897015 0.08367836 0.38804594 0.52256113
0.026132757 0.40048102 -0.34719247 -0.07909271 0.43346205 -0.017438907 0.53931105 0.4272077
-0.05683693 0.011578905 0.45084366 0.596341 0.53530526 0.32540065 0.4355985 0.00039811432
00000000: b436 19bf a663 cd3e e2c6 96bd 3968 503d
00000010: 136b b03e 4b65 043f 30e7 acbe 6c50 1c3f
00000020: e40c 1e3f 4a2f 12bf 2e88 5bbe 837d bdbe
00000030: 7d06 cc3e 06eb a53e 3880 c53e f8cd 53bd
00000040: 2823 c53e 737f d23e 64cf c03e d9e3 dc3e
00000050: 07f8 b13e 1417 e0bd 63b2 ef3e 3e12 0ebf
00000060: 273d b63e 684c 103f 6064 31bc 569d eb3e
00000070: 49cd a33e be6f dabc 64c1 d03e 21e4 9dbd
00000080: 508f d33e b6a0 71bd 505a 153f 4408 e2bd
00000090: 4a58 113f c8e1 fb3c d2b8 0e3f 79e1 d5bd
000000a0: 9ff6 193d 4245 80bd a626 ef3e 949d 00be
000000b0: 6fb9 ecbc 8f5f ab3d f5ad c63e 91c6 053f
000000c0: 5d14 d63c d90b cd3e 36c3 b1be 5cfb a1bd
000000d0: bdee dd3e 0adc 8ebc 4a10 0a3f f8ba da3e
000000e0: d7cd 68bd 73b5 3d3c fbd4 e63e cea9 183f
000000f0: c409 093f ea9a a63e c406 df3e 00ba d039

linear3.weight f4 [64, 64]
-0.22684179 0.07233183 0.009772822 0.59380233 0.12775657 0.21723856 -0.24967037 0.06104495
-0.015641397 -0.41964978 -0.34360483 -0.3103908 0.15690212 0.08057874 -0.016259462 0.07709131
0.016629571 -0.015205708 0.08668706 -0.007784445 0.21360326 -0.11942595 0.1019037 -0.26180115
0.14570898 0.21008559 -0.017093822 0.066673554 0.18605918 0.07300151 0.21513037 -0.17464527
0.046743006 0.043518405 0.118448004 0.0076642036 0.023128541 -0.10284464 -0.002552223 0.09264773
-0.023871303 0.028692722 0.18237087 -0.0924029 0.064845234 -0.44622374 0.029450042 -0.05690152
-0.01285642 -0.025103325 -0.619765 0.084472485 0.2843101 0.028641278 0.15437682 0.09065304
0.5689215 -0.0053694146 0.22963913 0.26229692 0.14419422 0.13758191 -0.0042824163 0.019069105
-0.24515197 0.014808104 0.11640167 0.59201306 0.11126368 0.03691305 -0.42147425 0.12634368
-0.00051504915 -0.19926406 -0.3014358 -0.24014433 0.08090883 -0.01758028 0.021989318 -0.030741367
0.075217806 0.17454593 -0.0036106058 0.13611847 0.07147395 -0.061916992 0.1645304 -0.14362784
0.13224046 0.024569763 0.01905571 0.155722 0.11311438 -0.053618897 0.061908815 -0.2667624
0.0035989548 0.07612124 -0.002112187 -0.044633567 -0.024259595 0.055782706 0.08228671 0.05657886
-0.049260296 0.10286085 0.058263477 -0.111583665 -0.09568545 -0.46023867 0.12898795 0.14052778
0.11684332 0.16346918 -0.67652786 0.09679161 0.39103937 -0.07527272 0.20747215 0.091781646
0.5936853 0.08315918 0.25526816 0.15472353 0.10011658 0.16136079 -0.029643472 0.011533633
-0.034156043 0.09724101 -0.010322777 0.656532 0.118468635 0.09914006 -0.4060621 0.10052389
0.11268493 -0.3241889 -0.32056302 -0.37011355 0.028376978 -0.017773254 0.11000155 0.048961286
0.06190012 0.14603782 0.061938114 0.054144643 0.023201514 -0.07036206 0.20711726 -0.103050336
0.19408454 0.06072455 0.03486903 0.06408041 0.20811011 0.013342313 0.23681171 -0.053308338
0.08478154 -0.0005417339 0.0670975 -0.03835474 0.19339395 -0.08024511 0.01847823 -0.039098136
-0.06669188 0.028553516 0.013450383 -0.08273325 0.07905229 -0.4099059 0.19929436 0.068548515
0.011119682 0.008706288 -0.54353315 0.0017555055 0.31123883 0.016371088 0.24850844 0.11983052
0.5506109 0.021366555 0.06797636 0.3634597 0.10210781 0.15560149 0.18906981 -0.09965174
-0.1406954 0.0040900377 0.11467545 0.90171003 -0.017327638 0.17632602 -0.43700403 0.073676676
0.101685576 -0.35941723 -0.3294737 -0.2990204 0.2233667 0.18375391 0.17052351 -0.025640197
-0.0011659274 0.068629086 0.08426168 0.20747605 0.17269358 -0.0691545 0.33487308 -0.08308882
-0.006073143 0.09540795 0.086820826 0.042021528 0.051087648 0.0673382 0.02926519 -0.1223001
0.045738593 0.023059845 0.14650896 0.060310274 0.13435967 -0.01093854 0.15903303 -0.002067061
-0.07730473 -0.11079557 0.10859633 -0.0003226443 0.028608285 -0.4469209 0.2686414 0.13268846
0.085531235 0.009077634 -0.5575759 0.086834595 0.25363958 -0.044229954 0.30611652 0.09090159
0.56858826 -0.08844129 0.08237474 0.26010975 -0.051305253 0.18024537 -0.010899329 -0.032327905
00000000: 3749 68be b622 943d 301e 203c 6e03 183f
00000010: 9ed2 023e c973 5e3e 97a9 7fbe 450a 7a3d
00000020: 6322 80bc 56dc d6be f9ec afbe 8beb 9ebe
00000030: f3aa 203e 7706 a53d 9032 85bc 0ce2 9d3d
00000040: bd3a 883c 5d21 79bc fc88 b13d a814 ffbb
00000050: d0ba 5a3e 9895 f4bd e3b2 d03d cd0a 86be
00000060: bc34 153e ad20 573e 5808 8cbc 258c 883d
00000070: 4c86 3e3e d181 953d 234b 5c3e 36d6 32be
00000080: 9875 3f3d 5b40 323d de94 f23d 0024 fb3b
00000090: 1178 bd3c 36a0 d2bd 3243 27bb 18be bd3d
000000a0: c08d c3bc 000d eb3c 6ebf 3a3e bb3d bdbd
000000b0: 94cd 843d 7077 e4be 3741 f13c 9111 69bd
000000c0: bca3 52bc 7da5 cdbc eba8 1ebf e9ff ac3d
000000d0: 1891 913e 1da1 ea3c f514 1e3e 4da8 b93d
000000e0: d7a4 113f eaf1 afbb 8526 6b3e c84b 863e
000000f0: a6a7 133e 46e2 0c3e 8353 8cbb d036 9c3c
00000100: 1e09 7bbe b19d 723c 0064 ee3d 2b8e 173f
00000110: 36de e33d 2332 173d 79cb d7be 3d60 013e
00000120: 5d04 07ba e10b 4cbe cb55 9abe 65e8 75be
00000130: 87b3 a53d 8504 90bc f122 b43c 52d5 fbbc
00000140: cb0b 9a3d 2bbc 323e ea9f 6cbb a462 0b3e
00000150: ef60 923d ac9c 7dbd a87a 283e 2d13 13be
00000160: 0b6a 073e 8746 c93c b81a 9c3c 9775 1f3e
00000170: 83a8 e73d 7d9f 5bbd 1994 7d3d 1595 88be
00000180: 71dc 6b3b 74e5 9b3d 9e6c 0abb b0d1 36bd
00000190: 0fbc c6bc 687c 643d ef85 a83d 3cbf 673d
000001a0: 2ac5 49bd b6a8 d23d afa5 6e3d fa85 e4bd
000001b0: bcf6 c3bd 67a4 ebbe 6b15 043e 84e6 0f3e
000001c0: 8d4b ef3d 7764 273e ee30 2dbf ae3a c63d
000001d0: 5036 c83e 9528 9abd 9473 543e 04f8 bb3d
000001e0: c3fb 173f 5c4f aa3d 82b2 823e d86f 1e3e
000001f0: ec09 cd3d c33b 253e ded6 f2bc 90f7 3c3c
00000200: 35e7 0bbd 4b26 c73d dd20 29bc 7b12 283f
00000210: af9f f23d f209 cb3d 5fe7 cfbe 78df cd3d
00000220: 5bc7 e63d 16fc a5be d620 a4be 867f bdbe
00000230: d676 e83c 3799 91bc 7e48 e13d a18b 483d
00000240: fb8a 7d3d f08a 153e d2b2 7d3d c6c6 5d3d
00000250: 1a11 be3c fc19 90bd 8c16 543e 0e0c d3bd
00000260: 19be 463e 4eba 783d d4d2 0e3d 973c 833d
00000270: d11a 553e b799 5a3c c57e 723e d859 5abd
00000280: f2a1 ad3d 2603 0eba 6a6a 893d dc19 1dbd
00000290: 1009 463e 8c57 a4bd a85f 973c 5e25 20bd
000002a0: c195 88bd 10e9 e93c ff5e 5c3c 0d70 a9bd
000002b0: 2be6 a13d 30df d1be d213 4c3e 2a63 8c3d
000002c0: 542f 363c d2a4 0e3c fd24 0bbf fd18 e63a
000002d0: b25a 9f3e a91c 863c ff78 7e3e b469 f53d
000002e0: d6f4 0c3f ea08 af3c 3137 8b3d 6417 ba3e
000002f0: e61d d13d ff55 1f3e 849b 413e 3616 ccbd
00000300: 7412 10be b905 863b f6da ea3d 78d6 663f
00000310: b1f2 8dbc cf8e 343e febe dfbe cce3 963d
00000320: 8740 d03d 8905 b8be c7b0 a8be 3419 99be
00000330: 3dba 643e fc29 3c3e b79d 2e3e 640b d2bc
00000340: 08d2 98ba 688d 8c3d 6391 ac3d 9a74 543e
00000350: 96d6 303e e0a0 8dbd 7c74 ab3e 792a aabd
00000360: 3701 c7bb 3e65 c33d 1ecf b13d c41e 2c3d
00000370: 4841 513d 9ce8 893d 8dbd ef3c 7a78 fabd
00000380: 6458 3b3d 00e8 bc3c 7206 163e e807 773d
00000390: 9595 093e 9037 33bc 8ed9 223e 8777 07bb
000003a0: f151 9ebd cae8 e2bd c167 de3d 9628 a9b9
000003b0: ec5b ea3c d1d2 e4be 5e8b 893e 7cdf 073e
000003c0: 002b af3d 5bba 143c 4bbd 0ebf 56d6 b13d
000003d0: 0cdd 813e 782a 35bd 4ebb 9c3e 9d2a ba3d
000003e0: 008f 113f b520 b5bd 16b4 a83d 1b2d 853e
000003f0: 7525 52bd 3e92 383e 1993 32bc 446a 04bd

linear3.bias f4 [64]
0.28395608 0.256745 0.41053474 0.22955927 0.034511443 -0.009441674 0.28116605 0.09884255
0.406976 0.22559488 -0.017547369 0.22703974 0.3001195 0.2509409 0.38050085 0.2911351
0.28655753 0.41648865 0.2138234 -0.028960515 0.02017442 -0.018462762 0.34332287 0.38016054
0.39081827 0.05531913 0.41350174 -0.11766642 0.3151123 0.36883122 0.1921481 -0.044148073
0.39281586 0.42765933 0.25661537 0.34993947 0.078801006 0.28382772 0.33011195 0.418791
0.40131935 0.07823849 0.42505476 0.33469793 0.38546363 0.44247794 0.3208567 0.6065436
0.39075908 0.41462064 0.190532 0.53288466 0.37023163 0.5237208 0.43362167 0.22292784
0.40591818 0.2619332 0.3494256 0.3558849 0.33583564 -0.117897615 0.39255738 0.2163379
00000000: b162 913e 1574 833e 9c31 d23e 9611 6b3e
00000010: df5b 0d3d 40b1 1abc fff4 8f3e f66d ca3d
00000020: 295f d03e 5802 673e 80bf 8fbc 1b7d 683e
00000030: 43a9 993e 537b 803e 02d1 c23e a90f 953e
00000040: abb7 923e 003e d53e 85f4 5a3e 9a3e edbc
00000050: d344 a53c 383f 97bc 04c8 af3e 67a4 c23e
00000060: 5519 c83e 5096 623d 80b6 d33e 18fb f0bd
00000070: 6656 a13e 72d7 bc3e 79c2 443e 9cd4 34bd
00000080: 291f c93e 2af6 da3e 1763 833e 442b b33e
00000090: 6c62 a13d de51 913e 6f04 a93e c66b d63e
000000a0: bb79 cd3e 803b a03d c7a0 d93e 875d ab3e
000000b0: 7d5b c53e 788c e23e 5447 a43e 7146 1b3f
000000c0: 9311 c83e 2849 d43e d21a 433e 216b 083f
000000d0: 008f bd3e 9112 063f a903 de3e 3247 643e
000000e0: 82d4 cf3e 1c1c 863e eae7 b23e 8c36 b63e
000000f0: a6f2 ab3e 4e74 f1bd 48fd c83e af87 5d3e

linear4.weight f4 [1, 64]
-0.14490744 -0.15253486 -0.144669 -0.16430317 0.18320236 -0.0021216935 -0.15138087 -0.007800244
-0.12804225 -0.14797524 -0.0027974679 -0.12503721 -0.15109375 -0.13740434 -0.11372549 -0.11985246
-0.1482436 -0.19777751 -0.109770745 0.117697716 -0.0012471506 -0.00013520551 -0.16217977 -0.14376816
-0.15877081 -0.0014816502 -0.13264282 0.00012288094 -0.13291645 -0.14801802 -0.12874451 -3.7136793e-05
-0.14748588 -0.15648843 -0.15049142 -0.13101825 0.0044269366 -0.19397561 -0.12023618 -0.15750767
-0.10797502 0.008167107 -0.14682816 -0.21926656 -0.17278813 -0.14764348 -0.1376546 -0.18685468
-0.12785374 -0.15667254 -0.14212278 -0.18994844 -0.1433401 -0.21141058 -0.17362942 -0.11736372
-0.15445319 -0.12292846 -0.13437133 -0.1346466 -0.18027586 -0.0075043747 -0.12382502 -0.1638285
00000000: 9e62 14be 1932 1cbe 1c24 14be 173f 28be
00000010: 6699 3b3e 1c0c 0bbb 9603 1bbe 3099 ffbb
00000020: 821d 03be d286 17be b955 37bb c109 00be
00000030: 52b8 1abe b9b3 0cbe e9e8 e8bd 3575 f5bd
00000040: 2ccd 17be 3086 4abe 7ccf e0bd 800b f13d
00000050: 6e77 a3ba f4c5 0db9 7412 26be f637 13be
00000060: d194 22be ee33 c2ba 85d3 07be 9ad9 0039
00000070: 401b 08be 0992 17be 9ad5 03be 54c3 1bb8
00000080: 8a06 17be 813e 20be 6c1a 1abe a629 06be
00000090: d60f 913b 8ba1 46be 633e f6bd b149 21be
000000a0: 0222 ddbd 54cf 053c 1f5a 16be 6a87 60be
000000b0: 5fef 30be da2f 17be 54f5 0cbe d556 3fbe
000000c0: 17ec 02be c46e 20be a288 11be d881 42be
000000d0: bfc7 12be 047c 58be e9cb 31be 645c f0bd
000000e0: fa28 1ebe ebc1 fbbd a398 09be cce0 09be
000000f0: 3c9a 38be 42e7 f5bb f997 fdbd a9c2 27be
