models/noCBF_2025-11-17 19:44:09/1/policy.pth (torch, 55714 bytes, 12 tensors)

linear1.weight f4 [64, 3]
00000000: bb12 08bf d249 1abf 29b5 b3be e2c9 adbd
00000010: d1f4 01be 28dc 193e be24 113e 9323 95be
00000020: a9a3 a53e 9155 bd3c 7691 d2bd 01fe 3cbe
00000030: b11f ae3d b2e3 9f3d 5ecf 1a3d 9768 80bd
00000040: d39c ce3e 36c7 3abe 410f a53d ba4f fbbc
00000050: bef5 c8be 5c15 b6be 607c 40be 53ec 913e
00000060: 080e 39be da3f 0dbf a1e3 0c3f 5771 fcbe
00000070: 0130 c9be 8f23 e33d 07d8 5ebe bd66 05bf
00000080: 4e95 9b3e ab8a bc3d 333c 41be 10e8 1ebe
00000090: 64ef ffbe 5453 e0bd d6b3 f63e 1da2 b03e
000000a0: 4dfd f33e c4dc 053f acb2 803e ca37 c5bd
000000b0: 5b8b 20bd d698 593e 4517 ddbe a3aa c7be
000000c0: 43ce 813d 8aee af3e 91c5 063e 1bbb 763d
000000d0: f4be c43e 740a 083f 9b49 c8be 347a b33d
000000e0: 22ad e7bd 76f5 acbe a531 32be ea63 c03c
000000f0: 06b6 0dbf 3f12 ecbe 5eef 6b3e 4fcb 113f
00000100: 7d29 a4be b4ce 0ebe 5b4b f3be 3a04 f63e
00000110: 1464 15be cc34 90be 1b7f 50be a2e1 663d
00000120: 0540 693e 95dd bcbe d84c 93bd 26f9 763e
00000130: 9ab8 40bd 9b1a bc3d 3128 d93e 0fc9 f83e
00000140: 8f17 b7be 76ec 913e a837 123f 0755 9fbd
00000150: 972f 2e3d e7ea 813a 9725 43be 697d 643e
00000160: fb8d dcbe 4ef4 d03b fa51 da3e 9e19 923c
00000170: c951 afbe e03e 0ebf d90c eabe d273 df3e
00000180: 42de 92bd e819 ca3b 1dcf 033e 6d4b d93e
00000190: 6cf9 39be 1562 0bbf 4d76 d8be 6d93 063f
000001a0: 65d9 d0bd 94c4 23be 9d6c 163e 2dba 04bf
000001b0: 7763 f1be 4081 083f fe9a 08bf 8c56 e23e
000001c0: ede8 7e3e 9d82 07bf 1141 b33e 75df 37bd
000001d0: 0c08 9c3d e187 bebe 9b69 a4be 4bef 8e3e
000001e0: d7e7 86be 5047 e9bd 7da4 61be e01a 10be
000001f0: ad99 81bd 3099 82be 2266 c3be ac97 bbbe
00000200: e54b 1dbe 2834 afbe eca2 923e 9820 fb3c
00000210: 18bc e4be 15b2 dbbe 1936 e13e b605 263e
00000220: a5d6 a0be d0d1 0ebe c4f4 2fbe cb37 48be
00000230: 6c7c 933d 2b6e 8f3e 474d 0d3f 82c3 a8be
00000240: 27cb b83c b639 07bf efd2 f5bd 1ec3 043f
00000250: 2d29 9abd 1dac 04be 2dc9 8d3d 8db2 013f
00000260: 8bae dd3e a131 423e a6e1 8e3e 7465 4dbe
00000270: 82f2 1d3d 98cf 9a3d 86c6 51bd 6d4c 25be
00000280: c08b 92be 2687 c8bd 9f6a cd3e c4da 9c3e
00000290: ca70 bebe 06f9 073f e866 a93d 0104 05bf
000002a0: 7026 b8be 1644 82be b386 96be ee7d d93e
000002b0: 47ac dabe f12c c83d 1fd1 0f3e fc80 113f
000002c0: fb3a 97be 3ffb 8c3d 20c2 c03c 6180 0cbf
000002d0: 6a48 6d3e 3f36 f2be f22d 2abe 7efa 1c3e
000002e0: 39c8 013f 7ee3 cf3e 75f0 06bf 2939 4abe
000002f0: 597c db3e 81bf 3e3e 6863 c8be fd6f 0ebf
-0.5315358 -0.6026889 -0.35099152 -0.08485772 -0.12691046 0.15025389 0.14174172 -0.29128703
0.32351425 0.02311209 -0.10281651 -0.1845627 0.085021384 0.07807101 0.037795417 -0.06269949
0.40354022 -0.18240055 0.0805955 -0.030677665 -0.39249986 -0.3556317 -0.18797445 0.28500614
-0.18071759 -0.55175555 0.55034834 -0.4930522 -0.39294437 0.11090767 -0.21762095 -0.5210989
0.30387348 0.09206136 -0.1887062 -0.15518212 -0.49987328 -0.109533936 0.4818408 0.34498683
0.4765419 0.52289987 0.25136316 -0.096297815 -0.0391954 0.21249709 -0.43181816 -0.38997373
0.063381694 0.34361678 0.13161303 0.06023703 0.38426936 0.5314095 -0.39118657 0.08763543
-0.11312319 -0.33781022 -0.1740175 0.023485143 -0.5535587 -0.4610767 0.2304053 0.5695085
-0.32062903 -0.13946038 -0.4751843 0.480501 -0.14588958 -0.2816528 -0.20360987 0.056367524
0.22778328 -0.36887804 -0.07192391 0.2411848 -0.04705105 0.09184762 0.42413476 0.48590896
-0.3576016 0.28500718 0.57116175 -0.077798896 0.042525854 0.0009911925 -0.19057308 0.22313465
-0.43077073 0.0063767796 0.42640668 0.01783448 -0.34242085 -0.5556469 -0.45712927 0.4364305
-0.071712986 0.006167639 0.12871976 0.42440358 -0.18161553 -0.54446536 -0.42277756 0.52568704
-0.10197715 -0.15992957 0.1468987 -0.5184658 -0.47146198 0.5332222 -0.533615 0.44206655
0.24893542 -0.52933675 0.3501058 -0.04489084 0.07618722 -0.37213042 -0.3211182 0.2791694
-0.26348755 -0.11390555 -0.22035404 -0.14072752 -0.063281395 -0.25507498 -0.3816386 -0.36639154
-0.15360983 -0.3421948 0.28639925 0.03065519 -0.44674754 -0.42909303 0.43986586 0.16213116
-0.3141376 -0.13947225 -0.17183214 -0.19552533 0.07201466 0.2801374 0.5519604 -0.3296166
0.022557808 -0.52822435 -0.12003123 0.51860225 -0.07527385 -0.12956281 0.06923137 0.5066307
0.43297228 0.18964244 0.2790653 -0.20058233 0.03856135 0.075591266 -0.051214717 -0.16142435
-0.28622246 -0.097914025 0.40120408 0.30635655 -0.37195426 0.53114355 0.08271581 -0.51959234
-0.35966825 -0.2544257 -0.29399642 0.4247889 -0.42709562 0.09774197 0.14044617 0.5683744
-0.29537186 0.06883859 0.023530066 -0.5488339 0.23172155 -0.4730701 -0.16619089 0.1532993
0.5069614 0.4060325 -0.5271066 -0.19748367 0.42868307 0.1862774 -0.3913834 -0.5563963

linear1.bias f4 [64]
00000000: e3d1 78be fc85 9cbc f4cf 7b3c 044a 0abf
00000010: 92ff 403f c2d0 bdbd aadb 06bf 0d3b 95be
00000020: 2939 ab3c 8c17 80be 8656 21bf 96f2 fabe
00000030: 430e 4bbe ed5d e33e dc86 f7be 6cea b73e
00000040: 39cd 053f c011 26bf e597 d0be d7d3 863e
00000050: bd28 183f a0a1 11bf caab 0bbf 01c1 95be
00000060: 046a e9be 5cfc c1be 1198 54be c5cc 32be
00000070: 7864 873e 3a96 0b3f 6fa4 92bd 1a21 d4bd
00000080: 5b6d 9d3e 9647 27bd 2276 01be 6f03 b63d
00000090: 7f1e 873e f07f d7be c316 413f a0e7 833e
000000a0: 789d a2bd e380 98be 0872 353f 451e b3be
000000b0: 143a 373f 2dec e63e b005 1a3f 2742 0abe
000000c0: 2320 7cbb f4a4 b73e c506 9abe a8f6 ca3e
000000d0: 313e bfbe a110 12bd 499e 7d3e e706 da3d
000000e0: 23cd 0cbf 48e2 85be 86f4 2fbe b59c 413e
000000f0: c0bf d53e 4e3d ecbe 9416 2f3f 1978 b13e
-0.24298815 -0.019106857 0.015369404 -0.5401919 0.7538997 -0.09268333 -0.5267893 -0.29146615
0.02090128 -0.25017965 -0.6302265 -0.49013203 -0.19829659 0.44407597 -0.48345077 0.35921037
0.5226627 -0.64870834 -0.40740886 0.26333496 0.5943716 -0.56887245 -0.54559004 -0.29248813
-0.45588696 -0.37887847 -0.20761134 -0.17460926 0.2644384 0.545261 -0.071602695 -0.10357876
0.30747494 -0.040839754 -0.1264272 0.08887374 0.26390454 -0.42089796 0.75425357 0.25762653
-0.07940191 -0.29785833 0.7087712 -0.3498403 0.71572995 0.45102063 0.6016493 -0.13501798
-0.0038471303 0.35868037 -0.3008329 0.3964131 -0.37352136 -0.03566039 0.24767412 0.10645848
-0.55000514 -0.261492 -0.17183122 0.18907435 0.41747856 -0.46140522 0.68393826 0.3466194

linear2.weight f4 [64, 64]
00000000: 6c7e 1b3d f0c8 f53c b1f1 883d 7c90 653d
00000010: 52f9 603d 1a12 d4bd 7cb0 f63d e8d9 1e3d
00000020: 5004 9c3d 74ff 69bd 3683 22bd 0311 9dbd
00000030: 3cc5 823c 63e0 e5bd d4ed cb3d 8ee0 323d
00000040: eb68 febd a9c6 1ebd fe21 5c3c 0e80 aebd
00000050: 97a0 20bd 30b0 6ebd 52a2 b63d 83dc fcbd
00000060: bbd4 d8bd b95b a13d 7009 873d 2831 d1bd
00000070: 6c57 f53c 4211 04be 5818 74bd dd36 ca3d
00000080: f819 4b3d 443d dcbd b8ed 953c a900 d73d
00000090: 04c3 d13d 0c50 b23d 46fa 963d 2ec3 a4bd
000000a0: 8214 fbbd eaa1 e7bb c996 2e3d 1f68 e43c
000000b0: 70ea 95bb 8f02 ee3d 7fc8 833c b628 b83d
000000c0: b8c8 25bd 405d 8e3b 6fe7 c6bd 5ed3 fbbd
000000d0: 80b0 e6ba 4bda 903d 1c06 223d 40b0 f13b
000000e0: ce1c 09bd 8b46 c93c a4a4 6bbd fcab 7a3d
000000f0: 30ca 013d 2aeb 723d 1b33 8cbd 8945 bc3d
00000100: 834b a83c 1373 843d 4169 873d 7814 523d
00000110: 72c9 4cbe b0ad 9d3c a818 853c a1ac 9d3d
00000120: 1571 a8bc c74d f03d 07b6 943d 78cc bf3d
00000130: 12b1 99bd fa4e 6abd 7547 d9bd 5231 983a
00000140: b781 a4bd ed82 983d 74b0 34bd 02bf aa3d
00000150: 6470 9abd 5ab7 93bd 60b2 efbd 1a42 39bd
00000160: b349 80bc 9220 20bc c0f4 77bc fcce 093e
00000170: d71e 273d 5880 3ebd a800 a23c d990 073e
00000180: d1f4 6f3d 44e5 78bd c46a 503d 0fda 2bbc
00000190: c1c0 443d ae6f 9d3d c9be 23bd 7d55 ddbd
000001a0: d310 13bd 24df c9bd 2e53 fcbc be57 443d
000001b0: f1e5 8f3d 7f8e 2abe 2f59 07bd a00e e83d
000001c0: f5db 063d 0058 d63d c2bc a43c 448c fd3d
000001d0: 22dc 9fbd 6ca2 07bd aa11 823d aea7 d0bd
000001e0: acfc 4e3d 88b1 40bc c2a1 d13d 18d0 76bd
000001f0: a65c 8e3d 335c ca3d 34c6 01be 4fe9 5cbd
00000200: 4a8d ed3d ab64 c2bd 2323 313c 6a22 e8bd
00000210: e433 613d c089 693c c656 8e3d 505e 843d
00000220: b5b0 40bd ffce f8bd c86a b7bb d079 49bd
00000230: 508b 683d 6c8c d3bb 4b0f 0dba 6009 42bd
00000240: 1ea6 a83d 89ef 79bc 2c53 893d 7dbc 983d
00000250: 19c8 01be e410 99bd 0859 ea3d e47f 03be
00000260: eca4 39bd bc9f ae3d 4060 263b e623 9d3d
00000270: ecc6 a2bd b7de 583c 10ff 053d ea8a 6cbd
00000280: 457f 983d 4045 d3bd 020c d8bd 6650 db3d
00000290: d073 e9bc e00e 713c 10ec 013e 0b1f b7bd
000002a0: 98d5 e1bc 02fc 9ebd 82ef dabd 4b41 c4bd
000002b0: 2d71 a3bd 50a9 733c 7d61 163d c45a 193d
000002c0: e0ed 1b3d 137c 05be 49ce a83d f454 323d
000002d0: a6a0 a3bd a01f d0bc 0034 b43b 9c37 8d3d
000002e0: 7048 aebc 6b30 ffbd 34dc 95bd 3203 cd3d
000002f0: 7c83 1a3d adbd b43d bcb8 4b3d 102a 813c
00000300: d6dc 5c3d 012f d7bd 06cc e33d 20c0 1dbc
00000310: c079 c9bb 0085 87bc 342f 61bd 58d0 46bd
00000320: ce39 1e3d 7eb2 cabd b1bd db39 87f2 fbbc
00000330: c587 503d 568b 8abd e076 bebd 01e2 60bb
00000340: ba9b d6bd e6ff 82bd 89e9 983d 47b4 973d
00000350: 1749 1cbc 9a7d b1bd 8085 f8bd d810 bebc
00000360: 9d35 b03d ea97 9c3d 4029 3ebd 8c0b b8bd
00000370: e1b3 f23d 082f 463d 56d9 bdbd 0577 45bd
00000380: bcab 5bbd cad5 e9bd 4887 c43c 07d1 70bd
00000390: 948a a03c 88fc 15bd 8002 68bc 0953 b53d
000003a0: b56f a6bc 6593 753d a238 b2ba c81e bdbd
000003b0: 81a3 a3bd 2a99 af3d a35b d1bc 404e 76bd
000003c0: ae51 093d b2de ef3d c842 7fbd 60cc a3bb
000003d0: 201d acbb e7e6 14bc 9043 e63c 583c 91bc
000003e0: ac31 823c f0dc 233d 7075 2b3d 0a2c a83d
000003f0: bade a3bd 1405 e5bd 05f8 85bd 4e83 2f3d
0.037962362 0.030003041 0.06686724 0.056045994 0.05492527 -0.10355015 0.120453805 0.03878203
0.0761801 -0.057128385 -0.039675914 -0.0766926 0.01596319 -0.11224439 0.099574715 0.043671183
-0.12422355 -0.038763676 0.013435839 -0.08520518 -0.03921565 -0.058273494 0.08917679 -0.12346747
-0.1058745 0.07878823 0.06593597 -0.10214454 0.029948913 -0.12897208 -0.05959353 0.098737456
0.049585313 -0.10753873 0.01830183 0.10498173 0.102422744 0.08706674 0.073719546 -0.0804504
-0.12259771 -0.007068862 0.04262427 0.02788168 -0.0045750663 0.11621582 0.016086815 0.0899214
-0.040474623 0.0043446124 -0.09712111 -0.122961745 -0.0017600209 0.07072886 0.039556608 0.007375747
-0.033474736 0.02456977 -0.05753006 0.061199173 0.03168696 0.0593063 -0.06845685 0.0919295
0.02054382 0.06467261 0.066118725 0.05128905 -0.1999872 0.01924786 0.016247109 0.07698942
-0.020561734 0.11733585 0.072612815 0.09365171 -0.075044766 -0.057204224 -0.106093325 0.0011611378
-0.08032554 0.07446847 -0.04411359 0.08337213 -0.07540968 -0.07212706 -0.11703944 -0.045229055
-0.015660143 -0.00977339 -0.015134037 0.13457865 0.040800896 -0.046509117 0.019775704 0.13238849
0.058583084 -0.06076552 0.05088307 -0.010489001 0.048035387 0.07687317 -0.03997687 -0.10807321
-0.035904717 -0.09857014 -0.030801382 0.04793524 0.0702628 -0.1665592 -0.033044036 0.113309145
0.03292461 0.104660034 0.020109538 0.12380269 -0.07805659 -0.033113882 0.063510254 -0.10188232
0.050533935 -0.011761077 0.10235931 -0.060257047 0.06951265 0.09880867 -0.12673265 -0.053933438
0.115992144 -0.09491857 0.0108116 -0.11334689 0.054981127 0.014254034 0.069501445 0.06463301
-0.04704352 -0.12148856 -0.005597446 -0.049188435 0.056773484 -0.0064559486 -0.0005381002 -0.047372222
0.08234809 -0.015254864 0.06705317 0.07457826 -0.12673987 -0.07473925 0.114427626 -0.12841755
-0.045323297 0.08526561 0.002538696 0.07672863 -0.079480976 0.013236693 0.03271395 -0.057749666
0.0744615 -0.10315943 -0.10549165 0.10708694 -0.028497607 0.014713019 0.12687707 -0.08941468
-0.02756767 -0.077629104 -0.10690214 -0.09582766 -0.07980571 0.01487191 0.036714066 0.037440076
0.038068652 -0.13035612 0.08242471 0.04353805 -0.07989626 -0.025405705 0.005499363 0.06895372
-0.021274775 -0.12460407 -0.07317391 0.10010375 0.03772305 0.0882524 0.049736723 0.015767127
0.053921543 -0.10507012 0.11122899 -0.009628326 -0.006148547 -0.016542912 -0.054976657 -0.048538536
0.038629346 -0.09897326 0.00041912266 -0.030755294 0.05091073 -0.067648575 -0.09300017 -0.0034314396
-0.10478921 -0.06396465 0.07466418 0.07407432 -0.00953891 -0.08666535 -0.12134838 -0.023201391
0.08603976 0.07646163 -0.046426058 -0.089865774 0.118507154 0.048384696 -0.09269969 -0.04820921
-0.053630576 -0.1141773 0.023990288 -0.058793094 0.01959733 -0.036617786 -0.014160752 0.08853728
-0.020316938 0.05995502 -0.00135972 -0.09234387 -0.0799017 0.085741356 -0.025556391 -0.06013322
0.03352516 0.11712398 -0.062319547 -0.0049987286 -0.0052524954 -0.0090882545 0.028108388 -0.01772897
0.015892826 0.040005624 0.041860044 0.08211525 -0.08001466 -0.11182609 -0.065414466 0.04284983

linear2.bias f4 [64]
00000000: 80a1 9abd fb7f 52be a63d 12bd 817a c83d
00000010: a090 d6bb 2484 d43c 7c34 f33b aef5 c0bd
00000020: e06e 843e a28b d1bd a0cf d8bd f13b dd3d
00000030: 59bb a33d a5c2 a73d 640f e83c 2967 b63d
00000040: 20b8 6a3d e89e ffbd ccf8 473e 380b eb3c
00000050: 9888 923d a87c 4d3d 6375 28be 5066 5d3e
00000060: ca60 aebd 88dc afbd b0ac ffbd 17d8 9c3d
00000070: 0c8b 26bd 680f f03d 2e45 d73d 2884 a33d
00000080: 54f7 3cbd eef3 083d 6854 a13d e738 753d
00000090: a045 0cbd b732 95be 15f5 283e a0f9 b33c
000000a0: c37f 2d3e 0078 5b3d caa1 843d fd2f 153e
000000b0: 2049 4abc 721e 63be 36c9 9a3d 94dc 7e3d
000000c0: b30f d3bc d569 45bd d666 f7bd 422c 283e
000000d0: 08ee c03d 0d8b 1bbe e6a0 6d3e 6928 f5bb
000000e0: 1828 51bd d926 f13d c008 b0bd 4e1f a9bd
000000f0: 4f77 fbbc 26e9 e43d 3b74 0f3e 8066 69bd
-0.07550335 -0.20556633 -0.035703324 0.09788991 -0.0065480024 0.025941916 0.007422028 -0.0942186
0.2586584 -0.10231711 -0.10586476 0.108024485 0.07994718 0.081914224 0.028327651 0.08906395
0.0573045 -0.12481481 0.19528502 0.028691873 0.071549594 0.05016771 -0.1645103 0.2162106
-0.08514555 -0.08586985 -0.124841094 0.07658403 -0.04065995 0.117216885 0.10511242 0.07984191
-0.046134308 0.033435754 0.07877427 0.05986872 -0.034246087 -0.29140255 0.16499741 0.021969616
0.16943268 0.053581238 0.06476171 0.14569087 -0.012346536 -0.22179583 0.07557909 0.06222208
-0.025764322 -0.048196632 -0.12080161 0.16423133 0.09420401 -0.15189762 0.23205909 -0.007481624
-0.051063627 0.11774988 -0.08595419 -0.08257924 -0.03069654 0.11177282 0.14009182 -0.056982517

linear3.weight f4 [64, 64]
00000000: a7ea 04bd 55db 02be aafd 29bd 322c d13b
00000010: b892 fabd 995a 223d f68c 37bd fc0f 903c
00000020: 2c80 6aba 9784 c9bc da61 51bd dc0b c43d
00000030: 8f58 8ebd 0c03 963d 56a8 ec3c 9617 a5bd
00000040: d116 483d 60bc c33b d691 63bd 5ee1 d2bd
00000050: f131 723d 3ee8 c73d a24f cdbd 0cc4 753d
00000060: c027 debb d414 1c3d 6085 21bc a02b d43c
00000070: d182 edbd a474 31bd 646b 913d 64a3 0cbd
00000080: 4cb8 3cbd 6c68 b6bb dc11 fe3d 5418 983b
00000090: 9e61 e7bd 0c38 c73c 8d93 123e b41b 06bd
000000a0: 1dd2 803d 9c5f eb3d ec07 313d fcf5 17bd
000000b0: 4e1b ecbd f3c6 0ebd 5ca7 ef3d 4ccd b33d
000000c0: d63a cd3d 57e4 20bd 6730 e8bd 906d 013e
000000d0: 6072 d7bb aed9 a3bd 5f43 753d 1a33 c9bd
000000e0: 56d6 75bd 6c0e bb3d a88f c03c 6648 e23c
000000f0: c631 613c 28d1 dfbc cfdc 9e3d a8da a1bd
00000100: 103e 8c3d d874 8abd 4889 3e3d 20ba e6bb
00000110: 4065 50bc 78bb 01bd 9ece 993d f64a cabd
00000120: 0c3f d33d 4cf1 5ebd 906a ae3d cc80 423d
00000130: 6c27 dabd a0fc ca3c 202f bc3c d27c b03d
00000140: d070 6ebd 30aa 0fbc 34ab 01bd e8d0 88bd
00000150: 30b8 d83c d66f b93d 380d f7bd ce81 ccbd
00000160: e819 b5bc b853 e53d 58d7 493d cc2e 0cbd
00000170: fc3e 6e3d ac5d 2ebd 60a2 053c 00d8 33bd
00000180: 5800 85bc 64bd 893d b8f1 b8bc ac93 ecbd
00000190: 70df 6abc 982a cd3c 8c36 86bd dc15 1b3d
000001a0: c092 40bd b856 803c 263b fd3d 30a3 d9bc
000001b0: e88c d3bc be49 98bd 42ec c6bd bc21 c7bd
000001c0: b006 e3bd 60f0 54bd b47f 98bd 5496 76bd
000001d0: 4c2f 45bd 3664 d8bd 8068 bf3a 32f6 c73d
000001e0: a2a9 8fbd f8b2 d1bd 72b4 db3d 46ba 813d
000001f0: 9ea8 ae3d 30cd 8f3c 24d0 ea3d 4ca1 d0bd
00000200: 80f5 50bb 74fd 8ebd 90c4 283c b08e 48bd
00000210: a0dc e8bd 504a 5b3c a88c cb3c 305a 313c
00000220: 463b 933d 2022 003c dac7 f5bd 5275 d4bd
00000230: 8086 b73c 78b9 f4bd a0e1 6e3d 3a0c f63d
00000240: 962c d1bd 5261 b83d 4ccc 44bd 6e0a e8bd
00000250: 3c0e a63d 5e27 e33d 40eb b83d 2a15 c9bd
00000260: 3874 dcbd 7653 883d 6acd e7bd 6cc2 2c3d
00000270: 6455 b3bd 3eab a5bd 30e3 19bc 1858 613d
00000280: d0aa 11bd 70ff 35bd 0872 953c c01c 113c
00000290: 706a 8ebc ca72 8d3d e031 b5bb a837 28bd
000002a0: a012 b7bb 1822 2fbd c006 4ebd a033 46bc
000002b0: 46fc 803d c0e7 b63d 5480 e23d a635 f93d
000002c0: 54a3 b33d 9abe d1bd 6458 123d 96a7 d4bd
000002d0: 18ad c2bc d410 a43d 42cd 86bd 3064 a13d
000002e0: 88e1 40bd 5c3a 623d c000 6bbc 7ec9 b9bd
000002f0: 04bf ca3d 80df cabd cc6b 8a3d 8eda 933d
00000300: 61b0 96bd adb5 063d 1740 573d e983 c0bc
00000310: d84d 66bd 87b2 b13d c8e4 ca3d ff20 66bd
00000320: 14e0 3b3d 0b95 84bd 1106 a23b 50e4 053e
00000330: 7e34 3f3d 0a04 d03d 57b9 c43c 29d3 243d
00000340: 9e40 d2bd 6c65 4f3d d646 183e b04f a2bc
00000350: 9b0c dd3d 8c69 d73d e803 b2bd e010 d9bd
00000360: b01a aa3d 4e1a fdbd 54fe c53d a6b1 babd
00000370: 9cc4 b7bc a229 f83d c81d a8bd 766d d0bd
00000380: ac30 e73d 940e b63d 9818 57bd 7c7a 163d
00000390: de3e e8bd 7ec8 a6bd af06 733d a2b4 b6bd
000003a0: 61d4 e43d 20bc ee3c eac5 93bd 5bf7 1fbc
000003b0: 4836 2fbd 299b 683a e85f a13d 12f0 8abd
000003c0: 4d8e c03d ebd0 9fbc 20ef b13d 1f60 b13b
000003d0: dc1d a63d 6732 73bd f814 033d 8674 99bd
000003e0: 76ef 003e c154 7c3d 64b5 adbd 599d 073d
000003f0: 4883 12bd cec4 f4bd 9a3b 093a 4683 f6bd
-0.032450344 -0.12778981 -0.04150168 0.0063834423 -0.12235016 0.039637182 -0.044812165 0.017585747
-0.00089454907 -0.024599357 -0.05111871 0.095725745 -0.06950485 0.073248 0.028888863 -0.08061139
0.048849884 0.005973384 -0.055559002 -0.10296892 0.05912966 0.097610936 -0.100249544 0.060001418
-0.006779641 0.0381058 -0.009858459 0.025899708 -0.11597217 -0.043324128 0.07100561 -0.03433551
-0.046074197 -0.0055666473 0.1240575 0.004641572 -0.11297916 0.024318717 0.14314099 -0.032741264
0.06290076 0.114928454 0.043220446 -0.037099823 -0.115286455 -0.0348577 0.11701843 0.08779392
0.10020988 -0.03928026 -0.11337357 0.12639451 -0.006574914 -0.080005035 0.059878703 -0.098242
-0.06001886 0.0913361 0.023506 0.027622413 0.013744777 -0.027321413 0.0775696 -0.079030335
0.06847775 -0.067605674 0.04651764 -0.007041231 -0.012719452 -0.031672925 0.07510112 -0.09877579
0.103147596 -0.054429337 0.08516419 0.04748611 -0.106520504 0.024778664 0.02297169 0.086175576
-0.058213055 -0.008768603 -0.031657413 -0.06680471 0.026455015 0.09054534 -0.12063068 -0.09985696
-0.02210708 0.11197609 0.049277633 -0.034224316 0.058165535 -0.0425698 0.008156389 -0.043907166
-0.016235515 0.067255765 -0.022576198 -0.11551604 -0.014335498 0.025044724 -0.06553373 0.037862644
-0.04701495 0.01566635 0.12364797 -0.026567072 -0.025824025 -0.0743594 -0.09713031 -0.09723231
-0.1108526 -0.051987052 -0.074462324 -0.060201958 -0.04814081 -0.10565989 0.0014603287 0.09763755
-0.07014777 -0.10239214 0.107277766 0.06334357 0.08528255 0.017553896 0.11465481 -0.10187015
-0.003188461 -0.06981936 0.01030077 -0.048964202 -0.11370206 0.013384417 0.024847344 0.010824725
0.0718904 0.007820636 -0.12001009 -0.103739396 0.022403002 -0.11949438 0.05832064 0.12014051
-0.10213582 0.090029374 -0.048046395 -0.11330114 0.08108184 0.11091493 0.090292454 -0.0981849
-0.107643545 0.06656544 -0.113184765 0.042177603 -0.08756521 -0.080893025 -0.009392545 0.055015653
-0.03556329 -0.044433057 0.01824285 0.008856952 -0.017384738 0.0690666 -0.005529627 -0.041068703
-0.005586937 -0.042757124 -0.050299406 -0.012097269 0.06298117 0.089309216 0.11059633 0.12168436
0.08771387 -0.102414325 0.035728827 -0.10383527 -0.023764178 0.08011022 -0.065821186 0.078804374
-0.047090083 0.055231437 -0.0143434405 -0.09071635 0.098997146 -0.099059105 0.06758842 0.072194204
-0.0735786 0.032888103 0.052551355 -0.0235004 -0.05622658 0.086766295 0.09906918 -0.05618381
0.045867994 -0.0647374 0.004944571 0.13075376 0.04668092 0.101570204 0.024014158 0.04024044
-0.10266231 0.050633833 0.14870772 -0.019813389 0.1079342 0.10518178 -0.08692151 -0.10598922
0.083058715 -0.12358533 0.0966765 -0.09115915 -0.022432618 0.12117316 -0.08208805 -0.10177128
0.1128858 0.08889499 -0.05251369 0.036737904 -0.11340116 -0.081437096 0.059332546 -0.08921172
0.111733206 0.02914244 -0.072154835 -0.009763564 -0.042776376 0.00088732183 0.07879621 -0.06784071
0.09402142 -0.0195088 0.086881876 0.00541307 0.08111164 -0.05937424 0.03200242 -0.07492928
0.12591347 0.061604265 -0.08481863 0.033109043 -0.03576973 -0.119516 0.00052350166 -0.12036757

linear3.bias f4 [64]
00000000: 2dbf 0f3e 90ac 383c 3446 343d 1611 613d
00000010: f6c6 253e b2a8 5cbe e2ac 8f3e 4dfe 213e
00000020: d767 313e dc13 1fbe acd0 d6bd 2732 7b3c
00000030: 517d 853c 4f78 1c3e 7f68 493e fd94 553e
00000040: 284a 943e 66e2 47bc dafe 5f3e 823a eebd
00000050: ff04 903d f998 293e 84df 913e 7e19 abbd
00000060: cc97 9cbd 9fd9 583d f0a6 f1bc b207 e0bd
00000070: 7b31 98bd 51fa e63d d8ab f6bd 227d 56be
00000080: b4eb 873e 8021 813d c8e5 683e 3b8c e8bb
00000090: 1853 cebc b4e9 e83d a789 33be 4c3c bbbc
000000a0: d026 c63c 84b4 343e e9f3 eb3b ee80 493e
000000b0: 4229 04be 3da4 813e 6eef 203e f9f0 62be
000000c0: 9bcd 21bd 1016 ccbd 52e3 613d 67e0 b93c
000000d0: 104e 893d 0d44 5f3e 2ed8 f8bd e0b5 713d
000000e0: 3a5c 223e 81c4 6fbe c015 d7bc 5c62 4abd
000000f0: cf36 42be 4035 a7bc 51cc 693c 9249 823e
0.14037772 0.011271611 0.044012263 0.054947935 0.16189179 -0.21548727 0.28061587 0.15819664
0.17324768 -0.1553492 -0.1048902 0.0153317815 0.016295107 0.15280269 0.19668768 0.20857616
0.28962827 -0.012199974 0.21874562 -0.11632253 0.07032203 0.1656226 0.2849084 -0.083544716
-0.076461405 0.052941915 -0.029498547 -0.10938968 -0.07431313 0.11278213 -0.12044495 -0.20946172
0.26547015 0.06305218 0.22743905 -0.007096795 -0.025186107 0.113727 -0.17532979 -0.0228559
0.02418843 0.17646986 0.007200707 0.19678089 -0.12906364 0.25320616 0.15716335 -0.22162236
-0.03950272 -0.099651456 0.05514843 0.022690011 0.06704342 0.21803303 -0.12150608 0.05901134
0.15855494 -0.23414804 -0.026255488 -0.04941021 -0.1896622 -0.020411134 0.014269904 0.25446755

linear4.weight f4 [64, 64]
00000000: 6a2f 183e e06d c5bd a82b bebd b6e6 0b3e
00000010: b483 f13d 9859 903d c6ac 033c af6f b93d
00000020: 34c2 afbc 8d94 c1bd d0bb c7bd 30ab ccbd
00000030: 5e19 b03d b75a 91bd 527a 32bc ae97 63bd
00000040: 57c6 58bd 32ae 22bd 71aa 253d b02c 433d
00000050: bac6 873d bec4 9abc 1ed3 113e c4cb 90bd
00000060: 74ef e23d 9684 f03d b498 313d e1d2 ef3d
00000070: 337c f23d 6b70 d63d c685 acbd b8dc 4d3d
00000080: d7ca d83d 205d 863b a93e c53b 6fb3 983d
00000090: f96e d23c 609d 9f3b 91b2 11be e0cb d0bd
000000a0: 60e9 223d 8b75 1e3e 0d72 d03c 7544 8bbd
000000b0: 9393 6ebc edaa ccbc 672c 09bd 0aac 35be
000000c0: 9e40 e93d 943c d2bd bd5d de3d 5c2b bbbd
000000d0: a601 e6bd d9d6 753d d4ad 3ebd 081a 4b3d
000000e0: 6adf c23d d68c b23b 5877 633d 68cf e33c
000000f0: 46ba adbd 01b6 f8bd 2f1b 97bd beb2 153e
00000100: 2634 0d3e 7e37 d53d b0c2 c4bd 050f 0a3e
00000110: 0d5c 50bd d8fa e0bd 3324 213e 6768 98bc
00000120: cbaa 02bd 8252 973d f092 e6bc a488 6bbb
00000130: 62f9 e33d 7533 933c 0596 6ebd 82ad 8d3d
00000140: 807c 643b 9693 2ebd e0c6 a93d 6adc f3bd
00000150: b256 863c 4f5e e63d 9129 bd3d b0a2 04bd
00000160: 3ef3 babd fa9c cd3d cea6 9abd ec04 d23b
00000170: 68dc 7fbd b60d 113e 08a4 2f3d 74cb 1abe
00000180: 2244 be3d 2894 ccbd bd18 ec3d 498a c2bb
00000190: dbda 05bd 5f6d a83b e3bf 973d 8395 c93d
000001a0: a4c1 8f3d 2077 143e 6d41 a23c 4d54 66bd
000001b0: 75ff e33d 8f3f f93b 14f8 923d ddd6 80bd
000001c0: 00ed fb3d 941f 843d 4fbd 3abd 6243 423c
000001d0: c088 afbb e61a 153e 0a16 ff3d 90e5 3a3d
000001e0: bfe9 e43c dfc3 703d 389f ddbc d010 e8bd
000001f0: 15e1 86bc 093c f33d e6ed a63d 0a03 02bd
00000200: a079 a83d 1c46 e6bd be03 b73d 44e0 7b3a
00000210: f63e 21bd 1efe 6f3c 9b2a ddbd d161 3cbd
00000220: 8220 71bd 794e 4a3b 4477 e5bd 7688 84bd
00000230: 6583 b13d f16a ccbc 6206 a13c dc25 543d
00000240: 429c b8bd 6881 8abb ea34 78bd e837 78bd
00000250: 2b81 babd 0a7e ecbd 709f f8bc 84b9 cb3d
00000260: f83d c33d 5702 86bb f865 65bd f0b7 683c
00000270: f039 92bd 1d13 0abe f8ca b2bc 8c67 293d
00000280: 07ec 6f3d f0e2 0fbc 92d4 363d 77e7 d2bd
00000290: 1225 a23d a81c 6e3d 8f93 70bd b8f2 52bd
000002a0: f0e1 7bbd 9344 c53d b7e7 65bd 7a70 7f3d
000002b0: b687 813b 464a 433d 2cbd 633a 9050 a3bc
000002c0: 9ffa bdba 42f2 fe3d d03c 883c 75d6 8abd
000002d0: f612 ab3d 21dd c53d 8818 803d 3872 f6bd
000002e0: 4a2f f03d 2115 b53d 3c7b d5bd c02d d7bc
000002f0: ad9c 933d d3d3 a3bd 52d3 02bd a69a 17bd
00000300: bbb7 e33d 4c5f 773d 0831 3b3d 37a3 adbd
00000310: bf22 7d3d 7503 17bd c1b3 083d 7c9f bc3d
00000320: cc2a a6bd a6af e1bd e866 a33c 009a 9e39
00000330: ea6b ecbd e378 5fbc 4dca 8b3d 4501 68bd
00000340: eb81 d63d 90ea b3bd 8e77 aa3d 6ccb 34bd
00000350: c18b cb39 aba4 853d 035f c23d 36e7 8bbd
00000360: c820 8b3c 89ef 44bd 1cc7 01bd e8b2 5dbc
00000370: 64dc 3cbd c601 0d3d 54aa dcbd 3114 17be
00000380: 6465 713d 0012 92ba 7cea ed3d 6c34 703d
00000390: 6094 103d 71e1 423d bea3 b2bd 2c86 6ebd
000003a0: d8ce 0b3d 18c4 243c 9b67 483d 7632 0ebd
000003b0: 1bff 9b3d 1d07 b8bc cb93 fabc 861d 08be
000003c0: ff08 0abe 8ed4 fe3d c87d 0dbd 5cda 32bd
000003d0: 8a92 903d bfee d5bc e843 f53c 7c1f a6bd
000003e0: 3b02 bebd 4df1 1fbe 9058 363c 1829 ad3d
000003f0: 56fe 2cbe dafd 0abd ee88 a63c 060f 303d
0.14861837 -0.096400976 -0.092856705 0.13662228 0.117926985 0.07048339 0.008036798 0.09054505
-0.021454908 -0.09452162 -0.09752619 -0.09993589 0.085985884 -0.070973806 -0.010893421 -0.055564575
-0.052923527 -0.039716907 0.04044575 0.04765004 0.06629701 -0.018892642 0.14240691 -0.07070115
0.11080828 0.11744039 0.04335852 0.11710144 0.11840095 0.10470661 -0.08423953 0.050259322
0.10585564 0.004100457 0.0060194326 0.07456099 0.025687682 0.0048710555 -0.14228274 -0.10195136
0.039773345 0.15474527 0.025445009 -0.068001665 -0.014561552 -0.024983848 -0.03348961 -0.17741409
0.11389278 -0.102654606 0.10857723 -0.091391295 -0.11230783 0.060019348 -0.046552494 0.049585372
0.09515269 0.005448918 0.055533737 0.02780886 -0.084827945 -0.121440895 -0.07378232 0.14618966
0.13789424 0.10410975 -0.09607446 0.13482292 -0.050869036 -0.10985345 0.15736465 -0.01860447
-0.031901162 0.07388784 -0.028146237 -0.0035939598 0.1113155 0.017968873 -0.05824854 0.069178596
0.0034864247 -0.042621218 0.082898855 -0.11907275 0.016398761 0.11248457 0.09236444 -0.032381713
-0.09128426 0.100397065 -0.07551347 0.006409278 -0.062466055 0.14165387 0.04288104 -0.15116674
0.09290339 -0.09989196 0.11528156 -0.005936895 -0.03267942 0.005139991 0.07409646 0.0984297
0.07019356 0.14498568 0.019806588 -0.05623274 0.11132709 0.0076064537 0.071762234 -0.06290982
0.123010635 0.064513355 -0.045590695 0.011856886 -0.005356878 0.14561042 0.124553755 0.045629084
0.02794349 0.058780547 -0.02705346 -0.11331332 -0.01646475 0.11876685 0.08150844 -0.03174118
0.08226323 -0.11243841 0.08936261 0.00096083083 -0.039366685 0.014647989 -0.10799142 -0.045991722
-0.058868892 0.0030869527 -0.11204389 -0.0647134 0.0866764 -0.024953337 0.019656364 0.051793918
-0.09014179 -0.004226852 -0.060597338 -0.06060019 -0.09106668 -0.115474775 -0.030349463 0.09947494
0.09533304 -0.0040896344 -0.056005448 0.01420401 -0.07139957 -0.13483854 -0.021825299 0.041358516
0.058574703 -0.008782133 0.044636317 -0.10298055 0.07917227 0.058132797 -0.058734473 -0.051501006
-0.061494768 0.0963222 -0.056129184 0.062363125 0.0039529456 0.047678255 0.00086875516 -0.019935876
-0.0014494247 0.12448551 0.01663056 -0.06779186 0.08353226 0.096613176 0.06254679 -0.12033504
0.1172777 0.08841921 -0.10423896 -0.026266932 0.07207618 -0.07999387 -0.031939812 -0.03701272
0.11119028 0.060393617 0.045701057 -0.084783964 0.061800715 -0.03686853 0.03337455 0.09210107
-0.081136316 -0.110198304 0.01994653 0.00030250847 -0.115440205 -0.0136396615 0.06825695 -0.056641836
0.10473999 -0.087849736 0.083235845 -0.04413931 0.00038823302 0.065255485 0.09490778 -0.06831209
0.016983405 -0.04808 -0.031684026 -0.013531424 -0.04610862 0.03442552 -0.10774675 -0.14753796
0.058934584 -0.001114428 0.1161699 0.058643743 0.03529775 0.04757828 -0.087226376 -0.058233425
0.03413281 0.010056518 0.04892693 -0.034716092 0.07617017 -0.02246433 -0.030588051 -0.13292512
-0.13479994 0.12442885 -0.034543782 -0.043665275 0.070592 -0.02611482 0.029939607 -0.08111474
-0.09277769 -0.15619393 0.011129513 0.08455104 -0.16893896 -0.033933498 0.020328965 0.042983077

linear4.bias f4 [64]
00000000: 75db 2d3e a2a4 d73d 7d80 9bbb 5fe6 563e
00000010: 4ab5 eb3c 9cc4 cabd a79f 943d 46c5 c03d
00000020: 19db f93d 3e0e c0bd a448 8c3e 5af8 383e
00000030: 7231 8b3e 7320 3c3e a0f2 923b 151c 383e
00000040: 1802 823e b7f6 be3c 8c3c 373e 9071 a63d
00000050: b8f1 733e 2327 dcbd 2d00 513e 780a d33c
00000060: 14be 193e 45f2 753e 969d 45bd c055 143c
00000070: 154b 903d 9c6f fabd f854 dbbd 9e38 733e
00000080: b1a1 3f3e dfde 173d d07b 123e 17b4 0c3d
00000090: cc3e 3e3e ca01 1e3e 314f e6bd 9c6e 1e3e
000000a0: c95c 383e 4a00 b7bd 22f4 293e 9996 3b3e
000000b0: 697c 883e fdb8 613c 7608 3d3e a3d4 cd3b
000000c0: ac04 9a3d 67f3 653e 95fe 9f3d eeb2 563e
000000d0: 9c7f c4bd 3654 eebd a779 823d 5824 48bd
000000e0: e789 963d caae 403e 0090 3d3c a459 d8bd
000000f0: 3373 403e 5585 103e 69e6 1c3e 3f4c eabd
0.16978247 0.10529448 -0.0047455416 0.20986317 0.028772969 -0.099007815 0.07257014 0.09412627
0.12199993 -0.093777165 0.2739917 0.18063489 0.2718616 0.18371753 0.0044844896 0.17979462
0.25392222 0.023311002 0.1789419 0.08127129 0.23822677 -0.10749652 0.20410223 0.025761828
0.15013915 0.240182 -0.04824599 0.0090536475 0.07045571 -0.12228319 -0.10709566 0.23752066
0.18714024 0.03707778 0.14305043 0.034351435 0.18578643 0.1543037 -0.11245573 0.15471882
0.18004145 -0.08935602 0.16597036 0.18319167 0.26657417 0.013777015 0.18460259 0.006281452
0.07520422 0.22456132 0.078122295 0.20966694 -0.09594652 -0.11637156 0.063708596 -0.048862785
0.073505215 0.18816677 0.011569977 -0.105639726 0.18793945 0.14113362 0.1532227 -0.11440324

mean_linear.weight f4 [2, 64]
00000000: d763 2b3d 615e dc3c 134e 4fbb 1efc 083e
00000010: b8c0 843c 5368 bb3a d1ce b63c 44e7 2a3c
00000020: c8a2 ba3c cf63 66ba 482c 773d 0beb e13c
00000030: 68d5 8d3d 141b 2c3d 8298 9c3a 183e 0b3d
00000040: 53bd 533d b921 4ebc 1a06 3a3d b43c e63c
00000050: c90c 803d 3084 dfbb 7a88 703d 0ac6 21ba
00000060: ba92 0f3d 191c 043d 7f9f d9ba a40d 263a
00000070: b824 be3c d760 1fba 7c4b e0ba 2ea4 373d
00000080: ca2a 923d 83d0 ff3c 31d9 293d 5dfd 18bc
00000090: 347e 203d eb35 2d3d d6e4 023c fca5 143d
000000a0: 023b 113d 19e5 963b 00ee 1c3d 1b35 a23d
000000b0: e1d5 5c3d 3e62 373b ed94 5f3d 4afc 2dba
000000c0: a865 0ebc 8d2f 033d dd5a 6a3b 7392 033d
000000d0: 8c67 253b ca7e c8ba 99de b33c 2935 84bb
000000e0: e8b3 283d 8b11 863d 556e 213b 078f 25bb
000000f0: f8e7 243d bb4a 4c3d f02c d73c 4284 bebb
00000100: bccb 0a3d 78c6 ce3c f69a 8f3a 2581 f33d
00000110: ba89 ef3c bfe3 d3b9 8b19 dd3c 5529 f33c
00000120: f3ee 283d f433 b6b9 6e17 533d 826f 1b3d
00000130: efa7 383d 22eb 013d 50c4 003a a28d 363d
00000140: 4a54 153d a86c db3b 3705 7c3d 203f 123d
00000150: 94c1 5f3d c54f ff3b 7009 f03c e34a 503a
00000160: f098 743c f243 053d f4be 80ba 9ece 433b
00000170: c36e 103d 1350 303b 1e06 a63a f703 7e3d
00000180: b51b cf3c f3eb b93c 19a4 2e3d 7215 c0bb
00000190: c740 513d bb7a 273d 53e4 ecba ffc4 713c
000001a0: ff52 c73c 80e6 8e3a bf31 fa3c 0517 26bb
000001b0: c58c a93d d260 203d 2efd 1b3d 401d 9aba
000001c0: e9e4 053c b156 223d fe28 2d3b 60ea 263d
000001d0: 77c2 60ba 6372 4d3b 28f1 d93c eabd e3bb
000001e0: f7fd 0d3d 1fc0 8c3d 9416 b03a 8d80 cd3a
000001f0: fea1 153d 2fcc 883d 7374 103d c6e4 003b
0.04184326 0.026900472 -0.003163223 0.13377425 0.016205177 0.0014298059 0.022315415 0.010431115
0.022782698 -0.00087886764 0.060344964 0.027577898 0.0692547 0.04201801 0.0011947306 0.033994764
0.051694226 -0.012581282 0.045415975 0.028105117 0.062524386 -0.006821178 0.058723904 -0.0006171173
0.03505204 0.03225336 -0.001660332 0.000633443 0.023210868 -0.0006079799 -0.001711234 0.04483431
0.071370676 0.031227356 0.041466895 -0.00933775 0.039182857 0.04228775 0.007989129 0.036291108
0.035456665 0.0046049473 0.038312912 0.07920285 0.05391491 0.002798214 0.054585386 -0.000663702
-0.008691229 0.03202777 0.0035759725 0.032122087 0.002523872 -0.0015296575 0.021956729 -0.0040346575
0.041187197 0.06546315 0.0024632413 -0.0025262253 0.040260285 0.049875956 0.026266545 -0.005814106
0.033885702 0.025241122 0.0010956216 0.11889867 0.029240478 -0.0004041474 0.026989719 0.029682795
0.041243505 -0.00034752453 0.051536016 0.03794814 0.04508203 0.03171838 0.00049120653 0.044568665
0.036457337 0.0066963024 0.06152841 0.035704732 0.05462797 0.0077914917 0.029301375 0.00079457293
0.014929041 0.0325355 -0.0009822533 0.0029877792 0.03526188 0.0026903197 0.0012666618 0.0620155
0.025281766 0.022695517 0.042636964 -0.0058619315 0.051087167 0.04088853 -0.0018073417 0.01475644
0.024331568 0.0010902435 0.030541299 -0.002534331 0.08278803 0.039154835 0.038083248 -0.0011757985
0.008172252 0.039633457 0.0026422138 0.04075086 -0.00085738994 0.0031348697 0.02660425 -0.0069501298
0.034666028 0.06872582 0.0013434463 0.001567857 0.03653144 0.0667957 0.035267305 0.001966761

mean_linear.bias f4 [2]
00000000: 529a c73d 58b8 a13d
0.09746231 0.07896489

log_std_linear.weight f4 [2, 64]
00000000: 1326 5abc 329e 16bc 3501 acba 0959 2abd
00000010: 7c9b c0bb 47f3 3d3b 40f0 19bc f8e5 b7b9
00000020: d63d 24bb db4b 78ba bf40 b7bc cf44 2cbc
00000030: 7551 06bd 87b0 93bc b569 c03a e26f 45bc
00000040: 3274 a8bc 564d 53bc aa06 2fbc e795 98bb
00000050: 71ef e7bc a97b c0bb dd33 f7bc 0cf5 df3a
00000060: 753b 87bc 7c45 50bc d9a0 773a cf60 6cba
00000070: 2060 7bb9 3b1b a73a 9ff5 cbba 10c0 75bc
00000080: eff9 27bd c066 45bc ce9b 58bc 1599 2d3c
00000090: f15e 18bc 935f 3abc 68a7 5b3c b5e6 adbc
000000a0: 99a3 5abc d9a6 193c d7b9 6abc 6a70 33bd
000000b0: 0d3d 78bc 1412 043c a7ae b2bc 0856 beb9
000000c0: 9c96 23bc e045 32bc d499 773a f678 2ebc
000000d0: 2165 37bb ee7c 0f3b 9db5 87bb 3dda 34bb
000000e0: 6d1a 7abc ee6b 93bc 895a d93a d186 a0b9
000000f0: f5a8 3fbc 4ff8 32bc 113b f4bb b2be 7c3b
00000100: 744f 15bc f269 aabb 2281 bbbb c2bf 37bd
00000110: 19cb d5bb dcb9 23bb 25d9 adbb e6e8 87bb
00000120: 144a f2bb 17df dcb9 47ce b7bc a993 41bc
00000130: 0609 c4bc 615f 63bc c226 b2ba 8c49 6bbc
00000140: 7d4c 4ebc 3458 41bc 3dcc 89bc 137e c5bb
00000150: 4ca2 d4bc 78b9 94bb f28c 8cbc 2db4 073b
00000160: 1ca2 21bc ff02 3bbc b821 18bb 0211 95ba
00000170: 5ff2 84bb a58c f8ba 5cac 00bb 7715 c6bc
00000180: 6512 bebc 945e 0cbc 1df4 44bc ca81 bc3b
00000190: ef91 7ebc a2fb c3bb a417 683b 7845 3cbc
000001a0: 782f 4ebc a21e 193c 0a4c 0bbc 7ce2 7fbc
000001b0: db46 dfbc 11ad 18bb 7773 cbbc ee15 c8b8
000001c0: 4948 19bc e628 2cbc d063 bebb be95 53bc
000001d0: 89ed d9b9 6d43 8c3b a0b3 b8bb 69e4 cb3a
000001e0: 23d4 45bc d8be e0bc 0bc6 233b 1702 ed3a
000001f0: 7ffd 04bc 119f 69bc b08b edbb 8bef e23b
-0.013314742 -0.00919299 -0.0013122918 -0.041588817 -0.00587791 0.0028984116 -0.009395659 -0.0003507582
-0.002506127 -0.00094717526 -0.02236974 -0.010514452 -0.032792527 -0.01802851 0.0014679941 -0.012050601
-0.020563219 -0.012896856 -0.010682741 -0.0046565416 -0.028312417 -0.0058741164 -0.030176098 0.001708658
-0.016507844 -0.012711879 0.00094462704 -0.0009017111 -0.00023973035 0.0012749204 -0.0015560872 -0.014999405
-0.04100984 -0.012048423 -0.0132207405 0.01059558 -0.00929998 -0.011375326 0.013406612 -0.021228174
-0.013344669 0.0093781585 -0.014326534 -0.04380838 -0.015151274 0.008060951 -0.021811796 -0.00036303722
-0.009984639 -0.010880917 0.00094452244 -0.0106489565 -0.0027983862 0.0021894532 -0.004141523 -0.00275959
-0.015265089 -0.0179958 0.0016582768 -0.00030618024 -0.011697997 -0.010923459 -0.0074533303 0.0038565812
-0.009113181 -0.005200618 -0.005722181 -0.04486061 -0.0065244553 -0.0024982607 -0.0053054267 -0.0041476367
-0.0073940847 -0.00042127885 -0.022437228 -0.01181499 -0.023930084 -0.013877721 -0.0013591873 -0.014360797
-0.012591478 -0.011800814 -0.016821021 -0.006026992 -0.025956295 -0.004538711 -0.017157052 0.0020706758
-0.00986531 -0.011414289 -0.0023213457 -0.0011372867 -0.004057213 -0.0018962814 -0.0019633984 -0.024180157
-0.02320213 -0.008567471 -0.012021092 0.0057527767 -0.015537723 -0.0059809247 0.0035414482 -0.011491172
-0.01258456 0.009345682 -0.008502016 -0.015617963 -0.027255466 -0.0023296515 -0.024835331 -9.540828e-05
-0.009355613 -0.010507798 -0.0058102384 -0.012914119 -0.00041566443 0.0042804987 -0.0056366473 0.0015555742
-0.012074503 -0.027434751 0.002498987 0.0018082288 -0.008117079 -0.014259116 -0.007249318 0.0069255284

log_std_linear.bias f4 [2]
00000000: 672b 60bd d514 44bd
-0.05472889 -0.04787143
