models/noCBF_2025-11-17 19:41:32/1/Q1.pth (torch, 37764 bytes, 7 tensors)

linear1.weight f4 [64, 5]
0.26499096 0.17027141 0.47593462 -0.13026735 -0.4408133 -0.032397177 0.30503273 -0.079535075
-0.3059657 0.26740912 0.022168972 -0.55543745 0.27180758 -0.58359593 -0.27238718 0.2538772
-0.5310486 0.12877187 -0.58697045 -0.50745183 -0.37515014 -0.52495766 0.41836402 -0.009381419
-0.73644537 -0.2823472 -0.5988462 0.094727226 -0.16041127 -0.2844376 0.2300113 -0.44894004
0.42017853 -0.5928256 -0.23595743 0.23848642 -0.20964178 0.46657938 -0.46025935 -0.42593607
-0.4046118 -0.4018752 -0.20258588 -0.28667197 -0.69567245 -0.58328325 -0.062237922 0.10444042
-0.22678378 -0.659578 0.066440865 -0.4049487 0.31137195 -0.62341017 -0.51174694 0.07336684
-0.13497578 0.45471776 -0.6579143 -0.6465459 0.052986383 0.090116926 -0.38432124 -0.19823475
0.34434375 0.41915068 0.5073977 0.33646166 0.44317454 0.033185225 0.7514807 0.3461903
0.08362944 0.011604887 0.17653444 -0.42701325 -0.062098205 0.082853764 -0.10561226 -0.3983848
0.20777932 0.123802654 -0.3778503 0.25376722 0.44258392 0.19261101 0.35181573 0.29837838
0.82172745 0.5434866 0.24195452 0.43878555 0.15444402 0.8279017 0.15254791 -0.6125769
0.29443863 0.085061125 -0.7447546 -0.25016022 -0.466187 -0.23005864 -0.018016046 -0.38209867
-0.3627957 0.21838999 0.31846526 0.3146555 0.66784143 0.6711206 -0.37530407 -0.4296733
-0.022214256 -0.2878057 -0.26958826 -0.48479092 -0.25717238 0.43791676 -0.16326025 -0.18020302
-0.27363047 0.39530793 -0.097307764 0.18452038 0.16106802 -0.05174998 -0.050306015 0.17991978
-0.28550395 -0.518066 -0.21530938 0.05156146 -0.31282923 0.051215447 -0.5062498 0.30541098
-0.12540393 -0.2237751 -0.1407329 0.20416737 0.23924331 -0.07661352 -0.24140054 0.3127383
-0.014883062 -0.46957156 -0.32205784 0.113755 -0.7111667 0.16091637 0.23007482 0.4397141
-0.06963351 -0.019324929 -0.23297308 -0.4253557 -0.016753528 -0.13950361 -0.1962524 -0.12201632
-0.17134884 -0.54348296 0.07296311 -0.592369 -0.18254802 0.28722417 -0.16654284 -0.23477854
-0.38944134 0.36129823 -0.20788181 0.20589478 -0.5294497 -0.477625 0.02643066 0.27062953
0.18016225 0.17998628 -0.39328974 -0.05048438 0.1513319 -0.33302844 -0.37740228 -0.5280461
0.10254738 0.2272675 -0.5362147 0.0036793805 0.16136836 -0.56369805 -0.50140494 -0.16884275
-0.37038282 -0.72342587 -0.42324355 -0.10709571 0.33242732 0.44332945 -0.56154484 -0.026474528
-0.34270203 -0.46388105 -0.21133786 0.1050883 -0.20771734 0.105449885 0.17001663 0.17281272
-0.45058343 0.3265233 -0.5765869 -0.18717201 -0.15725772 -0.07113377 -0.32650864 0.30561262
-0.15780751 -0.12430853 0.081427224 -0.35945493 -0.3287274 0.11261216 0.25444955 -0.210011
0.015393942 -0.2278712 -0.5336641 0.22384045 -0.4198845 0.064987175 0.2652282 -0.413478
0.45193854 -0.6936384 -0.43923047 0.019175746 0.07827878 -0.038452942 0.06329826 -0.23296092
-0.44464535 -0.4631331 0.32653657 -0.87917066 -0.13077915 0.22851036 -0.08573247 0.28497297
0.17715885 0.041226953 -0.16466995 -0.45898902 0.058087118 0.0908512 0.1649985 -0.3652028
00000000: e5ac 873e a15b 2e3e b4ad f33e ce64 05be
00000010: 48b2 e1be e7b2 04bd 402d 9c3e 49e3 a2bd
00000020: 89a7 9cbe d9e9 883e b49b b53c 2631 0ebf
00000030: 5d2a 8b3e 8b66 15bf 5576 8bbe 31fc 813e
00000040: cdf2 07bf c6dc 033e b243 16bf 5de8 01bf
00000050: ae13 c0be a063 06bf cf33 d63e 86b4 19bc
00000060: af87 3cbf d08f 90be fc4d 19bf 5900 c23d
00000070: da42 24be cea1 91be 1588 6b3e 78db e5be
00000080: a421 d73e 6bc3 17bf d39e 71be c935 743e
00000090: 56ac 56be 7ee3 ee3e 1da7 ebbe 4b14 dabe
000000a0: 4729 cfbe 96c2 cdbe ac72 4fbe abc6 92be
000000b0: 9717 32bf 0d52 15bf 31ed 7ebd dce4 d53d
000000c0: 023a 68be 1bda 28bf 2612 883d 7055 cfbe
000000d0: 256c 9f3e cf97 1fbf d901 03bf 5b41 963d
000000e0: 1737 0abe c4d0 e83e 126d 28bf 0884 25bf
000000f0: 4008 593d 398f b83d c1c5 c4be 0dfe 4abe
00000100: d34d b03e eb9a d63e d1e4 013f b444 ac3e
00000110: c6e7 e23e 3bed 073d 0a61 403f db3f b13e
00000120: e945 ab3d 6d22 3e3c 72c5 343e 7ba1 dabe
00000130: b05a 7ebd 3caf a93d 3e4b d8bd 18f9 cbbe
00000140: 1ac4 543e 3f8c fd3d 9875 c1be c7ed 813e
00000150: 5c9a e23e d23b 453e 3121 b43e 0dc5 983e
00000160: bb5c 523f f021 0b3f edc2 773e 80a8 e03e
00000170: 9326 1e3e 5ef1 533f 8535 1c3e d7d1 1cbf
00000180: a9c0 963e 8734 ae3d 3da8 3ebf 0015 80be
00000190: 10b0 eebe 7e94 6bbe 6396 93bc 70a2 c3be
000001a0: 5cc0 b9be a0a1 5f3e e10d a33e 871a a13e
000001b0: a8f7 2a3f 8fce 2b3f db27 c0be 24fe dbbe
000001c0: acfa b5bc 455b 93be 7907 8abe 8436 f8be
000001d0: 19ac 83be a036 e03e b22d 27be 2487 38be
000001e0: 4b19 8cbe cd65 ca3e 4b49 c7bd e9f2 3c3e
000001f0: 04ef 243e c9f7 53bd ae0d 4ebd e43c 383e
00000200: 932d 92be f99f 04bf 107a 5cbe 1c32 533d
00000210: 272b a0be 4ac7 513d 9699 01bf d45e 9c3e
00000220: e369 00be 4d25 65be 491c 10be 4011 513e
00000230: 33fc 743e 8de7 9cbd b431 77be 3c1f a03e
00000240: 16d8 73bc af6b f0be c4e4 a4be 62f8 e83d
00000250: 050f 36bf 43c7 243e bc98 6b3e 3522 e13e
00000260: 049c 8ebd 504f 9ebc 7f90 6ebe 39c8 d9be
00000270: b23e 89bc 09da 0ebe 64f6 48be b1e3 f9bd
00000280: 1276 2fbe b321 0bbf af6d 953d 7fa5 17bf
00000290: deed 3abe 0c0f 933e 358a 2abe c969 70be
000002a0: db64 c7be 15fc b83e f8de 54be 15d6 523e
000002b0: 048a 07bf 448b f4be 1d85 d83c f48f 8a3e
000002c0: 747c 383e 534e 383e 465d c9be b6c8 4ebd
000002d0: c0f6 1a3e b482 aabe df3a c1be 072e 07bf
000002e0: 5c04 d23d d0b8 683e 5e45 09bf c321 713b
000002f0: bf3d 253e 844e 10bf 135c 00bf 1de5 2cbe
00000300: d1a2 bdbe 7032 39bf 61b3 d8be ff54 dbbd
00000310: ea33 aa3e 14fc e23e 67c1 0fbf 1ce1 d8bc
00000320: a476 afbe d181 edbe f468 58be 8938 d73d
00000330: dbb3 54be 1cf6 d73d d718 2e3e d1f5 303e
00000340: dfb2 e6be 102e a73e 339b 13bf 05aa 3fbe
00000350: 2b08 21be 95ae 91bd 242c a7be 4279 9c3e
00000360: 4b98 21be 7895 febd 51c3 a63d 7a0a b8be
00000370: f54e a8be 34a1 e63d 3647 823e 200d 57be
00000380: df36 7c3c 1157 69be 369e 08bf 6e36 653e
00000390: 1afb d6be ff17 853d fecb 873e 63b3 d3be
000003a0: 7d64 e73e 4992 31bf d1e2 e0be 7416 9d3c
000003b0: a050 a03d d580 1dbd 85a2 813d 4f8d 6ebe
000003c0: 8ea8 e3be c81f edbe cd2f a73e 5411 61bf
000003d0: f8ea 05be 9ffe 693e 8194 afbd fae7 913e
000003e0: 2169 353e 98dd 283d 3d9f 28be 9c00 ebbe
000003f0: c2ec 6d3d 3210 ba3d 5ef5 283e ddfb babe

linear1.bias f4 [64]
-0.12153532 0.22434357 0.15105923 0.056177475 0.16718793 0.088728115 0.47336733 0.39428928
-0.28761715 0.42497015 -0.007476236 0.5792935 0.298681 0.08086845 -0.3239952 -0.051667806
0.2590901 0.022939777 -0.2923283 0.15355277 0.2975342 -0.45003483 0.22371334 0.0114358235
0.2726057 0.3557814 0.45896438 -0.15246037 -0.25561106 0.55374527 0.5102957 0.331178
-0.010999503 0.27801636 0.24161121 0.20704779 0.12696545 0.7575022 -0.11469386 0.23724788
0.4447781 -0.19786921 -0.21405235 0.08005513 0.52992177 -0.12852801 0.40726447 -0.13820826
0.54999983 -0.32962957 0.4557427 -0.17467742 -0.12499142 0.20812173 0.2747878 -0.08613539
-0.021317061 0.11636776 0.2882492 0.22580804 0.37511277 0.27951437 -0.17295948 0.3356656
00000000: 83e7 f8bd 52ba 653e 45af 1a3e 5a1a 663d
00000010: 5033 2b3e 16b7 b53d 345d f23e 49e0 c93e
00000020: 8e42 93be b095 d93e 37fb f4bb 944c 143f
00000030: b7ec 983e 5c9e a53d b3e2 a5be 9fa1 53bd
00000040: 75a7 843e 33ec bb3c 0eac 95be f03c 1d3e
00000050: 6756 983e f76a e6be 1c15 653e 525d 3b3c
00000060: f992 8b3e fb28 b63e 61fd ea3e 921e 1cbe
00000070: 74df 82be 40c2 0d3f bda2 023f 2a90 a93e
00000080: 4237 34bc 2958 8e3e ee68 773e 5604 543e
00000090: 3b03 023e aaeb 413f 9de4 eabd 1cf1 723e
000000a0: f5b9 e33e 3a9e 4abe 8a30 5bbe f2f3 a33d
000000b0: f4a8 073f d99c 03be f884 d03e 7786 0dbe
000000c0: cacc 0c3f 35c5 a8be 1b57 e93e a3de 32be
000000d0: 80fb ffbd dd1d 553e fdb0 8c3e c067 b0bd
000000e0: 1ea1 aebc 3852 ee3d 6695 933e 393a 673e
000000f0: c80e c03e 821c 8f3e 4a1c 31be 5ddc ab3e

linear2.weight f4 [64, 64]
0.06253493 -0.028128818 0.03739267 0.0891232 -0.05780079 0.16095443 0.1089989 0.039104026
0.10117833 0.13842969 -0.08056388 0.00035733025 -0.06395219 -0.045028538 -0.21845219 0.22854911
-0.123032495 0.038894102 -0.08747935 0.1454696 0.14397155 -0.02789776 0.169186 0.038564704
0.030403765 -0.083265886 0.0053256648 0.10334273 0.08062847 0.13089864 0.3784177 0.2511583
0.103852585 0.013973817 -0.07886714 0.08987361 -0.13146517 0.2820091 -0.12310088 0.102204375
-0.097262554 -0.039747607 0.028510088 0.10404551 0.1052275 -0.0004990321 0.04689172 0.09223989
0.18561436 0.09358022 0.23912853 0.0042580273 0.015437424 0.09827542 0.10382829 -0.10056465
0.17485347 -0.036315158 0.14813548 0.016500281 -0.08066431 0.08337984 0.06730758 -0.010002553
-0.09454043 -0.094386056 0.10793078 -0.078222334 -0.036209032 -0.017068535 0.0061894357 0.013316914
-0.026624009 -0.11179423 0.044627175 -0.045797378 -0.057359934 -0.012848169 0.042997196 -0.08321048
-0.07470001 0.039384604 -0.060249984 0.100777864 0.09954922 -0.12028749 -0.050534636 -0.09684762
0.03198664 0.11043647 -0.0022875965 -0.10909821 0.009967074 0.05520636 0.11619724 0.08255459
-0.01758945 -0.066403 -0.0019212812 0.08468343 -0.0047825277 -0.017974004 0.08806376 0.08415148
-0.039663866 0.010759264 0.11050539 -0.07529475 -0.053188547 -0.07882723 0.045221403 -0.04882124
-0.06646322 -0.10866915 0.06900014 -0.11194529 0.11355969 -0.12021063 0.09669429 0.024254039
-0.119922236 -0.054654285 -0.08366455 -0.07142584 0.11055234 -0.078720436 0.030195713 0.09635201
0.036433205 -0.033016145 0.04025417 -0.08970737 -0.02712293 -0.12814255 -0.118829265 -0.10171887
-0.05222665 0.05104708 -0.13197796 -0.07502112 -0.07116468 -0.093343556 -0.018635422 -0.013880056
-0.06428577 -0.04917276 -0.12383382 -0.030168591 0.10987429 0.007838875 -0.048092138 0.028133687
0.10287434 -0.082420394 -0.12837963 0.012999043 -0.0066539794 0.00030792534 -0.061422557 0.07690949
0.041392528 -0.10677171 -0.008569944 -0.045269087 -0.02073048 0.07391878 0.072802365 -0.101609096
-0.068279326 -0.11208323 0.021467933 -0.01507917 -0.12256336 -0.10832442 0.042172227 -0.026840135
-0.02643284 -0.058715 0.09860308 -0.08130834 -0.019421317 -0.04987277 0.08777689 0.017236484
0.05472772 -0.06877354 -0.010636031 0.058684517 -0.086772 -0.045006413 -0.021829814 -0.08857517
-0.062261295 -0.03008701 0.110298425 0.00052544894 0.15040265 0.19526006 -0.066925004 0.09587053
-0.124439284 0.2679966 -0.02082223 -0.061759062 0.06527658 -0.114307605 -0.27407232 0.18734935
-0.044744655 -0.09057446 -0.079549074 0.28724763 0.17685352 -0.11088602 0.14669997 -0.03009413
-0.012880673 -0.09284742 0.020437382 0.0004466772 0.11301391 0.16880241 0.15661694 0.18486412
0.16979796 0.028570548 -0.15706794 0.07764779 -0.2261778 0.18210103 -0.10927317 0.091605976
0.04608862 -0.12943721 -0.15786137 -0.07974793 0.13546489 0.094170526 0.03440767 -0.027478829
0.18604834 0.08689997 0.0909251 0.08696157 -0.021598062 -0.067795545 -0.046207562 -0.07280077
0.1600333 0.028636679 0.110549435 0.036204856 -0.16462328 0.2513127 -0.015727773 -0.086670995
00000000: 5012 803d 686e e6bc 0e29 193d 3986 b63d
00000010: 85c0 6cbd 3dd1 243e d13a df3d 8b2b 203d
00000020: 9636 cf3d 83c0 0d3e adfe a4bd 0e58 bb39
00000030: 5ef9 82bd d86f 38bd eeb1 5fbe c708 6a3e
00000040: 76f8 fbbd 6c4f 1f3d 6028 b3bd fcf5 143e
00000050: 476d 133e d889 e4bc 183f 2d3e 06f6 1d3d
00000060: 5111 f93c 4e87 aabd ea82 ae3b 5aa5 d33d
00000070: 8a20 a53d 4b0a 063e f7bf c13e d297 803e
00000080: aab0 d43d 70f2 643c 1885 a1bd a80f b83d
00000090: ce9e 06be 7f63 903e 501c fcbd 8750 d13d
000000a0: 9731 c7bd 63ce 22bd fd8d e93c d015 d53d
000000b0: 8481 d73d 7ad1 02ba 8811 403d 44e8 bc3d
000000c0: b111 3e3e fda6 bf3d 1cde 743e ec86 8b3b
000000d0: 40ed 7c3c a044 c93d eda3 d43d d7f4 cdbd
000000e0: ca0c 333e 34bf 14bd d4b0 173e 992b 873c
000000f0: 5433 a5bd 0dc3 aa3d 8ed8 893d c0e1 23bc
00000100: 6a9e c1bd 7a4d c1bd d00a dd3d 0833 a0bd
00000110: ec4f 14bd 50d3 8bbc c0d0 ca3b 302f 5a3c
00000120: 981a dabc 60f4 e4bd fcca 363d 0896 3bbd
00000130: 40f2 6abd 2081 52bc d41d 303d 426a aabd
00000140: 52fc 98bd c051 213d b0c8 76bd a064 ce3d
00000150: 76e0 cb3d 4a59 f6bd 68fd 4ebd 0c58 c6bd
00000160: 6c04 033d 842c e23d 80eb 15bb e26e dfbd
00000170: f04c 233c 1020 623d d2f8 ed3d 6212 a93d
00000180: c017 90bc 4cfe 87bd 80d3 fbba 826e ad3d
00000190: c0b6 9cbb 383e 93bc c65a b43d 9c57 ac3d
000001a0: 9476 22bd a047 303c a650 e23d 2234 9abd
000001b0: 3cdc 59bd 2c70 a1bd 143a 393d c8f8 47bd
000001c0: de1d 88bd ee8d debd f24f 8d3d 9243 e5bd
000001d0: fc91 e83d fe30 f6bd a807 c63d 68b0 c63c
000001e0: ca99 f5bd 2cdd 5fbd 5258 abbd b647 92bd
000001f0: 4469 e23d 2e38 a1bd 005d f73c 3454 c53d
00000200: fc3a 153d f03b 07bd 8ee1 243d 7fb8 b7bd
00000210: e830 debc cd37 03be c25c f3bd fc51 d0bd
00000220: 9deb 55bd be16 513d 3b25 07be aca4 99bd
00000230: cabe 91bd e82a bfbd 50a9 98bc 2d69 63bc
00000240: 42a8 83bd 6069 49bd 969c fdbd 1f24 f7bc
00000250: c605 e13d a06e 003c 43fc 44bd 9e78 e63c
00000260: c8af d23d 06cc a8bd f375 03be f0f9 543c
00000270: a009 dabb 0a71 a139 3896 7bbd b982 9d3d
00000280: 368b 293d 20ab dabd f368 0cbc 146c 39bd
00000290: f8d2 a9bc bb62 973d 6819 953d 6e18 d0bd
000002a0: 08d6 8bbd e48b e5bd 85dd af3c a00e 77bc
000002b0: 8002 fbbd 32d9 ddbd c9bc 2c3d d8df dbbc
000002c0: af89 d8bc 247f 70bd 69f0 c93d fd84 a6bd
000002d0: 7419 9fbc 6447 4cbd 5fc4 b33d 8733 8d3c
000002e0: 2c2a 603d 24d9 8cbd bf42 2ebc 2d5f 703d
000002f0: 85b5 b1bd a558 38bd 70d4 b2bc e666 b5bd
00000300: b305 7fbd 0879 f6bc 24e4 e13d 48be 093a
00000310: 2703 1a3e 41f2 473e fa0f 89bd c557 c43d
00000320: 06da febd da36 893e 6293 aabc 12f7 7cbd
00000330: baaf 853d 1b1a eabd 3553 8cbe 82d8 3f3e
00000340: 2c46 37bd 1a7f b9bd a0ea a2bd 1f12 933e
00000350: 1719 353e 3618 e3bd 8438 163e f787 f6bc
00000360: 7509 53bc ca26 bebd 4c6c a73c 0030 ea39
00000370: d673 e73d 8ada 2c3e 3160 203e 054d 3d3e
00000380: 84df 2d3e c80c ea3c 6bd6 20be ce05 9f3d
00000390: 279b 67be b178 3a3e 9dca dfbd ea9b bb3d
000003a0: 6cc7 3c3d 308b 04be 69a6 21be e252 a3bd
000003b0: 4fb7 0a3e 7adc c03d 0fef 0c3d 481b e1bc
000003c0: 7583 3e3e 9df8 b13d f036 ba3d e818 b23d
000003d0: 6bee b0bc 64d8 8abd 2444 3dbd 9218 95bd
000003e0: c5df 233e 7897 ea3c be67 e23d 8b4b 143d
000003f0: 0193 28be 0fac 803e 88d7 80bc 9080 b1bd

linear2.bias f4 [64]
0.037755176 0.019055516 -0.096907705 0.2323479 0.1293969 0.06480252 0.27104867 0.30039534
0.11501725 0.11213492 0.047687322 0.12368086 0.17331783 -0.072104365 0.15402807 0.19256291
0.12103383 0.14775237 0.12327643 0.15744086 0.012652267 -0.019307204 -0.09543671 0.25324294
-0.14997213 0.11233811 -0.0029718445 0.14730734 0.20002027 0.038524304 0.11713435 0.02212886
0.116833895 0.39935693 0.27086326 0.08477412 0.1179123 0.25922847 0.20197381 0.043077935
-0.0034864098 0.07538718 0.08119534 0.2557234 0.14378466 -0.05226478 0.14222105 0.17010798
0.3110252 -0.120430246 0.3070513 0.22383304 0.2177498 -0.0050303075 0.22642148 0.03825468
0.17819645 0.14691323 0.08105355 0.17821097 0.098322324 -0.047202785 -0.059237257 0.10033126
00000000: 2ca5 1a3d 501a 9c3c 8c77 c6bd 9cec 6d3e
00000010: 9f80 043e 2fb7 843d e4c6 8a3e 6bcd 993e
00000020: 2a8e eb3d fea6 e53d c853 433d 644c fd3d
00000030: 3b7a 313e 74ab 93bd 89b9 1d3e 362f 453e
00000040: 96e0 f73d 664c 173e 5a78 fc3d 2d38 213e
00000050: 744b 4f3c 242a 9ebc 5274 c3bd 0fa9 813e
00000060: 4b92 19be 8611 e63d 47c3 42bb bcd7 163e
00000070: 1dd2 4c3e a9cb 1d3d 22e4 ef3d 9547 b53c
00000080: 9c46 ef3d 8378 cc3e 97ae 8a3e 0e9e ad3d
00000090: 017c f13d 98b9 843e 39d2 4e3e 7d72 303d
000000a0: 407c 64bb 9864 9a3d be49 a63d 2dee 823e
000000b0: 493c 133e 9813 56bd 65a2 113e c930 2e3e
000000c0: b23e 9f3e 22a4 f6bd d435 9d3e 7d34 653e
000000d0: cef9 5e3e 47d5 a4bb 08db 673e f0b0 1c3d
000000e0: 2179 363e 6c70 163e 67ff a53d f07c 363e
000000f0: 375d c93d b557 41bd c4a2 72bd 7a7a cd3d

linear3.weight f4 [64, 64]
-0.026123159 0.07202263 -0.115003265 0.075032115 0.20963189 -0.05504102 0.20316331 0.112617314
0.06870599 0.067803346 0.0063960105 -0.0030102534 0.24328265 -0.051148772 0.13818842 0.04740276
0.10502088 0.2031776 -0.049152657 0.14383662 0.1309981 0.034433775 0.030675173 0.1078207
-0.21627389 0.03367588 4.1672058e-05 0.028333277 -0.021555638 0.15073514 -0.034947008 0.1653756
-0.014164378 0.22672196 -0.03678824 -0.020107478 -0.0023304839 -0.043165848 0.08161991 0.037504453
0.10419543 0.07361293 0.10180685 0.10370962 0.15113972 -0.047437772 0.09521624 0.042987637
0.042054296 -0.22041035 0.21899094 -0.032610375 -0.017866882 -0.024971336 0.24868956 0.007916838
0.1473576 0.15749587 0.11993773 0.091282606 0.13347037 -0.060344864 0.017073052 0.19053328
0.08272828 0.0714543 -0.085370794 0.11125466 0.1648981 -0.043729395 -0.031206625 0.13039048
-0.08451344 0.017377537 -0.047897115 -0.028224833 0.26669428 -0.054801032 0.14003792 0.2329797
0.15844029 0.13860637 -0.12266527 0.17205617 -0.07591226 -0.07230872 0.070123315 0.0034613123
-0.0010169157 -0.06588125 -0.05868338 0.06958473 0.1483317 0.0022566968 0.11123569 0.010910741
0.033087302 0.2768586 -0.0048679197 -0.0049455315 0.21193336 0.18250576 0.08501657 0.15414698
0.02184399 0.023530385 0.12070974 0.069212794 0.06035681 -0.0011518397 0.034814097 0.17886826
0.045208447 -0.06276927 0.24613985 0.020623472 0.17424633 0.0065721534 0.14540224 0.10463853
0.1789119 0.04190971 0.10209175 0.11799917 0.17640387 0.0079202065 0.08168921 -0.0071319095
0.06858509 0.060254082 -0.059983313 0.20893548 0.062837936 -0.022427414 0.14120002 -0.0018627805
0.030045971 0.08928183 0.09283179 0.14271966 0.2795427 -0.051117122 0.10404461 0.23626241
0.10865216 0.1701179 -0.0720904 0.110574394 0.067916535 -0.06991383 -0.0806379 0.00015840218
-0.10940462 0.09112443 -0.07048066 -0.033931714 0.085715175 -0.010009272 -0.112601355 0.049138594
0.10207779 0.17945816 0.11042113 -0.019333914 0.045836955 0.10830768 0.14327127 0.063229725
-0.10940731 -0.06571091 0.0074486034 0.16528967 -0.002196829 -0.07381186 -0.04241325 0.09751963
0.16700222 -0.08412223 0.25093845 0.15908742 0.15609688 0.12568675 0.0460781 0.059090734
0.035589788 0.17838791 -0.05377327 0.12152233 0.025318025 0.12331562 0.00027582864 -0.037692495
0.09800218 0.04584101 -0.055132702 0.2110091 -0.02797169 0.026866088 0.13949569 0.12068126
0.12039408 -0.07238648 -0.10860792 0.12239954 0.24018353 0.010320663 0.15888791 0.19603823
0.15551877 0.22011213 0.06316787 0.026602441 -0.097489566 0.1121055 -0.10760553 -0.014218462
-0.22773927 -0.08101949 -0.07782502 -0.034260888 0.012830969 0.12239528 -0.07079984 -0.012141326
0.04586721 0.12667643 0.04557917 0.05744794 0.0037595355 0.11419995 0.0060927114 0.061209492
-0.08664298 0.050709594 -0.013610589 -0.010068649 0.18024823 0.03144531 -0.033692244 0.1952912
0.08533928 -0.24056597 0.124511406 0.14882815 -0.023817642 -0.07868421 0.102932185 0.03242123
0.119428635 0.115721196 -0.007958111 0.18667343 0.17300299 0.05049296 0.028175699 0.11824931
00000000: 3c00 d6bc 9a80 933d d586 ebbd 70aa 993d
00000010: bea9 563e b172 61bd 0b0a 503e e8a3 e63d
00000020: bab5 8c3d 7bdc 8a3d a095 d13b ac47 45bb
00000030: 161f 793e 6081 51bd 4481 0d3e 6529 423d
00000040: 3015 d73d ca0d 503e 4c54 49bd e849 133e
00000050: 5e24 063e 6e0a 0d3d 804a fb3c 19d1 dc3d
00000060: e776 5dbe b8ef 093d 08c9 2e38 301b e83c
00000070: 7395 b0bc 505a 1a3e 9824 0fbd 3958 293e
00000080: b511 68bc cd29 683e 44af 16bd 70b8 a4bc
00000090: 08bb 18bb acce 30bd 5728 a73d 459e 193d
000000a0: 6a64 d53d 60c2 963d 1c80 d03d b665 d43d
000000b0: 5fc4 1a3e 1c4e 42bd bb00 c33d ce13 303d
000000c0: 2041 2c3d 40b3 61be 293f 603e 7592 05bd
000000d0: 915d 92bc b090 ccbc 7aa8 7e3e a0b5 013c
000000e0: e9e4 163e 9946 213e eaa1 f53d 60f2 ba3d
000000f0: 75ac 083e 2d2c 77bd c9dc 8b3c 281b 433e
00000100: 726d a93d a256 923d e2d6 aebd 7cd9 e33d
00000110: 0cdb 283e 981d 33bd 09a5 ffbc 1585 053e
00000120: 6215 adbd 565b 8e3c c42f 44bd c437 e7bc
00000130: 278c 883e 0c77 60bd 1a66 0f3e 3b92 6e3e
00000140: 2c3e 223e d4ee 0d3e ee37 fbbd 7e2f 303e
00000150: e377 9bbd 9816 94bd d09c 8f3d 2fd7 623b
00000160: 074a 85ba c0ec 86bd fc5d 70bd 7082 8e3d
00000170: 44e4 173e 17e5 133b 8acf e33d f7c2 323c
00000180: 8d86 073d 69c0 8d3e 1283 9fbb 200e a2bb
00000190: 0f05 593e cae2 3a3e 2b1d ae3d b5d8 1d3e
000001a0: 2bf2 b23c cbc2 c03c ab36 f73d 70bf 8d3d
000001b0: b438 773d 54f9 96ba 3a99 0e3d 3e29 373e
000001c0: 7e2c 393d 2d8d 80bd 160c 7c3e 8ef2 a83c
000001d0: a16d 323e 385b d73b 53e4 143e ba4c d63d
000001e0: ae34 373e 84a9 2b3d 7b15 d13d 8da9 f13d
000001f0: 37a3 343e c1c3 013c ac4c a73d cbb2 e9bb
00000200: 5776 8c3d fccc 763d 10b1 75bd 2ff3 553e
00000210: 2db1 803d b2b9 b7bc bd96 103e 8b28 f4ba
00000220: f822 f63c 64d9 b63d 981e be3d 1a25 123e
00000230: 3920 8f3e 3060 51bd 5715 d53d c6ee 713e
00000240: 0685 de3d 6333 2e3e 22a4 93bd d474 e23d
00000250: d317 8b3d fb2e 8fbd 7c25 a5bd c318 2639
00000260: 880f e0bd 729f ba3d 2a58 90bd fbfb 0abd
00000270: 708b af3d eefd 23bc 8a9b e6bd 8d45 493d
00000280: 290e d13d e1c3 373e 7924 e23d 2862 9ebc
00000290: 88bf 3b3d 6bd0 dd3d b4b5 123e 967e 813d
000002a0: f110 e0bd 7193 86bd 6a13 f43b b241 293e
000002b0: adf8 0fbb ac2a 97bd 84b9 2dbd 5fb8 c73d
000002c0: a102 2b3e 4748 acbd 017b 803e d0e7 223e
000002d0: dcd7 1f3e 07b4 003e 64bc 3c3d 2009 723d
000002e0: 99c6 113d 52ab 363e 5c41 5cbd b3e0 f83d
000002f0: bf67 cf3c e68c fc3d 189d 9039 7263 1abd
00000300: 5eb5 c83d c8c3 3b3d d4d2 61bd c512 583e
00000310: e324 e5bc 4516 dc3c f5d7 0e3e bd27 f73d
00000320: 2c91 f63d 5d3f 94bd d46d debd 9cac fa3d
00000330: acf2 753e 0018 293c 83b3 223e 3fbe 483e
00000340: 5040 1f3e 1365 613e 285e 813d 5ded d93c
00000350: 9ca8 c7bd 9297 e53d 4a60 dcbd 8df4 68bc
00000360: 7c34 69be 8ced a5bd b962 9fbd 2555 0cbd
00000370: fc38 523c 60aa fa3d 82ff 90bd 6aec 46bc
00000380: 41df 3b3d 77b7 013e 39b1 3a3d 884e 6b3d
00000390: 8a62 763b aae1 e93d 5ea5 c73b ceb6 7a3d
000003a0: e071 b1bd ddb4 4f3d f3fe 5ebc faf6 24bc
000003b0: fe92 383e cccc 003d e100 0abd 6bfa 473e
000003c0: 5cc6 ae3d ed56 76be d6ff fe3d 6866 183e
000003d0: 371d c3bc 3025 a1bd 1cce d23d 20cc 043d
000003e0: 0097 f43d 3cff ec3d bd62 02bc 5227 3f3e
000003f0: b227 313e b5d1 4e3d b9d0 e63c b22c f23d

linear3.bias f4 [64]
0.24683481 0.000719989 -0.001969102 0.06593046 0.07631292 0.22039303 0.025599182 0.11936368
0.0967203 0.14348587 0.11252379 -0.100539714 0.0428911 -0.073427394 0.22571932 0.033017606
0.106350616 0.07752325 0.161679 0.19735494 0.17419386 0.05455369 -0.039393544 0.036212437
0.0730207 0.015398219 0.073699065 0.033936933 0.00994736 -0.002305755 0.20923416 0.022859756
-0.058387637 0.13873558 0.06099318 0.019160941 0.21111026 0.029966582 0.22153753 -0.14030285
0.19343163 0.19864397 0.0806185 0.10755245 0.03288788 -0.017175352 0.20046777 0.09860221
-0.0054730326 0.039620187 0.09447482 0.14578794 -0.32400927 0.16349454 0.096947305 0.09650494
0.10191153 0.06540984 0.052538507 0.10486027 0.19318607 -0.107764795 0.018685631 0.075106874
00000000: 44c2 7c3e a5bd 3c3a 0d0c 01bb 8d06 873d
00000010: f349 9c3d b6ae 613e 60b5 d13c f274 f43d
00000020: 4b15 c63d f6ed 123e df72 e63d c4e7 cdbd
00000030: 94ae 2f3d 1a61 96bd f722 673e 783d 073d
00000040: 5ace d93d 82c4 9e3d 2e8f 253e 6a17 4a3e
00000050: e05f 323e b173 5f3d 205b 21bd 7e53 143d
00000060: e08b 953d d048 7c3c 89ef 963d 7401 0b3d
00000070: 40fa 223c 261c 17bb 7b41 563e 6244 bb3c
00000080: e027 6fbd b310 0e3e fcd3 793d 68f7 9c3c
00000090: 4a2d 583e 7a7c f53c bcda 623e 8dab 0fbe
000000a0: f112 463e 5369 4b3e 501b a53d 7544 dc3d
000000b0: 71b5 063d 53b3 8cbc 6c47 4d3e f5ef c93d
000000c0: 2057 b3bb c748 223d 047c c13d 6f49 153e
000000d0: 8be4 a5be 1d6b 273e 4f8c c63d 62a4 c53d
000000e0: feb6 d03d 98f5 853d 9e32 573d fbc0 d63d
000000f0: 92d2 453e cab3 dcbd 9c12 993c a2d1 993d

linear4.weight f4 [1, 64]
-0.100516476 -0.08242328 -0.072523125 -0.07930633 -0.07949718 -0.075788334 -0.0015875745 -0.11405293
-0.0050124396 -0.11146646 -0.08732875 -0.0017564629 -0.07887986 -0.0025921748 -0.1001901 0.0026317448
-0.018167607 -0.072610006 -0.09815048 -0.14785914 -0.0677485 -0.015232958 0.000450192 0.006001711
-0.098230794 0.0020997361 -0.09340609 -0.0692873 0.0019310006 -0.001853004 -0.087815166 -0.078107685
-0.0018683131 -0.06970705 -0.10953477 -0.078262776 -0.077664964 -0.07202101 -0.09018012 -0.0020249616
-0.09867469 -0.06774915 0.0018793162 -0.08488538 -0.07523738 -0.006980562 -0.12254395 -0.0711976
0.0029177703 -0.077172965 -0.072094195 -0.08178159 0.2944186 -0.07908178 -0.1041825 -0.083943985
-0.06645705 -0.09504406 -0.082609944 -0.113374405 -0.07708282 -0.08688967 -0.07320545 -0.07399626
00000000: 95db cdbd 89cd a8bd 0187 94bd 5b6b a2bd
00000010: 6bcf a2bd ea36 9bbd 2916 d0ba 9594 e9bd
00000020: 643f a4bb 8748 e4bd 6ad9 b2bd 1d39 e6ba
00000030: c48b a1bd 7ae1 29bb 7830 cdbd 5a79 2c3b
00000040: 3cd4 94bc 8eb4 94bd 1e03 c9bd 6368 17be
00000050: babf 8abd a893 79bc bf07 ec39 00aa c43b
00000060: 3a2d c9bd ba9b 093b b14b bfbd 80e6 8dbd
00000070: a119 fd3a 7fe0 f2ba 70d8 b3bd ecf6 9fbd
00000080: 2fe2 f4ba 92c2 8ebd c453 e0bd 3c48 a0bd
00000090: cf0e 9fbd c07f 93bd 5bb0 b8bd 38b5 04bb
000000a0: f515 cabd 11c0 8abd 6353 f63a 63d8 adbd
000000b0: 0e16 9abd 33bd e4bb 53f8 fabd 0cd0 91bd
000000c0: 1038 3f3b dc0c 9ebd 1fa6 93bd 1b7d a7bd
000000d0: 09be 963e a1f5 a1bd a25d d5bd d3ea abbd
000000e0: a21a 88bd 76a6 c2bd 672f a9bd d730 e8bd
000000f0: 99dd 9dbd 36f3 b1bd bdec 95bd 5a8b 97bd
