models/noCBF_2025-11-17 19:41:32/1/Q2.pth (torch, 37764 bytes, 7 tensors)

linear1.weight f4 [64, 5]
00000000: af18 bcbe 2eca e4be dd8f 5f3e b666 41be
00000010: 990a 3abd 114a 05bf a8f5 27be fb56 bd3e
00000020: e099 06be 314b cebc 186b cfbe c4d3 95be
00000030: 9222 5d3e 040b 9e3d cad0 35be 1844 e0be
00000040: 409e cf3c bd08 783d 761a 9abe 32f3 1cbe
00000050: 178d 193c 3b05 00bf 98e6 ca3e e217 64be
00000060: f666 2cbf 64ca 713d a5e8 b73e 2bfc 093e
00000070: 13dd d63e 60e7 693f 14e2 cf3d 6d0c dcbe
00000080: 224b acbe 5904 d9be 12f8 7c3e 2c80 0cbf
00000090: d78c 903e c5e2 f23d 9988 aabe 8ff5 a9bd
000000a0: d62a 29be c022 03bf a17a dc3e 4b53 9fbe
000000b0: d460 35bf 7a8e c03e 4aa8 e93d eff6 e13e
000000c0: ffa9 823e 6efe 25be 3267 08bf c4b1 b2be
000000d0: da59 6cbe 15d5 113e 4393 13bf 57dc 8e3d
000000e0: 3325 8f3e f0ee d13d 6d8e c33e 87f9 683e
000000f0: 1f6c 423e 58af 8b3e 4b47 97be e72a e3bd
00000100: d53f b4be 79e7 ebbe 7e84 a1be 6f40 9d3a
00000110: 736b 2bbf 330d c4be fe09 cdbe 67ec fbbe
00000120: 720a ca3d e414 3dbd b373 993d b6d3 d03c
00000130: 114e eabe 0c3f 123e 00df 28bf 04a1 85bc
00000140: bbea a6be 8750 cc3c 2a54 243e 14a9 f9bd
00000150: b673 9ebe 80b1 013e 43a3 483e a8fa f1bd
00000160: aeba 26bd a734 c23e 3752 93be 76aa 323e
00000170: f08a 503e 1f86 4cbe fab2 7abe d37e b0be
00000180: de13 723e 4e83 9b3e bef8 b9be eb5e 82be
00000190: fe9b 0fbf bb5d b3be f8b3 c53e a8ee 1b3c
000001a0: b8f5 9f3c 544e 4cbe b5d3 c7bd 264d 513e
000001b0: 1fa2 8ebe 052e 75be a34f 0cbf a997 dfbe
000001c0: a762 5e3e e768 0bbf 9540 3abe 0da5 f1be
000001d0: 0dd7 813e 4722 6a3e dfbb 90be 8ae9 82bd
000001e0: 35ee bfbe 327f 183e c4ab 59be 6478 f1be
000001f0: 8c51 a4be ba50 f2be bacd b0be b5bd db3e
00000200: 1810 05bf 39d4 00bf a837 dbbe 1d5f e0be
00000210: 24c8 c53d 8202 48bf c687 9e3b 2720 88be
00000220: 91e3 28be b72c 373d 14bc 7dbe 1104 a73c
00000230: 2c20 cabe e10f a73e 8ae8 083e e063 a23d
00000240: b704 1fbe c009 f7be 1ebe cc3b 5104 c2bd
00000250: b201 913e 6df9 a13e c390 c2be 6a93 17bf
00000260: b677 ae3c 8f10 a3be 2988 1bbf e1ca a9be
00000270: e793 a9be 2ac1 c33e 64aa 55bd 42c0 fdbe
00000280: be89 6d3e 6782 4c3b fee8 d6be b827 853e
00000290: dabf df3e ac3f f6be daf3 7abe d30a 4bbe
000002a0: d7a9 1ebf 5c3b edbe c6e6 a23e 4c62 673e
000002b0: 31ef e3bd 8c31 febd 7142 81be b88a e1be
000002c0: 6c88 80be b17d 10be 98fc febe 61c6 f8be
000002d0: 5b39 b53e 677f c93e 13f5 bd3e 785a 7cbe
000002e0: 8707 153f dcf8 813e 978c 973d dd7e c4bd
000002f0: dc2d 70be 2b64 c2bd fdcd 1ebd ffaa 143f
00000300: 2b01 80bd e525 b23e 8bc2 573e 27ef 053f
00000310: efc7 3cbe d5cb 843e 9fce 3c3f 64f0 b53e
00000320: 714b adbc 5516 c0be 7ed9 4a3e 65a0 4abf
00000330: efac 59bf 51f1 de3e 0834 9c3e 6458 53be
00000340: aded 2ebd db84 8dbe 19c2 543e d5d9 8cbe
00000350: b438 893e 4f5a 113e 7ce3 34bf a5ff 1a3f
00000360: 8d52 403e a80b f73c acc2 cb3d 664f e63e
00000370: 722e 7b3e 999b 7cbe c3a5 92be 9186 e2be
00000380: 12c9 19bf f8b7 c4bd 773e bd3e 3d1c cabe
00000390: 7ebd cdbe ab65 a33e 63d3 7cbd 4a31 2ebe
000003a0: 5a5d 03bf 7567 8dbe e0c9 933c eeaf debe
000003b0: aca2 b7bc e7a8 cbbe 399d a9be 4ac3 543d
000003c0: 0128 2c3e f23a aa3e df3a a4be e8d2 d03c
000003d0: 2309 553e e606 88be ff30 12bf f79c c43d
000003e0: 93f4 f6be b85c f7be e6a8 7ebc ed23 b3be
000003f0: 38ef cabe 8245 55be bce8 c7be 594e babd
-0.36737582 -0.446855 0.21832223 -0.18886837 -0.045420263 -0.5206614 -0.16402304 0.36980423
-0.13144636 -0.025182338 -0.40511394 -0.29263127 0.21595219 0.07716945 -0.17755428 -0.4380195
0.025344014 0.06055521 -0.30098313 -0.15327147 0.009372017 -0.5000798 0.39629054 -0.22274736
-0.67344606 0.059030905 0.3591968 0.134751 0.4196554 0.91368675 0.10150543 -0.4297823
-0.33651072 -0.4238613 0.24704006 -0.54883075 0.28232452 0.11859659 -0.3330734 -0.0829879
-0.16520247 -0.512249 0.43062308 -0.31118235 -0.70850873 0.376087 0.11409052 0.44133708
0.25520322 -0.16210338 -0.53282464 -0.3490125 -0.2308115 0.1424144 -0.5764658 0.0697562
0.27958068 0.10250652 0.381946 0.22751437 0.18986557 0.27282214 -0.2954658 -0.11092167
-0.3520495 -0.46075037 -0.31546396 0.0011997352 -0.6696083 -0.3829132 -0.40046686 -0.49203798
0.098652735 -0.0461625 0.07492771 0.025491577 -0.45762685 0.14281863 -0.6596527 -0.01631213
-0.3260096 0.024940742 0.16047731 -0.12190452 -0.30947655 0.12665367 0.1959353 -0.11815387
-0.040705375 0.37930796 -0.28773662 0.17447838 0.203655 -0.19973038 -0.24482337 -0.3447176
0.23640391 0.30373615 -0.36322588 -0.25463042 -0.560974 -0.35032448 0.38613868 0.009517349
0.019526348 -0.19951755 -0.09757177 0.20439586 -0.27858064 -0.23943336 -0.54809016 -0.43670395
0.2171732 -0.54456943 -0.18188699 -0.47196236 0.25359383 0.22864638 -0.28268334 -0.063922
-0.37486425 0.14892271 -0.2125693 -0.47162163 -0.32093465 -0.47327214 -0.34531957 0.42918172
-0.5197768 -0.50323826 -0.428159 -0.43822566 0.096573144 -0.78128827 0.004837963 -0.2658703
-0.1649306 0.044720378 -0.24778777 0.020387681 -0.3947767 0.32629302 0.13369957 0.07929206
-0.15529142 -0.48249626 0.0062482497 -0.094734795 0.28321606 0.3163561 -0.3800107 -0.5920931
0.021297317 -0.3184857 -0.6075464 -0.33162597 -0.33120653 0.3823331 -0.05216445 -0.49560744
0.23197076 0.0031205656 -0.41974634 0.26006866 0.4370106 -0.48095453 -0.24507084 -0.19828348
-0.61977905 -0.4633435 0.3181669 0.22596091 -0.111296065 -0.12411794 -0.25246003 -0.44051147
-0.25104082 -0.14110447 -0.4980209 -0.4858885 0.3539532 0.39355013 0.3710104 -0.24643886
0.5821461 0.25385177 0.07399862 -0.0959451 -0.23454994 -0.09491762 -0.038770664 0.5807342
-0.06250223 0.34794536 0.21070306 0.5231804 -0.18435644 0.25936761 0.7375278 0.35534966
-0.021154137 -0.37517038 0.19809529 -0.7915099 -0.850295 0.43543485 0.30508447 -0.20639187
-0.042707134 -0.27640423 0.20777167 -0.27509943 0.26801074 0.14194606 -0.70659614 0.6054633
0.1878149 0.030156925 0.0994924 0.4498245 0.24529436 -0.24668731 -0.2864209 -0.4424329
-0.60072434 -0.09605402 0.3696172 -0.3947467 -0.40183634 0.31913504 -0.06172503 -0.1701099
-0.5131432 -0.27617994 0.018040597 -0.434936 -0.022416435 -0.397773 -0.33127764 0.051944055
0.16812135 0.33248097 -0.32076165 0.025491193 0.20804267 -0.26567763 -0.5710601 0.09600251
-0.4823347 -0.48312926 -0.015543198 -0.34988347 -0.39635634 -0.20827296 -0.3904475 -0.09096975

linear1.bias f4 [64]
00000000: cd4e 163f 9586 823e 784b a73d 18f3 253f
00000010: 73be 3bbe 1c00 6dbe ea20 583e f3b1 0f3f
00000020: 61a6 d13e eecb 43bd 038a 053f 1914 1bbf
00000030: 9966 60bd 79f1 8e3e 4f77 7e3e 9f44 053e
00000040: f257 1dbd 2131 fe3d af93 053f fdbc 883d
00000050: 6d24 f7bd 534e afbc c8c9 53bd 5bf5 d03e
00000060: 961c 2d3e a3e8 203f 7ceb 963e fc44 953d
00000070: 79cb 123f fa36 68be 1224 a53e 35e8 25be
00000080: c783 32be 17e1 b03e b2cd e6bd ea21 5d3d
00000090: 5e69 9c3d 60c0 dbbe 0ae6 e03e 8f79 20bf
000000a0: 97f4 1e3f 8e3a ae3e 4da5 22be 2d16 813e
000000b0: 00f8 713e 91bd 5f3e e48b e9be 4a4f 08be
000000c0: b775 74be f15b 94bd 7a56 58be 8ec2 d33e
000000d0: fe48 2fbe d11d b13e 5996 053f dacf 56be
000000e0: e643 293f 5259 e53e f1f0 29bd 0e5f 483e
000000f0: f3a6 d7be 7905 803e a162 e0be 1f31 19be
0.5871399 0.25493303 0.081686914 0.64824057 -0.1833437 -0.23144573 0.21106306 0.56130904
0.4094725 -0.047801904 0.52163714 -0.6057754 -0.054785345 0.27918604 0.248502 0.13014458
-0.03841395 0.12411714 0.5217847 0.06676672 -0.120674945 -0.021399653 -0.051706105 0.4081219
0.16905436 0.62854975 0.29476535 0.07288548 0.57341725 -0.22677222 0.32254082 -0.16201861
-0.17433082 0.3454673 -0.11269702 0.05398742 0.07637285 -0.42920208 0.43925506 -0.62685484
0.62091964 0.3402905 -0.1588337 0.2521223 0.2362976 0.21849658 -0.4561454 -0.13311496
-0.2387303 -0.07244099 -0.21126738 0.4135937 -0.17117688 0.3459306 0.5218254 -0.20977727
0.6611923 0.44794708 -0.041489545 0.1956751 -0.4211956 0.25004175 -0.43825248 -0.14960144

linear2.weight f4 [64, 64]
00000000: 4776 e6bd cadd 803c a0af f9bd 11cc 64be
00000010: 2e81 55bd 1c81 353e 5cbc 533d 2034 41bd
00000020: 98aa d83d a0a3 023e f612 42be fdb6 873e
00000030: c42b a2bd 9dee b23d caee 2ebe c9d4 b1bd
00000040: 88e2 313d 14f1 9b3d 7aa0 1fbd f895 423d
00000050: 57bd 03bd 24e1 553d d6c9 02be df4d 69bd
00000060: 10e6 333d 6967 1e3c 71eb 9abe 579b 8cbe
00000070: 893d 1ebd 1a94 0ebe 3907 80bc a414 413d
00000080: 2efa e33d 0a1d 72bd 1d51 d33d 2048 0a3e
00000090: b77e b83d 40da 11bc 7998 7cbe 8887 393d
000000a0: b7f5 f1bb 887a 80bc 1688 ce3d 2150 363e
000000b0: 8023 4abb 8ea6 a6bd f0f2 6f3c 4060 2abb
000000c0: 34a1 dc3d 027d 39be 00d0 b439 7bfe 073b
000000d0: b47a 29bd 78b4 a7bc afbf f53d 3b98 563e
000000e0: 4ee2 c8bd 4bc8 233e 4e5e a43d 20fc a7bc
000000f0: 444f 403e 0f2e c1be ac63 11bd 75e3 233d
00000100: 088b 413e 0173 2b3d ecee 9a3d 95fd 553e
00000110: 47f2 b63d 7518 64be 60ea e3bd 463e 3f3d
00000120: 2d5c b8bb ec65 cf3d 5245 fe3d e673 73be
00000130: 1c46 f13d 5528 3b3e 910e 333e bdcd a13d
00000140: b91a dc3d bcc0 7d3d 55b0 4abc 5201 08bc
00000150: a1f5 403d afde 123e 490b 693e f920 4e3c
00000160: e06e 43be c3c2 26bc f1b4 6d3e 6e81 463e
00000170: 2b3e 263d e531 70be b903 e43d 1ebb 20bd
00000180: 78e5 d3bd 7d18 2a3e 2098 6ebd 3264 4e3e
00000190: 645d f6bc 648c 28bd e841 7c3e 7a26 8c3d
000001a0: a4ea 213d 1e98 96bd 3626 a23d a2fd 90be
000001b0: 275c b73c 2ed7 97bd 1a7c 6abe 5a8c f4bd
000001c0: 30d2 ba3c 697a 873e f45c 4ebe 19b8 8e3d
000001d0: ee58 b83b 01a2 1ebe ee49 7cbd 4bef 91be
000001e0: bafe 5a3d 9d33 323d 677c a13d 19e3 7abd
000001f0: e04a 07be 7543 3f3e b2df 983d 6416 9dbc
00000200: 4f23 953c dc3e 81bd c709 f43d 271b e03d
00000210: f9eb 333d 01de aebe 4dd7 0cbd 2ca0 293d
00000220: a61a f23c a2bb 5fbd 012a d43d 406e 5bbe
00000230: b0ec e63c a75d 6f3e 0aae ee3d e6ff 793d
00000240: 6b9d 063e 603f 133d f66b 833d cf30 43bd
00000250: 16f6 203e a32f 05bd 23ce f23d a2d2 ff3c
00000260: 010a 87bd 8150 1a3e 7bb6 8e3d 4ac2 e93d
00000270: 4224 1e3c 2dca 6dbe b056 0e3e afe1 a73d
00000280: b2de e1bd e4f7 6a3e 7eec 9cbd e033 343e
00000290: 3da9 b1bd 902b 62bd 5ee1 843d 91c0 f8bd
000002a0: 16d5 d73d c671 b2bd aa79 a93d 2e74 9dbe
000002b0: 83c3 29bd dc58 1cbd cd73 24be 0abd 983d
000002c0: 401a b6bb 4d05 253e 3b9d 35be 780a f33c
000002d0: 1e83 2ebd c2de e9bd 5fb1 9e3d 9c2b a0be
000002e0: ced2 9dbc b3fd c5bc 01b1 38bc d444 c03b
000002f0: 2b1e 553d da46 983e 0cca 6f3d 5a99 4d3d
00000300: 1e9a a6bd fca8 40bc 5ae8 933d 01df 593d
00000310: f8c9 8abc 62cb bf3a c891 a9bc 817d d53c
00000320: 050f 02bd b110 b3bd e8cf 95bc faba c93c
00000330: e0a4 6dbd 96b6 a0bd 4150 643c 4af1 f9bd
00000340: 3bae 86bc b828 09bd 8f14 cebc 70f5 7abd
00000350: 74b2 a4bd 0993 233d ec4f f8bd 9e1a 443d
00000360: 10ca 343d 1346 e33d c055 12bc e588 77bd
00000370: 9b47 723d da8a dcbd bc46 babd 10a2 9039
00000380: 3092 12bc 02b1 8dbd 6229 fbbd 54e5 103d
00000390: e911 c33d a28b a73d 800e 8e3a c596 64bb
000003a0: 28b3 96bd a4e0 073d 8d16 28bd da0d fabc
000003b0: 8022 e0bb 6cb2 a73d f4b7 4cbd c0cb 3dbc
000003c0: 98af 51bd 9260 12bd d09f 713d 5df5 513b
000003d0: 9285 c2bd 90a4 9cbd cc73 d8bd 952a 3a3c
000003e0: 2d45 9a3d a295 a4bd 5b0a d6bd 1914 923d
000003f0: 1a66 b33d 2e06 dfba 5428 953d d7d3 a33d
-0.11253028 0.015730757 -0.12191701 -0.2234347 -0.05212515 0.17725033 0.051693305 -0.04716885
0.10579413 0.1275773 -0.18952546 0.26506796 -0.07918504 0.08736918 -0.17083278 -0.08683164
0.043428928 0.076143414 -0.0389714 0.047506303 -0.03216299 0.052216664 -0.12772307 -0.05695903
0.043920577 0.00966821 -0.30257753 -0.27462265 -0.038632903 -0.13923684 -0.015628444 0.047138825
0.11131702 -0.059109725 0.103182055 0.13504076 0.09008544 -0.0089021325 -0.24667539 0.04529527
-0.007384028 -0.015683427 0.1008455 0.17804004 -0.0030843914 -0.081372365 0.014645323 -0.002599731
0.107729346 -0.18114093 0.00034487247 0.0020751047 -0.041376784 -0.020471796 0.11999451 0.20956509
-0.09808789 0.15994374 0.080258 -0.020505965 0.18780237 -0.37730452 -0.035495445 0.04001184
0.18900692 0.041857723 0.07565102 0.20897515 0.089329295 -0.22274955 -0.11128688 0.046690248
-0.0056262226 0.10126862 0.124155656 -0.2377468 0.117809504 0.18277104 0.17486025 0.079005696
0.107472844 0.061951384 -0.012371142 -0.008301096 0.04710925 0.1434276 0.22758211 0.0125811035
-0.19085264 -0.010178271 0.23213555 0.19385311 0.04058663 -0.23456533 0.111335225 -0.03924095
-0.10346502 0.16610904 -0.058250546 0.20155409 -0.030073829 -0.041149512 0.24634516 0.06843276
0.03953041 -0.07353233 0.079174444 -0.28318506 0.022382809 -0.07414089 -0.22898903 -0.119408324
0.022805303 0.2646058 -0.20152646 0.069687076 0.0056258356 -0.15491487 -0.061593942 -0.2850288
0.053465582 0.043506254 0.07885056 -0.061251733 -0.13212156 0.18678077 0.074645415 -0.019175716
0.018205313 -0.063108176 0.119159274 0.10942679 0.043926213 -0.3415375 -0.034385014 0.041412517
0.029553723 -0.0546223 0.10359574 -0.21428776 0.028189033 0.2337557 0.11654289 0.06103506
0.13145988 0.03594911 0.06417076 -0.04765397 0.15718874 -0.032516133 0.11855724 0.031228367
-0.06593705 0.15069772 0.06968399 0.11414011 0.009652199 -0.23221655 0.13900256 0.081973426
-0.11028804 0.22946125 -0.07662295 0.17597914 -0.08674858 -0.055217326 0.06488298 -0.12146104
0.1053869 -0.08713107 0.08275159 -0.307527 -0.04144622 -0.03817068 -0.160598 0.07457931
-0.0055573285 0.16115303 -0.1773576 0.029668078 -0.04260551 -0.11419441 0.077486746 -0.3128327
-0.019265559 -0.024168825 -0.01127267 0.00586758 0.052030724 0.29741555 0.058542296 0.050195076
-0.08134864 -0.011759039 0.07222052 0.05319119 -0.01694201 0.0014632756 -0.020699397 0.026060821
-0.031752605 -0.08743418 -0.018287614 0.02462529 -0.058018565 -0.078473255 0.01393515 -0.12204225
-0.016440501 -0.033486098 -0.025156287 -0.061269224 -0.0804185 0.039935146 -0.12124619 0.047876947
0.044138014 0.1109735 -0.008931577 -0.060433287 0.05915032 -0.10768671 -0.09095523 0.00027586566
-0.008945987 -0.06918527 -0.122637525 0.035374954 0.095249005 0.0818093 0.0010838062 -0.0034879905
-0.0735839 0.03317322 -0.04103713 -0.030524183 -0.00684005 0.08188328 -0.04998012 -0.011584222
-0.05119285 -0.035736628 0.0589903 0.0032037117 -0.09498133 -0.07648575 -0.105689615 0.011362691
0.075327255 -0.08036353 -0.10451194 0.071327396 0.08759709 -0.0017015391 0.072830826 0.079993896

linear2.bias f4 [64]
00000000: 385f 93be b095 ac3e d8d6 513e 2b8f 493d
00000010: b025 d0bd 00c6 313d 5c7c f63d cc77 2c3d
00000020: f073 3e3e 5d07 913e d0f1 333c 40c4 14bb
00000030: 73e9 693e 406f 2e3c bad4 f03c b267 1cbe
00000040: fbe5 903d fa0c 89bd 0d0b 973c 7be5 1e3e
00000050: 31c0 513e 69b3 983e 118c 92be 4f2d ebbd
00000060: e14f 313e 7822 fb3d 8c3d b83d 4cf7 993d
00000070: d2b8 143e 84a5 60bd 8370 6abd 7b5e 94be
00000080: 5a84 b23d a401 773e 5723 a33d de99 563e
00000090: 7af0 843d b935 ab3d a452 863e 683f c5bd
000000a0: c369 733d 01e0 9c3d 26cf 483d 291a 303e
000000b0: da04 30bd cc86 b43d 3682 d63a 509c 473e
000000c0: 17ba 513e 00ff e83d ab5d c03e 524f 0a3e
000000d0: 0552 753e a8f1 af3c edc0 a93d f82c 033d
000000e0: f31f 943d e6f5 c1bd c181 97bd 7d84 343e
000000f0: 1295 943d 46a1 c1bd ac69 773e 2210 a0bd
-0.28783584 0.33707952 0.20492113 0.0492088 -0.10163438 0.04340172 0.120354384 0.042106435
0.18598914 0.2832593 0.010982946 -0.0022699982 0.2284296 0.010646641 0.02939831 -0.15273932
0.07075115 -0.06691928 0.018437887 0.15517227 0.20483471 0.2982438 -0.28622487 -0.11483251
0.17315628 0.12262434 0.08996114 0.07517871 0.14523628 -0.054845348 -0.057236206 -0.28978333
0.0871665 0.2412172 0.07965725 0.20957133 0.0649118 0.08359856 0.26234925 -0.096312344
0.059427034 0.07659913 0.049025677 0.1719748 -0.042973377 0.08814773 0.001636571 0.19493222
0.20481144 0.113767624 0.37571463 0.13506821 0.23957069 0.021477535 0.08288751 0.032025307
0.07232656 -0.094707295 -0.073977955 0.17628665 0.072549954 -0.094545886 0.24161404 -0.07815577

linear3.weight f4 [64, 64]
00000000: 69be 8fbe 123b 1b3e a033 ae3d 4ccb 81bd
00000010: aa09 fb3d 1983 25bd bca5 403d bc3a 5fbd
00000020: 48c2 873d 909d c53c 2aeb 91bd 4025 103b
00000030: fa66 e83c 84e8 78bd e849 8cbd cdb9 37be
00000040: 9d7e 133e 14fb 03bd 1860 7bbd 3c7c 423e
00000050: d53a 47bd 6898 363e 10b4 41be 90c5 80bd
00000060: 1662 3d3e 878b 083d 80bf b73d c2d4 2a3e
00000070: e406 d33d c09f b93c 7e3c 243d 4041 19be
00000080: f0e7 fe3d 0214 a03a 0da1 ea3c 56f8 d23d
00000090: 1f1f 383d 5baa 063e b3d8 f33d 8ae5 e9bd
000000a0: 8530 7f3c 9e94 513d 2085 fcba 0f5a e33c
000000b0: fcf2 e63d dcaf 10be e8cf a33c 61b3 413e
000000c0: af4f 8a3d 6fea 223d 5e27 4e3e 3f51 2d3e
000000d0: 8f06 3c3d 4c8e 3e3d c878 98bd 6a57 e13d
000000e0: fb7e 123e 9063 3b3d 0667 5c3e 2aa8 d53d
000000f0: 0eb6 743d d070 eb3d 6426 743e 1c66 4abd
00000100: fc2c 43be cfc1 783e b361 fc3d 790a 383b
00000110: 9cbe d63d 2c77 b3bc 2b8c 093e e60e dc3d
00000120: a428 313e c1c3 163e 48cb b93c 7a2a ac3d
00000130: e3fc 053e e8d9 89bc f057 80bd b4af 9bbe
00000140: 59ff 403c ce9f f43c daf7 a4bd d5f4 0dbc
00000150: 0078 82bd 5a96 253e c893 81be aff7 ddbd
00000160: d37e a03d 6b0a d2bb 50b5 b5bc e0a7 6bbd
00000170: 1d2b a43d ea73 f3bd 7d77 37bd a073 57be
00000180: c6f3 c5bd c0c7 c03d 08ec dcbc 6f96 1f3d
00000190: fdb1 d63d 6e93 1a3e 5c4e 263e ae8c 8a3d
000001a0: 64fc 0abd 09b2 0f3e 1faa 9b3d 9d96 2bbd
000001b0: a63e d23d 3ec2 eebb ffdc 173d a659 be3d
000001c0: 78ab aa3d 2cca 123d 2b57 563e 8276 233e
000001d0: 350f b53c 3848 10bd c5dd 1cbd 4627 e9bd
000001e0: 32ae 993a 047f 693d e10d e1bc 2924 353e
000001f0: 3241 423e f0f9 cdbd ebcd 683e 4056 0b3c
00000200: 359d 6abe 6ee8 5f3e d462 3a3e ac48 253d
00000210: fcd7 c1bd ca74 6abd 24e0 a73d 7ca9 f03d
00000220: b3ce c33d 173c 4d3e 847d f73d a01d e43c
00000230: 87a7 9e3c 2cac 5d3d f540 8ebb 7f28 12be
00000240: 8cfb c93d 5d9c 7abd cabc 63bd bc5f 493d
00000250: d629 773d 6fc7 563e 4703 32be 1d2c b13d
00000260: 661e 083e 78bd 3b3e 0610 86bd 660b e43c
00000270: 0b1a 073d d6a0 f2bd 2b84 ed3d a8d1 90be
00000280: 0473 9c3d f328 4b3e 73da 893d 4716 813d
00000290: b726 d2bd f8bf 2b3e 814c c23d 40be 1cbb
000002a0: 623c 043e ea57 b83c de3f 813b aad6 7d3d
000002b0: 9f36 82bd 888b e4bc 3e2f a3bd ed23 b53d
000002c0: e4ee 0e3e f61f 53bc 40ac 8d3e bcb9 993d
000002d0: 701a 273e 3cfb 053d 3d57 d4bd 4a34 f9bd
000002e0: d93c 08bc 7e3e e1bd 5b47 8b3e 91a2 923d
000002f0: 9886 b73d b00c 56bd fe46 073e 648a 4abd
00000300: 606a b1bd c8aa e43d 2df1 e63d c04b b33c
00000310: 047b 4dbd fad1 233d 9b57 3a3d 88f8 ed3c
00000320: 919a b23d a692 e3bd 403f dfbb 9ebe 85bd
00000330: e6e9 163c acdb ed3d a0eb c1bd e8a5 95bd
00000340: b007 ec3d 1a8b 9dbd b421 07bd eea9 6d3d
00000350: 30fc a1bd f118 eabc 05b0 963d 421b cb3d
00000360: ac9c 09bd 58ef 903c 70f0 cabd 099d 783d
00000370: 1c5e a83d 3010 abbc b07b 513d 3c5b 8f3d
00000380: e0c2 ed3d 632e eabd 7e39 d0bd fd6e 4c3d
00000390: 84f7 9abd 7161 f8bd 35e8 fcbd 2c37 5cbd
000003a0: 514e 0a3d 53b6 44bd d60b 89bd 7d73 e5bd
000003b0: 80e9 4e3d 41e8 babd 36ad ad3d 24ee 3fbd
000003c0: 3595 0e3d 5f72 ed3c 0086 0abd 4664 a8bd
000003d0: 862d 0c3b 405e 923c cc72 a6bd 3e3f dabd
000003e0: 3bd3 9fbd a091 d73c 2cac a1bd 71da 05bd
000003f0: 5434 e8bb 680a dc3c c838 c63d 207a 7cbc
-0.2807496 0.15159252 0.085059404 -0.06337604 0.12257703 -0.040408228 0.047033057 -0.054499373
0.06628853 0.024122983 -0.07124932 0.002199486 0.028369416 -0.06076862 -0.06850034 -0.17941971
0.14403768 -0.03222187 -0.06137094 0.18992704 -0.04864009 0.17831576 -0.18916345 -0.06287682
0.18494448 0.03333619 0.089720726 0.16682723 0.10304049 0.022659183 0.040096752 -0.14966297
0.12446582 0.0012212994 0.028641248 0.103012726 0.044951554 0.13150923 0.119065665 -0.11420734
0.015575533 0.051167123 -0.0019265749 0.027752904 0.11276814 -0.14129585 0.019996598 0.18916084
0.0675348 0.039774355 0.20132205 0.16925524 0.045904692 0.046522424 -0.07444912 0.11003001
0.14306252 0.045749247 0.21523675 0.104324654 0.059743933 0.11496127 0.2384277 -0.049413785
-0.19060129 0.24292682 0.12323322 0.0028082414 0.104855746 -0.021907412 0.13432376 0.10745029
0.1730066 0.14723112 0.02267994 0.08406539 0.1308475 -0.016827539 -0.06266773 -0.30407488
0.01177963 0.029861357 -0.080550864 -0.00866433 -0.063705444 0.16170636 -0.2530806 -0.108382575
0.0783669 -0.0064099333 -0.022181183 -0.057533145 0.08016036 -0.11887343 -0.044791687 -0.21040201
-0.09665637 0.09413099 -0.026968017 0.038961824 0.10483167 0.15095302 0.16240829 0.06765114
-0.033932105 0.14032759 0.076008074 -0.041891683 0.102658555 -0.007286339 0.037075993 0.09294443
0.08333486 0.035837337 0.2093169 0.15963176 0.022101978 -0.035225123 -0.038297433 -0.11384444
0.0011724888 0.057005897 -0.027472438 0.17689575 0.18970183 -0.100574374 0.22734801 0.00850445
-0.22911532 0.21866009 0.18201762 0.04035251 -0.09465024 -0.057240285 0.08197048 0.117510766
0.09560909 0.20042454 0.12084487 0.027846158 0.019366993 0.054119274 -0.0043412396 -0.1427326
0.09862432 -0.061184276 -0.055599965 0.049163565 0.060342632 0.20974515 -0.17384063 0.08650992
0.13292846 0.18333995 -0.06546025 0.027837466 0.03298382 -0.11847083 0.11597475 -0.28284955
0.07639125 0.1983984 0.06731119 0.06303077 -0.102612905 0.16772449 0.09487248 -0.0023917109
0.12913659 0.022502858 0.003944381 0.061972298 -0.063580744 -0.027898565 -0.07967995 0.08844743
0.13958317 -0.012886038 0.2767048 0.07506129 0.16318679 0.0327103 -0.10368202 -0.121681765
-0.008315288 -0.109982476 0.27202877 0.07159913 0.089612186 -0.052258193 0.13210675 -0.049448386
-0.086628675 0.111653864 0.112764694 0.021886706 -0.050166145 0.03999517 0.045493703 0.029049173
0.087208875 -0.11111955 -0.00681296 -0.06530498 0.009211039 0.11614165 -0.0946877 -0.07307035
0.11524904 -0.07692547 -0.032991126 0.058023386 -0.07909429 -0.028576346 0.07357792 0.099173084
-0.03359668 0.017692253 -0.09909141 0.060696635 0.08221075 -0.020881742 0.05114335 0.069998235
0.11609435 -0.11434629 -0.10167216 0.049910534 -0.07566741 -0.121279605 -0.123489775 -0.053763554
0.033766095 -0.04802544 -0.06691711 -0.11203668 0.05051565 -0.0912633 0.08480303 -0.046857968
0.034810264 0.0289852 -0.0338192 -0.08222251 0.0021389439 0.017867208 -0.081273645 -0.10656594
-0.07803961 0.026314557 -0.07894167 -0.032679025 -0.007086316 0.02686043 0.09678799 -0.015409976

linear3.bias f4 [64]
00000000: c2ca 973d c079 503e f863 a83d 6ffe eb3d
00000010: d00e 083d f209 12be 4b01 b43d e01b a83c
00000020: fbf5 d53d c586 293e ec7a ee3d d5e8 1f3e
00000030: efe0 073e 7cb2 243e fdd3 4f3e 8d45 acbd
00000040: 9cae 70bd 8fb4 abbd b42a 143e 835c 95bd
00000050: 863b f1bd e10e c43d 9e0c b43e d7e4 103e
00000060: 249b 1c3e 04af b2bc 65bf 543e 2e1a 1e3e
00000070: 6a55 84bc 0076 653c 1340 2e3e 7e05 253d
00000080: c0cd f7bd 04a2 733c cac5 5a3e 5065 dcbc
00000090: 193f 3c3e 3418 8b3b 5ceb d5bd c615 693d
000000a0: c8a3 833e d4fa 2c3e 5c39 b9bd 807b b03d
000000b0: 4e15 85bd 3447 ddbd 1df1 b93d a388 50bd
000000c0: f935 0f3e 86cf 033d 20b3 ad3d ed56 2f3e
000000d0: 1adf 733d a425 683d 5b09 273e 06c7 a13d
000000e0: 75c4 a5bc 7b7d 543e ffe9 b13c 6a50 893c
000000f0: 7055 3cbd ab3c 443e 1077 443e ef90 de3d
0.0741172 0.20358944 0.082221925 0.11523139 0.03321725 -0.14261606 0.08789309 0.020521104
0.10447308 0.16555317 0.11644539 0.15616162 0.13269399 0.16083711 0.20295711 -0.08411703
-0.05876027 -0.08384048 0.14469415 -0.07293036 -0.11778931 0.095731504 0.35165876 0.14149795
0.15293556 -0.02181197 0.20776136 0.15439674 -0.01615401 0.014005184 0.1701663 0.04028844
-0.120997906 0.0148701705 0.21364513 -0.026903778 0.18383445 0.0042448286 -0.10445282 0.05690553
0.25710893 0.16892558 -0.090441436 0.08617306 -0.06498204 -0.108045965 0.09079192 -0.050911557
0.13985433 0.03218033 0.08481431 0.17123003 0.059538938 0.056676522 0.16312163 0.07899289
-0.02023528 0.20750992 0.021718023 0.016761977 -0.045979917 0.19163768 0.19186044 0.10867488

linear4.weight f4 [1, 64]
00000000: d859 c8bd e43c d4bd 503f abbd 6dca 3bbb
00000010: a000 dabd 3e10 66be ccfd 9abd 2b8d 703a
00000020: e462 95bd 5c53 9bbd f0eb 21bb ba2b c2bd
00000030: 163b cbbd 8b59 cdbd acee bebd 31b2 bfba
00000040: 69eb a4b9 2c32 89be bc6f b9bd 357f 62ba
00000050: c599 17bb 3dbc c9bd 6abd 3abe 5ebc 97bd
00000060: 32b0 99bd bebe 1e3e 2870 a9bd 6433 a2bd
00000070: f67f e3b9 e6c2 a6bd 527f 9cbd 00d1 c6bd
00000080: ab91 1fbb e0c1 a5bd 00fb aebd 06b2 aa3a
00000090: c409 a7bd 4edc a0bd 8d40 483a 9f6d a3bd
000000a0: 221b f5bd a0cb f1bd 2b25 e939 1bdf e439
000000b0: a4d7 0e3b 24d5 8eba dca8 92bd 595f 88bd
000000c0: b912 93bd a576 9dbd 35e6 9ebd 0df7 8cbd
000000d0: fa00 a7bd d944 99bd 4a4d bebd 47e4 a0bd
000000e0: ee7c 3ebd 9ef4 bebd 99d4 9bbd ddf5 a0bd
000000f0: 77ba babb 7080 9ebd aa83 92bd 196f cabd
-0.09782761 -0.103631765 -0.08361685 -0.002865459 -0.106446505 -0.22467133 -0.07567939 0.0009176309
-0.072942525 -0.07584259 -0.002470728 -0.094809964 -0.09923379 -0.100268446 -0.09322867 -0.0014625249
-0.00031455912 -0.2679609 -0.09054515 -0.0008640171 -0.0023132425 -0.09850357 -0.18236318 -0.07408975
-0.0750431 0.1550245 -0.08273345 -0.07919958 -0.00043392152 -0.08142643 -0.07641472 -0.09707832
-0.00243483 -0.08093619 -0.08543968 0.0013023026 -0.081561595 -0.0785452 0.00076390133 -0.07979893
-0.11968066 -0.118064165 0.00044468915 0.00043653775 0.0021796012 -0.0010897261 -0.071611136 -0.06658811
-0.071813054 -0.07688645 -0.07758752 -0.06883059 -0.08154483 -0.07483835 -0.092920855 -0.078560404
-0.04650586 -0.09324001 -0.07608909 -0.07859395 -0.005698498 -0.07739341 -0.07154019 -0.098844714
