models/2025-11-24 13:51:32/1/Q1.pth (torch, 37764 bytes, 7 tensors)

linear1.weight f4 [64, 5]
-0.2773474 0.34076354 0.05701363 -0.2609208 -0.32245457 0.19536756 0.43375742 0.018017191
0.22048745 0.44433695 0.374965 0.32694674 0.23235382 -0.06980795 -0.54590774 0.33978066
-0.15181267 -0.3758253 -0.0217263 -0.104805075 -0.13060842 -0.11700361 0.0057743606 -0.40041447
-0.47476044 0.17765456 0.33592552 0.42131788 -0.10171877 0.118198864 -0.25204432 -0.044776943
0.005215733 -0.05253329 0.31054476 -0.0644036 0.045932323 -0.028528938 -0.45459786 0.5213493
0.06599249 -0.3456781 -0.33242142 0.3570854 -0.37652025 -0.320121 0.4129351 0.260635
-0.41490468 -0.14601405 -0.32939765 0.36952752 -0.2705601 -0.48694286 0.3577104 -0.35575193
0.36263645 0.20262094 -0.022639627 0.35239735 -0.04768012 -0.29636997 0.03166678 0.17937352
0.04958165 -0.17970239 -0.04160596 0.17982307 0.5232014 0.25686723 -0.28376967 -0.023043917
0.068907015 0.06483607 -0.12951921 -0.20598191 0.5587059 -0.14421162 -0.29560575 0.31478554
0.39382526 0.061950896 0.26647916 0.44893166 -0.10615351 0.19015 0.23830779 -0.35405982
0.020950235 -0.1543362 0.28821486 0.12814954 0.30489358 0.23685251 0.03815538 0.03862788
-0.41461015 -0.018600494 0.19048467 -0.48438048 -0.12229829 -0.10706212 0.37169167 0.15718421
-0.06471558 -0.4089621 0.37161258 0.03861979 -0.11574981 -0.26938432 -0.25363186 -0.1875271
0.18613873 -0.22363465 -0.11047289 -0.28417072 0.3157635 -0.52345866 0.1989866 0.48398706
-0.13702427 0.081425734 -0.44605002 -0.018707218 0.18246856 0.32867885 0.23996809 -0.34054685
0.40724066 0.33816302 0.26113057 -0.40845466 0.45916712 0.42039558 0.020493118 -0.053144477
0.31905118 0.36458674 -0.28061295 0.27278814 0.013330388 -0.35125607 0.32403156 0.012580475
0.42760018 -0.4066976 0.23463316 0.4346656 -0.5107606 -0.07424818 -0.41228616 -0.0019398187
-0.2291601 -0.67609525 -0.19668598 0.19863185 -0.6466662 0.11309298 0.3539139 -0.446556
0.20056608 -0.17690954 0.1365552 -0.046990126 0.11730408 -0.008677537 0.42784953 0.24343467
0.2296283 0.30054554 0.04261579 0.6205973 -0.00051782356 0.39470053 -0.19809014 0.04468389
0.13772565 0.43922505 -0.17280315 -0.13607347 -0.16377659 -0.44822463 0.22802511 0.45673844
-0.3707438 0.3602988 -0.4698317 0.41021642 0.5505807 -0.51607084 0.30726475 0.029524226
0.30318376 -0.08268478 -0.17559773 0.31733006 0.08328659 -0.34487164 -0.3843444 -0.005372785
-0.28367403 0.66727066 -0.11887705 -0.16266407 0.23493105 -0.19549246 -0.44358036 -0.016292557
-0.16353504 -0.28447312 0.0032768284 0.36512417 -0.14093235 0.2359659 0.03852901 0.34964603
0.40669325 0.19648911 0.026713468 -0.32809776 -0.30582905 0.39380848 0.38852713 -0.21767496
-0.17895146 -0.12507425 0.60872954 0.12719393 -0.68388623 0.47984174 0.21800354 0.16356713
-0.13253218 0.14118402 -0.38056108 0.19662388 -0.116548166 -0.3933371 0.34250596 -0.21498379
0.1830114 -0.06631652 -0.24886374 0.13160652 -0.20981728 -0.45719364 -0.3482023 0.41940123
-0.4679362 -0.073262505 -0.21240257 -0.40972114 0.37964165 0.14546096 0.16108936 -0.26919708
00000000: 7a00 8ebe 8f78 ae3e 2087 693d 6997 85be
00000010: c418 a5be 6f0e 483e 7415 de3e ca98 933c
00000020: 76c7 613e 2280 e33e 6afb bf3e 9065 a73e
00000030: 29ee 6d3e 78f7 8ebd 9cc0 0bbf bbf7 ad3e
00000040: c874 1bbe 2c6c c0be 5afb b1bc 0ba4 d6bd
00000050: 37be 05be 979f efbd d936 bd3b 2003 cdbe
00000060: cd13 f3be 14eb 353e 6efe ab3e fab6 d73e
00000070: ee51 d0bd 3f12 f23d f40b 81be 0768 37bd
00000080: bde8 aa3b 262d 57bd b9ff 9e3e 09e6 83bd
00000090: 8823 3c3d 85b5 e9bc 0dc1 e8be 2677 053f
000000a0: 1227 873d b8fc b0be 2433 aabe e6d3 b63e
000000b0: 43c7 c0be e6e6 a3be 3b6c d33e f371 853e
000000c0: 636e d4be b584 15be cfa6 a8be b632 bd3e
000000d0: da86 8abe 9350 f9be d125 b73e 1e25 b6be
000000e0: 7cab b93e dd7b 4f3e bd76 b9bc 6d6d b43e
000000f0: 3b4c 43bd cebd 97be 07b5 013d b1ad 373e
00000100: 2116 4b3d e703 38be 036b 2abd 8a23 383e
00000110: 87f0 053f 1a84 833e 424a 91be 99c6 bcbc
00000120: 1f1f 8d3d c6c8 843d afa0 04be ecec 52be
00000130: 5a07 0f3f 36ac 13be a359 97be 922b a13e
00000140: 77a3 c93e 39c0 7d3d f56f 883e 5fda e53e
00000150: 0367 d9bd aeb6 423e f506 743e 5447 b5be
00000160: d49f ab3c 4f0a 1ebe e690 933e a239 033e
00000170: 031b 9c3e 7789 723e d148 1c3d 4538 1e3d
00000180: c847 d4be 1060 98bc 6a0e 433e b800 f8be
00000190: 8777 fabd 6343 dbbd 5f4e be3e e6f4 203e
000001a0: 9a89 84bd 7b63 d1be 0144 be3e c92f 1e3d
000001b0: 3d0e edbd beec 89be 09dc 81be 1b07 40be
000001c0: 279b 3e3e 7b00 65be 9c3f e2bd d37e 91be
000001d0: c1ab a13e 6301 06bf 25c3 4b3e 27cd f73e
000001e0: 1750 0cbe 89c2 a63d ab60 e4be e13f 99bc
000001f0: 0ad9 3a3e 9848 a83e 32ba 753e 285c aebe
00000200: d981 d03e b423 ad3e e8b2 853e f820 d1be
00000210: f417 eb3e 173e d73e 2fe1 a73c 06ae 59bd
00000220: ad5a a33e 1dab ba3e 80ac 8fbe e3aa 8b3e
00000230: b367 5a3c d6d7 b3be 77e7 a53e 561e 4e3c
00000240: 69ee da3e ab3a d0be ad43 703e 7d8c de3e
00000250: 35c1 02bf 6e0f 98bd 2c17 d3be 8441 feba
00000260: f2a8 6abe 9414 2dbf 0d68 49be 2666 4b3e
00000270: eb8b 25bf 4b9d e73d 3434 b53e fda2 e4be
00000280: 3261 4d3e c627 35be 20d5 0b3e b878 40bd
00000290: 1f3d f03d 3a2c 0ebc 180f db3e f046 793e
000002a0: ae23 6b3e 1be1 993e e58d 2e3d 77df 1e3f
000002b0: 8dbe 07ba 3016 ca3e 24d8 4abe 7406 373d
000002c0: f407 0d3e 1be2 e03e 4ff3 30be d856 0bbe
000002d0: 0db5 27be b37d e5be 6a7f 693e 9fd9 e93e
000002e0: 22d2 bdbe 1679 b83e c88d f0be e307 d23e
000002f0: dbf2 0c3f 381d 04bf ce51 9d3e cadc f13c
00000300: e73a 9b3e a356 a9bd e4cf 33be 1679 a23e
00000310: 2992 aa3d 0493 b0be cac8 c4be 300e b0bb
00000320: b93d 91be 40d2 2a3f d075 f3bd 6991 26be
00000330: c491 703e 2d2f 48be f71c e3be f877 85bc
00000340: bb75 27be 76a6 91be 0fc0 563b 8ef1 ba3e
00000350: 9250 10be 0ba1 713e 98d0 1d3d ce04 b33e
00000360: 193a d03e 7134 493e 34d6 da3c 6efc a7be
00000370: a095 9cbe 44a1 c93e 07ed c63e 2fe6 5ebe
00000380: 0d3f 37be 7713 00be b3d5 1b3f 203f 023e
00000390: 2b13 2fbf d1ad f53e 523c 5f3e 247e 273e
000003a0: 84b6 07be 8b92 103e e7d8 c2be c557 493e
000003b0: ceb0 eebd 7b63 c9be f15c af3e b624 5cbe
000003c0: 5767 3b3e f5d0 87bd 23d6 7ebe dcc3 063e
000003d0: 57da 56be 4915 eabe 9247 b2be c2bb d63e
000003e0: 5595 efbe a70a 96bd 0f80 59be f8c6 d1be
000003f0: 6460 c23e b8f3 143e 9cf4 243e 33d4 89be

linear1.bias f4 [64]
0.7574926 0.9823021 1.0945293 0.014061684 1.2956092 -0.15978467 1.1970717 1.4831531
-0.053699434 -0.35029614 1.162261 -0.368711 1.0346993 -1.1085341 0.78537995 -0.36074087
1.4826379 -0.3974971 1.2249634 0.88133496 1.0222018 0.935926 1.0724193 0.09304046
0.047775343 -0.40807238 -0.46387956 0.69458205 -1.157369 0.8315743 0.654126 1.472679
1.1059324 -0.96251905 0.86693066 1.2832143 0.6173638 -0.79468805 1.2460539 0.1547635
0.7368451 0.77961487 0.202285 0.9402907 1.0519927 -1.0261778 -0.17305245 0.27850708
0.22940245 0.08318662 0.9509096 -0.2688281 1.0705254 1.2821125 -0.19321755 1.3686525
0.79257405 -0.33911383 -0.14731719 0.47753727 0.0010881434 0.7331306 0.8042103 0.4910692
00000000: 09eb 413f 2778 7b3f 8919 8c3f fa62 663c
00000010: 86d6 a53f 989e 23be a539 993f f6d7 bd3f
00000020: f0f3 5bbd 045a b3be f8c4 943f b0c7 bcbe
00000030: 0771 843f 72e4 8dbf a90e 493f 07b3 b8be
00000040: 14c7 bd3f bd84 cbbe 9acb 9c3f 2b9f 613f
00000050: 82d7 823f d998 6f3f 0945 893f ff8b be3d
00000060: 14b0 433d ddee d0be 9f81 edbe 21d0 313f
00000070: ab24 94bf 0ee2 543f cd74 273f bf80 bc3f
00000080: 318f 8d3f a667 76bf 2bef 5d3f 5e40 a43f
00000090: 8e0b 1e3f ad70 4bbf b27e 9f3f 537a 1e3e
000000a0: e1a1 3c3f d794 473f cd23 4f3e e4b6 703f
000000b0: b2a7 863f cb59 83bf a934 31be 7b98 8e3e
000000c0: 7ae8 6a3e bf5d aa3d d06e 733f d6a3 89be
000000d0: fa06 893f 431c a43f d2da 45be 0130 af3f
000000e0: 22e6 4a3f 54a0 adbe 51da 16be c47f f43e
000000f0: 09a0 8e3a 72ae 3b3f bae0 4d3f 6c6d fb3e

linear2.weight f4 [64, 64]
0.14740151 0.6833636 -0.022009596 0.09354773 0.4541035 -0.07393865 0.40239778 0.9556748
0.005885005 0.055774618 0.23897105 -0.019296823 0.34564522 -0.20077127 0.06325907 -0.41821027
0.18636125 -0.005256623 0.17955342 0.5422746 0.13730572 0.13573563 0.11541512 -0.098167405
-0.08147297 -0.089831516 -0.017978715 0.04364052 -0.09830188 -0.09005926 0.057231728 0.6108228
0.17628714 -0.021485921 0.36799648 -0.042656526 0.07951394 -0.13255322 0.18117814 -0.09323037
0.0798177 0.10421682 0.3078362 -0.06923009 0.0039823395 -0.28725 0.030392557 0.018995062
-0.04310204 -0.01470863 -0.045815732 0.017944891 0.27516976 0.19210562 -0.024237877 0.13968924
0.04919238 -0.3739102 0.10203945 0.14736068 0.007950862 -0.009507872 0.04544741 0.056153584
-0.07590172 -0.04576105 0.04723385 0.011584878 -0.024572521 -0.07467809 0.0033120215 -0.037379622
-0.120760664 0.10534856 0.078180596 0.027734011 0.080808386 0.09879033 -0.0563204 0.10019943
-0.08998142 0.06092438 0.03337279 0.04011661 -0.091195166 0.11776644 -0.014030054 0.040110543
-0.10629578 -0.12493312 -0.046733275 0.103091106 0.0015925467 -0.0023673326 -0.07869528 0.12348123
0.10351391 0.0077861547 -0.078445375 -0.0064565837 -0.06600164 -0.11319551 0.072218984 0.08247079
-0.012159735 0.011223346 0.012356564 -0.12204561 0.0661629 0.012500629 0.08121166 -0.09993437
-0.07317971 0.037980497 -0.09100412 -0.11232348 -0.10508099 -0.005407512 -0.089168385 -0.083428696
0.094555095 -0.05282256 -0.12247823 -0.12498556 0.07116772 -0.030213848 0.039547324 -0.024410814
0.10709408 0.041226774 -0.11880157 -0.052263647 0.08033743 -0.0059539517 0.07483898 0.06733307
-0.06332168 0.02110581 0.11751063 -0.1178062 -0.0031318038 -0.011866147 -0.020486278 -0.016285375
-0.040375173 0.0060523897 0.09384799 -0.036001973 -0.050132014 -0.065740146 -0.079055116 0.11001879
-0.0046596527 -0.1163394 -0.013014584 -0.029169582 -0.05164281 -0.035647657 -0.012873337 0.018224476
0.10782058 0.03305607 -0.08136447 0.030876148 -0.034798514 0.018632408 0.110945605 -0.116539255
-0.0903855 0.016395316 -0.12277441 0.07926747 -0.022565832 -0.10142865 -0.023691937 0.0072533786
0.052872747 -0.038906194 0.040059373 0.09167997 -0.029588414 -0.033122547 0.07817083 -0.036208563
-0.12089146 0.0031812638 -0.121037826 -0.11889982 0.0007617931 0.0810837 -0.093715094 0.054299813
-0.033621736 0.4856383 0.022813767 0.09831028 0.5322043 -0.069455296 0.36736166 0.93272156
-0.057050303 -0.13489117 0.15299372 -0.14008476 0.4927985 -0.29715878 0.10395754 -0.20949888
0.20526317 -0.06544691 -0.015667237 0.43988374 -0.057564765 0.121516414 0.16130151 -0.08773295
-0.107372314 0.0954918 0.024054572 -0.040999874 -0.16508013 0.11550029 0.20092641 0.5875826
0.21024697 -0.05991527 0.40646216 0.09130414 -0.023290383 -0.008218813 0.16775714 -0.05367653
0.17043501 0.27576005 0.29853204 0.14174084 -0.027998812 -0.32086408 0.057104647 -0.084848076
0.10679731 0.003316976 0.036317047 0.01713223 0.17905729 0.122844465 0.10525184 0.08464359
-0.002022658 -0.26798975 0.13365284 0.18119997 0.099558935 0.13136962 -0.082935065 0.0060887416
00000000: 6cf0 163e ebf0 2e3f 784d b4bc f495 bf3d
00000010: 4180 e83e 266d 97bd 1507 ce3e 1ba7 743f
00000020: 00d7 c03b ed73 643d d4b4 743e 5f14 9ebc
00000030: 69f8 b03e fc96 4dbe f98d 813d a81f d6be
00000040: 7cd5 3e3e c03f acbb dadc 373e 82d2 0a3f
00000050: df99 0c3e 48fe 0a3e c35e ec3d fe0b c9bd
00000060: 4ddb a6bd 96f9 b7bd 1948 93bc 67c0 323d
00000070: 7f52 c9bd fd70 b8bd d16b 6a3d e25e 1c3f
00000080: 9e84 343e 3e03 b0bc 096a bc3e 9cb8 2ebd
00000090: 34d8 a23d 08bc 07be c386 393e 90ef bebd
000000a0: 7677 a33d a16f d53d b59c 9d3e 81c8 8dbd
000000b0: 497e 823b 6f12 93be d0f9 f83c 889b 9b3c
000000c0: c48b 30bd 77fc 70bc 47a9 3bbd 2a01 933c
000000d0: 0de3 8c3e 56b7 443e 838e c6bc b20a 0f3e
000000e0: f37d 493d 2871 bfbe 0ffa d03d b8e5 163e
000000f0: 5544 023c e8c6 1bbc 1027 3a3d 4d01 663d
00000100: 5c72 9bbd f06f 3bbd 4878 413d 80ce 3d3c
00000110: 504c c9bc d4f0 98bd 800e 593b 601b 19bd
00000120: 5e51 f7bd fcc0 d73d 261d a03d 7032 e33c
00000130: de7e a53d 9652 ca3d 38b0 66bd 5c35 cd3d
00000140: 2e48 b8bd d88b 793d e8b1 083d 5051 243d
00000150: 88c4 babd 882f f13d 50de 65bc f44a 243d
00000160: 9ab1 d9bd f0dc ffbd 646b 3fbd 6e21 d33d
00000170: 00bd d03a 4025 1bbb fe2a a1bd bae3 fc3d
00000180: 1aff d33d 0023 ff3b f8a7 a0bd c091 d3bb
00000190: de2b 87bd 0cd3 e7bd 8ce7 933d 72e6 a83d
000001a0: a039 47bc 20e2 373c 3073 4a3c 0cf3 f9bd
000001b0: 6a80 873d 70cf 4c3c 4c52 a63d 64aa ccbd
000001c0: 3edf 95bd 7091 1b3d 5e60 babd da09 e6bd
000001d0: b434 d7bd 8031 b1bb ea9d b6bd aadc aabd
000001e0: 1aa6 c13d 785c 58bd ded5 fabd 6ef8 ffbd
000001f0: 62c0 913d 0883 f7bc 60fc 213d 30f9 c7bc
00000200: 2454 db3d 68dd 283d 3d4e f3bd 6812 56bd
00000210: f387 a43d 5e19 c3bb 2e45 993d ece5 893d
00000220: ccae 81bd 17e6 ac3c 6aa9 f03d 6144 f1bd
00000230: f33e 4dbb 3a6a 42bc d7d2 a7bc e868 85bc
00000240: 7060 25bd 2053 c63b 6033 c03d ce76 13bd
00000250: 3a57 4dbd c5a2 86bd a6e7 a1bd 8851 e13d
00000260: 00b0 98bb 5a43 eebd 1f3b 55bc 0cf5 eebc
00000270: 6987 53bd 4703 12bd b0ea 52bc 7f4b 953c
00000280: 09d1 dc3d cd65 073d 6aa2 a6bd faef fc3c
00000290: e388 0ebd fea2 983c 7337 e33d 22ac eebd
000002a0: 081c b9bd 784f 863c 2671 fbbd fc56 a23d
000002b0: fbdb b8bc d3b9 cfbd 9815 c2bc c0ad ed3b
000002c0: 1891 583d 1a5c 1fbd 4c15 243d b5c2 bb3d
000002d0: 6763 f2bc 82ab 07bd 0718 a03d 6e4f 14bd
000002e0: f195 f7bd c07c 503b aee2 f7bd c081 f3bd
000002f0: 12b3 473a 360f a63d b3ed bfbd 7b69 5e3d
00000300: f2b6 09bd 95a5 f83e f0e3 ba3c e656 c93d
00000310: 8a3e 083f 943e 8ebd d416 bc3e d7c6 6e3f
00000320: 94ad 69bd e920 0abe 63aa 1c3e 6172 0fbe
00000330: 1650 fc3e 3225 98be b1e7 d43d e086 56be
00000340: 8230 523e 0809 86bd 9458 80bc 7138 e13e
00000350: 08c9 6bbd 99dd f83d 392c 253e 55ad b3bd
00000360: 04e6 dbbd 3491 c33d 180e c53c 7cef 27bd
00000370: c40a 29be 6b8b ec3d a7bf 4d3e d06b 163f
00000380: fb4a 573e b769 75bd cf1b d03e aafd ba3d
00000390: 79cb bebc 33a8 06bc 87c8 2b3e ecdb 5bbd
000003a0: 8486 2e3e 6c30 8d3e 31d9 983e 8324 113e
000003b0: c45d e5bc 4c48 a4be 90e6 693d d4c4 adbd
000003c0: 8cb8 da3d 9f61 593b 2fc1 143d e458 8c3c
000003d0: cb5a 373e e195 fb3d 478e d73d 9e59 ad3d
000003e0: 928e 04bb f435 89be 4adc 083e 7c8c 393e
000003f0: 8ee5 cb3d c285 063e dcd9 a9bd 1184 c73b

linear2.bias f4 [64]
0.8801816 -0.08464995 -0.086442836 0.98814136 0.76560515 -0.03160268 -0.009095068 0.8466525
0.7797683 0.9976076 0.02865562 0.7848126 0.8409193 0.9581935 0.8135719 0.97182226
0.8998163 0.8892156 0.95262027 0.08198181 0.84662056 0.023905292 0.8406326 0.797145
0.026820183 0.86457586 0.8457303 0.82351834 0.042964578 1.0373555 0.08141484 -0.0009996146
-0.09192258 0.11377244 -0.082927436 -0.04360187 0.97989523 0.8482756 0.10564788 0.89658177
1.0358593 0.08689205 0.92277837 -0.47920072 0.07674888 0.7799034 0.0011758357 0.7825653
1.0069206 0.8493976 0.8529554 0.8674874 0.9917266 0.08500102 -0.05101949 -0.11390978
0.8781583 -0.027408015 0.8141238 0.92827535 -0.013192326 0.96537423 -0.78432 0.9850584
00000000: 9553 613f f45c adbd f108 b1bd d5f6 7c3f
00000010: b3fe 433f d071 01bd 7b03 15bc 38be 583f
00000020: e59e 473f 3663 7f3f 31bf ea3c 7be9 483f
00000030: 7d46 573f 2b4c 753f 3f46 503f 58c9 783f
00000040: 5c5a 663f a2a3 633f ecde 733f 14e6 a73d
00000050: 20bc 583f 08d5 c33c b333 573f b211 4c3f
00000060: 00b6 db3c d854 5d3f c881 583f 19d2 523f
00000070: a0fb 2f3d 11c8 843f d3bc a63d 8005 83ba
00000080: e841 bcbd 8601 e93d dcd5 a9bd e097 32bd
00000090: 6ada 7a3f 9728 593f ea5d d83d 6286 653f
000000a0: 0a97 843f 76f4 b13d 343b 6c3f cc59 f5be
000000b0: 842e 9d3d c0a7 473f 801e 9a3a 3356 483f
000000c0: c6e2 803f 1f72 593f 495b 5a3f a713 5e3f
000000d0: cbe1 7d3f 0415 ae3d d0f9 50bd 8849 e9bd
000000e0: fbce 603f c686 e0bc 6b6a 503f 74a3 6d3f
000000f0: a024 58bc c422 773f 32c9 48bf ca2c 7c3f

linear3.weight f4 [64, 64]
-0.04112932 0.044198528 0.02426435 0.09850338 0.046965495 0.07383485 0.011146545 -0.037666887
-0.10083072 0.09444857 -0.0839635 -0.07261346 -0.038110152 0.06087485 0.08648093 -0.09085657
-0.09380694 0.08911595 0.030193985 0.11425175 -0.029792085 -0.035722286 -0.095669046 0.07811934
0.04909286 0.02042906 -0.099661484 -0.053176418 0.032649115 -0.10080363 0.010335624 0.016029805
-0.024483502 0.09991026 0.092071876 0.06263472 -0.08944839 -0.065984845 0.035879716 0.110520214
0.016546175 -0.08338554 -0.039107427 -0.057458937 0.042181 0.11125906 -0.048773453 -0.10330245
-0.05874382 -0.025013447 -0.03259906 -0.10952337 -0.087280095 -0.050440505 -0.04622042 0.021790609
0.05243121 0.08855374 0.071978495 0.087973684 0.030013293 0.10542025 0.025421292 -0.10014646
0.34246916 -0.119451135 -0.058882073 0.26047775 0.17268673 -0.015111536 -0.39349043 0.19815664
0.28690454 0.42295322 0.05573069 0.20558092 0.11019999 0.37604213 0.40276787 0.66227704
0.41473413 0.1371065 0.14197545 -0.03642507 0.361105 0.02242364 0.10179476 0.3469696
-0.053339124 0.27987912 0.31164184 0.23200853 -0.04790017 0.19678839 0.02641679 -0.05185409
-0.008699927 -0.05886005 -0.11178517 -0.24195844 0.10288065 0.30283383 0.116644554 0.1824596
0.099676855 -0.00094400346 0.17035353 -0.25400552 0.059907157 0.058470584 0.100615725 0.24673875
0.3027812 0.28106594 0.44073856 0.30015928 0.29821292 -0.0130315125 0.09750814 -0.058977887
0.08444318 -0.24583338 0.6865835 0.20167057 0.085785955 0.20048836 -0.57611954 0.104101114
0.31014222 0.07553831 -0.023149349 0.35964268 0.27239412 0.07269508 -0.23082872 0.16258578
0.20453681 0.40049335 -0.02960377 0.12391244 0.07260402 0.38563454 0.39409295 0.65395993
0.271023 0.29606563 0.26131824 -0.04059121 0.23826401 -0.08666155 0.15108423 0.23084605
-0.03463517 0.34171036 0.2204817 0.23557958 0.054035664 0.2960657 -0.09582392 -0.079403445
0.08053925 0.022445172 -0.10328161 -0.26754922 0.20569825 0.3108071 -0.0536746 0.19493327
0.22230883 0.04631217 0.17039675 -0.33777264 -0.104504235 0.07916939 0.07443985 0.10609772
0.24423362 0.34723386 0.21659951 0.18461345 0.110323936 -0.089091256 -0.037182935 -0.009669304
0.22305009 -0.18860565 0.72515565 0.09283449 0.022111118 0.2489763 -0.5839444 0.18511823
0.07299681 0.08043273 0.09088406 -0.05591905 -0.0016771853 0.022903591 -0.059347987 0.08851044
-0.013914958 0.06374024 0.10747321 -0.039388746 -0.03254178 0.07890029 0.05335197 -0.05122675
0.019109815 -0.0052992254 0.00059869885 0.005321607 -0.07578966 0.06661174 0.08453789 0.12442118
0.08565231 0.0035506785 -0.1004682 0.017964542 -0.010869831 -0.0047849715 0.06393404 -0.06920679
-0.11095491 -0.004337758 -0.02508314 0.08317532 -0.08778699 -0.041561544 -0.05842711 0.025180623
-0.07216933 -0.011479333 -0.09989731 -0.06245792 0.123012796 -0.102031544 0.096248105 -0.10702111
-0.0089383125 0.10585056 -0.08942054 -0.09086074 0.06756008 -0.11914994 -0.115173206 0.031254515
-0.048416108 -0.09821461 0.112710446 -0.074234635 0.06263389 -0.08285104 0.029854625 -0.05087267
00000000: 3877 28bd 8409 353d 08c6 c63c 24bc c93d
00000010: e45e 403d ba36 973d 00a0 363c 9848 1abd
00000020: 5680 cebd 406e c13d 0ef5 abbd 5eb6 94bd
00000030: 6419 1cbd e857 793d ea1c b13d 0213 babd
00000040: da1d c0bd 6c82 b63d 6059 f73c d2fc e93d
00000050: 880e f4bc 8851 12bd 22ee c3bd 08fd 9f3d
00000060: 9815 493d d85a a73c 521b ccbd 84cf 59bd
00000070: 14bb 053d 2272 cebd c056 293c f050 833c
00000080: a091 c8bc c09d cc3d 2e90 bc3d a246 803d
00000090: b830 b7bd 1023 87bd 9cf6 123d 6c58 e23d
000000a0: d88b 873c 0ac6 aabd 1c2f 20bd 105a 6bbd
000000b0: fcc5 2c3d cadb e33d acc6 47bd 3c90 d3bd
000000c0: 5c9d 70bd 00e9 ccbc 9886 05bd ca4d e0bd
000000d0: e8bf b2bd b49a 4ebd a051 3dbd 3882 b23c
000000e0: 1cc2 563d aa5b b53d 7669 933d 8c2b b43d
000000f0: 70de f53c 92e6 d73d 5040 d03c 9619 cdbd
00000100: 1e58 af3e cca2 f4bd 542e 71bd 575d 853e
00000110: cad4 303e 6096 77bc 9477 c9be 93e9 4a3e
00000120: 27e5 923e 538d d83e dd45 643d ce83 523e
00000130: 88b0 e13d 9888 c03e 9737 ce3e fd8a 293f
00000140: 0858 d43e a565 0c3e 0362 113e 7432 15bd
00000150: c1e2 b83e c8b1 b73c c579 d03d 00a6 b13e
00000160: 207a 5abd 514c 8f3e 858f 9f3e a593 6d3e
00000170: f832 44bd e582 493e 0668 d83c f464 54bd
00000180: 238a 0ebc 3c17 71bd a0ef e4bd f4c3 77be
00000190: 17b3 d23d 090d 9b3e 57e3 ee3d b0d6 3a3e
000001a0: 6123 cc3d 0077 77ba 2871 2e3e 030d 82be
000001b0: 3561 753d da7e 6f3d 9e0f ce3d 15a9 7c3e
000001c0: 2306 9b3e e0e7 8f3e 7ca8 e13e 7aae 993e
000001d0: 5daf 983e 2082 55bc 59b2 c73d cc92 71bd
000001e0: 8cf0 ac3d bfbb 7bbe f0c3 2f3f bb82 4e3e
000001f0: 8cb0 af3d d24c 4d3e 927c 13bf f732 d53d
00000200: f6ca 9e3e d4b3 9a3d b4a3 bdbc 1623 b83e
00000210: 3e77 8b3e 28e1 943d 5d5e 6cbe e37c 263e
00000220: 1972 513e 770d cd3e 9b83 f2bc cec5 fd3d
00000230: 6bb1 943d e471 c53e 8dc6 c93e eb69 273f
00000240: 87c3 8a3e ea95 973e 81cb 853e f842 26bd
00000250: 7bfb 733e 9c7b b1bd d3b5 1a3e e862 6c3e
00000260: 9cdd 0dbd a9f4 ae3e f4c5 613e c63b 713e
00000270: 8054 5d3d ec95 973e 553f c4bd 469e a2bd
00000280: c3f1 a43d f0de b73c 4f85 d3bd 36fc 88be
00000290: 90a2 523e 1c22 9f3e e6d9 5bbd 969c 473e
000002a0: eda4 633e d4b1 3d3d 7c7c 2e3e 89f0 acbe
000002b0: 5106 d6bd 9023 a23d ec73 983d c349 d93d
000002c0: 6118 7a3e a3c8 b13e 43cc 5d3e 4f0b 3d3e
000002d0: 84f1 e13d 7a75 b6bd 224d 18bd 006c 1ebc
000002e0: 3e67 643e d721 41be cda3 393f 0220 be3d
000002f0: 6022 b53c a5f3 7e3e 617d 15bf a28f 3d3e
00000300: 5a7f 953d eab9 a43d 6c21 ba3d 600b 65bd
00000310: 00d5 dbba 50a0 bb3c e016 73bd f644 b53d
00000320: 90fb 63bc 3e8a 823d ea1a dc3d 1856 21bd
00000330: 884a 05bd 7a96 a13d 9887 5a3d 24d3 51bd
00000340: 308c 9c3c 20a5 adbb 00f2 1c3a e060 ae3b
00000350: 9c37 9bbd bc6b 883d 3422 ad3d 88d0 fe3d
00000360: 7a6a af3d 80b2 683b 46c2 cdbd 602a 933c
00000370: 6017 32bc 40cb 9cbb daef 823d 4abc 8dbd
00000380: 543c e3bd c023 8ebb 287b cdbc d257 aa3d
00000390: aac9 b3bd 703c 2abd 4451 6fbd 9847 ce3c
000003a0: 84cd 93bd d013 3cbc f696 ccbd e0d3 7fbd
000003b0: 22ee fb3d eaf5 d0bd ba1d c53d e22d dbbd
000003c0: 0072 12bc 2ec8 d83d 1e22 b7bd 3215 babd
000003d0: f05c 8a3d e204 f4bd eedf ebbd bc04 003d
000003e0: f84f 46bd be24 c9bd bcd4 e63d 5408 98bd
000003f0: 3246 803d cead a9bd b091 f43c dc5f 50bd

linear3.bias f4 [64]
-0.120639 0.94356924 0.7217167 0.00029356778 0.67528284 0.7265259 0.6193435 0.64717317
0.8586465 0.8365906 -0.07375649 -0.08989033 -0.048500985 0.016938329 0.1086545 0.06222236
0.7797478 0.88405305 0.6793869 0.67833775 0.7840523 0.6555632 -0.083314165 0.0047884444
0.7421201 -0.0093014985 -0.06839882 0.72538084 0.09067938 0.0025060475 -0.059697405 0.79785794
0.7940048 0.8507187 0.01728549 0.8479234 0.120084435 0.848349 0.7890048 0.8491476
0.70167494 0.83730507 0.6588938 0.83107644 0.70370674 0.8551158 0.67533726 0.81555307
0.7804756 -0.09649701 0.75336933 0.10077664 0.7744323 0.10351942 0.8665869 -0.042885438
0.6347607 -0.09422167 0.0067190444 0.83147246 -0.038937315 0.6649911 0.7416836 0.8093379
00000000: 9411 f7bd c18d 713f 6dc2 383f 00ea 9939
00000010: 56df 2c3f 9afd 393f 4c8d 1e3f 24ad 253f
00000020: 42d0 5b3f cd2a 563f a50d 97bd 6c18 b8bd
00000030: f8a8 46bd 40c2 8a3c 4086 de3d e0dc 7e3d
00000040: 8d9d 473f 4d51 623f 4dec 2d3f 8ba7 2d3f
00000050: a7b7 483f fdd2 273f 9ea0 aabd 62e8 9c3b
00000060: 95fb 3d3f 5065 18bc ae14 8cbd 8fb2 393f
00000070: 1cb6 b93d 803c 243b 4485 74bd 6b40 4c3f
00000080: e643 4b3f b3c8 593f 4d9a 8d3c 8211 593f
00000090: d4ee f53d 662d 593f 38fc 493f bd61 593f
000000a0: f8a0 333f a059 563f 44ad 283f 6dc1 543f
000000b0: 2026 343f dee8 5a3f e7e2 2c3f 16c8 503f
000000c0: 40cd 473f 39a0 c5bd d0dc 403f fc63 ce3d
000000d0: 3241 463f fd01 d43d a4d8 5d3f a4a8 2fbd
000000e0: ad7f 223f 4af7 c0bd 6e2b dc3b 61db 543f
000000f0: bc7c 1fbd db3c 2a3f fade 3d3f c530 4f3f

linear4.weight f4 [1, 64]
0.0028587682 -0.29929554 -0.27131566 0.002113953 -0.25660455 -0.26697382 -0.25008273 -0.23590136
-0.2455755 -0.25691283 0.21069677 -0.0011701273 -0.0013865243 0.0013948939 -0.0008005121 -0.0023421564
-0.24700762 -0.28775784 -0.2736658 -0.29399833 -0.25888252 -0.25525674 0.0017051229 -0.0026883748
-0.24057819 0.0015021701 -0.00096813584 -0.25216106 -0.00420957 -0.0023194796 0.0027610338 -0.29811335
-0.27250597 -0.2805876 -0.0005673335 -0.2614067 -0.0010084445 -0.23527177 -0.2992491 -0.25637248
-0.2799209 -0.26517805 -0.24838918 -0.29150084 -0.26550227 -0.24921176 -0.2724196 -0.2490182
-0.23354042 -0.0014295315 -0.2593775 1.8850566e-05 -0.24244462 -0.0018588963 -0.2860917 0.0009857633
-0.24120088 0.00048776364 -0.00918581 -0.24182107 0.00040897037 -0.26734126 -0.2294896 -0.2761812
00000000: 2c5a 3b3b 443d 99be e3e9 8abe 3f8a 0a3b
00000010: ac61 83be cbb0 88be d80a 80be 2090 71be
00000020: 2578 7bbe 148a 83be e5c0 573e f55e 99ba
00000030: 09bc b5ba dfd4 b63a 75d9 51ba dd7e 19bb
00000040: 91ef 7cbe ff54 93be ec1d 8cbe f386 96be
00000050: 408c 84be 03b1 82be 6e7e df3a 722f 30bb
00000060: 215a 76be 77e4 c43a 7fca 7dba 411b 81be
00000070: 6ff0 89bb 6902 18bb 76f2 343b 50a2 98be
00000080: e785 8bbe 2ea9 8fbe 1bb9 14ba 19d7 85be
00000090: c82d 84ba 15eb 70be 2e37 99be 4143 83be
000000a0: cb51 8fbe 6bc5 87be bc59 7ebe 993f 95be
000000b0: eaef 87be 5e31 7fbe 957a 8bbe a1fe 7ebe
000000c0: 3825 6fbe 1e5f bbba 21cd 84be 4821 9e37
000000d0: 6743 78be 36a6 f3ba 9c7a 92be ba34 813a
000000e0: 5dfd 76be 87ba ff39 1480 16bc f19f 77be
000000f0: 136b d639 f4e0 88be 52ff 6abe 9f67 8dbe
