models/noCBF_2025-11-17 20:09:32/1/policy.pth (torch, 55714 bytes, 12 tensors)

linear1.weight f4 [64, 3]
00000000: 0378 bc3e 0c2f febe 1fa5 eb3e e121 45be
00000010: c8ff 083f 9fb1 153f 7320 c03e df3f 9c3e
00000020: 0a05 0abf bfe7 ce3e 442f e7be 63d3 e43e
00000030: 7a7c a7be a997 c5be 7ec2 dabe 0d81 bdbe
00000040: 963a d93e 9729 563c bd0d 11bf ab35 8cbe
00000050: dc12 98be 36ef 24be e7b6 b53e 1910 d83e
00000060: 5e66 d13e e958 133e 043e d1bd fba4 163f
00000070: 995b 8b3e fe19 f73e 4d11 25be 6ca3 ce3d
00000080: 3827 c33e 91c9 2dbe 6b65 c03e 26f7 a2be
00000090: fe06 c93d 44c1 debe 39e2 e33e 6b82 8a3e
000000a0: fef3 88be 426b 79bd 189a 82be c362 00bf
000000b0: 1638 013f 0f2f 0dbf 2dc1 9bbd 0138 d4be
000000c0: a825 80bd 1a2a 093e c9ea a9be 4ee3 5f3e
000000d0: 363f f3be 05f0 49be 1d06 d23e 5e2c 8bbe
000000e0: 2255 133f 4293 b93d 74b6 22be da2a 113d
000000f0: 307f bb3e 6f84 c33e 94dc 5bbd 1edb 5dbe
00000100: 83f4 043f fa9e a53b 0850 71bd 700a 903e
00000110: c817 e13d 2d64 0f3f f93c 03bf 4d5e 9f3d
00000120: af7f 64be 1ef6 e63e 7c81 75bd 80c2 693d
00000130: 25e7 ec3d b61c 6a3c 449a 6dbe 6a37 f6be
00000140: 7fcb fe3e e5ec de3d 55d6 00bf b3b5 86be
00000150: aab2 073f 2d6f 983d 3b5d a0be 6263 e63d
00000160: 9281 253e f31f 0a3f 1488 e6bd 5cfe 27be
00000170: 2be1 9ebe d408 df3e 9389 01be 72c1 03bf
00000180: 632a 203e e109 96be 6d6f e3be 3f8b 0d3d
00000190: a8ff c7be 5354 ccbe c40d 7bbe 2294 853e
000001a0: 95d9 06bf 8021 d9be 1e8b d2bd de89 00bf
000001b0: b145 f53e 9066 f3be 9709 ca3d 3e3e c23e
000001c0: b1cd bd3e 2460 f43e fe59 783e 3dd1 703e
000001d0: d298 f63e 7f34 0f3f b969 a9be ea5e dabe
000001e0: 59b8 f43d f8e5 b53d 9583 30be e086 773e
000001f0: 45e4 07bf f51b 82be e8a6 063f cb13 963e
00000200: a96f a43e 9f29 7bbe 290a 693e 79c7 d3be
00000210: a800 b43e 7068 0ebf c1ab e53e 3fe6 febc
00000220: cc63 c8be 4d5a cd3e 1101 543e decd 9c3d
00000230: ae61 ad3e 56c7 dfbe c914 adbe 8e24 943e
00000240: 6ef2 2a3d ac96 9a3e 7b45 e63c 6f18 98be
00000250: 1a84 e5be 7771 fd3e 7f31 96be 36b7 a93e
00000260: 111a bdba 5d55 15be f98b 4f3d 4bef 073f
00000270: e4a0 9f3e 6e39 36bd 660a af3e ab74 0fbf
00000280: 2876 883e 56bb 9bbe 1ab3 b0bb 9935 af3c
00000290: 39bb 74bc 2da6 bebc 595b aa3d 2d27 073f
000002a0: 2c41 a83e ba33 123f a1e3 d8bc 6ccf 233c
000002b0: 9d5c 92be 8b3b e4be c884 893e 983e 833e
000002c0: 7e8b f73e 8a83 413d f9f0 983e 5576 b6be
000002d0: 601b ca3d f326 a4be c14c 353d 382a 0dbf
000002e0: bebf 7ebe 1a49 93be 2615 11be c236 bbbe
000002f0: 79ec 14be 59d5 793d ee14 cb3e 4847 c5be
0.36810312 -0.4964527 0.46024415 -0.19251205 0.5351529 0.58474153 0.37524757 0.3051748
-0.5391394 0.40411183 -0.45153248 0.44692525 -0.32712156 -0.3859227 -0.4272651 -0.3701252
0.4242751 0.013071439 -0.5666159 -0.27384695 -0.2970189 -0.16106877 0.35491106 0.42199782
0.40898412 0.14389385 -0.10216907 0.5884549 0.2721832 0.48262018 -0.16119881 0.10089764
0.3811586 -0.16971423 0.37577376 -0.31829184 0.09815787 -0.43506825 0.44508532 0.27052626
-0.2674865 -0.060893305 -0.2550819 -0.501507 0.50476205 -0.5514993 -0.07605205 -0.41448978
-0.06257182 0.13394967 -0.3318694 0.21864054 -0.47509164 -0.19720466 0.4102029 -0.27182287
0.5755178 0.0906129 -0.15889913 0.035441257 0.36620474 0.38186976 -0.053677157 -0.21665618
0.51935595 0.005054352 -0.058914214 0.28132963 0.10990864 0.5601223 -0.5126491 0.07781658
-0.22314332 0.45109648 -0.05993794 0.057070255 0.11567525 0.014289072 -0.23203379 -0.48089153
0.4976463 0.10885028 -0.50327045 -0.263105 0.53006995 0.0744308 -0.3132113 0.112494245
0.16162708 0.53955 -0.112564236 -0.16405624 -0.31031165 0.43561423 -0.12650137 -0.5146705
0.15641169 -0.29304412 -0.4442095 0.034556624 -0.39062238 -0.39908084 -0.2451697 0.2608958
-0.52675754 -0.4240837 -0.10280441 -0.5021037 0.47904733 -0.47539186 0.0986511 0.37938112
0.37070993 0.477296 0.2425308 0.23517318 0.48163468 0.5593948 -0.33088472 -0.4265054
0.11949224 0.08881754 -0.17237695 0.24172544 -0.53082687 -0.25411955 0.5259843 0.29311976
0.3211644 -0.24527596 0.22757782 -0.41363123 0.3515675 -0.5562811 0.448576 -0.03111565
-0.3913864 0.40107957 0.20703532 0.076564535 0.33863586 -0.4370677 -0.3380492 0.2893414
0.041735105 0.3019308 0.028109303 -0.2970614 -0.44827348 0.4950063 -0.29334638 0.3314759
-0.0014427324 -0.14583345 0.050670598 0.5309951 0.31177437 -0.044488363 0.3418762 -0.56037396
0.26652646 -0.30416363 -0.0053924443 0.021387862 -0.0149372155 -0.023272598 0.083182044 0.5279415
0.32862222 0.5711018 -0.02647573 0.009998184 -0.28586283 -0.44576678 0.26859117 0.25633693
0.48348612 0.047244586 0.29871348 -0.35637155 0.098685026 -0.32060966 0.04426265 -0.55142546
-0.24877831 -0.2876671 -0.14168224 -0.36565214 -0.14543332 0.06099448 0.39664406 -0.38530946

linear1.bias f4 [64]
00000000: e185 7a3d ddeb 30bf 9e99 fb3e f08e 33bf
00000010: f683 13be 05b9 c13e a977 263f bb7b 493e
00000020: 743e f23d 6d00 c5be 15ad b9be b75a c6be
00000030: 5de8 253f 6e39 f4be cd3a e63e 085e cb3e
00000040: 9519 f8bd daef 01bf aa4c 3fbe 3786 dc3e
00000050: d590 a33d b0d5 e3be f1f8 683e 4900 e03e
00000060: 69c2 503e 705e e0be 097b 313f 79cf 5e3d
00000070: 8e27 3c3e 4352 00be 1b39 c6be 9855 0f3f
00000080: ef23 95be bb9c 963e de1a 37be 41d7 eb3e
00000090: e17c 043f c8d5 8dbe 6268 a93c 6d2a cabe
000000a0: cfc5 10be f5b4 a5be f00f 16bf f062 cebe
000000b0: 20e1 02bf 7451 7dbe 944f 5b3d a36f 903d
000000c0: 7272 b8be adc8 533e adff 053f cf80 2b3f
000000d0: e8c8 05bf 660f d3be 6174 243f 7a9b 153e
000000e0: bebe b0be 91c4 17bf 6a6e 923e 290b 063f
000000f0: b8df ce3e 5088 e1bb fd6e 743d e131 ff3e
0.061162833 -0.691099 0.49140638 -0.7013998 -0.14405808 0.3783647 0.65026337 0.19676106
0.11828318 -0.38476887 -0.36264864 -0.38741085 0.64807683 -0.47700065 0.44966736 0.39720178
-0.121142544 -0.5075661 -0.18681589 0.43071148 0.07986609 -0.44498968 0.22751214 0.43750218
0.20386662 -0.4382205 0.6932836 0.05439708 0.18374464 -0.1253138 -0.38715443 0.5598998
-0.29128978 0.2941645 -0.17881343 0.46062663 0.5175305 -0.27702165 0.020679656 -0.39485493
-0.14137958 -0.32364622 -0.5861807 -0.40309858 -0.51124763 -0.24738103 0.05354269 0.07052543
-0.36024815 0.2068202 0.52343255 0.6699342 -0.52259684 -0.41222686 0.6424008 0.14610091
-0.34520525 -0.5928431 0.28599864 0.5236078 0.4040506 -0.006882705 0.05967616 0.49842742

linear2.weight f4 [64, 64]
00000000: 4015 dcbb 3ebe a73d 1cbc b33d d009 c1bd
00000010: 60c0 27bd 48a3 cbbd 30c5 6ebc 4806 20bd
00000020: 08ae 35bd b451 0f3d 4032 0fbc 9a43 b4bd
00000030: 40fc 1cbc 9295 e53d 8833 1bbd 043a 943d
00000040: 54a1 c33d f054 70bd 1812 71bd f456 1dbd
00000050: f2bf f43d 60c4 e4bd 801e a0bc b8bb fabc
00000060: 98fe a0bc e896 5ebd 7cea 94bd 7281 a63d
00000070: e019 6dbc e438 4a3d 9e0e 9fbd 34df 5a3d
00000080: 1ca8 793d 00e9 febc dee6 9ebd ec67 acbd
00000090: 8048 f03c 5ce1 5d3d c4fa 9cbd f010 2ebc
000000a0: 4ec4 dcbd b446 ad3d c0d7 0cbb eca9 083d
000000b0: 9ce2 48bd ea4f 9abd 684c afbc 1460 6b3d
000000c0: 141c b43d 84ed b53d b873 e6bd 2849 99bc
000000d0: 906a 27bd 24b0 b33d 84c3 54bd e048 ca3d
000000e0: 487e f8bc 2661 83bd 3c81 e83d 4821 ad3d
000000f0: 403c f3bd 7862 de3d 3e40 a7bd b472 ab3d
00000100: 18ac a6bc 4cad b3bd c85e 3b3d 9e6a 86bd
00000110: a4a3 08bd b8a4 3ebd e875 e6bd 2a4e a33d
00000120: 2474 a83d d847 013d 40c1 f2bb 0cbb 08bd
00000130: c02c 93bd bcfa 3ebd a254 d33d fa5d d3bd
00000140: 7091 ac3c 40aa 483c c44d 423d 5e96 a53d
00000150: c4dc 7d3d c4ce 5cbd 585d ddbc 0023 68bd
00000160: ecf6 1ebd f21c f73d be1e cdbd 40ba e1bd
00000170: 50a4 bb3c 6cbd 7bbd 3685 e5bd 4c61 adbd
00000180: c054 423b f0f8 d33d dca6 313d e051 bdbc
00000190: 9c77 64bd 1055 5bbd ec26 38bd 78c4 f93c
000001a0: a667 e23d 000e 153c 38c1 933d e2d0 cc3d
000001b0: 10f6 c0bc 2452 08bd 980c d3bd 4062 a3bb
000001c0: 044a 713d 16bf 813d ee88 a7bd ee4b 92bd
000001d0: 58d7 993d 260d cbbd aa2e 88bd a0a1 a3bc
000001e0: 8023 0cbd a43f b6bd 64b1 9fbd 2092 163c
000001f0: d8cb 33bd 40ed 28bd 740b 26bd a835 c33c
00000200: 683e ba3d a615 f73d 0607 e43d 8dd6 25bd
00000210: 8299 f03d b1f7 bbbd 25bc 56be 435e 203c
00000220: 8ec3 d6bd c4de f03d b04b a03c b8f7 83bd
00000230: 9224 7cbd b22e afbd d2e8 1738 204e abbb
00000240: 685c c13c eed6 d2bd a6f8 e1bd 081a 70bd
00000250: c4f1 c6bd 761c 4b3d 6e44 bf3a 5e90 c73d
00000260: c8a2 f83c b47f 003d be6e 9f3d 5654 e6bd
00000270: 4eec b13d 5320 bc3d f67e f3bd bc7d 0bbd
00000280: 1467 96bd e244 abbd e0a6 65bc ccdc 85bd
00000290: 550c e1bc 7a3f 073e ea48 853d e88c 3f3d
000002a0: 30cc 8ebd 5a56 f7bd 3daf 253e 6062 ad3c
000002b0: dd47 a7bd aec6 76b9 341e 473d c437 abbd
000002c0: 4893 f63c be5b 47bd 3402 bbbd 72f7 233d
000002d0: a074 873d 9adf ad3d 155f 4bbe 9253 99bd
000002e0: 90d9 c33d 446a 013d b36e 8ebc 0a7f b83d
000002f0: 7587 aebd 3d99 bdbd ed2e a93c ea9e ce3d
00000300: fee3 87bd 68da c23c f0db 84bd ee29 e53d
00000310: c037 ccbd c634 de3d 20c8 e0bc 8415 3fbd
00000320: 284c 6e3d 56cc a2bd 6081 b2bc 7015 d5bc
00000330: 109d b53d 0037 123c 20c0 713d 0cf0 7d3d
00000340: 0c3c 32bd 9893 123d 4878 d2bd bc18 0dbd
00000350: 00e2 f83a 3256 febd 181b a43d e083 79bd
00000360: fab0 8f3d 0e69 e13d f891 acbc 94ec 153d
00000370: f836 4cbd 4034 1ebb bcca 4b3d 2cbd 893d
00000380: 8ccf eebd de5d dd3d 507d 83bd 28ca 93bc
00000390: 320f bd3d 2006 053c fca2 c33d 8078 4fbd
000003a0: ece1 9b3d 9032 1d3c 4047 c93d 00a1 85ba
000003b0: 4845 efbc 8c18 26bd 4018 163b d444 15bd
000003c0: 1cd5 583d 18ac d9bd 0436 b43d 4401 43bd
000003d0: 80d3 42bd e083 543d c01e 153b f6ef a9bd
000003e0: ccc6 8f3d 820c e1bd 0083 053a ecef 8bbd
000003f0: d8bd 96bd 943a 92bd 3efe cfbd 0437 6a3d
-0.0067164004 0.08190583 0.087761134 -0.094257 -0.040954947 -0.09943253 -0.01457338 -0.03906849
-0.044355422 0.034990028 -0.008740008 -0.088019565 -0.009581625 0.11210169 -0.03789094 0.07237628
0.09552255 -0.058674753 -0.058855146 -0.038413003 0.11950673 -0.11170268 -0.019545794 -0.03060709
-0.01965265 -0.054343134 -0.07271287 0.081301585 -0.014471501 0.04937066 -0.0776646 0.05343552
0.060951337 -0.031116962 -0.07758878 -0.08418259 0.029331446 0.054169998 -0.07665017 -0.010624155
-0.1077963 0.08460751 -0.0021490902 0.033365175 -0.049044237 -0.07534774 -0.021398738 0.057464674
0.08794418 0.08883193 -0.1125254 -0.018711641 -0.04087311 0.087738305 -0.05194427 0.09877181
-0.030333653 -0.06415014 0.113527745 0.084536135 -0.11876726 0.10858625 -0.0816655 0.08371487
-0.020345733 -0.08773288 0.045744687 -0.06563304 -0.033359185 -0.046543807 -0.112529576 0.07973893
0.08225277 0.031562656 -0.007408291 -0.033381507 -0.0718627 -0.046625838 0.10318877 -0.10320659
0.021065444 0.012247622 0.047437444 0.08085321 0.061978117 -0.053908125 -0.027022049 -0.056674004
-0.0388097 0.12066068 -0.10015629 -0.110218525 0.022905499 -0.061459944 -0.112070486 -0.084658235
0.0029652566 0.103502154 0.04337202 -0.02311033 -0.05577813 -0.05354792 -0.044958994 0.030489191
0.110549256 0.009097576 0.07214588 0.10000779 -0.023554832 -0.03328146 -0.103051364 -0.0049860775
0.058908477 0.06335275 -0.08180414 -0.07143389 0.07511777 -0.09914617 -0.066495255 -0.01997453
-0.034213543 -0.08898857 -0.077975065 0.009190112 -0.043895572 -0.041241884 -0.040538266 0.023829296
0.09093934 0.12064676 0.11134152 -0.040487815 0.11748029 -0.09178103 -0.20970209 0.009788099
-0.10486518 0.11761239 0.01956734 -0.06443733 -0.061558314 -0.08553828 3.6218036e-05 -0.005227819
0.023603633 -0.10294901 -0.11033754 -0.058618575 -0.09714082 0.04958769 0.0014592537 0.09744333
0.030351058 0.031371787 0.07784794 -0.112465546 0.0868765 0.09185853 -0.1188945 -0.034055457
-0.07343879 -0.08362748 -0.014016837 -0.06536254 -0.0274717 0.13207808 0.06508048 0.046765238
-0.069725394 -0.12077017 0.1618013 0.021165073 -0.08168004 -0.00023534402 0.04861279 -0.08360246
0.030099526 -0.048671477 -0.091312796 0.040030904 0.06614041 0.08489914 -0.1986049 -0.07486643
0.09562981 0.031595483 -0.01738677 0.09008606 -0.0852193 -0.092577435 0.020652259 0.10088904
-0.06635283 0.023785785 -0.06487262 0.11189638 -0.09971571 0.108499095 -0.027439177 -0.04665138
0.058178097 -0.0794913 -0.021790206 -0.026011199 0.08867848 0.008924246 0.059021115 0.061996505
-0.043514296 0.035785288 -0.10276848 -0.034447417 0.0018988252 -0.12418784 0.0801298 -0.06091678
0.070161775 0.11006366 -0.021065697 0.03660257 -0.04985711 -0.002414003 0.04975389 0.06725535
-0.1166068 0.10808919 -0.06420386 -0.018040732 0.09231414 0.008119136 0.09552571 -0.050652027
0.076114506 0.009594575 0.09828043 -0.0010195076 -0.02920784 -0.040550753 0.0022902638 -0.036442593
0.052937612 -0.106285274 0.08799365 -0.04760863 -0.047564983 0.05188358 0.0022753924 -0.08297722
0.07020339 -0.10988714 0.0005093068 -0.06832871 -0.073604286 -0.07140079 -0.10155915 0.057181373

linear2.bias f4 [64]
00000000: 8040 593b 0ce4 5ebd 84d1 ec3c bc31 8a3d
00000010: 0409 7b3d b48f 933d e8be f4bd 4a20 54be
00000020: afd4 ff3d e741 e33d c4e9 03bd ef6c e43b
00000030: d4a0 a7bd 59fa 423d 9776 4b3e 4cf8 a73d
00000040: 2c91 433e 88f2 3d3d 4254 5d3e 71bd cfbd
00000050: 3be8 ca3d 2ee2 0b3e afa5 36be 527d 83bd
00000060: f443 a93d 3e7e e5bc 00dd 5f3d 4799 d83c
00000070: 756b 3e3e 449c 15be cc9c 843d cac0 da3d
00000080: 5aca aebd 037c e2bd 036f 08bc 3e40 f83d
00000090: 06b2 703e 6545 ffbc dc26 5e3e 781b 4c3e
000000a0: 4b96 2c3e 92f4 adbd 9058 7d3d ccea 90bd
000000b0: c2a6 96bd 97c0 ac3c 2686 a8bc d468 94ba
000000c0: 20ca bb3d 0a19 93bd c946 7fbd b456 7fbd
000000d0: c88a 97bd d227 f33d ce9f 08be 1bce 713e
000000e0: b30b 4bbe d332 2bbe c40c 2c3e d8c9 593d
000000f0: 09b2 7a3d 725e 5e3e 2482 d33d aefb f03d
0.0033150017 -0.0544167 0.028908499 0.06747767 0.061287895 0.072051436 -0.11950475 -0.20715442
0.12491738 0.11096554 -0.03220536 0.0069709937 -0.081849724 0.04760203 0.19869457 0.08201656
0.19098347 0.046373874 0.21614173 -0.10143555 0.09907576 0.136605 -0.17836641 -0.06420387
0.08264914 -0.028014299 0.05465412 0.026440276 0.18595679 -0.14610392 0.06475219 0.10681303
-0.08534689 -0.110588096 -0.0083272485 0.12121628 0.2350541 -0.03116102 0.21694511 0.19932353
0.16854207 -0.08493914 0.061852038 -0.07076034 -0.07356025 0.021087928 -0.02057178 -0.0011322745
0.09169412 -0.0718251 -0.062323365 -0.062338546 -0.07399517 0.118728295 -0.1334221 0.23613779
-0.19828682 -0.16718607 0.16801745 0.05317101 0.061204944 0.21715716 0.10327557 0.11766754

linear3.weight f4 [64, 64]
00000000: 4023 7e3c 387f c2bc 7bbc 84bb d0f8 b23c
00000010: b457 ba3d ec7e 183d a0db fc3b 6356 77bd
00000020: 9679 bd3d 6c72 143e 33db a73d 574f b43d
00000030: a3b1 73bd 5646 723d d339 8a3d d4b9 d53d
00000040: f9e7 e83d 40c8 50bc 9794 833c 3956 c8bd
00000050: 2c0a 6a3d dfa6 b2bd 1cb1 3c3d 0234 96bd
00000060: c0f8 eb3d 265d 82bc 40ef c0bc bb59 e53d
00000070: 7b45 093d 8cd5 3dbc 188f 0a3d bd29 1f3e
00000080: 363c cd3d f175 813c 9c35 013d 10b3 90bc
00000090: 8d00 26bd eb95 703c dddf 8f3d 3673 0f3e
000000a0: c95b cbbc faaa c0bd 222b 81bd e133 b3bd
000000b0: a846 aa3c a240 fc3d 1ef3 64bd 325b a13d
000000c0: 8787 073b f80f 6d3d 4d6a 21bc ac50 653d
000000d0: 6cd3 a8bd 5694 9b3d dc43 e0bd f86a cebc
000000e0: 4003 fd3b ec78 923c f1e5 583d e0d2 cb3c
000000f0: ce34 bf3d d11f df3d 657e 5e3b 7e47 cbbd
00000100: d07c a1bc e811 67bd 5c3d 7e3d b299 b8bd
00000110: 5c21 f23d 9879 83bd a086 5e3c 1e94 dcbd
00000120: 3c1a 333d cc60 e6bd 8a79 a53d a4a6 8dbd
00000130: 90d9 973d 5042 4bbd 983b f0bd 3c52 a7bd
00000140: c030 efbc 807b d7bb 6434 493d 040d bb3d
00000150: c09d 77bb 36d9 c1bd f4e7 f5bd 0085 a43b
00000160: 0221 97bd 5461 ef3d 56d5 ff3d 5e04 aebd
00000170: 3071 793c 3064 fbbc e001 f0bd 14f2 b0bd
00000180: e273 be3d a070 c0bd 3c31 463d c0d2 e23d
00000190: 44c9 c0bd 8a54 86bd 7c0f 16bd 3cde 4cbd
000001a0: 5260 b7bd 00dc 233c 6ead bdbd b0d1 86bd
000001b0: c43f 6fbd 5e47 f73d 9821 bf3d 2250 98bd
000001c0: d49c 0ebd 6655 a33d eceb b33d 0231 a1bd
000001d0: 3806 e13c 0088 54bc b284 e5bd a81f d3bc
000001e0: 9057 2a3c c6c0 cebd 0038 b038 1063 7bbc
000001f0: 647b 83bd c846 bf3d 308b 44bd 909f fe3c
00000200: e8d0 903c a036 81bb ed21 1b3e 2072 533c
00000210: b026 303c 5422 c9bd ace5 99bd 55cb b33d
00000220: c4fb 3f3d fd21 033e f4b8 41bd 2b56 51bd
00000230: 6413 463d e924 1a3e 2437 493c 1aec 5fbd
00000240: 6eeb 0e3e 6aee f13d cd0d e13d 3fb2 a13c
00000250: 7b54 f9bd 3931 433d 2993 cd3c a706 523b
00000260: 2005 5fbd d29c cf3d 80c0 993b ffa9 4dbd
00000270: 502e 21bd 5a28 253d b068 e3bc 7720 12bd
00000280: 7c24 883d 271f 96bd c3e2 e73d 50a8 503d
00000290: 4cd9 cfbd 240e 12bd 509d fa3d 52b3 293e
000002a0: 523b b9bd 144e 4b3d 409e 3ebd 9b78 9fbb
000002b0: 409b 3b3d 016c 833b e391 c0bc d59f 78bb
000002c0: 3556 d63c 0638 ee3d c816 ccbd 2005 913d
000002d0: 187a a93c b0fd 70bd 3cbc 0f3d 295f afbd
000002e0: ae58 edbb cf27 763d c9c7 47be 5e6c 80bd
000002f0: 53ad 2fbd 925b 3e3d 32c6 253d 58b0 73bd
00000300: dcb0 8dbd 701d 3e3d 9db3 3dbd 80d5 623c
00000310: 4820 403d 46d0 a6bd 48a9 9a3d 461e 6e3c
00000320: 332d d53d e4d3 a83c 8a22 40bd da88 c3bd
00000330: ece0 e5bd c710 9b3c 1269 293e d2e0 0a3d
00000340: 9bec 193e a66b b7bd 0c36 c73d 4c4f 4c3c
00000350: b502 133e 6956 e63d eeda a8bd 60e0 973d
00000360: 7884 583d ea1c c5bd 8209 c33d 8d8d c43d
00000370: 6def 0e3e 8087 c8bd ba5f ca3d 2e05 363e
00000380: 7c63 03bd 90ca 53bd 6441 70bd cc99 69bd
00000390: 7d33 61bd f2eb 55bd 0520 92bd a5a5 d93d
000003a0: d6ee 0bbd e032 89bd c8fa d03d 8bf4 69bd
000003b0: 5ce3 a0bd 182f a4bd 8e96 0fbd aa2c 753d
000003c0: 49b9 77bd 344d a83d a2dd a5bd 6ec8 c53d
000003d0: 98fd c03c bc56 5e3d 536e fd3c 17dc aabd
000003e0: 4e8a 69bd 5aae e4bd 7dd2 86bd 2aa6 ef3d
000003f0: d907 e63d 27f6 dd3d 63ef 9fbd a0e9 f5bc
0.015511334 -0.023742303 -0.004050789 0.021847159 0.09098759 0.037230417 0.007716611 -0.06038512
0.09251706 0.14496773 0.08196106 0.088041954 -0.05949558 0.05914911 0.0674931 0.104358345
0.1137237 -0.012743056 0.016062064 -0.09782071 0.057138607 -0.087232344 0.046067342 -0.073341385
0.11522055 -0.015913557 -0.023551583 0.11198755 0.033513527 -0.011586558 0.03382787 0.15543266
0.1002125 0.01580331 0.031545267 -0.017663509 -0.04052787 0.014684181 0.070251204 0.14008793
-0.02482404 -0.09407611 -0.06307055 -0.087501295 0.020785645 0.12317015 -0.055895917 0.07878722
0.0020680146 0.057876557 -0.009852004 0.055985138 -0.082434505 0.07596652 -0.10950443 -0.025197491
0.0077213347 0.017879926 0.052953664 0.024880826 0.093362436 0.108947404 0.0033949849 -0.099257454
-0.019712836 -0.05641356 0.062070236 -0.0901369 0.11822769 -0.064196765 0.013581902 -0.107704386
0.04372619 -0.11248931 0.08079822 -0.0691655 0.07414544 -0.049623787 -0.117301166 -0.08169982
-0.02919805 -0.0065760016 0.04912223 0.09133342 -0.0037783235 -0.09465258 -0.12007132 0.0050207376
-0.073793426 0.11688486 0.124918625 -0.08496927 0.01522474 -0.030687422 -0.11719108 -0.08639923
0.09299447 -0.093964815 0.048386797 0.110753536 -0.09413388 -0.06559093 -0.03663586 -0.050016627
-0.089539185 0.010001183 -0.09261595 -0.065829635 -0.05841042 0.12074159 0.093325794 -0.07437159
-0.03481753 0.07975273 0.08785233 -0.078706756 0.027468786 -0.012971878 -0.1120695 -0.02577193
0.010396853 -0.10095362 8.402765e-05 -0.015343443 -0.06420019 0.09339672 -0.047984302 0.031081945
0.01767774 -0.0039432794 0.1514966 0.0129056275 0.010751411 -0.09821001 -0.075145096 0.08779017
0.04687096 0.12805934 -0.047295526 -0.051107567 0.048358336 0.15053143 0.012281213 -0.054668523
0.13956997 0.11813052 0.109889604 0.019738315 -0.121743165 0.047654364 0.025094585 0.0032047422
-0.054448247 0.10137333 0.0046921372 -0.05021095 -0.039350808 0.040321685 -0.02775988 -0.035675492
0.06647584 -0.073301606 0.11322548 0.050941765 -0.10148868 -0.035658017 0.12237036 0.16572312
-0.090445176 0.049635008 -0.046537638 -0.004866672 0.045802355 0.004010678 -0.023507064 -0.0037937064
0.026164154 0.116317794 -0.09965283 0.07081056 0.020688102 -0.058835685 0.035091624 -0.08563072
-0.0072432375 0.06009656 -0.19509806 -0.062706694 -0.042889904 0.046474047 0.040472217 -0.059494346
-0.06918499 0.046414793 -0.04631387 0.013844848 0.046905786 -0.08145194 0.07551819 0.014533585
0.10409012 0.02060885 -0.04690794 -0.09547587 -0.11224541 0.018928898 0.16543987 0.03390581
0.15031664 -0.08956079 0.097271055 0.012470078 0.14356501 0.1124695 -0.082448825 0.07415843
0.052860707 -0.096246555 0.09523298 0.09597311 0.13958521 -0.097914696 0.0988154 0.17775413
-0.032077298 -0.05170685 -0.05865611 -0.057031438 -0.054980744 -0.052226968 -0.071350135 0.10627297
-0.03416332 -0.06699157 0.10204083 -0.05711798 -0.07855865 -0.08016795 -0.03505569 0.059857048
-0.060479436 0.0821785 -0.08098914 0.096573696 0.023558423 0.054281935 0.030936396 -0.0834276
-0.057016663 -0.111660674 -0.06583116 0.11701615 0.112319656 0.108379655 -0.07809331 -0.030018628

linear3.bias f4 [64]
00000000: 9bfa 333e c0b8 f23b bd84 b63d ec70 5b3e
00000010: fdf0 c93b 8430 ab3d 6d8b 05be a14f 5bbd
00000020: 7658 53bb a8d7 653d c15c 3b3c c6f3 5f3e
00000030: 0e34 bcbc 0dd1 4dbd 66dc 66be 164b 833d
00000040: dd30 afbd fcfa d73c 161f aabd dc9e 04be
00000050: 757c bfbd b64f c83d 77f4 78be 12df aabd
00000060: 385f f73c 87de 6639 6bbe 583d a3b0 833d
00000070: 91e1 08bc f6b1 763e 885e 703e 5aed 363d
00000080: 2cc9 a13d d243 1cbd e3d5 363e 9004 f03d
00000090: 0e99 4dbd 688e 60be f6ee 9d3a 0000 683b
000000a0: bd96 553d 271e 1d3e 42ed b23d 1434 833d
000000b0: 1c57 5c3e 57b3 c1bc 74fe 92bd b1c8 4d3e
000000c0: 9e1d f1bc 6d3f b33d ca7f a9bd 9994 773e
000000d0: b86b cb3d 61e3 bd3b a04c e6bd 1ecc 2a3e
000000e0: d2d5 2ebe 72b2 c1bd 25af 8138 e560 613e
000000f0: 2d84 053e 3f09 8cbd 5c63 da3d 69da d63c
0.17576067 0.007407278 0.089120366 0.21429795 0.0061627612 0.08358863 -0.13041468 -0.053542737
-0.0032248772 0.05611387 0.0114356885 0.21870336 -0.02297404 -0.050248194 -0.22545013 0.06410806
-0.08554242 0.026364796 -0.083067104 -0.12951225 -0.0934991 0.09780829 -0.24312006 -0.083433285
0.030196771 0.00022017407 0.05291597 0.06430175 -0.0083545605 0.24091324 0.23473561 0.04465995
0.078996986 -0.038150616 0.17855029 0.1171962 -0.050194792 -0.21929324 0.0012049365 0.003540039
0.05214571 0.15343533 0.087366596 0.064064175 0.21517605 -0.023645086 -0.07177439 0.20096089
-0.029433068 0.08752332 -0.08276327 0.2417778 0.09932655 0.005794928 -0.11245084 0.16679427
-0.17073753 -0.09457864 6.1838226e-05 0.22009619 0.13038702 -0.06837701 0.106634825 0.026227193

linear4.weight f4 [64, 64]
00000000: 38f3 fbbd a027 e63b e64d ac3d 935b 84be
00000010: b6c6 ea3d 42cd d5bc b066 d43b e672 1b3c
00000020: abff 353d aa55 9cbd 607e 983d 3972 33bd
00000030: ff49 003e 2cbe 8bbc 2973 a13d cecf 283c
00000040: f644 553d d432 c4bc 20c5 e8bc 5a56 0bbd
00000050: baf3 84bd f009 793c a922 443d 000c b43d
00000060: 7213 dabd a83e cd3d ea57 0bbc 83e8 f53d
00000070: 7a95 e93d 8f76 d2bd e081 ee3c dc1d c8bd
00000080: 2072 5cbd a451 c7bd 7b1b e3bc 4f88 73bd
00000090: 409a f83b f926 363d 85b2 6cbd 3af5 f2bd
000000a0: 6a7c 853d b844 61bd f562 703d cf71 15be
000000b0: 0837 e1bc 90bb 2f3c 4ce1 9abc 1106 3fbd
000000c0: a028 1e3d ef21 b23d 483f e1bd 55dc a2bc
000000d0: 3f52 9c3d 9592 db3c a0bc bcbc c946 9d3d
000000e0: 0791 813d d07d 3bbc 8349 e33d d8f3 ff3c
000000f0: ccb4 223d 202d 94bd 98dc debd 8dcc f1bd
00000100: 3419 c83c 20a9 f33b 10b8 08bc 00f0 bc3d
00000110: 6f25 0f3c 9c3c 723d ae9c 27bb 81e3 8e3d
00000120: 10fc 6abd 904d 3c3d adbc 91bd f262 37bd
00000130: 5615 603d 84b0 eb3c 9e1b 7ebd 200e 8cbd
00000140: 6aa9 753d c1a5 dc3d fcdd 253d b2d3 ba3d
00000150: e016 d93d 009d 49bd db58 4abd 5203 ea3d
00000160: ede4 2cbc 1009 02be 9529 dabd 1243 8d3c
00000170: 482a 883d 804a 83bb f07b adbc 001a 9abd
00000180: 6807 c43d 7e74 54bd 4459 8b3d b4b0 15be
00000190: 2ac7 7cbd 41dc c2bd c4a8 753d 00cd 1bbd
000001a0: 7f6a b53d 8119 853c f809 ad3d 5086 d43d
000001b0: 6917 17bd 1876 fb3b 512b b5bd d899 923c
000001c0: e8e2 8f3d 4dc4 d63d 39c9 b5bd e662 933d
000001d0: 48a6 9ebd 501f 8ebd e077 6bbc f661 ff3d
000001e0: 492e ccbd 5c88 cf3d 30fa 223d a5d4 d63c
000001f0: 5271 c63d 5ff3 4a3d a6bb 48bd e351 83bd
00000200: cb40 9dbd 74e2 e2bd cf85 ef3d 7565 a53d
00000210: 5750 893d bc5e 91bd f9ac cabd c0b3 c9bd
00000220: dcbc 23bd 80b7 02bd 9099 d7bd 7185 00be
00000230: 57c1 a23d 08db 053e 3761 833d 2046 a83b
00000240: 4d91 5c3d 3942 cf3d b6c9 e53d 3c5a 22bd
00000250: d45f 7b3d 0224 c5bd 6193 bebb f004 fdbc
00000260: 119b c83d 6d88 bdbd 7944 a13d 1967 113d
00000270: 33b0 833d 39f1 983c 87cd afbd 947c 34bc
00000280: a04a c9bd 4ee6 2dbd 037a be3d e1c9 d8bd
00000290: 54b9 a3bc d483 eabb 0d66 61bd beab f7bd
000002a0: 4171 b03d 6a6a 053e f390 143d 53f9 c3bd
000002b0: 6d82 d0bd 827a a2bd fd6e 003e c906 0dbd
000002c0: 1231 e43d 9f53 d63c 3de4 2dbd 4295 37bd
000002d0: a6a0 bb3c 460d 71bd fcea fb3d c31b 97bc
000002e0: cd92 7abd c0bd 083c 7609 a3bc 8612 65bd
000002f0: 3730 033e b7d5 94bc f202 14bd 05ce c9bd
00000300: 3309 d63d c47b a8bd 3714 e4bd 3675 ef3c
00000310: 103f 893d 7c93 b03d 25b6 6b3d a760 34bc
00000320: 95f4 b2bd 1649 c7bd 0042 d03d 6e5a 82bd
00000330: 5dfe b93d 3606 efbc f906 27bd 5f71 edbc
00000340: 8bb1 07bd 2e51 573b d458 953d 04cb b5bd
00000350: a561 053d 6c41 3dbd 6dd0 223d 404b a43b
00000360: 22d7 6f3d b2d9 58bd 953a 58bc 94bd b6bd
00000370: dcbe be3d 6eff fc3d 6ba5 263d 88a6 9cbd
00000380: c6e2 afbd 82ce 0b3c b7b8 933d aae3 e53d
00000390: 274e 87bd 0ee1 b3bc 6977 f8bd 3c80 5a3d
000003a0: 2236 e03d 2ced 43bc 2a8a e3bd 4aa7 c53c
000003b0: a0e8 983b e3ac d5bc 5e23 88bd 1cbd 083e
000003c0: b916 9f3d bcde 8ebd 08f2 febd c92e a43d
000003d0: f58c e7bc c508 7bbd 2eb6 86bd 291c e23d
000003e0: 32fb 23bd dcd8 c3bd 546b 83bd 71b4 b13c
000003f0: 36be b93d 6ff4 5d3d 9230 b4bd 54f1 f13d
-0.1230225 0.0070237666 0.084132954 -0.25851116 0.11463682 -0.026098851 0.006481968 0.009487843
0.044433277 -0.076335266 0.07445979 -0.043810103 0.12528227 -0.017058454 0.07883293 0.010303451
0.05206772 -0.023950018 -0.028414309 -0.0340179 -0.064918 0.015200123 0.047884617 0.08791351
-0.1064824 0.10021716 -0.008504847 0.12007239 0.114054635 -0.102765195 0.029114664 -0.0977132
-0.053819776 -0.097323686 -0.027723065 -0.059456166 0.0075867474 0.04447076 -0.057787437 -0.118631795
0.06517871 -0.054997176 0.058688123 -0.14594196 -0.027492061 0.010725871 -0.018906258 -0.046636645
0.03861296 0.086978786 -0.10998398 -0.019880453 0.07632875 0.026803294 -0.023039162 0.07679517
0.0632649 -0.01144357 0.110980056 0.031244203 0.039723203 -0.072351694 -0.10881919 -0.11806593
0.02442608 0.0074359328 -0.008344665 0.09225464 0.008736952 0.059139833 -0.0025575566 0.06976987
-0.05736929 0.045972407 -0.07116065 -0.044772096 0.054707848 0.028770693 -0.062038057 -0.06838632
0.05997602 0.107738025 0.040494904 0.09122409 0.10600066 -0.049221992 -0.049401145 0.114264145
-0.010552627 -0.1269877 -0.106524624 0.017243896 0.066486895 -0.004006684 -0.021177262 -0.0752449
0.09571725 -0.051868908 0.068041354 -0.14618188 -0.061713375 -0.09514666 0.0599754 -0.0380373
0.08858203 0.016247513 0.08449167 0.103771806 -0.03688756 0.00767399 -0.088461526 0.017895624
0.07025701 0.1048666 -0.08876271 0.07196598 -0.077465594 -0.06939566 -0.014371842 0.124698564
-0.09969766 0.1013343 0.03978938 0.026224444 0.09689583 0.049548503 -0.04900708 -0.06412103
-0.07678374 -0.11078349 0.11695444 0.08075992 0.06704777 -0.07098147 -0.09896273 -0.09848738
-0.039975032 -0.03191328 -0.105273366 -0.12550904 0.07947033 0.13071835 0.06415027 0.0051353127
0.053849507 0.10120053 0.11220114 -0.039636835 0.061370686 -0.096260086 -0.005815909 -0.030886143
0.097952016 -0.09254537 0.07874388 0.035498712 0.06430092 0.018669711 -0.08584123 -0.01101603
-0.09828687 -0.042455964 0.09300616 -0.1058538 -0.019985832 -0.0071568284 -0.055028964 -0.12093304
0.086153515 0.13028875 0.036271047 -0.09569039 -0.10181127 -0.07933523 0.12542339 -0.0344303
0.11142172 0.02616292 -0.042453993 -0.044820078 0.022903752 -0.05885055 0.12300679 -0.018445855
-0.061175156 0.008346021 -0.019901972 -0.05592587 0.12811361 -0.018168313 -0.03613562 -0.09853748
0.10450973 -0.082267314 -0.11136668 0.029230695 0.06701481 0.086218804 0.057546753 -0.011009372
-0.087380566 -0.09730737 0.101688385 -0.06364904 0.09081719 -0.029177766 -0.040778134 -0.028984724
-0.033128303 0.0032854783 0.07292333 -0.08876613 0.032563824 -0.04620497 0.03974955 0.0050138533
0.058554776 -0.052941985 -0.013197561 -0.08922878 0.09313747 0.12353407 0.0406851 -0.07648951
-0.085881755 0.008533122 0.07212966 0.11225064 -0.06606703 -0.0219579 -0.12132151 0.05334495
0.10947825 -0.011958402 -0.11110337 0.024127621 0.004666403 -0.026083415 -0.06647371 0.1335339
0.07768006 -0.06976077 -0.124485075 0.08016736 -0.028265456 -0.06128766 -0.06577717 0.110405274
-0.04003448 -0.09562847 -0.064169556 0.021692486 0.09069483 0.05418819 -0.087983266 0.11813608

linear4.bias f4 [64]
00000000: baa1 183d 04ea 81bc d27e 64bd b1be 3c3e
00000010: 0447 983d 3864 a93d 8d59 d33d 8d73 903c
00000020: eae3 0dbe 98c4 01be 3d03 493e e968 eabb
00000030: 98ea f6bd 8044 e93d dca9 e4bd 9e67 4f3c
00000040: 4497 0d3e 649d 813d 7d6c 86bd 1620 de3d
00000050: 5046 96bc f24c 0f3e ffbc 2a3e d120 b83d
00000060: d480 c5bd 2566 073e f768 c6bc 4542 3b3e
00000070: 3b9f 7d3d 9937 2c3e d148 45be 4255 6c3d
00000080: 92ab 973d e003 2f3e dea3 e1bd 8f23 593e
00000090: 6af2 143e 4cab 413d 1eb3 f0bd 5855 0dbe
000000a0: bd9b 9f3d 6e2a a2bc 40f9 e2bd 9bdc ee3d
000000b0: aee2 91bd d6fc d7bd 0ec1 c7bc 9079 dcbd
000000c0: 7b07 253e 73e2 263e 883e 433e f69c a8bd
000000d0: d913 0b3e c9cd dc3d ae0a 613d 4458 e93d
000000e0: 5986 033e 5f82 8fbd a5f5 033d 6a4a b2bc
000000f0: 3761 753e c410 cd3c ad32 0fbe d8d9 463e
0.03726361 -0.015858658 -0.055785008 0.18432118 0.0743542 0.08271068 0.10319815 0.017633224
-0.13856474 -0.12672651 0.19630142 -0.0071536195 -0.12056464 0.113900185 -0.111652106 0.012658982
0.13827235 0.06328848 -0.06563661 0.10845964 -0.018344074 0.13994196 0.16673659 0.08990634
-0.09643713 0.13222559 -0.024219973 0.18286999 0.061919432 0.16818084 -0.19266059 0.057698496
0.07405771 0.17091322 -0.11017583 0.21204971 0.14545599 0.047282502 -0.11752914 -0.13802087
0.077933766 -0.019795623 -0.11082697 0.11663171 -0.07123314 -0.105462715 -0.024384048 -0.10765374
0.16116135 0.16297321 0.19066823 -0.08233063 0.1358179 0.10781438 0.054941826 0.113937885
0.12844218 -0.07007288 0.032216687 -0.021763999 0.23962866 0.025032409 -0.13984175 0.19419038

mean_linear.weight f4 [2, 64]
00000000: ba8b a7bc b421 dabc f105 6a3b 2a3e d0bc
00000010: 9709 1bbd 6430 29bd 56a8 03bd a422 2dbc
00000020: bf26 c3bb 0d0c c33c 405e 3dbd 09c2 b1bd
00000030: edf1 223c c29f 0ebd 5ebe 6d3a bb9d b8bc
00000040: 161f ddbc 7108 86ba 28c9 81bd 6800 eabc
00000050: 8918 bdbd 581d 24bd 7250 35bd 4b40 46bd
00000060: 6efc 35bb 3f7c 15bd 9aed 97bb f23c 32bd
00000070: 76d3 81bd f8aa e2bc adca 2b3d 0c7f 0fbd
00000080: 3aeb dfbc f981 13bd b815 49ba 3bfc 5cbd
00000090: 41ae bfbc 626c 28bb 3abb 9d3b dc3a 353d
000000a0: 8f29 82bc 49df 233d 0850 35bb e3bf 29bd
000000b0: 1351 1dbb ec25 313d fb26 8dbc bd1e ceb9
000000c0: ca96 e7bc bd25 0fbc 3941 2bbd 1f0f 193b
000000d0: a85d 30bd f54b 7dbc 8d4b 50bd 9355 593a
000000e0: 92f5 0fbd 1e98 d2bb 7ba6 8fbb 5200 2dbb
000000f0: 9e2b 5abd 47f0 04bc 1748 873d 4566 47bd
00000100: 17fd 2b3d f5af ad3b 155e 7f3c 65f2 27bc
00000110: eaf2 30bd 8ae8 c1bc 1da2 233d def2 483c
00000120: c3f3 d8ba 2cd9 fa3c 6f97 8fbd 7b43 213d
00000130: f631 76b9 fb4d b4bc 0966 ff3a 90bc 84bc
00000140: 8f0f 9fbc effe 33bb de84 a83d a7f8 80bc
00000150: 025e eb3d d663 1bbd 9e35 59bd a8a2 743d
00000160: c416 073b 6a19 0f3d 22f7 e339 c61b b5bc
00000170: f0fc 75bc 3853 14bd 80ac 6a3d 9a0e 26bd
00000180: f850 95bc 4344 12bd c582 333a 76cd 24bd
00000190: 7b8f 71bc e399 d8b9 02e0 36bc 6d50 3c3c
000001a0: 0971 6a3c badb 8bbc 09b1 9c3a a38b 1fbd
000001b0: dc2d e5ba 3eb7 34bc 96ee 053c 74bf f53a
000001c0: f147 75bc 4673 1dbd e353 b9bc 305c 02bb
000001d0: ea47 2cbd 6b75 79bc 2d84 2fbd e7cd bcbb
000001e0: 149e 26bd 0618 a73b 70de 9bbb e22e 0ebc
000001f0: 4173 7bbd 2e2f 143c 0113 e13a 6372 27bd
-0.020452369 -0.026627399 0.0035709108 -0.025420267 -0.037850942 -0.041305915 -0.03214296 -0.010567341
-0.0059555466 0.023809457 -0.046232462 -0.086795874 0.009945375 -0.034820326 0.00090691994 -0.02253615
-0.026992362 -0.0010225904 -0.06337196 -0.028564647 -0.09233195 -0.040067047 -0.04426617 -0.04840116
-0.0027768868 -0.036495443 -0.0046364786 -0.043515153 -0.06339161 -0.027669415 0.041941334 -0.03503327
-0.027333844 -0.036012623 -0.0007670778 -0.053951483 -0.02339852 -0.0025699367 0.004813579 0.044245586
-0.015888957 0.040007863 -0.002766611 -0.041442763 -0.0024004623 0.043249056 -0.017230501 -0.00039314284
-0.028270144 -0.008737025 -0.041810248 0.002335496 -0.043058068 -0.015460004 -0.0508533 0.00082906446
-0.035146303 -0.006426825 -0.0043838597 -0.0026397896 -0.053264253 -0.008113927 0.06605547 -0.048681516
0.041989412 0.0053005167 0.015586396 -0.010250662 -0.04320041 -0.023670454 0.039949525 0.012264935
-0.0016552139 0.030621134 -0.070113055 0.039370995 -0.00023479 -0.02200984 0.0019485365 -0.016203195
-0.019416599 -0.0027465185 0.082284674 -0.015743567 0.1149254 -0.037937008 -0.05302965 0.059725434
0.0020612935 0.034936346 0.00043480942 -0.02210797 -0.015013918 -0.036212176 0.057293415 -0.04054127
-0.018227085 -0.03570963 0.0006847794 -0.040235005 -0.014743681 -0.00041313385 -0.011161806 0.011493784
0.014309176 -0.017072547 0.0011954616 -0.038951527 -0.0017484981 -0.0110300165 0.008174559 0.0018749074
-0.014970765 -0.03844001 -0.022623008 -0.0019891374 -0.04206077 -0.0152257485 -0.042850662 -0.00576185
-0.0406781 0.0050992994 -0.004756741 -0.00867817 -0.06138921 0.009044452 0.0017171801 -0.040880572

mean_linear.bias f4 [2]
00000000: b9ba 8cbd 3dcf 85bd
-0.06871552 -0.06533668

log_std_linear.weight f4 [2, 64]
00000000: b337 ccbc f591 09bc ff06 19bc ab94 5cbc
00000010: 873d 6bbc 0398 92ba bc9d c0bc 7411 95bb
00000020: aedd 173b bb94 723c 6ce3 a9bc dac8 a8bc
00000030: c1ad 95bb 584b 2dbc 0234 2b3b 7d8f 23bb
00000040: 674d 05bc 6dfa bd3b 2227 f0bc cd51 0bbc
00000050: 58f4 67bd bf0a babc 95a5 0abd 69eb 16bd
00000060: 8cd3 81ba c08c bfbc d026 24bc bbfc d0bb
00000070: 7625 4abc 86d4 27bc 34da e53c e3f5 12bc
00000080: f588 a1bb 40a4 85bc 81a8 27bb 04b8 9dbc
00000090: 366a 41bc 7bd8 c039 5d28 87bb f3c0 32bc
000000a0: aeea 32bc ca6a 11bc fa9e 16b9 78a0 16bc
000000b0: 21b6 e33a 3ffd 833c fb59 c0bb 6d38 1a3b
000000c0: d1ed 51bc f035 0dbc 26fe 5bbc 4f2d f7ba
000000d0: 85bf 82bc 358c 2cbb f240 12bc 213c 2939
000000e0: 6b0f 27bc b794 0a3c 6ab6 3abc 9259 16bc
000000f0: 3000 c4bc c284 fe3b eb7b f93c 6695 5abc
00000100: 4e46 f7bc b73f a6ba 5621 b3bc 32e7 17bc
00000110: b9c2 50bc bd4b dc3b f77f a0bc 9c4a 3aba
00000120: ce40 64bc d199 f53b 06b0 dfbc bea1 133b
00000130: cb29 dd3b c160 06bc 4760 413b 6c1a 9b39
00000140: 31ad f3bb 7ba8 573b de22 4bbb c246 67bb
00000150: 2e2f 983c 50a5 dcbc 5f51 36bd 63f5 6bbc
00000160: daf9 04bb be96 82bc 6281 193b 5ebe e8ba
00000170: 8e24 fabb 5cb2 89bc c18d cf3c d62a 0cbc
00000180: 2a36 91bb f553 b1bc 7db3 123a af72 32bc
00000190: cc07 5cbc fbd1 fb3a 5ee3 05bb a9ce 05bd
000001a0: beee debb b0a6 33bc 56f8 8539 14fc 56bc
000001b0: aec1 e439 8080 4e38 dfe1 473b f88e 1cba
000001c0: 9a44 41bc 3358 47bc 9615 cbbb 7d57 9d38
000001d0: 3d98 6fbc e053 66bb 55ba 60bc 2f2f bbba
000001e0: 741a 8ebc fb67 8ebb 7e55 5abb 59af e53b
000001f0: 6e46 d8bc 8530 ef3b a441 743b c03d 4abc
-0.024928903 -0.008396615 -0.009340047 -0.01346318 -0.014357931 -0.0011184219 -0.023512714 -0.0045491997
0.0023172903 0.014805968 -0.020738326 -0.020603586 -0.004567832 -0.010577045 0.0026123528 -0.0024957352
-0.00813613 0.0057976753 -0.029315535 -0.00850339 -0.05662951 -0.022710202 -0.033849318 -0.0368456
-0.0009904965 -0.023382545 -0.010019019 -0.006377784 -0.012338033 -0.010243541 0.028058149 -0.008969757
-0.0049296566 -0.016313672 -0.0025582614 -0.019252785 -0.011805108 0.00036782384 -0.0041246847 -0.0109102605
-0.01092021 -0.008875558 -0.00014364338 -0.009193532 0.0017373004 0.016111968 -0.0058701015 0.0023532168
-0.0128130475 -0.008618817 -0.013427293 -0.0018858108 -0.015960464 -0.0026328687 -0.008926617 0.00016139496
-0.010196547 0.008458308 -0.01139603 -0.009176629 -0.02392587 0.007767291 0.030454597 -0.013341283
-0.030184891 -0.0012683783 -0.021866482 -0.00927143 -0.012741738 0.006722896 -0.019592268 -0.00071064546
-0.013931466 0.007495143 -0.027305614 0.0022526826 0.006749367 -0.008201779 0.0029506849 0.0002958359
-0.0074364175 0.0032906819 -0.0030996124 -0.0035289978 0.018577185 -0.026934296 -0.044511195 -0.0144017665
-0.0020290525 -0.01594102 0.0023423065 -0.0017756929 -0.007633752 -0.016808681 0.025336148 -0.008555135
-0.0044315057 -0.02164648 0.0005596204 -0.0108916005 -0.013429593 0.0019212359 -0.002042971 -0.03266779
-0.0068033626 -0.010965034 0.00025552762 -0.013121624 0.0004363185 4.9233902e-05 0.003049962 -0.0005972232
-0.011796141 -0.012167024 -0.0061976416 7.502639e-05 -0.014623699 -0.0035145208 -0.0137163 -0.001428103
-0.017346598 -0.0043458915 -0.0033315117 0.0070094285 -0.026400771 0.007299485 0.003727057 -0.012343824

log_std_linear.bias f4 [2]
00000000: 9f62 2dbd a909 15bd
-0.04233038 -0.036386166
