models/noCBF_2025-11-17 20:09:32/1/Q2.pth (torch, 37764 bytes, 7 tensors)

linear1.weight f4 [64, 5]
0.2078247 -0.36849543 0.21896872 0.3575402 0.119163804 -0.048203055 0.15495293 0.32593143
-0.01755086 0.015626911 -0.17645754 -0.41126153 -0.2864103 -0.17505763 -0.5070348 0.39181474
0.1162235 -0.2869208 -0.108429335 0.27715483 0.36078995 -0.09309893 -0.16798152 0.42004058
-0.36420432 -0.06484936 0.010205986 0.23342384 0.32555974 -0.22834034 -0.124475665 -0.067370534
-0.05253696 0.2598361 0.117817834 -0.4642526 -0.065058075 0.23188187 0.087860405 0.017987257
0.2000043 -0.032235064 0.1433327 -0.0346323 0.16406491 0.28277838 0.07620099 -0.12789397
-0.33834273 -0.36069134 0.2032541 -0.22816363 -0.17736326 -0.0072305426 -0.17726396 -0.067861676
-0.07313737 0.13251245 0.58946383 0.14208056 -0.3690608 -0.38809916 -0.26254123 -0.4098897
-0.537727 -0.3476344 -0.08236776 0.17371373 -0.5259014 -0.39160576 -0.0011810211 0.3291382
-0.1572594 -0.17881954 -0.001704705 -0.42387927 0.16722919 -0.27213892 -0.5258889 -0.15573171
-0.18074541 -0.49901468 0.1723798 -0.42517442 -0.105994776 -0.04234583 0.38561147 0.24078666
0.10743871 -0.23883842 0.22427858 0.27285877 -0.22911483 -0.03407347 0.4398271 -0.0150828315
-0.25013226 0.4274441 0.20485 -0.5169484 0.40998796 -0.14039506 -0.2643145 0.38827023
0.21221098 -0.2575714 0.06429523 0.40668046 0.080699354 -0.04693263 0.013709278 -0.083882734
0.26532453 0.25974652 -0.2869753 0.25607067 -0.33394334 -0.08225195 -0.4572143 0.2205129
-0.15930519 0.12520623 -0.043744445 0.045417685 0.053924054 0.16177694 -0.23746079 0.11081623
-0.04859243 -0.09480965 -0.29924121 0.0026674578 -0.02454637 -0.05460422 0.14853492 0.21346141
-0.2382137 0.42170894 0.36826319 0.3382642 -0.17577702 0.2832745 0.22926141 -0.33700272
-0.26246914 -0.46049747 0.20622845 0.083753236 -0.20116147 -0.5419087 0.049272098 -0.42550334
-0.32368338 -0.01941052 -0.021058543 -0.24198432 -0.26667693 0.20781766 0.29458103 -0.110882655
0.271262 0.02272056 0.3860578 -0.29059508 -0.20167637 -0.02186738 -0.042913355 0.39844406
0.19976622 0.29690987 0.21079138 -0.22803447 -0.31689957 0.2020898 0.2153261 -0.12099071
0.42938206 -0.31445047 0.29503477 0.4103317 -0.28437316 -0.22143337 -0.5549629 0.036106687
-0.5077399 -0.18323158 -0.13690215 0.13965333 -0.08560005 0.40010864 -0.20766653 -0.20052865
-0.010656304 -0.39834303 -0.56225634 -0.4576767 0.04228939 -0.06603751 0.30869374 -0.06634114
0.01791148 -0.083911285 0.3070127 0.09280336 0.28216872 0.23012973 -0.5041397 -0.19201003
-0.0030958178 -0.32897618 0.15212817 -0.35401368 0.27421528 0.09110405 -0.33417472 0.24767312
-0.07290583 -0.24894823 0.17951871 -0.14168729 0.2037277 0.43932495 -0.43397322 -0.1547298
0.2857074 -0.3109409 0.42027193 -0.13500303 -0.3392911 -0.15496838 -0.31646565 -0.15692331
0.21345827 -0.48941216 0.16283607 0.4288139 0.27399096 -0.32208118 0.2930082 -0.1259813
-0.03403343 0.19393487 -0.31730485 0.0012853526 0.2553267 -0.13754804 -0.011715897 0.032380477
0.10563635 -0.027381485 0.017791387 -0.3746918 0.0043236674 0.31749958 -0.4026084 0.23666036
00000000: 00d0 543e 6fab bcbe 5639 603e 820f b73e
00000010: 270c f43d 9170 45bd fbab 1e3e 7ce0 a63e
00000020: d2c6 8fbc 0204 803c 49b1 34be df90 d2be
00000030: 5fa4 92be 4f42 33be 08cd 01bf f19b c83e
00000040: 9606 ee3d 48e7 92be 3310 debd 3de7 8d3e
00000050: 76b9 b83e a7aa bebd 5903 2cbe 8f0f d73e
00000060: fd78 babe becf 84bd 0237 273c a906 6f3e
00000070: c4af a63e 0dd2 69be 19ed febd 90f9 89bd
00000080: ff30 57bd 3d09 853e 7a4a f13d 84b2 edbe
00000090: 2b3d 85bd 7172 6d3e 28f0 b33d 035a 933c
000000a0: edcd 4c3e ea08 04bd cfc5 123e 99da 0dbd
000000b0: a200 283e 54c8 903e 440f 9c3d a3f6 02be
000000c0: 423b adbe 89ac b8be d821 503e baa3 69be
000000d0: b79e 35be 30ee ecbb af84 35be 10fb 8abd
000000e0: 0cc9 95bd 58b1 073e 1ae7 163f 917d 113e
000000f0: 8af5 bcbe efb4 c6be ce6b 86be 10dd d1be
00000100: 7aa8 09bf 23fd b1be 6eb0 a8bd 03e2 313e
00000110: 79a1 06bf 8d80 c8be 7ecc 9aba cd84 a83e
00000120: 9c08 21be 781c 37be 6870 dfba b406 d9be
00000130: 213e 2b3e cb55 8bbe a8a0 06bf 2278 1fbe
00000140: 5315 39be da7e ffbe 5584 303e 76b0 d9be
00000150: ca13 d9bd d272 2dbd de6e c53e c790 763e
00000160: d408 dc3d 0f92 74be 49a9 653e 25b4 8b3e
00000170: 149d 6abe 9f90 0bbd 0531 e13e fb1d 77bc
00000180: 5611 80be f4d9 da3e 33c4 513e bb56 04bf
00000190: f1e9 d13e b9c3 0fbe 3b54 87be 5bcb c63e
000001a0: d64d 593e 66e0 83be 38ad 833d 6c38 d03e
000001b0: b445 a53d 6e3c 40bd e19c 603c b6ca abbd
000001c0: 9ed8 873e 7ffd 843e 6dee 92be b21b 833e
000001d0: 9ffa aabe b673 a8bd fe17 eabe 22ce 613e
000001e0: e620 23be 1036 003e 602d 33bd e507 3a3d
000001f0: 78df 5c3d dba8 253e ec28 73be 9ff3 e23d
00000200: db08 47bd 902b c2bd 2536 99be 84d0 2e3b
00000210: 7815 c9bc ada8 5fbd 8a19 183e a195 5a3e
00000220: 4bee 73be 3cea d73e fe8c bc3e f730 ad3e
00000230: e4fe 33be 5b09 913e 81c3 6a3e 9f8b acbe
00000240: 5b62 86be 53c6 ebbe 8d2d 533e d186 ab3d
00000250: 46fd 4dbe 87ba 0abf 8ad1 493d 93db d9be
00000260: d4b9 a5be d002 9fbc f782 acbc bdca 77be
00000270: e189 88be 27ce 543e 53d3 963e 7216 e3bd
00000280: dae2 8a3e 7820 ba3c 5ea9 c53e e1c8 94be
00000290: 4084 4ebe 3823 b3bc eac5 2fbd dc00 cc3e
000002a0: 848f 4c3e 9204 983e b2d9 573e de81 69be
000002b0: a940 a2be a1f0 4e3e 727e 5c3e fac9 f7bd
000002c0: f7d7 db3e a7ff a0be cc0e 973e ff16 d23e
000002d0: 5c99 91be 6ebf 62be 0c12 0ebf 9be4 133d
000002e0: 3efb 01bf 0fa1 3bbe 1430 0cbe 4801 0f3e
000002f0: 144f afbd 0adb cc3e 89a6 54be 6257 4dbe
00000300: c797 2ebc 9ef3 cbbe 08f0 0fbf 9a54 eabe
00000310: a437 2d3d ad3e 87bd 1b0d 9e3e dddd 87bd
00000320: 19bb 923c aed9 abbd c530 9d3e b00f be3d
00000330: 6b78 903e 21a7 6b3e 4d0f 01bf 479e 44be
00000340: 34e3 4abb 916f a8be 7dc7 1b3e 4841 b5be
00000350: f265 8c3e c394 ba3d f318 abbe 069e 7d3e
00000360: a74f 95bd 49ec 7ebe c1d3 373e 7916 11be
00000370: ff9d 503e 33ef e03e bd31 debe 7d71 1ebe
00000380: 3e48 923e a533 9fbe e22d d73e 3c3e 0abe
00000390: 90b7 adbe 08b0 1ebe c907 a2be 81b0 20be
000003a0: ce94 5a3e 3b94 fabe 80be 263e 7f8d db3e
000003b0: 8b48 8c3e d3e7 a4be 2c05 963e 3e01 01be
000003c0: a366 0bbd dd96 463e c875 a2be 4779 a83a
000003d0: 2eba 823e 65d9 0cbe 09f4 3fbc 64a1 043d
000003e0: df57 d83d 234f e0bc 3ebf 913c 9bd7 bfbe
000003f0: 8dad 8d3b 4e8f a23e b022 cebe 1857 723e

linear1.bias f4 [64]
-0.6433686 -0.34821877 -0.30359852 0.22814333 -0.14484507 -0.19852155 0.8782108 0.07869964
0.615893 0.13283734 -0.2344096 -0.35238 0.61235243 -0.5943488 -0.39106858 -0.04149189
-0.06776523 0.7549514 -0.17417803 0.6751579 0.012388113 -0.08765226 -0.39753887 0.22857696
0.6036848 -0.35999295 0.28540578 0.15853685 -0.50861096 0.32220995 0.43055636 0.29425353
0.26679674 -0.22377947 -0.3520684 -0.28776854 -0.24916078 -0.3393937 0.2983794 0.4637048
-0.5416196 0.8085654 0.6647372 0.43717024 -0.3662214 -0.06491762 0.021302445 0.027124353
-0.30229282 0.6397859 0.74665713 0.6971946 0.74942017 0.36959213 0.12371485 -0.7001427
0.24384506 -0.7211348 -0.22921966 0.50700426 0.06547744 -0.36683738 0.329763 -0.5699721
00000000: ceb3 24bf bb49 b2be 4471 9bbe 689e 693e
00000010: 4452 14be 3c49 4bbe 6cd2 603f 472d a13d
00000020: 2aab 1d3f 8306 083e 1209 70be 276b b4be
00000030: 21c3 1c3f 3e27 18bf 243a c8be 66f3 29bd
00000040: 7fc8 8abd 7f44 413f ba5b 32be 26d7 2c3f
00000050: 83f7 4a3c 0783 b3bd 378a cbbe 1410 6a3e
00000060: 168b 1a3f ff50 b8be b520 923e 7c57 223e
00000070: 5434 02bf b4f8 a43e e271 dc3e 66a8 963e
00000080: 9599 883e 7226 65be 4f42 b4be 6656 93be
00000090: 0124 7fbe 03c5 adbe 2fc5 983e b76a ed3e
000000a0: 95a7 0abf 24fe 4e3f 382c 2a3f c7d4 df3e
000000b0: 5f81 bbbe 87f3 84bd 7782 ae3c e433 de3c
000000c0: 20c6 9abe 02c9 233f ec24 3f3f 587b 323f
000000d0: 00da 3f3f 2e3b bd3e 365e fd3d 8d3c 33bf
000000e0: 85b2 793e 4a9c 38bf 8fb8 6abe 08cb 013f
000000f0: 0919 863d 1cd2 bbbe b2d6 a83e b1e9 11bf

linear2.weight f4 [64, 64]
-0.016124768 -0.10184479 0.007129088 0.0029946268 0.0018989742 0.109579645 0.007002577 0.002228267
0.062651925 0.10501148 0.05722052 0.023069704 -0.07563706 -0.12529851 -0.124433905 0.04961194
-0.07109972 -0.00046606033 0.0029721558 -0.08361221 0.026683807 0.08697713 0.047447428 -0.029640825
-0.023361951 -0.04272792 0.034930103 -0.019056397 0.06851542 -0.029478844 0.056951195 -0.09385691
0.053755213 -0.09813175 0.061670214 0.04954709 0.10838847 -0.119842514 -0.008826285 -0.07456986
-0.026953159 -0.01593177 0.03996767 -0.090408444 -0.06213501 0.011697426 -0.11198579 -0.04260336
0.014671996 -0.12357688 0.090793386 -0.10903448 -0.015368963 0.0743092 -0.09655774 0.09645127
-0.06753172 0.034281436 -0.03745495 0.10296596 -0.054023117 0.105380826 0.12039672 -0.12486316
-0.14685138 -0.1445095 0.042086583 0.06723805 -0.101866245 0.024239302 0.15587622 0.05713998
0.18028061 0.02639459 0.07731405 -0.040160067 0.086478405 0.042986058 0.055642962 0.20259438
-0.011081218 0.29781494 0.01045312 0.042393684 0.07334983 0.072963305 0.037237737 0.13663858
0.31373248 -0.07929125 0.06818307 -0.065797456 -0.21119133 -0.036622174 0.07646009 0.026247965
-0.032713927 -0.14686528 -0.0986297 -0.043877885 0.1669059 0.08891407 0.1628333 0.057604425
-0.15266016 0.21756884 -0.09701863 -0.023115635 -0.054130778 -0.11108741 -0.09910353 0.039649576
-0.079183385 0.022116367 0.16418341 0.25844234 0.30209783 0.12632379 0.12810299 -0.16754024
0.083589844 -0.11109741 0.045729756 -0.083260566 0.010123094 0.007467652 0.10198294 -0.04241575
-0.031359747 -0.10846643 -0.107078254 0.06219691 -0.07443179 -0.05503103 0.019169077 0.029133797
0.102081925 -0.039518014 0.038843438 -0.00074647367 0.02165483 0.0748484 0.023932084 0.02834773
0.051210105 -0.084507704 0.060199484 0.04291123 0.07745333 -0.06976557 0.10231021 0.017865404
-0.106586486 0.1075944 -0.09643972 -0.08902721 0.032647595 -0.07352358 0.0896305 0.066518515
0.11821531 -0.02752167 -0.08346838 -0.10356465 -0.10151951 0.0130863935 -0.05951576 0.003834039
-0.11282702 0.11778399 0.08902991 0.08961223 -0.016715199 0.07645361 -0.06012605 0.02028589
-0.0486041 -0.026948422 -0.1055294 0.051191434 -0.019213825 0.06756422 0.09697956 -0.019930154
-0.10581869 -0.08594045 0.05085984 -0.091242 -0.0745139 0.02881983 0.013884753 0.12082414
-0.14560522 0.037180193 -0.28183407 0.09456389 0.03556852 -0.10254969 0.2074052 0.08381848
0.07146326 0.035553128 0.008789614 0.0013685019 -0.085378416 -0.13586761 -0.092068955 0.11286832
-0.021335993 0.044523213 0.07122707 0.10763037 0.03346224 -0.07796732 -0.010631704 0.021405542
0.40455815 -0.08083068 -0.0385123 0.12958184 -0.14576837 0.041097876 -0.071561106 -0.11719401
0.09001743 0.040922083 -0.03824988 -0.08365995 0.005463637 -0.03315169 -0.015283025 -0.0072728987
0.06971759 0.35957465 -0.06038099 0.054415748 0.044325143 0.122727305 0.029055277 -0.12005414
0.05464998 -0.00819269 0.12483231 0.14769845 0.3552057 0.009670286 -0.3383054 0.03250374
0.0468372 -0.20167221 -0.017531808 0.11840029 -0.08064496 -0.12637894 0.03281025 -0.10443043
00000000: 1718 84bc 0094 d0bd 209b e93b 8041 443b
00000010: 00e7 f83a 4b6b e03d e075 e53b 1e08 123b
00000020: a74f 803d 4210 d73d 1060 6a3d adfc bc3c
00000030: 9ae7 9abd 414e 00be 34d7 febd e435 4b3d
00000040: bb9c 91bd 8f59 f4b9 80c8 423b e13c abbd
00000050: 0098 da3c 1121 b23d 3c58 423d 51d1 f2bc
00000060: 9061 bfbc 7903 2fbd de12 0f3d 291c 9cbc
00000070: d051 8c3d 9e7d f1bc a845 693d 0d38 c0bd
00000080: 6d2e 5c3d 4df9 c8bd e899 7c3d e4f1 4a3d
00000090: c6fa dd3d fe6f f5bd 1f9c 10bc 15b8 98bd
000000a0: dfcc dcbc 5883 82bc 24b5 233d 1028 b9bd
000000b0: 4881 7ebd 90a6 3f3c ce58 e5bd dc80 2ebd
000000c0: d062 703c e015 fdbd e2f1 b93d 784d dfbd
000000d0: 1ace 7bbc 6c2f 983d 10c0 c5bd 3e88 c53d
000000e0: 124e 8abd b16a 0c3d 5d6a 19bd d1df d23d
000000f0: 5847 5dbd e7d1 d73d 8e92 f63d 42b8 ffbd
00000100: 3560 16be 4cfa 13be fb62 2c3d 1ab4 893d
00000110: 409f d0bd 8091 c63c 049e 1f3e 9d0b 6a3d
00000120: 7b9b 383e 7839 d83c d456 9e3d e27e 24bd
00000130: 971b b13d 2612 303d e0e9 633d e774 4f3e
00000140: ff8d 35bc 337b 983e 9043 2b3c 00a5 2d3d
00000150: 7038 963d c96d 953d 9986 183d fcea 0b3e
00000160: 8ba1 a03e 7363 a2bd 91a3 8b3d d1c0 86bd
00000170: 8a42 58be 2201 16bd 1c97 9c3d f905 d73c
00000180: 0aff 05bd da63 16be 5efe c9bd 4cb9 33bd
00000190: 61e9 2a3e 9418 b63d c6bd 263e 9ef2 6b3d
000001a0: f252 1cbe 5eca 5e3e b4b1 c6bd 005d bdbc
000001b0: 3cb8 5dbd cc81 e3bd cbf6 cabd 9867 223d
000001c0: e62a a2bd 622d b53c b21f 283e 8e52 843e
000001d0: 91ac 9a3e 065b 013e 6e2d 033e ab8f 2bbe
000001e0: 2731 ab3d 0a87 e3bd 204f 3b3d 8484 aabd
000001f0: 55db 253c 35b3 f43b 6fdc d03d 23bc 2dbd
00000200: 1473 00bd a623 debd d84b dbbd 30c2 7e3d
00000210: b26f 98bd 3868 61bd 7808 9d3c 00aa ee3c
00000220: 5410 d13d a4dd 21bd 4c1a 1f3d 00af 43ba
00000230: 7865 b13c 1e4a 993d 380d c43c 8039 e83c
00000240: b0c1 513d 6012 adbd bc93 763d b0c3 2f3d
00000250: da9f 9e3d 40e1 8ebd 0488 d13d 785a 923c
00000260: 044a dabd 745a dc3d 3082 c5bd e653 b6bd
00000270: 7cb9 053d 8893 96bd 3290 b73d dc3a 883d
00000280: de1a f23d 2075 e1bc 78f1 aabd b419 d4bd
00000290: 76e9 cfbd 5068 563c ccc6 73bd 8044 7b3b
000002a0: da11 e7bd bc38 f13d 5055 b63d 9e86 b73d
000002b0: 50ee 88bc b693 9c3d bc46 76bd 982e a63c
000002c0: 1815 47bd f0c2 dcbc cc1f d8bd 1cae 513d
000002d0: 5066 9dbc 1c5f 8a3d 389d c63d 9044 a3bc
000002e0: 78b7 d8bd 8c01 b0bd 6852 503d 16dd babd
000002f0: be9a 98bd 9017 ec3c e07c 633c a672 f73d
00000300: 8919 15be 424a 183d 8e4c 90be b6aa c13d
00000310: 4cb0 113d 9205 d2bd 0762 543e 06a9 ab3d
00000320: 545b 923d 28a0 113d 5002 103c 4e5f b33a
00000330: e1da aebd e120 0bbe a68e bcbd 8127 e73d
00000340: d2c8 aebc f95d 363d 80df 913d 506d dc3d
00000350: b40f 093d 55ad 9fbd 9930 2ebc ad5a af3c
00000360: 3f22 cf3e 8e8a a5bd 13bf 1dbd 1ab1 043e
00000370: 4e44 15be 3f56 283d a18e 92bd 6a03 f0bd
00000380: 0f5b b83d ea9d 273d e8ab 1cbd e855 abbd
00000390: 4f08 b33b 11ca 07bd a765 7abc 7f51 eebb
000003a0: 19c8 8e3d 2b1a b83e 0f52 77bd 0ce3 5e3d
000003b0: 488e 353d 7458 fb3d 5505 ee3c f2de f5bd
000003c0: a8d8 5f3d a23a 06bc 15a8 ff3d 433e 173e
000003d0: 86dd b53e 1f70 1e3c 5e36 adbe a422 053d
000003e0: 5dd8 3f3d 2983 4ebe de9e 8fbc da7b f23d
000003f0: 2f29 a5bd 7b69 01be 0a64 063d 9fdf d5bd

linear2.bias f4 [64]
-0.052730557 0.26759687 -0.10664651 0.41750124 0.33658615 0.3521726 -0.015726848 0.23613101
0.24456404 0.28676808 0.31851396 0.09292326 0.18504442 -0.010680261 0.17379746 0.23053731
0.33737937 -0.12125724 0.13163981 0.15381221 0.11146732 -0.46421134 0.0016986281 0.22410758
0.07195149 0.3053491 0.012925297 0.06737215 0.35076562 0.22986622 -0.26561132 0.32761034
0.2255896 0.25194207 0.30293724 0.10211587 0.10857411 0.29151842 0.3813481 -0.11795059
-0.33083212 0.22757494 -0.40197277 0.3438753 0.048046812 0.3667142 0.41957113 0.1660245
0.10821827 0.29451957 0.3227296 0.38846663 0.018858299 -0.1604273 0.031655066 0.16969015
-0.008642449 0.10204322 0.42013642 0.35936996 -0.0021619773 0.22609477 0.23241654 0.40402114
00000000: fffb 57bd 7502 893e 7c69 dabd b9c2 d53e
00000010: 0555 ac3e f84f b43e 97d5 80bc 54cc 713e
00000020: ff6e 7a3e 44d3 923e 4314 a33e 8d4e be3d
00000030: 497c 3d3e 43fc 2ebc f6f7 313e f911 6c3e
00000040: fdbc ac3e b755 f8bd 96cc 063e f380 1d3e
00000050: fa48 e43d 1cad edbe 80a4 de3a 757c 653e
00000060: 4e5b 933d b856 9c3e a0c4 533c 69fa 893d
00000070: 8d97 b33e 0d62 6b3e 35fe 87be 8bbc a73e
00000080: f600 673e 8dfe 803e 971a 9b3e 2022 d13d
00000090: 1a5c de3d e741 953e 0f40 c33e 1490 f1bd
000000a0: d462 a9be 6809 693e 60cf cdbe 6c10 b03e
000000b0: bccc 443d f7c1 bb3e 07d2 d63e 5402 2a3e
000000c0: 8aa1 dd3d 45cb 963e d03c a53e 19e5 c63e
000000d0: b87c 9a3c 0e47 24be bea8 013d 41c3 2d3e
000000e0: 0f99 0dbc 09fc d03d 1f1c d73e 57ff b73e
000000f0: f6af 0dbb 6385 673e 9afe 6d3e dcdb ce3e

linear3.weight f4 [64, 64]
0.03520663 0.10369237 0.01049234 0.27294004 0.21991318 0.031623673 0.255847 0.12600651
-0.011967643 0.24756378 0.15634988 -0.046244655 -0.026830882 -0.107760884 0.1888356 0.12378613
0.17086087 -0.17003621 0.17846519 0.004184124 0.101233244 -0.2058619 -0.019612908 0.090771295
0.11074832 0.11488041 -0.042827994 0.08638603 0.0070696766 0.25592923 0.05723014 0.056694902
0.05593399 0.2848964 0.24177516 -0.028912619 -0.08731244 0.09575269 0.3061298 0.039422393
0.00046442635 0.11074719 -0.044152327 0.12671778 -0.10698815 0.15238094 0.109046295 0.014408934
0.1017703 0.04580091 0.13039099 0.38282323 0.04836622 -0.15208271 0.12244659 0.09186343
0.029376907 -0.043893747 0.05941381 0.13041423 -0.09684932 0.11087299 0.013798444 0.08995124
-0.098673046 -0.012098551 0.04371351 0.010260373 -0.10764158 -0.020655304 0.05057533 -0.0718261
-0.10132143 -0.10557935 0.025341079 -0.07483205 -0.043163404 0.08312684 -0.10623534 -0.053398997
0.09690626 -0.09803578 -0.015378892 0.029987007 -0.09015292 -0.12046932 0.07112752 -0.05688016
-0.049853787 0.059931487 -0.118137255 0.050430477 0.08261575 0.10948396 0.068575054 -0.07370898
0.00019709766 0.028891638 -0.11130689 0.051157787 0.020030037 -0.010669932 0.0019764602 -0.07570548
0.11697684 -0.025690094 -0.108249575 0.051507697 -0.058705226 0.10827826 -0.036201775 0.031688273
-0.0069074333 -0.111920565 -0.123107135 0.020112425 0.098119125 0.1248236 0.1172497 -0.08036287
-0.064906225 -0.01900594 -0.01651381 0.015196264 0.09256232 0.08244817 -0.085311994 0.11417571
-0.08190448 0.18992199 -0.08642213 0.22647016 0.0597771 0.12605716 0.1623177 0.050109938
0.1472087 0.20414232 0.15353979 0.07165119 0.1337733 -0.11350951 0.015920287 0.10878034
0.12948935 -0.13639043 -0.048345137 0.0379067 -0.08669585 -0.08791179 -0.027897894 0.0808841
-0.10588609 0.10892683 0.12011659 -0.006744755 0.111638255 0.20629908 -0.18078075 -0.03008031
0.17532444 0.0705055 0.14093074 0.11631395 -0.07639926 0.14134003 0.42777976 0.09328061
-0.15719892 0.13512331 -0.0055687176 0.18584831 0.089495085 0.13435367 0.25282222 0.046090335
0.041372642 0.18859842 0.107822224 0.17125608 -0.020828173 -0.05485514 -0.038844205 0.034893278
-0.08001856 -0.02710214 0.004626866 0.24925976 -0.012263806 0.08088397 0.18444268 0.06840789
0.008256838 0.07619177 0.011831075 -0.09585352 -0.017163157 -0.102966905 -0.09226443 0.08548541
-0.0064218044 -0.059139326 -0.05655147 -0.10445571 -0.08047287 -0.07052082 0.0035543144 -0.0359727
0.0892252 0.073881105 0.0013745427 0.004202783 -0.014771342 -0.05061467 -0.04282987 0.008084536
0.078773335 -0.003013745 0.08051592 0.06401335 0.09209584 0.11617911 -0.05656168 -0.1112887
-0.12346235 -0.078811005 -0.07082662 -0.104844674 0.054776087 0.09502217 0.018728584 -0.018811837
-0.03703496 -0.09981364 -0.028935969 -0.11755513 0.11819336 0.1166832 -0.023777694 -0.07075016
-0.07438959 -0.034381256 0.06805758 0.022171542 0.027843773 0.03689158 0.07250203 0.081759095
-0.10505554 0.012262985 -0.082316756 0.11994648 -0.0645282 -0.114205435 -0.1003741 -0.09772332
00000000: d434 103d aa5c d43d 10e8 2b3c ccbe 8b3e
00000010: ec30 613e d387 013d 61fe 823e da07 013e
00000020: ef13 44bc 5c81 7d3e 2f1a 203e 096b 3dbd
00000030: 70cc dbbc bdb1 dcbd 1f5e 413e 9583 fd3d
00000040: 27f6 2e3e f91d 2ebe 94bf 363e fa1a 893b
00000050: 6053 cf3d 76cd 52be 40ab a0bc 4de6 b93d
00000060: 04d0 e23d 6c46 eb3d 686c 2fbd 29eb b03d
00000070: bfa8 e73b 2809 833e 276a 6a3d ea38 683d
00000080: 0a1b 653d f1dd 913e e893 773e 28da ecbc
00000090: ddd0 b2bd fd19 c43d 0cbd 9c3e 6079 213d
000000a0: 407e f339 6ccf e23d 12d9 34bd 4ec2 013e
000000b0: 9a1c dbbd c009 1c3e aa53 df3d 7313 6c3c
000000c0: f26c d03d bc99 3b3d 3785 053e 6801 c43e
000000d0: a81b 463d 92bb 1bbe 47c5 fa3d e522 bc3d
000000e0: d7a7 f03c eec9 33bd e55b 733d 4f8b 053e
000000f0: f058 c6bd 6111 e33d de12 623c 5b38 b83d
00000100: 1815 cabd 0039 46bc f00c 333d 201b 283c
00000110: 3073 dcbd 5035 a9bc 1428 4f3d 9019 93bd
00000120: 9c81 cfbd fc39 d8bd 1898 cf3c 8c41 99bd
00000130: 1ccc 30bd 683e aa3d ea91 d9bd e8b8 5abd
00000140: ca76 c63d fcc6 c8bd c0f7 7bbc 50a7 f53c
00000150: 18a2 b8bd 9eb8 f6bd 4eab 913d 2cfb 68bd
00000160: 7c33 4cbd b87a 753d f2f1 f1bd 3090 4e3d
00000170: 7232 a93d 2039 e03d 1471 8c3d bcf4 96bd
00000180: 00ac 4e39 28ae ec3c def4 e3bd d48a 513d
00000190: 0816 a43c f0d0 2ebc 8087 013b 7a0b 9bbd
000001a0: 8e91 ef3d 0874 d2bc f4b1 ddbd bcf9 523d
000001b0: e474 70bd fec0 dd3d 5048 14bd 90cb 013d
000001c0: c057 e2bb 9c36 e5bd 981f fcbd d0c2 a43c
000001d0: aef2 c83d 84a3 ff3d 9c20 f03d 4a95 a4bd
000001e0: 8eed 84bd 58b2 9bbc f847 87bc c0f9 783c
000001f0: 5091 bd3d 96da a83d 0eb8 aebd f4d4 e93d
00000200: 89bd a7bd e97a 423e 16fe b0bd cbe7 673e
00000210: d5d8 743d 2115 013e 9c36 263e 1440 4d3d
00000220: e1bd 163e af0a 513e 8939 1d3e dcbd 923d
00000230: defb 083e ad77 e8bd 436b 823c 3ac8 de3d
00000240: db98 043e efa9 0bbe 8d05 46bd 0e44 1b3d
00000250: 988d b1bd 190b b4bd 208a e4bc 90a6 a53d
00000260: ceda d8bd 0815 df3d b0ff f53d 1b03 ddbb
00000270: 99a2 e43d 1140 533e 971e 39be fb6a f6bc
00000280: 4088 333e 3065 903d 2650 103e 0236 ee3d
00000290: 3777 9cbd 71bb 103e f305 db3e e809 bf3d
000002a0: c1f8 20be c45d 0a3e ca79 b6bb 054f 3e3e
000002b0: 3349 b73d 0294 093e ea71 813e 38c9 3c3d
000002c0: 5c76 293d f21f 413e e6d1 dc3d c15d 2f3e
000002d0: d89f aabc c9af 60bd 1a1b 1fbd 41ec 0e3d
000002e0: c5e0 a3bd 4f05 debc f79c 973b f33d 7f3e
000002f0: 21ee 48bc 7fa6 a53d 8bde 3c3e 7019 8c3d
00000300: b047 073c 6e0a 9c3d 20d7 413c da4e c4bd
00000310: c099 8cbc 50e0 d2bd 22f5 bcbd fa12 af3d
00000320: 006e d2bb 143c 72bd 84a2 67bd e0ec d5bd
00000330: f6ce a4bd 386d 90bd 80ef 683b 1c58 13bd
00000340: b4bb b63d fa4e 973d 002a b43a 80b7 893b
00000350: 8003 72bc 5451 4fbd 606e 2fbd 0075 043c
00000360: ea53 a13d 4082 45bb 88e5 a43d 6e19 833d
00000370: be9c bc3d 50ef ed3d 38ad 67bd 54eb e3bd
00000380: d4d9 fcbd aa67 a1bd 8c0d 91bd ceb8 d6bd
00000390: e45c 603d fc9a c23d b06c 993c 481b 9abc
000003a0: f8b1 17bd 186b ccbd 200b edbc bec0 f0bd
000003b0: 5c0f f23d 9af7 ee3d 70c9 c2bc 76e5 90bd
000003c0: 9259 98bd 5cd3 0cbd c661 8b3d 18a1 b53c
000003d0: a018 e43c a01b 173d f27b 943d 5071 a73d
000003e0: 5c27 d7bd b0ea 483c b095 a8bd 80a6 f53d
000003f0: 5c27 84bd 8ae4 e9bd f090 cdbd 2a23 c8bd

linear3.bias f4 [64]
0.30180147 0.022138804 0.24988866 0.11448051 0.1425097 0.28940263 0.14410548 -0.050944235
0.2910828 0.3258665 0.24862817 0.2590012 0.18177101 0.27785864 0.14218852 0.24900955
0.13707082 0.28947958 -0.04439567 0.15577707 0.23822494 -0.37582767 0.2189019 0.29698566
0.05192411 0.284792 0.21356912 0.33000728 0.12332927 -0.10201455 0.15393795 0.27601314
0.19532837 0.1769458 -0.09418035 0.34488565 -0.09405093 0.32049504 0.22983183 0.30244422
0.27053678 0.2962793 0.30443564 0.20212926 0.09263204 -0.07409316 0.23823154 0.17649646
-0.24213576 0.2437352 0.31941697 -0.29750624 0.20319499 0.19868535 -0.021979142 0.29714954
0.18117441 0.32919508 -0.02206915 -0.25936615 -0.041442126 0.12005638 0.2809723 0.042751446
00000000: b985 9a3e 705c b53c d0e2 7f3e c274 ea3d
00000010: 10ee 113e 952c 943e 6390 133e e7aa 50bd
00000020: ce08 953e f9d7 a63e 6298 7e3e ce9b 843e
00000030: 2e22 3a3e 7d43 8e3e de99 113e 5cfc 7e3e
00000040: 4b5c 0c3e ab36 943e 3cd8 35bd 0684 1f3e
00000050: 3df1 733e 7c6c c0be d227 603e 810e 983e
00000060: 60ae 543d 42d0 913e ddb1 5a3e b7f6 a83e
00000070: 0e94 fc3d 01ed d0bd e9a1 1d3e 9851 8d3e
00000080: 2904 483e 4831 353e a1e1 c0bd da94 b03e
00000090: c69d c0bd ed17 a43e 0959 6b3e f8d9 9a3e
000000a0: cc83 8a3e ecb1 973e fdde 9b3e f9fa 4e3e
000000b0: deb5 bd3d 28be 97bd f8f2 733e 7dbb 343e
000000c0: 70f2 77be b895 793e 9f8a a33e bd52 98be
000000d0: 5912 503e 2c74 4b3e 9a0d b4bc fc23 983e
000000e0: c985 393e 428c a83e 5dca b4bc a4cb 84be
000000f0: 38bf 29bd 1fe0 f53d 9adb 8f3e 241c 2f3d

linear4.weight f4 [1, 64]
0.15638612 0.0016944234 0.14934278 0.0017398946 0.08667054 0.124936156 0.13220364 0.0018613854
0.105088755 0.1659338 0.16005664 0.13009009 0.17336522 0.13812186 0.119192496 0.13818306
0.09707834 0.14662805 0.0027764933 0.16398391 0.1106769 -0.14822067 0.10110661 0.14890698
-0.00044185747 0.12994422 0.16064636 0.13444676 0.12056157 0.0027883132 0.12765583 0.11611614
0.117944635 0.14626046 0.0051544895 0.15972294 0.0018803115 0.122701526 0.19654201 0.15429601
0.10127529 0.12964414 0.16997775 0.124564834 0.14353448 -0.0008372791 0.16890757 0.1254505
-0.11441759 0.15307169 0.17334038 -0.19654639 0.16428983 0.087813266 -0.0016116602 0.10488691
0.1591908 0.14877966 -0.07961162 -0.11609081 -0.28596437 0.13768114 0.11544059 0.00037871324
00000000: af23 203e 6a17 de3a 50ed 183e 2d0d e43a
00000010: 5380 b13d 87de ff3d 6460 073e bbf9 f33a
00000020: c638 d73d 8dea 293e e3e5 233e 5636 053e
00000030: a786 313e d16f 0d3e 321b f43d dc7f 0d3e
00000040: 02d1 c63d aa25 163e d4f5 353b 66eb 273e
00000050: 92aa e23d 29c7 17be fb10 cf3d 127b 183e
00000060: 1ba9 e7b9 1910 053e 7b80 243e 69ac 093e
00000070: fce8 f63d 22bc 363b 36b8 023e 4cce ed3d
00000080: f58c f13d 4dc5 153e fee6 a83b 698e 233e
00000090: c974 f63a f04a fb3d 4f42 493e c6ff 1d3e
000000a0: 6b69 cf3d 6fc1 043e a60e 2e3e d91b ff3d
000000b0: b4fa 123e d97c 5bba 1bf6 2c3e 1976 003e
000000c0: c553 eabd d3be 1c3e 2480 313e 7543 49be
000000d0: 983b 283e 71d7 b33d 583e d3ba f3ce d63d
000000e0: ea02 233e b259 183e 6b0b a3bd 05c1 edbd
000000f0: ec69 92be 49fc 0c3e 1e6c ec3d 088e c639
