models/noCBF_2025-11-17 19:58:51/1/Q2.pth (torch, 37764 bytes, 7 tensors)

linear1.weight f4 [64, 5]
0	0xbedd2765	-0.43194118
1	0x3d0c5d18	0.03426847
2	0xbcf58011	-0.029968293
3	0xbea1330c	-0.31484258
4	0x3c8d1c81	0.017225506
5	0x3dae58b3	0.08513012
6	0x3dd3bae0	0.10338378
7	0xbec6db0f	-0.38839003
8	0xbe6a3d3c	-0.22874922
9	0xbe2f50d5	-0.17120679
10	0xbe2a7a87	-0.16648303
11	0xbe83a8c6	-0.257147
12	0x3e504563	0.20338969
13	0xbe8cd520	-0.2750635
14	0xbea03fd8	-0.3129871
15	0xbe574795	-0.210234
16	0xbe6ed61d	-0.23323865
17	0xbdc5c5df	-0.096568815
18	0xbf0763d6	-0.5288671
19	0xbe95038e	-0.29104275
20	0x3e9a401b	0.30127034
21	0xbe0a862e	-0.13527748
22	0x3ed4c916	0.41559666
23	0x3e84bdba	0.25926
24	0xbdced64a	-0.10099466
25	0x3e0d54db	0.13801901
26	0xbe2dc2be	-0.1696882
27	0x3e19ec39	0.15031518
28	0xbe67c288	-0.22632802
29	0x3e055811	0.13021876
30	0xbee96b26	-0.4558956
31	0xbea27996	-0.31733388
32	0xbdfe282f	-0.12410008
33	0x3c7da282	0.015480639
34	0x3e3c5e84	0.1839543
35	0x3e32a76b	0.17446677
36	0x3eb24d55	0.34824625
37	0x3e594ede	0.21221492
38	0xbd4f5a49	-0.050623212
39	0xbe244173	-0.16040592
40	0x3e1a3f1a	0.15063134
41	0xbe1c2153	-0.15247087
42	0x3e2ffca1	0.17186214
43	0xbeeed316	-0.4664542
44	0x3eaf9c39	0.34298876
45	0x3eabd5a0	0.3356142
46	0xbe7c0907	-0.24612819
47	0xbe20f788	-0.15719426
48	0xbde61505	-0.11234478
49	0x3e8186b5	0.25298086
50	0xbda48be3	-0.08034494
51	0xbeff8e06	-0.49913043
52	0xbdc75f50	-0.09734976
53	0xbe18f29b	-0.14936297
54	0x3d732ed8	0.059370846
55	0x3ea6f170	0.32606077
56	0xbeaa050c	-0.33206975
57	0x3ee5f543	0.44913682
58	0x3d4224ff	0.047398563
59	0xbe4a2c67	-0.197435
60	0xbed0a68d	-0.40752068
61	0x3d0b24ab	0.033970516
62	0x3e1fc0af	0.15600847
63	0xbee77c2b	-0.4521192
64	0xbe9da96d	-0.30793324
65	0x3ec2035c	0.37893188
66	0xbe2cdabd	-0.16880317
67	0xbe262716	-0.16225848
68	0x3e3e61f7	0.18592058
69	0xbe997c4a	-0.29977638
70	0x3ec0d740	0.37664223
71	0xbe1dd517	-0.15413319
72	0xbe0751b2	-0.13214758
73	0xbe751ba5	-0.23936327
74	0x3eaeada8	0.34116864
75	0x3e1c8df7	0.1528853
76	0xbead04f6	-0.33792847
77	0x3dceccae	0.10097633
78	0xbebba71d	-0.36650935
79	0xbecae25b	-0.3962582
80	0xbe83d3dd	-0.25747576
81	0xbeb0f3fb	-0.34561142
82	0x3e0f585c	0.1399855
83	0xbd603fc5	-0.054748315
84	0xbf0067ac	-0.5015819
85	0x3e2babce	0.16764757
86	0x3ed61df1	0.41819718
87	0xbe735250	-0.23761868
88	0xbdc130e0	-0.0943315
89	0x3ecc5519	0.39908674
90	0xbec286ea	-0.37993556
91	0x3eb81d31	0.3595977
92	0x3e34e46e	0.17665264
93	0xbc767149	-0.015041658
94	0xbeb3bbe0	-0.35104275
95	0xbea81e7d	-0.3283576
96	0xbe3d4dbc	-0.18486685
97	0x3e5eead1	0.21769263
98	0x3d329e8b	0.04360823
99	0xbd9f1bcf	-0.07768976
100	0x3ea44b7f	0.3208885
101	0xbdaf62ae	-0.085637435
102	0xbdb4b284	-0.08823112
103	0xbe14799b	-0.14499514
104	0xbeaca6e5	-0.3372108
105	0xbe3ac8fd	-0.18240733
106	0xbed838e3	-0.422309
107	0xbdc06365	-0.09393958
108	0xbe139a9c	-0.14414448
109	0x3e5787fa	0.21047965
110	0x3e6b7d53	0.22997026
111	0xbeca08ba	-0.39459783
112	0xbe5f920e	-0.21833059
113	0x3e64bbf6	0.22337326
114	0xbef91f92	-0.486569
115	0xbdd7bd0a	-0.10534103
116	0x3e7b9e9d	0.24572225
117	0x3e0f3669	0.139856
118	0xbe8e6caf	-0.27817294
119	0x3e95a99f	0.29230973
120	0xbecc0d19	-0.39853743
121	0xbefa5d40	-0.4889927
122	0x3e52d538	0.20589149
123	0xbd88ad51	-0.066736825
124	0xbdf22e2d	-0.118252136
125	0x3ec76361	0.38943008
126	0xbe760b3d	-0.24027725
127	0xbe9a1554	-0.30094397
128	0xbdfd6fbc	-0.12374827
129	0x3dd378be	0.10325764
130	0xbe3da5a1	-0.18520214
131	0x3dd1962a	0.1023372
132	0x3e2e3b64	0.17014843
133	0xbf0e4a28	-0.55581903
134	0x3e01db57	0.12681328
135	0xbeb25415	-0.34829774
136	0xbdd01a48	-0.10161263
137	0xbd582cb8	-0.052777022
138	0xbe9d8a19	-0.30769423
139	0xbba1661c	-0.0049255025
140	0xbd6f0f3d	-0.05836414
141	0xbefd2d83	-0.49448785
142	0x3dc83ec5	0.09777597
143	0xbdb95144	-0.09048703
144	0x3e7b51fb	0.24542992
145	0xbdacf4bc	-0.08445117
146	0xbeba8c4c	-0.36435163
147	0xbd10d59a	-0.035359956
148	0x3e2dc8ec	0.16971177
149	0xbec1a46b	-0.37820753
150	0x3d41da2f	0.047327217
151	0x3ed91003	0.42395028
152	0x3e7c20b1	0.24621846
153	0x3e50b386	0.20380983
154	0x3d7708d6	0.06031116
155	0x3eca621d	0.3952798
156	0xbeb5f9a9	-0.35542038
157	0xbe658427	-0.22413693
158	0xbe52baf5	-0.20579131
159	0xbeb73fc5	-0.3579084
160	0xbe726b43	-0.2367373
161	0x3dac9d1c	0.08428404
162	0x3ee4e697	0.44707176
163	0xbe355143	-0.1770678
164	0xbecdbb90	-0.4018216
165	0xbe878553	-0.26468906
166	0x3d063809	0.032768283
167	0xbd1baafd	-0.038004864
168	0xbe8bdfec	-0.27319276
169	0x3e2ac1c0	0.16675472
170	0xbcddd6c2	-0.027079944
171	0x3cfb00fe	0.030640122
172	0xbeaf9346	-0.34292048
173	0x3e20c1a1	0.15698864
174	0x3e8ccba6	0.2749912
175	0xbd7e691a	-0.06211195
176	0xbe86688a	-0.26251632
177	0x3d7c0ef4	0.061537698
178	0x3d6addec	0.057340547
179	0xbe5db2b0	-0.21650195
180	0xbeab3ffa	-0.33447248
181	0xbeceb8f4	-0.40375483
182	0x3d45674c	0.048194215
183	0xbf291b34	-0.66057134
184	0xbe6a0616	-0.22853884
185	0xbee06ffd	-0.4383544
186	0x3ea6bdca	0.32566673
187	0x3ed2bdba	0.41160375
188	0x3e41d985	0.18930633
189	0xbea7beb7	-0.3276269
190	0xbeb4efc4	-0.35339177
191	0x3e8b931e	0.2726068
192	0x3e168808	0.1470033
193	0xbf1f5915	-0.62245303
194	0xbe70ea28	-0.23526824
195	0xbef0303d	-0.46911803
196	0xbe035913	-0.12826948
197	0xbea1e07a	-0.31616575
198	0xbe1acf3e	-0.15118119
199	0xbc9def14	-0.01927904
200	0x3c565588	0.013081916
201	0x3e3c3614	0.18380004
202	0xbd2400a3	-0.04003967
203	0x3ce7207b	0.02821373
204	0xbe829d3f	-0.25510594
205	0x3df0f3f5	0.11765281
206	0x3e66719b	0.22504275
207	0x3ed3ee7d	0.4139289
208	0xbe5ce394	-0.21571189
209	0x3e9e4f82	0.30920035
210	0xbe4e9fc3	-0.20178132
211	0xbedc1acc	-0.42989194
212	0xbd8ca87f	-0.068680756
213	0xbf2813e5	-0.65655357
214	0xbec164a8	-0.37772107
215	0xbee5c551	-0.44877103
216	0xbe277555	-0.16353352
217	0xbe0262a7	-0.12732945
218	0xbe3683e0	-0.17823744
219	0xbf207f13	-0.626939
220	0x3d431309	0.047625575
221	0xbed4ded5	-0.41576257
222	0xbe339cce	-0.17540285
223	0x3e15b9d6	0.14621672
224	0xbea001d7	-0.31251404
225	0xbe95a5a5	-0.2922794
226	0x3e048af7	0.12943636
227	0x3da90f18	0.08254832
228	0x3e63818c	0.22217387
229	0xbe8be42e	-0.27322525
230	0xbf0ffbc6	-0.5624355
231	0x3df2e132	0.11859359
232	0xbd892a21	-0.066974886
233	0x3d642621	0.055700425
234	0xbf0891d0	-0.5334749
235	0xbc1973c9	-0.009365984
236	0xbcb85da0	-0.022505581
237	0x3eba467a	0.36381894
238	0xbefeb51b	-0.49747548
239	0x3e57c435	0.21070941
240	0xbed247fc	-0.41070545
241	0xbd6b550e	-0.05745416
242	0x3eafe089	0.34350994
243	0x3e247f7d	0.16064258
244	0xbe842777	-0.2581136
245	0x3e6a078e	0.22854444
246	0xbd8f4e65	-0.069973744
247	0x3da8f3fc	0.08249661
248	0x3e91ed18	0.285012
249	0x3ec9fd5c	0.3945111
250	0xbf0532d3	-0.52030677
251	0xbec236b8	-0.37932372
252	0x3e532311	0.20618846
253	0x3e42d1f5	0.19025405
254	0xbc32ab4f	-0.010905101
255	0xbdc22d5f	-0.0948131

linear1.bias f4 [64]
0	0x3eb107d1	0.34576276
1	0xbe004d44	-0.12529474
2	0x3f0e6480	0.556221
3	0x3ee65c48	0.4499228
4	0xbd402afb	-0.04691599
5	0xbeb3816a	-0.35059673
6	0xbd84f5af	-0.06492173
7	0xbec4d321	-0.3844233
8	0xbea20bf9	-0.3164976
9	0xbe4bc29a	-0.19898453
10	0x3f133f91	0.5751887
11	0x3ec2d9c8	0.3805678
12	0xbe7f2edb	-0.24920218
13	0x3eb48fb0	0.35265875
14	0x3de7c92a	0.11317666
15	0x3d893745	0.06699995
16	0x3e87b55b	0.2650555
17	0xbec7227c	-0.38893497
18	0xbd6f9b2f	-0.058497604
19	0x3f041928	0.51600885
20	0x3eb439af	0.3520026
21	0x3d539343	0.05165411
22	0x3e8412be	0.2579555
23	0x3ebe5677	0.37175342
24	0xbe8c9abb	-0.274618
25	0xbee2ba83	-0.44282922
26	0x3ed0104d	0.40637437
27	0x3dce4b09	0.100729056
28	0x3e952f2d	0.29137555
29	0xbe4a2fb3	-0.19744758
30	0x3d3d486f	0.046211656
31	0xbe973b19	-0.29537275
32	0x3d4b58e4	0.04964532
33	0x3f0d7911	0.5526286
34	0xbeaced85	-0.33774963
35	0x3e999442	0.29995924
36	0xbdfbf4a9	-0.123025246
37	0x3e038876	0.12845024
38	0x3eaf0754	0.34185278
39	0x3ee7cdfd	0.45274344
40	0x3dcad216	0.09903352
41	0xbe925b57	-0.28585312
42	0x3f163774	0.58678365
43	0xbe859464	-0.26089776
44	0xbe379202	-0.17926791
45	0xbbffe862	-0.0078096846
46	0x3dd7d5df	0.105388395
47	0x3e8656cb	0.26238093
48	0x3d55e79b	0.05222283
49	0xbe90f647	-0.28312895
50	0x3ee85b24	0.45382035
51	0x3e8b90c4	0.27258885
52	0x3eaeba46	0.3412649
53	0xbe5e773a	-0.21725169
54	0xbb9ada46	-0.0047257273
55	0xbd9a1f56	-0.07525508
56	0xbe38a0b1	-0.18030049
57	0x3df2281b	0.11824056
58	0x3e764ff8	0.24053943
59	0x3c8ec31d	0.017427022
60	0x3eb3d42a	0.35122806
61	0x3ea54299	0.32277372
62	0xbe33de2c	-0.1756522
63	0x3eaf9512	0.3429342

linear2.weight f4 [64, 64]
0	0x3b8d8bc4	0.00431964
1	0xbda3b7f0	-0.07994068
2	0x3db1b81c	0.08677694
3	0x3d9a23c4	0.07526353
4	0xbd9b863b	-0.07593962
5	0xb94549aa	-0.00018814826
6	0x3e4a9d3a	0.1978654
7	0xbe4b5588	-0.19856846
8	0x3d9cd7f3	0.076583765
9	0x3bc68d20	0.006059304
10	0x3e6c3684	0.23067671
11	0xbdc49a85	-0.09599785
12	0xbd7c1257	-0.061540928
13	0xbdcbc2dc	-0.09949276
14	0x3dbb41d0	0.09143412
15	0x3d8834db	0.066507064
16	0x3be7587f	0.00706011
17	0xbde364d8	-0.11103219
18	0x3de1ccab	0.110253654
19	0x3c7bc624	0.015367065
20	0x3da0fd78	0.07860845
21	0x3c1aa9ce	0.009439899
22	0x3db247bc	0.087050885
23	0xbdb2d794	-0.087325245
24	0x3de14f6a	0.11001475
25	0x3c8aeae0	0.0169577
26	0xbd044ec3	-0.032301676
27	0x3e38e392	0.18055561
28	0x3e1f82d8	0.15577257
29	0x3dcc1415	0.09964768
30	0x3d4fa5e6	0.050695322
31	0xbd5b16f4	-0.053488687
32	0xbdb4b426	-0.08823423
33	0x3db2cf28	0.08730918
34	0xbd256410	-0.04037863
35	0x3e57c5d9	0.21071567
36	0x3d7633fe	0.060108177
37	0xbde8fcf1	-0.1137637
38	0x3dc6c956	0.097063705
39	0x3d3dab52	0.046305962
40	0x3d4a1dbc	0.049344763
41	0xbd15532f	-0.036456283
42	0x3d1ad4ff	0.037800785
43	0x3e3632fe	0.1779289
44	0x3e53d77b	0.20687668
45	0x3da38653	0.07984605
46	0x3e2ee7b8	0.17080581
47	0x3cd81898	0.026378915
48	0x3d994e29	0.07485611
49	0xbe39fb94	-0.18162376
50	0x3e1423b1	0.1446674
51	0x3d33eeca	0.0439289
52	0x3d9195c6	0.07108645
53	0x3d0f624c	0.035005853
54	0x3e45eb66	0.19328079
55	0x3c62a640	0.013833582
56	0x3da079b3	0.07835712
57	0xbbf4b077	-0.0074673253
58	0x3c46a05c	0.012123194
59	0xbc1cfce0	-0.0095817745
60	0x3e1b1e9a	0.15148392
61	0xbdc0827d	-0.09399889
62	0xbdbdeba8	-0.092734635
63	0x3e1e89ac	0.15482205
64	0xbd82b55e	-0.06382249
65	0xbca62700	-0.020282269
66	0xbc4c4df0	-0.012469754
67	0xbde5bd02	-0.11217691
68	0xbdd9a95e	-0.10628007
69	0x3aa47400	0.0012546778
70	0x3d7f3b3c	0.06231235
71	0x3c831d88	0.016005293
72	0x3dbc4a4c	0.091938585
73	0xbcdbbf08	-0.02682449
74	0x3dcf246a	0.10114367
75	0x3de72a82	0.112874046
76	0x3daad424	0.08341244
77	0x3dd66fd4	0.10470548
78	0x3d61c4ac	0.0551192
79	0x3da736a8	0.08164722
80	0xbde0e75c	-0.10981628
81	0x3cf0ce58	0.029395267
82	0x3dc4b120	0.096040964
83	0xbdd0b7a0	-0.10191274
84	0x3da98b06	0.0827847
85	0xbd12781c	-0.035759076
86	0xbb3c1d40	-0.0028703958
87	0x3dd1008c	0.102051824
88	0xbd334d50	-0.043774903
89	0xbc2017b0	-0.009771273
90	0xbd95b15e	-0.07309221
91	0xbd908f20	-0.07058549
92	0x3dae3676	0.08506481
93	0xbd5cf4e4	-0.053944483
94	0x3c9a5260	0.018838108
95	0x3cf4cc50	0.02988258
96	0xbddf17a6	-0.108931825
97	0xbc566b40	-0.013087094
98	0xbcfa4690	-0.030551225
99	0x3d399afc	0.04531382
100	0xbdbbf796	-0.09178083
101	0xbd994ff6	-0.074859545
102	0xbde7359e	-0.112895235
103	0x3ce8b788	0.028407827
104	0x3de35e88	0.11102015
105	0xbcec1408	-0.028818145
106	0x3d4a1c10	0.04934317
107	0x3c441f40	0.011970341
108	0x3d702d48	0.058636934
109	0xbd74a75c	-0.05972992
110	0xbd2d87d4	-0.042365864
111	0x3d27f798	0.04100761
112	0xbdb393c2	-0.08768417
113	0xbc337bc0	-0.010954797
114	0x3dc67e02	0.09692003
115	0x3dd39ec0	0.103330135
116	0x3d1c6ecc	0.0381916
117	0xbad68c80	-0.0016368777
118	0x3da34074	0.07971278
119	0xbd733558	-0.059377044
120	0x3d590718	0.05298528
121	0xbd303500	-0.043019295
122	0x3d992c6e	0.074791774
123	0x3db56c1e	0.08858512
124	0xbde0fb60	-0.10985446
125	0x3b8cc260	0.0042956322
126	0x3a1a2f00	0.00058816373
127	0xbc5a0df0	-0.013308987
128	0x3cfa6925	0.030567715
129	0xbd9313fa	-0.071815446
130	0x3d8d1932	0.06889571
131	0x3dcd3282	0.10019399
132	0x3d5bd599	0.0536705
133	0x3d89b2d1	0.0672356
134	0xbcd44f66	-0.025916766
135	0x3dac95b8	0.08426994
136	0x3bd71817	0.006564151
137	0xbd25cf38	-0.040480822
138	0x3ddec883	0.10878088
139	0xbc998512	-0.01874021
140	0x3e14b7e8	0.1452328
141	0x3d147968	0.036248595
142	0xbd88e474	-0.06684199
143	0x3da82ede	0.08212064
144	0x3e2a437b	0.16627304
145	0xbdd565be	-0.104197964
146	0x3dc8f6f5	0.09812728
147	0xbd81acfd	-0.06331823
148	0xbd500754	-0.05078824
149	0x3e01884c	0.1264965
150	0x3e0fe2d5	0.14051373
151	0x3df4f805	0.119613685
152	0x3d366b29	0.04453579
153	0x3d9f7b06	0.07787137
154	0x3d92275d	0.07136414
155	0x3e606df0	0.21916938
156	0x3e00b3d9	0.12568606
157	0x3db72921	0.089433916
158	0x3dccfc82	0.100090995
159	0xbdb6776c	-0.08909497
160	0xbcfb4f0c	-0.03067734
161	0x3e523a0d	0.20529957
162	0xbdb5656e	-0.08857237
163	0x3ddd828e	0.10815917
164	0x3e30a6b1	0.17251088
165	0x3d754df3	0.05988879
166	0xbd375627	-0.044759896
167	0x3cac3896	0.021023076
168	0xbbd99880	-0.006640494
169	0x3ddd6970	0.10811126
170	0xbcb12a3d	-0.021626586
171	0x3d0c6b6d	0.034282137
172	0x3dcbf454	0.09958711
173	0x3dc66a34	0.096882254
174	0x3e38e232	0.18055037
175	0xbcdc6eac	-0.026908241
176	0xbc97d8f6	-0.018536072
177	0x3d951c3f	0.07280778
178	0x3d9c2785	0.07624725
179	0x3d7c31d6	0.061570965
180	0xbd46d94f	-0.048547085
181	0x3cc789d0	0.024357706
182	0x3e411d84	0.18858916
183	0x3d0dc350	0.034610093
184	0xbceddf41	-0.02903712
185	0xbd15e9dc	-0.03659998
186	0x3e0b11ee	0.13581058
187	0x3e0b0740	0.13576984
188	0xbd7cfb74	-0.061763242
189	0x3d6cc389	0.057803664
190	0xbdf67440	-0.12033892
191	0x3dc56c78	0.096398294
192	0x3e257d35	0.16161044
193	0xbdbadc28	-0.09124023
194	0xbb971107	-0.004610184
195	0x3d71ede9	0.05906478
196	0x3c6a0ab8	0.014284782
197	0xbbf907bb	-0.0075997985
198	0x3db9db1d	0.09074996
199	0xbe36d6fe	-0.1785545
200	0xbd957f49	-0.07299668
201	0xbdf8c006	-0.121460006
202	0x3daf5db3	0.085627936
203	0xbd003056	-0.031296097
204	0x3e2760fc	0.1634559
205	0x3c4bee00	0.01244688
206	0x3d63055c	0.055425033
207	0x3cfd12cb	0.03089275
208	0x3e073549	0.1320392
209	0xbc55cf60	-0.01304993
210	0x3b6fc045	0.0036583107
211	0x3e0b2819	0.13589515
212	0x3d299ce0	0.041409373
213	0x3e436610	0.19081903
214	0x3d922fb2	0.071380034
215	0x3d8b6026	0.06805448
216	0x3d11b17a	0.035569645
217	0xbdb86a36	-0.09004633
218	0x3c885f9f	0.016647158
219	0x3dd18f65	0.102324285
220	0xbc8d837c	-0.01727461
221	0x3e39b91b	0.18137018
222	0xbdbcbd52	-0.092157975
223	0xbd70ae64	-0.05876006
224	0x3dcd58d4	0.10026708
225	0x3e81f234	0.253801
226	0xbdc96076	-0.098328516
227	0x3e0fec4f	0.14054988
228	0x3e494239	0.19654168
229	0xbd5a09f5	-0.053232152
230	0x3e0bc4ae	0.13649246
231	0x3dc2b4fd	0.09507177
232	0x3d67ed80	0.056622982
233	0xbdb82f71	-0.08993424
234	0x3e69a829	0.22818054
235	0x3e126848	0.14297593
236	0x3d7ae184	0.061250225
237	0xbd9193af	-0.071082465
238	0x3e4984cd	0.19679566
239	0xbd867f7d	-0.06567285
240	0x3b3db1cb	0.0028945084
241	0xbdc19bae	-0.09453522
242	0x3df3627c	0.11884019
243	0xbd491211	-0.049089495
244	0x3ccb5cfb	0.02482461
245	0xbcfe2e90	-0.031028062
246	0x3dff2195	0.12457577
247	0xbd82299a	-0.06355591
248	0xbda99fd0	-0.08282435
249	0x3db13000	0.086517334
250	0x3ddd6af9	0.10811419
251	0x3a71a869	0.00092185155
252	0x3e07e14c	0.13269538
253	0xbde758be	-0.11296223
254	0xbb8b59e0	-0.0042526573
255	0x3d8de77f	0.0692892

linear2.bias f4 [64]
0	0x3e0c0b1e	0.13676116
1	0xbac94a80	-0.0015357286
2	0x3e2a4e4e	0.16631433
3	0x3d82071f	0.063490145
4	0x3e5528fa	0.20816413
5	0x3d1e509a	0.038651086
6	0xbdbcdd90	-0.09221947
7	0x3e362ccd	0.17790528
8	0x3e0813f4	0.13288862
9	0x3dfe4010	0.12414563
10	0x3de24f29	0.11050255
11	0xbdbeb53e	-0.09311913
12	0x3e580b29	0.21098007
13	0x3e1c42c8	0.1525985
14	0x3d2933f4	0.041309312
15	0x3d679179	0.056535218
16	0xbbc0f027	-0.0058880034
17	0x3da6fb4a	0.08153398
18	0x3e145588	0.14485753
19	0xbb9ccbf3	-0.004785055
20	0x3e48839a	0.19581452
21	0x3ddc495c	0.1075618
22	0x3e22c8f1	0.15896966
23	0x3e2498eb	0.16073959
24	0x3e185c75	0.1487902
25	0x3e215489	0.15754904
26	0xbbcf8863	-0.0063333972
27	0x3d9c1602	0.07621385
28	0x3e054bfa	0.13017264
29	0x3d9e6bb8	0.077353895
30	0xbcd14df6	-0.02554987
31	0x3dcf5d67	0.10125237
32	0x3e4d0dce	0.20024797
33	0x3e34f720	0.17672396
34	0x3d188320	0.037234426
35	0x3cc9faef	0.024655787
36	0xbb8af07b	-0.0042400933
37	0xbc151fd2	-0.009101825
38	0xbc21f894	-0.009885926
39	0x3d9253d8	0.07144898
40	0x3e1e53be	0.15461633
41	0xbc99ee2b	-0.018790325
42	0xbd4244f1	-0.04742903
43	0x3e036858	0.12832773
44	0x3e46990a	0.19394317
45	0x3e508f2d	0.20367117
46	0xbb18dec6	-0.0023326143
47	0x3d9d0cd2	0.07668461
48	0xbc7452b0	-0.014912292
49	0x3d24cd34	0.04023476
50	0xbd611856	-0.05495485
51	0xbda57e11	-0.08080686
52	0x3d5a334e	0.053271584
53	0x3e227786	0.15865907
54	0x3e38f617	0.18062626
55	0x3dcebe30	0.10094869
56	0x3d1d69cc	0.038430974
57	0x3e2e8117	0.17041431
58	0x3d849b47	0.06474929
59	0xbd803f1e	-0.06262039
60	0x3d92378a	0.071394995
61	0xba53e71e	-0.00080834504
62	0x3db5f250	0.08884108
63	0x3e25cb50	0.16190839

linear3.weight f4 [64, 64]
0	0x3e271c2d	0.16319342
1	0xbdaaf0ae	-0.08346687
2	0x3d72163d	0.05910324
3	0xbc51e61b	-0.012811209
4	0x3e67c7e4	0.22634846
5	0x3e0fb0db	0.14032309
6	0x3cbd7ca7	0.023130728
7	0x3cdf9e6b	0.02729722
8	0x3de5ac1a	0.112144664
9	0x3dd43b28	0.10362846
10	0x3c13c91b	0.009020115
11	0x3d8247d8	0.06361359
12	0xbb9c80f8	-0.0047761165
13	0xbd3d750c	-0.046254203
14	0xbdb04208	-0.086063445
15	0x3dcb3ce2	0.09923722
16	0xbdff4788	-0.124648154
17	0xbcf56b0e	-0.029958274
18	0x3de8637c	0.113471
19	0x3d3743d2	0.044742413
20	0x3d6114ce	0.05495148
21	0x3cffd14e	0.031227734
22	0x3d90df92	0.07073893
23	0x3dd51230	0.104038596
24	0x3e2847b4	0.16433603
25	0xbd96d8fc	-0.07365605
26	0xbd1bbfca	-0.0380247
27	0x3e13cf6b	0.14434592
28	0x3db4c96c	0.08827481
29	0x3d84ae46	0.064785525
30	0x3e0bb53b	0.13643353
31	0xbd29aedd	-0.04142653
32	0xbd98b2b7	-0.07455962
33	0xba9db3e5	-0.0012031762
34	0x3dfa31c8	0.12216526
35	0xbdf8ebf2	-0.12154378
36	0x3ce5edd4	0.028067507
37	0x3dfcb96d	0.12340055
38	0x3c3c3623	0.011487517
39	0xbc6f8c64	-0.014620874
40	0x3d6e229f	0.058138486
41	0x3daeaad1	0.085286744
42	0x3d39a37a	0.04532192
43	0x3d30fc2c	0.04320924
44	0x3e372db3	0.17888527
45	0x3db3ca89	0.08778865
46	0x3d29952d	0.04140203
47	0x3d96ba14	0.0735971
48	0x3da60c79	0.08107848
49	0xbd059ecc	-0.032622144
50	0xbd0a9942	-0.033837564
51	0x3df41335	0.11917726
52	0xbcba2bd2	-0.022725973
53	0x3dd0be21	0.10192514
54	0x3d6c6073	0.05770917
55	0xbda03a86	-0.078236625
56	0xba5cc700	-0.00084219873
57	0x3d06993a	0.032860972
58	0x3e1431cb	0.1447212
59	0x3d693f94	0.0569454
60	0x3e252e73	0.16131
61	0x3e1a77f9	0.15084828
62	0x3da3e4f4	0.08002654
63	0xbd9ce02b	-0.07659944
64	0x3d8eca18	0.0697214
65	0xbca5b980	-0.020230055
66	0x3d905e1c	0.070492
67	0xbd46b230	-0.048509777
68	0x3d597aec	0.053095743
69	0x3c344450	0.011002615
70	0xbdd04c24	-0.10170773
71	0x3d92d6c6	0.07169871
72	0xbd92859a	-0.07154389
73	0xbd85d640	-0.065350056
74	0xbdbeeaf8	-0.093221605
75	0x39cbf200	0.0003889948
76	0x3d03d578	0.032186
77	0xbcb02448	-0.021501675
78	0x3c0e5960	0.008688301
79	0x3db4ad1c	0.088220805
80	0x3bc16a40	0.0059025586
81	0x3bac1f40	0.0052527487
82	0x3dd33ed4	0.10314718
83	0x3dd92458	0.10602635
84	0xbbd25580	-0.006418884
85	0xbd29f654	-0.041494682
86	0xbc7f9150	-0.01559861
87	0xbde4d524	-0.11173466
88	0xbda9ce42	-0.08291294
89	0x3d56baec	0.052424356
90	0x3db8b456	0.09018771
91	0xbdeb4e90	-0.11489594
92	0x3ca9a0c8	0.02070655
93	0xbd4068ac	-0.046974823
94	0xbd837aa2	-0.06419875
95	0xbd36c914	-0.044625357
96	0xbdcd6530	-0.100290656
97	0x3d566ac0	0.0523479
98	0x3df9a2b8	0.12189239
99	0xbd4db1a8	-0.050218254
100	0xbda0936a	-0.07840617
101	0xbcc2bb48	-0.023770943
102	0x3d201578	0.039082974
103	0xbdf8bff8	-0.1214599
104	0x3dfc0ef8	0.123075426
105	0xbdd90c5e	-0.10598062
106	0xbdbe94c6	-0.0930572
107	0x3d1f2b50	0.038859665
108	0xbde92716	-0.11384408
109	0xbdd3e652	-0.103466645
110	0x3c2cd9a0	0.010549933
111	0xbd36dd74	-0.044644788
112	0xbdfc38b2	-0.12315501
113	0x3df54ae8	0.11977178
114	0x3c0a8210	0.008453861
115	0xbdb205f4	-0.08692542
116	0x3c2ffda0	0.010741621
117	0x3d86f2b6	0.06589262
118	0x3de50590	0.111827016
119	0x3b8c39c0	0.0042793453
120	0xbd9ef6f2	-0.07761945
121	0xbd60eabc	-0.05491136
122	0x3c189430	0.009312674
123	0xbaa73100	-0.0012755692
124	0xbb6e69c0	-0.003637895
125	0xbdb090e0	-0.08621383
126	0xbd3cdf40	-0.046111345
127	0xbdfda088	-0.123841345
128	0x3da7c9f4	0.081928164
129	0xbc09ea50	-0.008417681
130	0x3d190298	0.03735599
131	0xbd965d50	-0.07342017
132	0xbd955940	-0.07292414
133	0xbb5bdac0	-0.0033547133
134	0x3c013520	0.007886201
135	0xbda7dc1c	-0.081962794
136	0x3dc3f0f0	0.095674396
137	0x3da19868	0.07890397
138	0x3debdef2	0.11517133
139	0x3df1ef06	0.11813168
140	0xbcfd4a90	-0.030919343
141	0xbdec9dea	-0.11553557
142	0xbc7f8c20	-0.015597373
143	0x3db11f58	0.086485565
144	0x3c595290	0.013264313
145	0xbc742300	-0.014900923
146	0x3dbd151e	0.092325434
147	0xbded3642	-0.115826145
148	0xbdf8a03a	-0.12139936
149	0x3cb66060	0.022262752
150	0x3d1a0f38	0.03761217
151	0xbd8910d0	-0.0669266
152	0xbd7d2808	-0.061805755
153	0x3da68440	0.081306934
154	0x3cbae068	0.022812083
155	0xbda1c628	-0.078991234
156	0x3a26b700	0.00063596666
157	0x3d6b9d3c	0.057522997
158	0xbd81a2b2	-0.0632986
159	0xbd1e3d14	-0.038632467
160	0xbbfb69a0	-0.0076725036
161	0x3b8cdba0	0.0042986423
162	0xbdf32598	-0.11872405
163	0x3d9a648e	0.075387105
164	0x3d168298	0.036745638
165	0x3cfc74a8	0.030817345
166	0xbde6b3bc	-0.1126475
167	0xbdab5fae	-0.08367859
168	0xbddb8494	-0.10718647
169	0xbdc21b96	-0.09477918
170	0x3d8b3854	0.06797853
171	0x3c14f9a0	0.009092718
172	0xbc91b5c8	-0.017786875
173	0x3d8fbff2	0.070190325
174	0x3d61b618	0.0551053
175	0x3c597780	0.01327312
176	0xbbd56ac0	-0.0065129697
177	0xbd8296ac	-0.06376395
178	0x3db214bc	0.08695361
179	0xbdf823fa	-0.12116237
180	0xbdd2218c	-0.10260305
181	0xbd82b778	-0.0638265
182	0xbd39e944	-0.045388475
183	0xbc364820	-0.011125594
184	0xbdfed318	-0.12442607
185	0xbc795ee0	-0.015220374
186	0xbdd5e2d4	-0.10443655
187	0xbcb49c88	-0.022047296
188	0x3dbf89c4	0.093524486
189	0x3dbe3c2a	0.09288819
190	0x3d9dab00	0.07698631
191	0x3dab92da	0.08377619
192	0x3db939b2	0.09044208
193	0x3bad89c0	0.005295962
194	0x3de87f77	0.11352437
195	0x3dce60de	0.1007707
196	0x3e7e3b6d	0.24827357
197	0x3e31d8e8	0.173679
198	0xbe104d66	-0.14092025
199	0x3e3d4f80	0.18487358
200	0x3d538108	0.051636726
201	0xbcc71850	-0.024303585
202	0x3db8a5e1	0.09016014
203	0xbdce3f86	-0.1007071
204	0x3e57ddf3	0.2108076
205	0xbc9f5fde	-0.019454893
206	0xbdc99de2	-0.09844567
207	0xbd61238d	-0.054965544
208	0xbd3cc710	-0.04608828
209	0x3c3f2eb1	0.011668847
210	0x3dbe5118	0.09292811
211	0x3ceb5bee	0.028730359
212	0x3e4b47e7	0.19851647
213	0x3e3a200c	0.18176287
214	0xbd1c9bbb	-0.038234454
215	0x3dc982c8	0.09839398
216	0x3a7de39e	0.00096851017
217	0xbce123e8	-0.027482942
218	0x3dd126d8	0.10212487
219	0x3b6964b6	0.0035613007
220	0x3b057476	0.0020363606
221	0xbcc8d940	-0.024517655
222	0x3da0782f	0.07835423
223	0x3debc82b	0.115127884
224	0x3c89fd75	0.01684449
225	0x3c73c8ef	0.014879449
226	0x3db2f920	0.08738923
227	0xbd40ffa8	-0.047118813
228	0x3de5634e	0.112005815
229	0xbc87d3e5	-0.016580531
230	0x3d8690be	0.06570576
231	0x3e380498	0.17970502
232	0x3dff7b8f	0.12474739
233	0x3e14ec1f	0.14543198
234	0xbd8e0776	-0.06935017
235	0xbcf46fa3	-0.029838389
236	0x3dd4b1af	0.10385453
237	0x3df11e54	0.11773363
238	0x3c2576f5	0.010099162
239	0x3d6b7bcc	0.05749111
240	0x3db8ff9c	0.090331286
241	0x3de94e2e	0.11391865
242	0xbda5091b	-0.08058377
243	0x3d063114	0.03276165
244	0x3e515256	0.20441565
245	0x3e2ed330	0.17072749
246	0x3db71e05	0.08941273
247	0xbdc9765a	-0.09837027
248	0x3cb20fe8	0.0217361
249	0x3e102805	0.14077766
250	0x3d601f06	0.054717086
251	0x3d1ba280	0.03799677
252	0x3de50f8e	0.111846074
253	0x3e5b8fc0	0.21441555
254	0xbd7cb704	-0.061697975
255	0x3ca2b855	0.019863287

linear3.bias f4 [64]
0	0x3c7d9a5d	0.015478698
1	0x3d7dd6ec	0.061972544
2	0xbce0ce20	-0.027442038
3	0x3db84832	0.08998145
4	0xbdde6e96	-0.10860936
5	0x3dd4e3b8	0.103949964
6	0x3d6609e3	0.056161772
7	0x3e094e72	0.13408831
8	0x3d437148	0.047715455
9	0x3d7aa0e1	0.061188582
10	0x3e2e2be5	0.17008932
11	0x3e195a9d	0.14975972
12	0x3e452f6f	0.19256376
13	0xbce2e8ba	-0.027698863
14	0xbc40e50c	-0.011773359
15	0xbce52718	-0.027972743
16	0x3d03d0ac	0.032181427
17	0x3dabd8df	0.08390974
18	0x3d279303	0.040911686
19	0x3dba165a	0.090862945
20	0xbd03d3d4	-0.032184437
21	0xba09a772	-0.00052510865
22	0xbd4f6901	-0.05063725
23	0x3e513c0b	0.20433061
24	0x3e5bfa4e	0.21482202
25	0x3e07856d	0.13234492
26	0xb9a5f800	-0.00031656027
27	0x3d8e41a3	0.06946113
28	0x3e04b9c8	0.12961495
29	0x3d9f8404	0.07788852
30	0x3dd67f09	0.10473449
31	0x3e18a125	0.14905222
32	0xbd754128	-0.05987659
33	0xbc92fef0	-0.01794383
34	0x3d6a7dac	0.057248756
35	0x3d62245b	0.055210453
36	0x3d884090	0.06652939
37	0xbc2b101b	-0.010440852
38	0x3d28f6ca	0.04125098
39	0x3e255cf2	0.16148737
40	0x3d3a394f	0.04546481
41	0x3e820616	0.25395268
42	0xbc9a70b8	-0.018852577
43	0x3dd891ea	0.10574706
44	0x3ca5b72a	0.020228941
45	0x3cf2b8f8	0.029629216
46	0xbd054430	-0.03253573
47	0xbdd5a002	-0.1043091
48	0xbcc012e8	-0.023446515
49	0xbc0034c3	-0.007825079
50	0x3d92ce80	0.07168293
51	0x3c43686b	0.011926751
52	0x3bbcc03c	0.005760221
53	0x3d218951	0.039437596
54	0xbd339c4b	-0.043850224
55	0x3dfdef79	0.123991914
56	0xbcce2daa	-0.025168259
57	0x3c96e898	0.018421456
58	0x3d528bb8	0.051402777
59	0x3df980e7	0.12182789
60	0x3dbbe77f	0.09175014
61	0x3c272e8a	0.010203967
62	0xbdc08f9a	-0.0940239
63	0xbd2320cb	-0.039826196

linear4.weight f4 [1, 64]
0	0xbd229393	-0.03969152
1	0x3a9cf248	0.0011974061
2	0xbb3ace4b	-0.0028504308
3	0xbddfc2c5	-0.10925821
4	0xba90cac1	-0.0011046753
5	0xbd66f7bc	-0.0563886
6	0xbd69ed4f	-0.05711108
7	0xbd4ced1d	-0.050030816
8	0xbd25d6f7	-0.04048821
9	0xbd226e4f	-0.03965598
10	0xbd20c34b	-0.039248746
11	0xbd930a85	-0.07179741
12	0xbdd5ad84	-0.10433486
13	0xbd4f31c4	-0.05058457
14	0xbd3de8a0	-0.046364427
15	0xbd1ae115	-0.03781231
16	0x3a8a18c2	0.0010535943
17	0xbd3004ed	-0.042973448
18	0xbd1cecf8	-0.03831193
19	0xbd52cf6f	-0.051467355
20	0xbd388775	-0.045051057
21	0xbd1e469a	-0.03864155
22	0xbd946c31	-0.072471984
23	0xbde30b25	-0.1108611
24	0xbde00bce	-0.109397516
25	0xbd2d7a62	-0.04235304
26	0x3b0035f2	0.0019563404
27	0xbd475afa	-0.048670746
28	0xbd2dfb90	-0.042476237
29	0xbd30020b	-0.0429707
30	0xbd83edd8	-0.064418495
31	0xbdb5f152	-0.08883919
32	0xba72e62d	-0.0009265866
33	0xbaa31dc2	-0.0012444782
34	0xbb0919e6	-0.0020919978
35	0xbd485e52	-0.048918076
36	0xbb1cd625	-0.002393135
37	0xbd457212	-0.04820449
38	0xbd2f8405	-0.042850513
39	0xbd2ec04f	-0.04266387
40	0xbdde8171	-0.10864533
41	0xbdef698c	-0.11690053
42	0x3ac077a4	0.0014684093
43	0xbb5772c5	-0.0032874804
44	0xbd2f7e85	-0.042845268
45	0xbb01654c	-0.0019744216
46	0xbd864b70	-0.06557357
47	0xb9cdd30a	-0.00039257883
48	0xbd3bf81c	-0.045890912
49	0xba75e124	-0.0009379557
50	0x3a844bb8	0.0010093367
51	0xb9e1b320	-0.00043048803
52	0xbd25bdc4	-0.040464178
53	0xbdba836e	-0.091070995
54	0xbd2044e0	-0.039128184
55	0xbd3ca4d0	-0.046055615
56	0xbd2b3d10	-0.04180628
57	0xbae8db36	-0.0017765525
58	0xbaea06fc	-0.0017854865
59	0xbd30b454	-0.043140724
60	0xbd492b32	-0.04911346
61	0xbd530177	-0.05151507
62	0x3b2371f6	0.0024939752
63	0xbac8a7b8	-0.0015308773
