models/2025-11-24 13:49:31/1/Q2.pth (torch, 37764 bytes, 7 tensors)

linear1.weight f4 [64, 5]
000000 a0 ea 3b bd 98 0a e8 3e 9c c6 43 be f0 0d f2 be
       -0.045878053 0.45320582 -0.19118732 -0.47276258
000010 a2 b6 53 3f 10 2c c6 be f5 ef d3 be 38 b3 77 3e
       0.8270055 -0.38705492 -0.4139401 0.2418946
000020 06 ea 14 3e 3d 60 08 3e c1 98 b3 be 77 b2 98 be
       0.14542398 0.13317962 -0.3507748 -0.29823658
000030 d9 05 97 3e c9 4c ca 3e 66 b5 c8 bd a1 82 3f 3e
       0.2949665 0.39511707 -0.09800224 0.18702175
000040 30 d6 06 3f 71 37 9d 3e a3 9e 0b 3f e4 2b 37 3e
       0.52670574 0.3070636 0.54538935 0.17887837
000050 dd 1c 93 be 60 d0 a4 3e e2 9a 80 be 67 a2 9f 3e
       -0.28732958 0.32190228 -0.25118166 0.3117859
000060 f3 83 ab bb 29 d4 e4 3d 3c cc 61 be 8e 76 d2 bd
       -0.0052342354 0.11173279 -0.22050565 -0.10276519
000070 93 3a 9f 3e 6a e1 03 be d8 3d d8 3e e3 6d fa 3d
       0.31099376 -0.12878957 0.42234683 0.122279905
000080 41 71 a6 be 27 05 a1 3e a9 4f a9 3d d1 55 ef 3e
       -0.3250828 0.31449243 0.08267147 0.4674516
000090 6b ca 8e bd c9 c3 32 3e 77 55 06 be 9c d5 e1 bd
       -0.06972202 0.17457499 -0.1311854 -0.11027071
0000a0 f3 e7 6c 3f 9c 16 72 bf 35 08 aa 3d e2 9b 0a 3f
       0.92541426 -0.9456575 0.083023466 0.5414411
0000b0 7a c8 51 bf 04 fd 88 be 6f 6f b2 bd bf 5b 2b be
       -0.8194653 -0.26755536 -0.087126605 -0.16734217
0000c0 33 e0 2e bf 82 08 dc bd 85 51 6e 3e c0 e4 c3 bd
       -0.6831085 -0.1074381 0.23273285 -0.09565115
0000d0 1f e3 99 3e 26 6b 9c 3e 95 15 21 be ed c9 5d 3e
       0.30056092 0.30550498 -0.15730889 0.2165906
0000e0 f0 04 c3 3e d6 9e aa 3e d1 24 12 3f d3 c3 d6 3d
       0.38089705 0.33324307 0.5708743 0.10486569
0000f0 2c df 48 3e ed 38 16 3f 3d de 53 3e 72 5f 54 3f
       0.19616383 0.5868061 0.20690246 0.8295814
000100 e5 0e e7 3e 8e f5 c6 3e 50 be 81 bd d0 65 cb 3e
       0.4512855 0.38859218 -0.06335127 0.39726114
000110 b2 51 41 3f 06 8f 14 bf 44 21 42 bd 6d 45 0a 3f
       0.7551528 -0.58030736 -0.047395006 0.54012185
000120 a6 ee 70 bd 38 b6 97 3d ad 2e 06 3f e4 bb 8b be
       -0.058821343 0.07407802 0.5241497 -0.27291787
000130 03 22 85 3e a5 53 67 3d 0e 83 f7 be d0 d0 07 3e
       0.2600251 0.056476254 -0.48342174 0.1326325
000140 06 d1 7f 3d 6b 9e 7c 3d 2c 57 e3 3e 15 7c 1e be
       0.0624552 0.061674517 0.44402444 -0.15477021
000150 3c 9a 3f 3e d4 16 91 3e e7 c0 cb 3e a4 d7 81 3d
       0.1871118 0.2833773 0.3979561 0.06339958
000160 f3 d8 3b be 4d 00 f5 3e b6 bf 1c be 90 9f 7a 3e
       -0.18344478 0.47851792 -0.15307507 0.24474931
000170 38 dc 50 3e a7 69 ad 3d 04 77 01 bf 07 71 27 be
       0.20396507 0.08467417 -0.5057223 -0.1635171
000180 64 8c 37 3e 60 52 0b bd 42 8e 96 bf bf 08 64 3f
       0.17924649 -0.034014106 -1.1762164 0.89075845
000190 26 3a c9 3e 10 8f 55 be 74 05 80 bd ae 8d 01 3f
       0.39302176 -0.20855355 -0.0625104 0.5060681
0001a0 1a 30 b7 be 7a ed 68 bb f0 fb 94 be 9e 8f c8 3e
       -0.35778886 -0.0035541938 -0.29098463 0.3917207
0001b0 b1 98 9f bc 2f 1d a3 be 77 af eb be a2 07 09 3d
       -0.019481989 -0.31858203 -0.46032307 0.033454545
0001c0 58 da 6e 3b 91 3a 20 bf 3b 48 ed bd d7 c5 bf be
       0.003644606 -0.62589365 -0.115860425 -0.37455627
0001d0 c7 64 af 3d 20 36 07 be c1 30 34 3e 68 43 79 3c
       0.08564144 -0.13204241 0.17596723 0.015213825
0001e0 8a 0d 54 3f 4a ad db 3e 8e a2 62 3a d2 2e 0e 3f
       0.8283316 0.42905647 0.00086454384 0.5554019
0001f0 07 37 1f 3f ab 36 7e be 4c d6 55 bd 27 86 32 bf
       0.6219334 -0.24825542 -0.052206323 -0.6973595
000200 b9 e3 1a be db c2 de 3e 02 1a 2b 3f 38 1e 80 3e
       -0.15125932 0.43508038 0.6683656 0.25023055
000210 7b d7 ed 3d 04 55 1d 3f 2f f9 dc bd 8d fa d6 be
       0.11613365 0.6145785 -0.107897155 -0.4198803
000220 09 5f 80 3e 9f 84 b5 be df eb 0b bf 1f ec 23 3f
       0.25072506 -0.35452744 -0.54656786 0.6403217
000230 44 46 cd bd 2a 0b 85 be 7e 80 e5 3d 5f 66 70 3e
       -0.10023168 -0.2598508 0.112061486 0.23476551
000240 9e 0c e0 be 52 c6 b9 be 6f 41 03 bf 66 c3 88 3e
       -0.43759626 -0.3628412 -0.5127172 0.26711577
000250 2b e2 fc bd d1 aa 97 bd 8a 80 8c 3b f3 6a 66 3e
       -0.123478256 -0.074056275 0.004287784 0.22501735
000260 9b 17 13 3e 93 e0 94 3e 34 fd 49 3e 78 9c 43 3e
       0.14364474 0.29077587 0.19725496 0.19102657
000270 60 20 88 be 80 9f 34 3e 08 a5 91 bd 8f ee d7 be
       -0.265872 0.1763897 -0.07111555 -0.42174193
000280 17 07 c9 3e 53 22 30 3e 57 f1 17 be 7d a0 cc 3e
       0.39263222 0.17200594 -0.14838158 0.39966193
000290 b1 13 d6 3e 5d be e7 3e 37 d0 4d be 74 97 cf 3e
       0.41811898 0.45262423 -0.20098959 0.40545237
0002a0 83 18 a4 3e bb 1b d1 be 53 c9 49 be 96 79 1f be
       0.3204995 -0.4084147 -0.19705705 -0.15573725
0002b0 5c 83 c9 3e 59 26 5c 3e df 53 cd be 5d 04 44 3f
       0.39358032 0.21499003 -0.4010305 0.7656916
0002c0 a2 4d ac be b7 06 dc 3d 9c ac 18 3f ac c9 39 bf
       -0.3365298 0.10743468 0.5963838 -0.7257335
0002d0 54 f0 bc 3e d5 77 ca bd 81 53 20 be 2c 99 6d 3e
       0.36902106 -0.098861374 -0.15656854 0.23202962
0002e0 19 f3 b0 3e a6 04 a4 be 50 0c 55 bb 82 7a 9a bd
       0.3456047 -0.32034796 -0.003250856 -0.07542898
0002f0 88 ed 99 3c 2d 90 47 3e b1 87 13 3e 51 6f 70 3e
       0.018790022 0.19488592 0.14407231 0.23479964
000300 56 c6 8b 3e f9 79 a3 bd 62 5b a6 be 14 cb 05 bf
       0.27299756 -0.07982249 -0.32491595 -0.52263
000310 02 de 9b 3e a4 0d c6 bd 98 4d 97 bd 07 d0 f6 3e
       0.30442816 -0.096705705 -0.07387847 0.48205587
000320 6a fb 2c bd 90 b5 9f be f5 36 b2 3e 80 b1 c5 3e
       -0.042231955 -0.3119321 0.34807554 0.38611984
000330 21 da cc be c6 a0 19 3e 1f 6c b7 be 6e c0 cb be
       -0.4001017 0.15002736 -0.35824677 -0.3979525
000340 06 eb 9f 3e 0f 07 d3 be 98 ab 46 be 52 3f 6a bd
       0.31233996 -0.41216323 -0.19401395 -0.057189293
000350 85 3f fa bd 05 56 be bd 22 74 b1 3d a2 71 61 3c
       -0.12219147 -0.09293751 0.08664729 0.013760002
000360 40 69 83 3e af b5 a2 3e d3 aa 19 be d5 73 18 bf
       0.25666237 0.3177924 -0.1500657 -0.59551746
000370 18 d8 61 bd f1 ab ce 3e 19 47 5c bd f3 fe 05 be
       -0.055137724 0.40365556 -0.05377874 -0.13085537
000380 ed 5a 0d 3f 0b 14 d7 3d d3 9e 4b bd 17 36 d8 bd
       0.55216867 0.1050187 -0.049712013 -0.10557192
000390 02 0f d1 3e 2c 00 98 3e 0e 72 a2 be 46 8f 63 be
       0.40831763 0.2968763 -0.31727642 -0.22222623
0003a0 a7 e1 fe 3d 01 2a 87 be 1c c0 40 3e 2d ba 36 be
       0.124453835 -0.26399234 0.18823284 -0.17844458
0003b0 d6 8d 70 3e 76 41 11 3e 3d 7f 0c bf 10 d5 69 be
       0.23491606 0.14185128 -0.5488165 -0.22835183
0003c0 91 ae 0c be b5 dc bb be 5d 36 04 bf 64 5e 85 be
       -0.13738467 -0.36691824 -0.5164545 -0.26048577
0003d0 36 c6 a8 3d 74 59 4a bd 46 bc 14 3e de e0 fb 3d
       0.08240931 -0.049401715 0.14524946 0.122987494
0003e0 fc 53 0d bd 60 26 51 bc d9 67 70 be 34 34 e0 3e
       -0.034503922 -0.012765497 -0.23477115 0.43789828
0003f0 07 32 52 bd b6 d2 5f 3e a8 d8 08 3e 61 c0 3c be
       -0.05131724 0.21857724 0.13363898 -0.18432762

linear1.bias f4 [64]
000000 79 4a 85 be 51 6b c6 3e 35 8a 3a 3f f4 31 f0 3e
       -0.2603338 0.3875375 0.7286714 0.4691311
000010 8f 26 0f 3f 85 4f 8f 3b b2 92 bc 3c c1 0b 90 3f
       0.5591821 0.004373493 0.023019169 1.1253587
000020 bb f7 47 be 08 95 9e be 53 b1 4d bf 92 3d ed 3e
       -0.19528095 -0.30973077 -0.803487 0.46336037
000030 a8 b2 af 3e 75 a9 77 3e 1f f1 4d 3f 2a 01 73 3f
       0.3431599 0.24185736 0.80446047 0.9492365
000040 2a 08 52 3f 81 67 f9 3e b5 95 55 3f 3d f5 e3 bd
       0.8204371 0.4871178 0.8343156 -0.1113076
000050 90 8d 30 3f d4 20 58 3f bb 1e 18 3f af f4 29 be
       0.6896601 0.8442509 0.5942189 -0.16597246
000060 fb 9d 29 3f cf 28 46 bd e6 20 9e be ec b8 e0 3d
       0.66256684 -0.04837876 -0.30884475 0.10972771
000070 2b d8 04 3f 9d 5a c8 3e fa ed 6b bf 42 37 b2 3e
       0.51892346 0.39131632 -0.9216 0.34807783
000080 85 ff c6 3e fb 6d ea 3e 7a 3d 61 3f 1a a9 33 3e
       0.3886682 0.45787033 0.8798443 0.17544976
000090 ab 89 4d be 02 c0 1d 3f 80 5b 47 3f 13 b0 97 bd
       -0.20072047 0.61621106 0.7787399 -0.0740663
0000a0 9f 3c 26 3f 62 51 7f 3e 02 19 43 3f b2 a5 1d 3f
       0.6493625 0.24933389 0.76210034 0.61580956
0000b0 6a 93 23 3f a5 dc c7 3e cf 3f 6f 3f 9a 56 0a bf
       0.6389681 0.39035526 0.9345674 -0.54038393
0000c0 ee a8 cc 3e d2 c0 59 3f 7b eb 91 3c 2f d4 0c 3f
       0.39972633 0.85059845 0.017812481 0.55011266
0000d0 92 1c 15 bf 8a df 40 3f 44 3f c9 3e 69 b9 3e 3f
       -0.5824672 0.75341094 0.3930608 0.74501663
0000e0 c9 98 7f 3e 27 e2 8e 3e 3f 45 ee 3e 56 0e 9e 3f
       0.24960627 0.27906916 0.46537206 1.2348125
0000f0 05 7b cd 3e ff 64 6f 3f 07 b4 33 3f 3d ad 7a 3f
       0.4013292 0.9351348 0.70196575 0.9792059

linear2.weight f4 [64, 64]
000000 6d 64 de 3d 83 9e 1c bd e2 28 1b 3d d5 c1 07 be
       0.108589984 -0.038237106 0.037880786 -0.13257535
000010 6f 91 7b be 6a f6 d1 bd 78 26 73 bd 66 67 16 3e
       -0.24567197 -0.10252078 -0.05936286 0.14687881
000020 ba 47 35 bf 42 a3 58 3e 27 f2 5f be 1a df b3 bc
       -0.7081257 0.21156028 -0.21869718 -0.021956969
000030 d2 05 0a 3b 84 33 01 be bb 73 89 3e ca 57 0f 3e
       0.0021060598 -0.12617308 0.26846108 0.13998333
000040 33 3e 75 bd be ec ab bd 44 24 c1 3d 62 ae 0b 3e
       -0.05987377 -0.08394764 0.09430745 0.1364074
000050 55 ba 31 3d 66 7a 24 3c 1d 66 4e 3e 3a c2 a6 3a
       0.04339059 0.010038948 0.2015614 0.0012722679
000060 05 42 fd 3d a7 f3 be bd 33 ff 03 bf 17 76 81 be
       0.12366108 -0.09323817 -0.5156128 -0.25285408
000070 9b be a8 3d 23 09 d4 bc 5d 37 b4 be df af a6 3d
       0.0823948 -0.025883263 -0.3519849 0.081390135
000080 bc 7e 48 bd 21 ef bc bd 79 e0 b0 3d f9 9c 29 bf
       -0.04894899 -0.09225298 0.08636565 -0.66255146
000090 40 bd 02 3c f3 41 ac 3e cb 01 cd 3d a7 10 9a bd
       0.007979691 0.33644065 0.100101076 -0.075227074
0000a0 6a d2 c9 3d 98 b5 ba 3c 31 67 b3 3e 5e 70 dc bd
       0.098545864 0.022791669 0.35039666 -0.1076362
0000b0 de 9f a1 3e f8 9e 9a 3c ad bd 69 3e 4b 83 48 3c
       0.3156728 0.01887463 0.22826262 0.012238334
0000c0 0d 4e cf bd a6 43 21 bd eb 3f 22 3e 09 46 e0 3d
       -0.10122309 -0.039371155 0.15844695 0.10950858
0000d0 b7 03 47 be 78 46 8d bd d0 28 c8 3d 68 1b d4 b9
       -0.19435011 -0.068982065 0.09773409 -0.0004045621
0000e0 a4 9a f1 3d 34 9f 26 3d 21 27 8e bd 1f bf 23 3f
       0.117970735 0.04067917 -0.06941057 0.639635
0000f0 0f ba ff bb 77 63 8f bc 8c dc ae 3d a9 c0 7d 3e
       -0.0078041623 -0.017503483 0.0853816 0.24780525
000100 1e a2 1b 3e 89 ee 02 3e 41 78 01 3e 1d 63 84 bd
       0.15198562 0.12786306 0.1264353 -0.06464217
000110 5d 5c 89 be b9 f1 bf 3d c0 d3 f4 bc e1 bf 4f 3e
       -0.2682828 0.09372277 -0.029886127 0.2028804
000120 b7 74 dc be fe ed 35 3e f2 73 24 bd 7f 3e 6b bd
       -0.43057796 0.17766568 -0.040149637 -0.057432648
000130 f7 dd 16 3e 05 20 8c bd 49 27 28 3e 84 04 8b 3e
       0.1473311 -0.06842045 0.16421236 0.27151883
000140 bc 09 2a 3e 90 21 0b 3e b1 73 ae 3d d2 bb 01 3e
       0.16605276 0.13587022 0.0851816 0.12669304
000150 f8 ef 0a 3f 47 66 23 3e 44 4d 1b 3d 56 b5 f3 bd
       0.54272413 0.15956984 0.037915483 -0.118998215
000160 0b c0 7d 3f 1a 90 0b bd 99 c9 83 be de 9b 7b be
       0.9912116 -0.034072973 -0.25739744 -0.24571177
000170 3a 5d 09 3e 01 0d ab bd 4e c9 80 bd 67 7c 87 3d
       0.1341447 -0.0835209 -0.06288396 0.06615525
000180 de f9 ac 3d 8f f2 23 bd f2 d6 02 bd 99 9d fc be
       0.08446096 -0.040026244 -0.03194327 -0.49338987
000190 90 41 58 bd 8b fa 1a 3e bf 94 b4 3d 08 8e 28 3c
       -0.0527969 0.15134637 0.088174336 0.010287769
0001a0 b0 0e 93 bd 68 ff 8c bc 7b 01 71 3e 30 75 23 3e
       -0.07180536 -0.017211631 0.23535721 0.15962672
0001b0 7b 53 aa 3e 72 c0 e1 bd bb e8 da bb 60 f2 32 be
       0.33266816 -0.11023034 -0.0066805757 -0.17475271
0001c0 4e 66 21 be 73 78 06 3e 99 d4 34 3e dc e9 af 3d
       -0.15761682 0.13131885 0.17659225 0.08589527
0001d0 16 8c 3a be 1a e7 80 3e fc af 8a bd 5e ae 17 3e
       -0.18217501 0.25176316 -0.067718476 0.1481261
0001e0 4c 5c 0b 3d 68 ab a8 3c 33 d9 84 3d 58 c2 2a 3f
       0.034023568 0.020589545 0.0648674 0.66702795
0001f0 25 b7 ae 3d 64 9a 15 3c 3b 7f 85 3e 51 1d 57 3c
       0.08531026 0.009131048 0.26073632 0.013129548
000200 00 7b be 3d 57 7c 8c bd f7 6b 85 3d 39 e8 4d bd
       0.09300804 -0.068596534 0.06514733 -0.050270293
000210 ef 97 09 bd 98 f9 3f bd 80 8d 74 3b 86 f0 dd 3d
       -0.03359216 -0.04686889 0.0037315786 0.10836892
000220 90 d8 3a bd 1e 06 fa bc 6e d4 b5 bd a8 10 e8 3c
       -0.045616686 -0.030520495 -0.08878408 0.028328255
000230 5e 24 b4 bc ac 8d d0 3d 87 2f 40 bd 01 2e 14 3d
       -0.021989997 0.10183272 -0.046920326 0.036176685
000240 02 60 ca bd 85 c3 fc bd 67 1f a9 bd 70 70 3f bd
       -0.09881593 -0.1234198 -0.08257943 -0.046738088
000250 08 8a 50 3d 6d 57 6a bd 54 64 ce 3c 9b b7 97 bd
       0.050912887 -0.057212282 0.025194325 -0.07408067
000260 ce e6 9b bd 07 e4 24 3d 42 3c a9 bd f9 28 68 bd
       -0.07612382 0.040256526 -0.082634464 -0.0566797
000270 01 80 22 bd 7d 8f 89 3d c1 7c 8b bd 96 d1 89 bd
       -0.039672855 0.06716821 -0.06810904 -0.067294285
000280 92 01 eb 3d e7 77 8a 3c f0 08 79 bd 1a dd f5 3d
       0.11474909 0.016902877 -0.06079954 0.120050624
000290 94 e7 9c 3d 69 62 ae bd 65 4e 7d bd 4f 21 d2 bc
       0.076613575 -0.08514864 -0.06184234 -0.025650648
0002a0 15 bc e1 bc 12 0c 8c bd d3 d5 88 b8 24 f6 9b 3c
       -0.027555505 -0.0683824 -6.524813e-05 0.019038267
0002b0 21 f8 8e bd a8 be ba 3c b5 b2 88 3d a8 4d be 3d
       -0.069809206 0.02279599 0.06674711 0.092921555
0002c0 a8 d5 13 3c 1d 02 00 be 3b 2b 8c 3d 12 6f af bd
       0.009023108 -0.12500806 0.06844183 -0.08566107
0002d0 f4 cd 93 3b 94 70 8b 3d bc a1 2c 3d 0c 7c cf bb
       0.0045106355 0.06808582 0.04214643 -0.006331926
0002e0 88 bc d1 3d 98 fe e5 3c d9 6b 99 3d 5a a4 dd bd
       0.102410376 0.028075501 0.074912734 -0.10822363
0002f0 d0 5c 01 be 29 61 98 3d 4b 7d 52 3d eb f4 70 3d
       -0.12633061 0.07440407 0.05138902 0.058827322
000300 43 b5 ac bc e4 a0 06 3c 68 25 46 bd 80 c3 e6 3d
       -0.021082526 0.00821707 -0.048375517 0.112677574
000310 72 05 bf bd eb c4 19 3e 60 dd e1 3d fd 56 83 3e
       -0.093272105 0.15016524 0.11028552 0.25652304
000320 25 fb d0 be 7b d8 83 3d 94 7a 10 bb c4 47 19 3d
       -0.40816608 0.06437775 -0.0022045719 0.037421957
000330 1e 2f 2b 3d 31 b4 d2 3d 0b 7d 59 3e 00 90 78 3e
       0.04179298 0.10288275 0.21239106 0.24273682
000340 21 4c a4 3d 05 6f a3 3d 48 6d 41 bd f7 06 a3 3d
       0.08022333 0.0798016 -0.04722336 0.07960313
000350 05 0b 09 3f 43 2e 04 3e 3c 9a fc 3d 8d 2b dd bc
       0.5353244 0.12908272 0.12334105 -0.026998306
000360 e9 b2 4c 3f da de 65 bd f1 43 71 be 11 31 1f be
       0.79960495 -0.05612073 -0.23561074 -0.15546061
000370 1d 67 08 bd 06 0e 5e bd d0 1a e8 bd 27 ba 76 bd
       -0.03330146 -0.054212593 -0.11333239 -0.060236122
000380 58 47 25 bd 3d d9 7b 3d d9 5f 20 3e 87 b1 91 be
       -0.04035124 0.06148647 0.15661563 -0.28455755
000390 48 67 eb 3d e3 7d 85 3e 57 75 f6 3d 44 7a bd bd
       0.11494309 0.26072606 0.120340995 -0.09251836
0003a0 db 78 89 bd 00 a8 89 3b 10 a9 90 3e 49 4d 64 bd
       -0.067125045 0.0042009354 0.28253984 -0.055737767
0003b0 68 a4 f9 3e 84 98 d2 bd ae 00 83 bc 71 b2 49 bd
       0.48758245 -0.10282996 -0.015991535 -0.04924244
0003c0 29 ed 19 be 21 0c cc 3c 12 01 5c bc 84 67 42 ba
       -0.15031876 0.024908127 -0.01342799 -0.0007415938
0003d0 5a de 66 bd d5 c9 50 3e b8 ce 28 bd eb 6c 1d 3d
       -0.056364395 0.20389493 -0.041212767 0.03843395
0003e0 60 79 3d 3c c8 a5 d6 bd 40 6a 8c bc bb 3f 20 3f
       0.011564583 -0.10480839 -0.017140508 0.62597245
0003f0 ce ca 53 bd 7d 34 f6 3d 52 ba 03 3e e0 62 90 3d
       -0.05170708 0.1202173 0.12864044 0.07050109

linear2.bias f4 [64]
000000 4a ea c3 3e ac 0a 33 3f 77 67 a7 3d 45 6a 13 3f
       0.38264686 0.6993816 0.08174031 0.5758403
000010 e5 45 94 3e 4d 5b f4 3d a5 f3 f9 3e 14 19 19 3f
       0.28959575 0.11931477 0.488187 0.5980389
000020 60 f3 a4 3d 18 ed e3 3e ff 8e 93 3d 21 a4 15 3f
       0.080542326 0.44516826 0.07205009 0.58453566
000030 7c 04 18 3f 72 b1 25 3f 30 16 42 bd 84 a5 f8 bd
       0.5938184 0.64723885 -0.04738444 -0.121409446
000040 49 a9 b3 bd 3c 93 ab bd d0 91 98 3c 2f 29 15 3d
       -0.08772523 -0.08377692 0.018624216 0.03641623
000050 b1 2c 55 3e 50 51 43 3c 00 af ae bc cb eb 37 3f
       0.2081783 0.011921242 -0.02132368 0.71844167
000060 00 49 82 ba 15 a0 2c 3f 4c 0d 11 3f a7 03 be 3e
       -0.0009939969 0.67431766 0.56660914 0.37112162
000070 df 6c 80 3e 30 7a 44 3e a3 95 01 3f c2 75 2d 3f
       0.25083062 0.19187236 0.5061895 0.6775781
000080 1b 02 f8 3e 82 11 30 3f f8 7e bb 3c d4 2a fc 3e
       0.48439106 0.68776715 0.022887692 0.49251425
000090 cc 6a 21 3f 28 2d e4 3e c0 84 37 3f 00 41 19 3f
       0.63053584 0.445657 0.71686935 0.5986481
0000a0 6b aa ff 3e 8b 1c dc 3e 2e 2b 0e 3f 32 46 ff bd
       0.49934706 0.42990527 0.55534637 -0.124645606
0000b0 b2 73 25 3f ab 70 71 bd f1 4a b1 3e aa 54 0e 3f
       0.6462966 -0.05894534 0.34627488 0.5559794
0000c0 4a 80 b4 3d 7d 42 1f 3f 20 3c e8 3d 30 11 9a bd
       0.08813532 0.6221083 0.11339593 -0.075228095
0000d0 7f 25 04 3f d9 8b 28 3f ac 9e 1a 3f fc 80 56 3d
       0.51619714 0.6583839 0.60398364 0.052369103
0000e0 9f 14 d9 3e 63 ed 04 3f 23 c5 fb bd 29 3c 0c 3f
       0.42398545 0.51924723 -0.1229346 0.547793
0000f0 f0 9b c7 bd b9 53 27 3f af f9 1b 3f 37 b9 c5 3d
       -0.097465396 0.65362126 0.6092786 0.096544676

linear3.weight f4 [64, 64]
000000 a2 99 2f 3e bf 5e 53 3e ea 3c c8 3d 4b 9c 39 3d
       0.1714845 0.20641612 0.097772434 0.04531507
000010 5c 0f 95 3e a6 a4 88 3d d0 62 b5 3e 43 0d ff 3d
       0.2911328 0.06672029 0.3542695 0.12453701
000020 40 83 7a 3d e2 f2 b5 3e c1 a5 33 bd 24 31 80 3e
       0.061160326 0.35536867 -0.043859247 0.2503749
000030 56 61 07 3e c7 bf 9b 3d d8 66 d8 3c a0 70 eb 3b
       0.13220724 0.07604938 0.026416227 0.007185057
000040 53 e8 dc 3d c0 8c cb 3c 63 8f af 3d 16 87 a0 be
       0.107865 0.024847388 0.08572271 -0.31353062
000050 dc 91 a1 be 80 c6 e3 3b f0 e0 63 bc db d7 1b 3e
       -0.31556594 0.0069511533 -0.01390861 0.15219061
000060 a0 2f ce 3b 6d 0a 12 3e cb 6b 58 3e 5b d3 41 3e
       0.0062922984 0.1426179 0.2113487 0.18928282
000070 47 aa 42 3e d6 80 68 be f4 e7 3d 3e a1 5a 65 3d
       0.19010268 -0.22705397 0.18545514 0.055994634
000080 13 c6 6b 3e c6 d9 bb 3e 8c 2c 60 bd e9 4c 71 3e
       0.23024778 0.36689585 -0.054729983 0.23564495
000090 59 e6 0d 3e d6 83 ca 3d 99 61 a6 3d 63 62 65 3e
       0.13857402 0.09888427 0.08124084 0.22400813
0000a0 f1 4c 98 3e 4c 4d 7f 3e 91 62 18 3d 12 61 8d 3d
       0.29746202 0.2493183 0.037203375 0.0690328
0000b0 4d be 3a 3e 64 d7 24 3c 1b b0 a6 3e c7 69 93 3e
       0.18236656 0.010061119 0.32556233 0.2879164
0000c0 d8 89 e6 3c e6 7c 2c 3e 88 65 14 bd 96 70 a0 bd
       0.0281419 0.1684452 -0.03622964 -0.07833974
0000d0 1b 09 00 3e 85 b7 46 3d 49 2c b9 3e d4 a6 18 bd
       0.12503473 0.04851486 0.361666 -0.037268475
0000e0 30 43 16 3e 28 9c c9 3c ed 7b 1b 3d e2 01 8e 3e
       0.14674067 0.024610594 0.03795998 0.2773581
0000f0 18 b3 60 3d f3 02 bb 3e b5 31 4a bc 3f b4 ba 3e
       0.054858297 0.36525688 -0.012340953 0.36465642
000100 65 1d 8d bd cf 85 e5 bd 84 2d f1 bd 90 f3 29 3d
       -0.06890372 -0.112071626 -0.117762595 0.041492045
000110 6f e7 a8 bd 2a 3c 97 3d 3d dd 87 3d a2 76 e1 3d
       -0.082472675 0.07384522 0.06633995 0.110089555
000120 a8 89 92 bc bf 2e 8d 3d 68 4a e1 bd 5a f4 fb 3c
       -0.017887905 0.06893682 -0.1100052 0.030756164
000130 83 d3 54 bc d8 c4 b7 bd 8e 7e d9 bd c6 d9 f1 3d
       -0.012989881 -0.08973092 -0.106198415 0.11809115
000140 48 80 3a bd 7a 35 a8 bd 62 77 d7 3d 10 a4 a9 bc
       -0.045532495 -0.08213325 0.10520817 -0.020708114
000150 50 03 54 3d b4 a3 d2 3d 74 d1 db 3d dc 72 23 bd
       0.05176097 0.1028513 0.107333094 -0.03990446
000160 00 8a 94 bc 4b 18 47 bd c0 a9 b9 bd 62 66 e9 3c
       -0.01813221 -0.048607152 -0.0906558 0.028491203
000170 83 dd df 3c 98 1d 76 3d c8 3a c8 bd 9b 03 ae bc
       0.027327305 0.060086817 -0.09776837 -0.021241954
000180 62 5f f8 bd 37 75 33 3c 00 ce 1e ba 2b e2 06 3d
       -0.12127568 0.010953239 -0.0006057918 0.032930534
000190 8c 93 4a bd b4 ba b9 bd 06 57 c6 bd 20 73 b9 bb
       -0.049457118 -0.09068814 -0.09684567 -0.005659476
0001a0 fd ae 14 3d 83 14 94 3c 86 6c f3 bd f0 2a 66 bd
       0.036299694 0.018076187 -0.118859336 -0.056193292
0001b0 94 e6 5a 3d 6c 07 de bd 8e db 29 bc 29 0a 06 3c
       0.053442553 -0.10841259 -0.010367287 0.008181133
0001c0 e0 87 bc 3d f4 96 94 3d fa 96 f4 bd a8 05 21 bd
       0.092056036 0.072553545 -0.11942859 -0.039312035
0001d0 1e bd fe bd 8a 85 38 3d 44 38 b0 bc 68 9d 6e 3d
       -0.12438415 0.045049228 -0.021511205 0.058255583
0001e0 8b 4d bb 3d 44 8e d2 3d 30 b0 4e 3c 1f c0 7d bd
       0.091456495 0.10281041 0.012615249 -0.0619508
0001f0 a0 64 e7 3c 31 ef 35 3d 17 3d 50 3d 50 72 33 3d
       0.028246224 0.044417564 0.05083951 0.04381019
000200 17 17 6a 3e 65 a7 16 3d 61 6b 12 bd e7 07 3a 3e
       0.2286037 0.036780734 -0.035746936 0.18167077
000210 21 22 01 3e d3 6f f7 3d 1b 9e 1a 3e f3 e6 89 3e
       0.12610675 0.12081876 0.15099375 0.26934013
000220 f4 90 2f bc 20 c0 83 3e 54 b7 45 3d 2f 62 90 3e
       -0.010715712 0.25732517 0.04827054 0.28199908
000230 39 68 3c 3e 6f 50 3c 3e 92 b5 de 3d 68 08 ac 3d
       0.18399133 0.18390058 0.108744755 0.08400041
000240 01 d1 6f bd b0 d2 4e 3d be 40 dc 3c 65 d1 9b be
       -0.05854893 0.050493896 0.02688634 -0.30433193
000250 3b 3d ec be 50 f3 cc 3d 06 60 dc 3d 5a 5a 8c 3e
       -0.46140465 0.10007346 0.107605025 0.27412683
000260 d8 60 f5 3d cc 87 bf 3d dc 7b 2d 3d 81 e6 27 3e
       0.11981362 0.09352073 0.04235445 0.16396524
000270 ff be c6 3d fd cc c1 be e9 f8 c3 3d b3 f7 46 3e
       0.09704398 -0.37851706 0.0956896 0.19430427
000280 ab b8 5b 3e 4c 66 ac 3e 80 90 ef 3c 41 78 6e 3e
       0.21457164 0.33671796 0.029243708 0.2328806
000290 de 39 b6 3e 67 96 67 3e 08 8f 8f 3e 5a 73 81 3e
       0.35591024 0.22615968 0.28038812 0.2528332
0002a0 d8 74 63 3e 3a 53 c8 3e 22 f0 38 3e d0 e5 a5 bc
       0.22212541 0.39125997 0.18060353 -0.020251185
0002b0 93 a9 8e 3e 7e 5f e1 bd 0c 96 6c 3e 7b d3 ab 3e
       0.2786375 -0.11004542 0.23104113 0.33559784
0002c0 7e f7 ad 3d af 42 57 3e 90 77 b8 3c 68 c2 a0 bc
       0.08494471 0.21021532 0.02251795 -0.01962395
0002d0 d6 22 64 3e 73 37 60 3e af 39 6f 3e be ef 86 3d
       0.22278914 0.21896152 0.23361848 0.06588696
0002e0 7e c7 45 3e 43 5c d0 3d b8 40 cf 3d 3d 7d 85 3d
       0.19314381 0.101738475 0.10119766 0.06518028
0002f0 ee c6 95 bd 27 49 9d 3e a6 cd 09 3e d9 48 c2 3e
       -0.073133335 0.30719873 0.13457355 0.37946203
000300 2c 21 ce bd d8 2f ff bd 20 c8 92 3d 78 32 d2 bd
       -0.10064921 -0.12460297 0.07167077 -0.102635324
000310 8c b0 96 bd 04 65 70 3d 12 0a b5 bd 48 fe a1 3c
       -0.073578924 0.058690086 -0.088398114 0.019774571
000320 aa e6 c6 3d 32 44 93 bd 50 c4 fa bc 80 0a c8 3b
       0.097119644 -0.071907416 -0.030611187 0.0061047673
000330 4c 82 2e bd 60 b6 16 3c f4 2a d7 3d 80 93 2d bd
       -0.04260473 0.009198755 0.105062395 -0.042376995
000340 da 30 cb bd 00 c7 71 ba 0a c9 c1 bd 0c cf 00 bd
       -0.09921427 -0.0009223074 -0.09462173 -0.031447455
000350 3c c6 93 bd 94 71 d8 3d 10 0c 15 bd 88 69 e8 bd
       -0.072155446 0.10568538 -0.036388457 -0.113482535
000360 2e 5a d3 bd d4 39 53 3d d8 0c 05 3d 40 dc 9b bc
       -0.10319935 0.05156882 0.032482952 -0.019025922
000370 ea 7f c8 3d 58 e4 df 3d a6 eb 99 3d 60 bd 43 bc
       0.09790023 0.10932225 0.075156495 -0.011947006
000380 b2 ae ce bd 2a 92 82 bd b4 e8 eb 3d d6 58 ee bd
       -0.10091914 -0.06375535 0.11518994 -0.11638038
000390 78 1a 93 bc 4c 0c fe bd 60 c1 a5 bb 84 7e f7 bd
       -0.017956957 -0.12404689 -0.0050584525 -0.12084678
0003a0 48 e2 d2 3c ac 72 ef bd b4 6b 03 bd 9c 02 82 3d
       0.025742665 -0.11691794 -0.032085136 0.06348154
0003b0 e2 74 d3 3d fc f5 2a bd 5a 78 94 3d 98 f6 5d 3d
       0.10325028 -0.041738495 0.07249518 0.05419025
0003c0 1a 83 ce 3d 88 ac b3 bc 6c 0c bf 3d 60 b9 3f 3d
       0.100835994 -0.021932855 0.09328541 0.046807647
0003d0 94 a4 8c bd 40 25 a9 3c ae 9f a1 bd a0 90 00 bd
       -0.06867328 0.020647645 -0.078917846 -0.031387925
0003e0 c0 db 20 bb 08 a2 59 3d 36 54 cf 3d d4 a3 80 3d
       -0.0024545044 0.05313304 0.10123484 0.06281248
0003f0 48 4f a3 3d 6c 4a 49 bd 9e 7f f0 bd bc 13 b2 bd
       0.07974106 -0.04914324 -0.11743091 -0.0869517

linear3.bias f4 [64]
000000 a6 6d 19 3f 27 fc a4 3d aa d2 0d 3f 7c ed e1 bd
       0.59932935 0.08055907 0.5539957 -0.11031625
000010 5a 2b f9 3e 49 12 13 3f 5d 9b 08 3f 5d 02 06 3f
       0.48665887 0.57449776 0.53362066 0.52347356
000020 ce 49 d2 3e 9c c8 c7 3e a9 54 0d 3f be a3 12 3f
       0.41071934 0.3902024 0.55207306 0.572811
000030 b0 b0 07 3f ff c7 1a 3f 4e ee f3 3e a0 b5 c9 3e
       0.5300398 0.6046142 0.4764275 0.3939638
000040 50 e9 62 bd 35 e5 0f 3f 32 af 11 3f af f3 12 3f
       -0.055398285 0.5620912 0.5690795 0.5740308
000050 cc 1c 74 bd 61 74 f0 3e b6 06 fd 3e 10 0f 16 3f
       -0.059597775 0.4696379 0.49419183 0.58616734
000060 9c a1 13 3f 0a d3 e5 3d 59 24 e8 3e f9 49 94 3c
       0.5766847 0.11221893 0.4534023 0.01810168
000070 18 f5 3f 36 72 75 09 3f 1f c5 d1 3e 62 94 d6 3d
       2.8603881e-06 0.5369483 0.40970704 0.104775205
000080 ef 65 c1 3e 85 c9 05 3f ca 71 fd bd f3 ae f5 3e
       0.37773082 0.5226062 -0.12375219 0.47985038
000090 23 0b 35 bd 70 50 b0 bc 22 f5 e7 bd d4 23 d2 3e
       -0.044200074 -0.02152273 -0.11326052 0.4104296
0000a0 f4 bc fa bb 9c e7 e6 3e 20 31 ed 3e 6a 8f d9 3e
       -0.0076519195 0.4509858 0.46326542 0.4249223
0000b0 a5 a7 04 be b1 59 f9 bd 26 d4 12 3f a5 8b 0b 3f
       -0.12954576 -0.121753104 0.5735496 0.54509956
0000c0 3e ef f7 3d b2 ca e8 3e f4 1f ea 3e 4c 1f df 3e
       0.12106179 0.45467144 0.45727503 0.43578565
0000d0 63 fb a1 3d 75 08 39 3d 3f 4f fb 3e 93 fd 3b bd
       0.07909276 0.04517408 0.49083897 -0.045896124
0000e0 a5 bb f0 3e 94 3d 02 3f e8 de 01 3f 8e c0 eb 3e
       0.4701816 0.5087521 0.5073075 0.46045345
0000f0 4d 78 fc 3e 94 e8 19 3f b8 bd f1 3e 37 29 0c 3f
       0.49310532 0.6012051 0.47215056 0.5475039

linear4.weight f4 [1, 64]
000000 da 30 70 be a6 c8 3c bb 3d cc 27 be d7 1b 81 38
       -0.23456135 -0.002880612 -0.16386504 6.156385e-05
000010 a1 c7 3a be 6c d0 5b be 7c f7 41 be 76 2d 59 be
       -0.18240215 -0.21466225 -0.18942064 -0.21208748
000020 75 03 3a be cb 9c 47 be 73 74 43 be 8c a8 3a be
       -0.18165381 -0.19493406 -0.1908739 -0.18228358
000030 83 f5 69 be 37 4d 63 be d5 c2 49 be c6 0c 42 be
       -0.22847562 -0.22197424 -0.19703229 -0.18950185
000040 72 43 3f bb ff 07 86 be 9f 4e 80 be 9f 87 36 be
       -0.0029184488 -0.26177976 -0.25059983 -0.17825173
000050 71 c1 a5 ba 20 d9 48 be be 80 7c be 1d 1d 74 be
       -0.0012646151 -0.19614077 -0.24658486 -0.23839231
000060 07 aa 38 be 54 81 72 ba 2a 6c 2d be 46 1e 12 bb
       -0.1803361 -0.0009250839 -0.16935793 -0.0022295876
000070 cc ae f9 3b a3 46 3b be 1e 3f 47 be b4 35 1b ba
       0.0076197144 -0.18288665 -0.19457671 -0.0005920783
000080 28 89 46 be 9e 97 64 be 4a 60 76 3a 9b 3b 6e be
       -0.19388258 -0.22323462 0.00093985035 -0.23264925
000090 61 0c 67 3e d8 86 37 bb 84 5d bd 3a 89 e2 52 be
       0.22563316 -0.0028003957 0.0014447425 -0.20594229
0000a0 bc d4 e1 bb 76 a8 3a be a5 af 40 be 8b 9e 31 be
       -0.006891815 -0.18228325 -0.18817003 -0.17345636
0000b0 d3 37 99 bb 8c 73 01 bc ca da 30 be 04 52 35 be
       -0.004675844 -0.007901084 -0.17270961 -0.17707068
0000c0 2e c5 04 3b d2 6b 4f be 9e 1f 51 be ad 2d 52 be
       0.002025913 -0.20255974 -0.20422217 -0.20525236
0000d0 07 17 f1 bb 0a a4 23 bb ee d3 33 be 1c fe 79 3e
       -0.0073574814 -0.00249696 -0.17561314 0.24413341
0000e0 0e d7 3a be 23 1a 4e be 6b a4 5e be 1a 0a 3a be
       -0.182461 -0.20127158 -0.21742408 -0.18167916
0000f0 95 20 4c be 43 da 43 be 53 82 57 be 78 3d 48 be
       -0.19934304 -0.19126229 -0.21045808 -0.19554698
