models/2025-11-24 13:53:17/1/Q2.pth (torch, 37764 bytes, 7 tensors)

linear1.weight f4 [64, 5]
000000 e1 b6 5d 3d 16 b6 fe bd a0 8b 92 3d 05 06 dd 3d
       0.054129485 -0.12437074 0.071555376 0.10792164
000010 c4 ac 14 be 89 10 4b 3c 5d 74 10 be da 2a 20 3e
       -0.1451903 0.012394079 -0.14106889 0.15641347
000020 d5 25 0b 3e 93 56 37 be 93 d8 4b be be 6a 8e 3d
       0.1358865 -0.17904119 -0.19906835 0.06953953
000030 b5 75 1a be b1 0c 33 bf c6 d0 00 bf 8b a1 e0 be
       -0.15083964 -0.6994124 -0.50318563 -0.43873248
000040 d1 18 13 3f 61 2d 81 be 9b fd 97 bf 55 2e 05 3f
       0.5745974 -0.25229934 -1.1874269 0.5202382
000050 75 31 61 3d 09 f4 9a be d4 5a 85 3e b6 57 3a be
       0.054978807 -0.3026431 0.2604586 -0.18197522
000060 bb 1b 09 bf 3e 4b b7 3d 75 b2 70 be 28 73 8c be
       -0.5355794 0.08949898 -0.23505576 -0.27431607
000070 8d 05 dc be 5c 2b 9e 3e 10 1a 9a be 5c 8f bb be
       -0.42972985 0.30892456 -0.3009801 -0.36632812
000080 5f fb 1e bc 8c d1 1e bf 52 5d a8 be fa f8 08 bd
       -0.009703486 -0.62038493 -0.32883698 -0.033440568
000090 73 7c 0c 3c 91 cf a8 3e d6 89 ca bd 6c 0e 01 bf
       0.008574593 0.3297086 -0.09889571 -0.5041263
0000a0 7d c4 57 bc 08 7a 41 be f7 e6 ae 3e dc 1e 88 be
       -0.013169405 -0.18894207 0.34160587 -0.26586044
0000b0 ba 5d 05 bf 56 f9 38 bd 7d 51 8c be ba b5 8d 3d
       -0.5209614 -0.04515966 -0.2740592 0.06919427
0000c0 9d 8d a3 3e be 89 dd be 37 2d c2 bc e4 bf bd 3e
       0.3194398 -0.4326915 -0.0237032 0.37060463
0000d0 83 6b 8f 3e 96 f0 80 be 92 e6 4c be 3b b4 d7 bd
       0.28011712 -0.25183553 -0.2000983 -0.10532423
0000e0 67 60 be be d3 45 a8 3e 8a e3 df 3d 47 6a 6b be
       -0.37182924 0.32865772 0.109320715 -0.2298976
0000f0 0c a8 d4 be db 77 0e 3f 55 e3 a9 bd 0a 8b 4b bf
       -0.4153446 0.55651635 -0.08295313 -0.7950903
000100 13 54 3a 3f 43 ef a6 3e b1 09 89 3e c8 ab b0 3e
       0.7278454 0.32604417 0.26765206 0.3450606
000110 1e e3 2d be 0e 78 48 be b3 9b 1a 3d 3b fa 6d 3c
       -0.1698117 -0.19577047 0.037746143 0.014524992
000120 a0 96 7f 3e 43 41 35 be 70 07 b7 bc 32 5d be bd
       0.24959803 -0.17700677 -0.022342414 -0.09295119
000130 c1 b1 27 be 38 7d 53 3e c8 7e 9f 3e 60 dd c2 be
       -0.16376401 0.20653236 0.31151414 -0.3805952
000140 e5 77 bf 3e bc 66 03 bd d6 3e 1b be e1 38 37 be
       0.3739616 -0.032080397 -0.15160689 -0.17892791
000150 de 94 0b 3e 62 d1 a1 3e f7 66 a1 be 2b b8 ba be
       0.13631007 0.3160506 -0.31523868 -0.36468634
000160 9a 5f 72 be af 1a 4a 3e be 65 51 3e 22 13 7a 3d
       -0.23669282 0.19736741 0.20448968 0.061053403
000170 35 92 cb 3d b7 4a d1 be db ef 75 3d 05 3e e0 3d
       0.09939996 -0.40877315 0.060043197 0.10949329
000180 eb 19 27 3e 45 1f 8c 3e 4f 59 1b bd 34 67 81 bd
       0.1631848 0.27367607 -0.03792697 -0.063185126
000190 9a b3 9a be 4a 2e 4e 3d ac 1d 4c ba 2a 0c 08 bf
       -0.3021515 0.050337113 -0.0007786404 -0.5314356
0001a0 04 0e 84 be 45 f5 ee 3d 9c f9 04 bd 58 9a dc 3e
       -0.25791943 0.11667875 -0.03246461 0.43086505
0001b0 9b c6 89 be 75 ff 46 3e fb 9b 34 3e c7 69 48 3e
       -0.26909336 0.19433387 0.17637627 0.19571601
0001c0 f6 33 91 3e a9 08 0c 3e 83 c7 b7 3e 5e 2a 9d bd
       0.28359956 0.13675179 0.35894403 -0.076740965
0001d0 f5 af 22 3e f1 ee d8 3e 4e 3a 12 3e 05 03 78 3e
       0.15887435 0.42369798 0.14280054 0.24219902
0001e0 42 f6 7f bd 01 6a e2 3e 10 6d b5 3a 23 6d e5 bd
       -0.06249071 0.442215 0.0013841707 -0.11202457
0001f0 1b da 23 3e db 7a e3 bd 18 51 d6 3e 55 ad 9e 3e
       0.1600117 -0.11107417 0.41858745 0.30991617
000200 44 00 da be ad af 4e be f7 52 c8 3e 82 1a 16 3e
       -0.42578328 -0.20184202 0.39125797 0.1465855
000210 c2 3a 88 3e a1 5c 37 3e 94 09 12 bf db d8 d7 3e
       0.2660733 0.17906429 -0.57045865 0.42157635
000220 3f 46 27 3e 6e 11 00 be ea 60 d4 be a2 df 30 3e
       0.1633539 -0.12506649 -0.4148019 0.17272809
000230 35 43 1b 3d f9 7d d3 be 64 14 02 bc ea 59 84 3b
       0.03790589 -0.41307047 -0.007939432 0.004039039
000240 e8 5a e6 be 27 d4 85 be a1 b8 6c bd 5d 45 25 bf
       -0.4499123 -0.26138422 -0.057793263 -0.64558965
000250 1e 58 8f 3d 3c 71 cc bd f9 08 12 3e 19 29 4b 3e
       0.06999229 -0.09982535 0.14261235 0.19839896
000260 25 ae 7a be 9d ae 8c 3e 4f b4 c1 3e c5 00 f3 bd
       -0.24480493 0.2747697 0.37832877 -0.11865381
000270 68 ac 9b bd 1c 59 c3 bc a1 62 1e bd 81 23 ba bd
       -0.07601243 -0.023846202 -0.03866828 -0.09088803
000280 1e 07 9a bd 76 f5 fb 3e 2c 5e bd bb 99 15 a2 3e
       -0.07520889 0.4921071 -0.0057790484 0.31657103
000290 e1 a2 70 3f 63 ed 80 bd bb a3 c8 bd a0 e1 8a bd
       0.93998533 -0.06295278 -0.09796854 -0.06781316
0002a0 ba 32 1c be 7b 90 02 be 20 22 75 be 97 a3 43 3e
       -0.15253726 -0.12750427 -0.23938799 0.19105373
0002b0 f9 24 1f bd 57 3b a9 3d 08 43 40 be fc 65 00 3e
       -0.03885362 0.08263271 -0.1877557 0.12538904
0002c0 c1 f4 82 3e 2e 7d d9 3c db 3c 81 bf f4 c4 ca 3d
       0.25577357 0.026548948 -1.0096697 0.09900847
0002d0 f4 c8 25 be 5c a6 91 be da 92 b4 3e 4d 2c 67 be
       -0.16189939 -0.28447235 0.3526829 -0.22575493
0002e0 f7 e6 a0 be 39 12 f4 3b 55 66 3f 3e 9d ec 88 3e
       -0.31426212 0.0074484614 0.1869138 0.26743022
0002f0 0a 7c 36 bf 27 df e7 ba 1f f6 fa be 80 e6 26 be
       -0.7128302 -0.0017690406 -0.490159 -0.16298866
000300 a5 76 ca bd 98 a6 b8 3c 66 38 fe be 58 b9 aa be
       -0.09885911 0.022540376 -0.49652404 -0.3334453
000310 f9 9c 3c 3e d2 ec b8 3d 57 8e 94 be da 15 92 be
       0.18419255 0.09029545 -0.29014847 -0.28532296
000320 39 c9 3e 3d 51 34 ad be 77 45 89 3e 5b 72 e0 bd
       0.04657862 -0.33828977 0.2681081 -0.109593116
000330 cf b8 e1 bc ff 4d c8 3d 72 cb 3d bd 4b a0 cd 3e
       -0.027553944 0.097805016 -0.0463366 0.40161356
000340 e8 38 a4 3e d7 6d ee bc ec e5 e0 be 2c cf db 3e
       0.32074666 -0.02910511 -0.43925416 0.42931497
000350 b5 a7 06 be b5 e8 24 bf 92 a7 12 3f bb 04 23 3e
       -0.13149913 -0.6441758 0.5728694 0.15919773
000360 49 6c c5 be 85 97 1d 3e 32 a5 67 3d ad 5d 5f be
       -0.38559178 0.15389831 0.056554027 -0.21813078
000370 1c bc 81 3e 7e 5d e4 be ea 29 57 be 07 e9 e1 3e
       0.2533883 -0.4460258 -0.21012083 0.44123098
000380 57 47 da bd a7 1c f6 bd 21 7c ac 3b db 44 69 3e
       -0.10658138 -0.12017184 0.0052638208 0.22780173
000390 85 c5 3b 3d da 32 83 bd 3d 07 63 be a3 6d a9 bd
       0.045842666 -0.064061835 -0.2217073 -0.08272865
0003a0 ae 93 22 3e 7a 87 6e be c0 0c 6b be 55 33 a1 3e
       0.15876648 -0.23293868 -0.22954082 0.31484476
0003b0 d8 24 9b be ad 50 2d be 8b 54 e0 be 8a ba 87 bd
       -0.30301547 -0.16925307 -0.438145 -0.066273764
0003c0 ef 73 a9 3e 4d 53 0a bf 07 83 34 3e 22 cb 16 3f
       0.33096263 -0.54033357 0.17628108 0.58903706
0003d0 ec 8e f6 be eb f7 c2 bd 45 62 48 3e f5 e0 bd 3c
       -0.48155916 -0.09519943 0.19568737 0.023178557
0003e0 96 33 86 be 74 c9 44 3e ce 33 ca 3e 35 fd f9 3d
       -0.26211232 0.19217473 0.3949265 0.122064985
0003f0 ae 17 06 3e 03 c0 dc bd ae 55 58 3e 05 67 4a bd
       0.1309497 -0.10778811 0.21126434 -0.049414653

linear1.bias f4 [64]
000000 13 7d 77 3f d9 52 d4 3e 9f 3b 10 3d 46 23 13 bf
       0.96675223 0.41469458 0.03521311 -0.574757
000010 ce 09 09 3f 63 5f 13 bd c7 22 34 3f af b1 87 be
       0.53530586 -0.03597964 0.70365566 -0.2650275
000020 07 70 60 3f f9 e4 3d 3f c5 9e c5 be df f5 3e 3f
       0.8767094 0.7417751 -0.38597694 0.7459392
000030 82 dd 89 3f c1 44 01 3e ad 83 4c 3f 7e bc 82 3f
       1.0770724 0.12623884 0.7988842 1.0213773
000040 5c 12 87 3e 24 cc d3 3e 2d 1b 92 3f ec 8f 1c 3f
       0.26381195 0.41366684 1.1414543 0.6115711
000050 80 8c 61 3f 86 36 1b 3d 6b ef 33 bf 6c 89 2d bf
       0.8810501 0.037893794 -0.702872 -0.67787814
000060 da 98 50 3f 81 f6 8a bf fd 88 73 3f 72 cc e2 3e
       0.8148323 -1.0856477 0.951309 0.44296604
000070 05 10 5e 3f 1c 22 df be 8f ef 33 be 4a 13 28 3f
       0.86743194 -0.4358071 -0.17571853 0.6565443
000080 5e a2 86 3f 97 d9 5d 3f a8 03 9f 3f 17 85 ee 3e
       1.05183 0.8666014 1.2422991 0.46585914
000090 94 a3 73 be 9b 5a b9 be 7d d2 67 3e 35 e8 43 3f
       -0.23792869 -0.3620194 0.22638889 0.76526195
0000a0 0e 4f a6 3f e5 0a a9 bf 6e ae 04 3f cf 94 6c 3f
       1.2992876 -1.320645 0.5182866 0.92414564
0000b0 8a 2f d4 be 32 4c 87 bf ec ea 6c bf 9c e4 c6 bd
       -0.4144252 -1.0570128 -0.9254596 -0.097115725
0000c0 d8 80 94 3f ab 50 52 3f 21 94 a2 3f a8 46 4b 3f
       1.160182 0.8215434 1.2701455 0.7940469
0000d0 c1 48 8d 3f 57 29 38 bd fc de 1d 3f dd e9 3f 3f
       1.1037828 -0.0449613 0.6166837 0.7496622
0000e0 cd b5 b3 bd 1b 4e 51 3d 84 7e 5c 3f a7 8b 9c 3f
       -0.0877491 0.051099878 0.8613055 1.2230119
0000f0 99 23 9a 3f a0 8d 06 3f 9c 66 5c 3f 5a 5c 80 3f
       1.2042114 0.5255985 0.8609407 1.0028183

linear2.weight f4 [64, 64]
000000 cd 8b c8 3d bd ff a8 3d 29 b7 49 3e 4a f6 b0 be
       0.0979229 0.08251903 0.19698776 -0.34562904
000010 de 0c 3d bd cc 2d 5e 3d b6 6b 3e 3d c6 72 e4 3c
       -0.04615485 0.054242894 0.04648944 0.02788676
000020 55 8c 07 3e 2e 39 87 3e a7 ef a2 bb 25 32 bf 3d
       0.13237126 0.26410812 -0.0049724164 0.09335736
000030 44 10 01 3e 75 4f e9 bd 30 32 2f bd 96 36 6d 3d
       0.12603861 -0.11392108 -0.042772472 0.057913385
000040 48 4c 4c 3d 16 8f f8 bd 98 66 76 3e 92 e9 09 3e
       0.049877435 -0.121366665 0.24062574 0.13468006
000050 da d4 c5 3e 97 3b a3 3d 22 4e 4c 3d 4b 7d 75 bb
       0.38638955 0.0797035 0.0498792 -0.0037458714
000060 a7 c7 96 3e a5 6e 3c be 2e 6d 32 3d a3 79 42 bd
       0.29449198 -0.18401583 0.043561153 -0.047479283
000070 50 f3 d9 3e 9b d1 39 be f0 e2 63 bd 05 3b aa 3e
       0.42568445 -0.18146364 -0.055636346 0.33248153
000080 73 91 e8 3e 57 bf e9 3e 73 8b f4 3e 04 b0 ec 3c
       0.4542347 0.45653793 0.4776264 0.028892525
000090 67 85 b7 3d a5 6a 7e 3d 90 44 95 3d 95 df 16 bd
       0.08960991 0.062113423 0.07288468 -0.03683432
0000a0 b0 75 4a 3e eb 5a 3f be 44 6e 12 3e 31 3e 4b 3e
       0.19771457 -0.18687026 0.14299875 0.19847943
0000b0 4c 7c 55 bd 5e f2 57 be 31 ad 51 be e4 8a e2 3d
       -0.05212049 -0.2108855 -0.20476224 0.110616475
0000c0 4e 7b 1b 3f 6a b4 1d 3e 2a c1 b3 3d 79 f0 07 3e
       0.60735023 0.15400854 0.087770775 0.13275327
0000d0 24 e5 ca 3c 3a 35 17 3d f2 5c 65 bd 70 20 e5 bc
       0.024767466 0.036915995 -0.055996843 -0.027969569
0000e0 ad 22 8a bc 58 4f 0c bd 3c 11 e8 3d 49 74 f0 3c
       -0.016862238 -0.034255356 0.11331412 0.029352324
0000f0 db 08 59 3e ac ad 80 bd a1 f2 2f 3e 36 ef 0e 3d
       0.21194784 -0.06283125 0.171824 0.034896098
000100 cc 33 77 3e 6f 9d d2 3c ca 76 ac 3d 5c b2 03 be
       0.24140853 0.025709836 0.08421095 -0.12861007
000110 20 f7 a6 bb 2e 1d fe bd 35 b8 e7 3c a6 6c 8b 3d
       -0.0050953776 -0.12407909 0.028286079 0.068078324
000120 6b 4c 0b 3e 0f b6 86 3e 83 61 5b bd b2 ac 15 3e
       0.1360337 0.26310775 -0.05355979 0.1461666
000130 56 2e 60 3e c6 b4 ac 3d f7 c5 fd bb 4b 09 b9 bc
       0.21892676 0.08432917 -0.0077445465 -0.022587439
000140 2c 84 7b 3d c0 35 fa 3b c4 4b e9 3d e6 b4 09 3d
       0.061405346 0.007635802 0.11391404 0.033619784
000150 f0 eb 37 3e c6 49 ff 3d d8 4d ad bd 44 24 4d 3d
       0.17961097 0.12465243 -0.08462113 0.050083414
000160 0a 9f 75 3e 32 31 df bd 0c 54 64 3d 9f 32 20 3e
       0.2398645 -0.10898055 0.055744216 0.1564431
000170 4d f9 bc 3e 3a aa e4 3c 10 55 e1 3c 8d b6 2d 3e
       0.3690895 0.027913202 0.027506381 0.16964169
000180 7d 40 86 3e 80 e0 11 3f 61 83 ad 3e 0f 63 4e bc
       0.26221076 0.56983185 0.33889297 -0.01259686
000190 0f cd 03 be 1a 47 c0 bd 42 af 6e bd f9 80 0d 3e
       -0.12871192 -0.093885615 -0.058272608 0.1381873
0001a0 3d 34 7b 3b 31 4c 44 be 8b 54 8d bd 83 25 5f 3d
       0.0038330697 -0.1916969 -0.06900891 0.054479133
0001b0 4c 35 d0 3d 66 c6 55 be 56 3c 95 be f8 a9 6d 3d
       0.101664156 -0.20876464 -0.29147595 0.058023423
0001c0 8a 87 07 3f 01 ed 04 bd d5 59 11 3e a8 f2 13 3e
       0.5294119 -0.032452587 0.14194424 0.14448035
0001d0 40 3e b2 bd 14 67 4a 3e 49 75 8a bd cf b4 22 bd
       -0.087032795 0.19765884 -0.067606516 -0.039723214
0001e0 58 30 32 bd 73 f1 19 be 26 e1 1d 3e 2a b4 7e 3d
       -0.043503135 -0.15033512 0.15417919 0.062183537
0001f0 96 2d 63 3e 2e 6d 15 3e 45 93 61 3e ba 93 19 bd
       0.22185358 0.1459243 0.22028835 -0.0374944
000200 0d f7 84 3e fc 73 0f bd 6f 98 42 3d 7e b3 fd bd
       0.25969735 -0.03502272 0.047508653 -0.12387751
000210 f5 5e 4a 3c 30 e8 53 bd c8 66 cb 3d 2a f8 28 bd
       0.012351741 -0.051735103 0.09931713 -0.041252293
000220 41 96 1a 3e 07 d1 75 3e 82 ff a5 3d b0 1b fc 3d
       0.1509638 0.24005519 0.08105375 0.123099685
000230 13 eb 79 3e 28 a4 b2 3d 55 29 16 3e 6d 01 bc 3d
       0.2440608 0.087227166 0.14664204 0.091799594
000240 c4 6b a2 bd a0 af 87 bb 44 c5 3b 3e 3e 45 8e bd
       -0.07930711 -0.004140809 0.1833697 -0.06946801
000250 a6 fc b5 3e 11 ca bf bc 47 99 c9 3c c2 c4 3e 3d
       0.35544318 -0.023411782 0.024609221 0.04657436
000260 db be 47 3e 5a 9d 54 be a0 b7 8c 3d 74 0e a6 3c
       0.195064 -0.2076315 0.06870961 0.020270564
000270 49 d4 b6 3e 29 60 9f 3c 20 06 ce 3b 5a cb 8d 3e
       0.35708836 0.019455032 0.0062873513 0.27694207
000280 8f b8 84 3e 97 dd eb 3e 49 36 fe 3e b4 41 30 3e
       0.25922057 0.46067497 0.4965079 0.17212564
000290 52 09 b0 3d f1 12 c3 3d a4 56 14 be 88 ee cc 3d
       0.08595528 0.09525097 -0.14486176 0.10006434
0002a0 2f e9 5e 3e 9b da 17 be 93 9b 8f 3d 61 61 f0 3d
       0.2176864 -0.14829485 0.07012095 0.117373236
0002b0 98 97 da bd 56 9c 11 be b0 af ac be 3c 91 62 3d
       -0.106734455 -0.14219794 -0.3372779 0.055314288
0002c0 4e 0c 1a 3f e4 4f a2 3d d6 a2 4d 3e 18 d7 bb bc
       0.60175025 0.07925394 0.20081648 -0.022929713
0002d0 16 15 4b bd 8f 71 7f 3e 26 97 47 bd 93 5a 3e 3d
       -0.049580656 0.24945663 -0.04872813 0.046473097
0002e0 a6 09 51 be f2 cd 54 bd d9 b5 10 3e f3 d7 49 3e
       -0.20413837 -0.051954217 0.1413187 0.19711284
0002f0 02 e6 0d 3d 92 34 94 3c d7 72 c4 3d 6f e4 43 bc
       0.03464318 0.018091474 0.095922165 -0.011956318
000300 0d 19 24 3e cd 24 db bd 9c 15 35 bd f2 41 32 be
       0.16025181 -0.107003786 -0.04421006 -0.17407969
000310 25 7a 3d bc 08 2d ec 3c 3e 73 56 3d 1f d5 a7 3d
       -0.011564766 0.028830066 0.052355997 0.081949465
000320 cf 4a c2 3d ec 0c 2e 3d 23 34 91 bd c7 f5 6a 3d
       0.09486925 0.042492792 -0.070900224 0.057363298
000330 4b 65 24 3e 20 f7 d0 3d 75 06 87 bd 96 05 2f 3b
       0.16054265 0.10203385 -0.065930285 0.002670621
000340 58 3a bc bc ea 34 c3 bd a8 a3 6c 3e b1 b7 dc 3d
       -0.02297704 -0.09531577 0.23109305 0.10777224
000350 84 c3 b3 3e 90 31 d8 3d a6 13 43 bc 9f 55 9c 3d
       0.35110104 0.10556328 -0.01190654 0.076335184
000360 11 0b a5 3d 89 80 02 bd 0d c1 05 3d 92 ce 11 3d
       0.080587514 -0.031860862 0.03265481 0.03559739
000370 43 3e ad 3e 2b c3 e9 3c bc 86 d6 3d 97 36 d5 3d
       0.33836564 0.028535446 0.10474917 0.10410803
000380 36 75 b3 3e 50 2c 0e 3f 35 a4 ba 3e b2 3b 78 3d
       0.35050362 0.55536366 0.36453405 0.060603805
000390 19 df 72 bd d2 39 08 3c 25 e0 31 bd 76 61 0a 3e
       -0.059294794 0.008314567 -0.04342665 0.13513741
0003a0 01 d8 4c 3e 3d 26 08 bd 98 e5 e7 3d 32 6e 11 3e
       0.20004274 -0.033239592 0.113230884 0.14202192
0003b0 74 a8 dd 3d 96 10 12 be e0 31 b3 be 30 d8 61 3d
       0.108231455 -0.1426414 -0.3499899 0.055137813
0003c0 50 86 f6 3e e0 0e eb 3b c8 64 59 3e c5 37 74 3d
       0.48149347 0.007173404 0.21229851 0.0596235
0003d0 65 63 ed 3d e1 5e 23 3e b3 db c0 bd 9a 8c 1d 3c
       0.115912236 0.15954162 -0.09416904 0.009616042
0003e0 d4 63 4f be 20 3e 10 be 0e bc 60 bd fd 19 eb bc
       -0.20252925 -0.14086199 -0.054866843 -0.028698916
0003f0 0a 7f a5 3d 9f 9c 89 bc 31 68 69 3e 14 a0 e4 3c
       0.080808714 -0.016798316 0.22793652 0.027908362

linear2.bias f4 [64]
000000 da 66 5f 3f 9f 9a 51 3f 8d 17 67 3f 62 1b 3c 3f
       0.87266314 0.8187656 0.9027031 0.7347928
000010 c8 d6 3e 3f 91 52 57 3f 03 36 21 3f 4a 15 0d be
       0.7454648 0.8411036 0.6297304 -0.13777652
000020 ee 37 24 3f d3 2a 66 3f 85 ca 65 3f e6 b4 4e 3f
       0.6414784 0.89909095 0.89762145 0.8074478
000030 cc e2 62 3f 8e 61 43 3f 2b d0 35 3f 9e 9f 41 3f
       0.88627315 0.7632073 0.71020764 0.7563418
000040 94 8b 3c 3f f1 bf 59 3f ae 40 3c 3f 13 fe 41 3f
       0.7365048 0.85058504 0.73536193 0.7577831
000050 8a 1f 55 3f 82 77 5a 3f 25 60 7a 3f a8 20 ac 3c
       0.8325125 0.85338604 0.97802955 0.021011665
000060 8e b9 5e 3f a3 dd 61 3f ea e0 04 bf 2e 9b f8 bd
       0.87001884 0.88228816 -0.5190569 -0.12138973
000070 4a 52 99 3d c9 73 49 3f dc 47 71 bd 93 7b 8d 3d
       0.074863985 0.786923 -0.05890642 0.069083355
000080 97 99 68 3f 97 36 30 3d 01 4f 30 3f 2d f9 2e 3f
       0.9085936 0.04302081 0.6887055 0.6834896
000090 ad 1a 51 3f dd 76 5d 3f a4 b4 5a 3f 90 2b 92 bd
       0.8168133 0.86509496 0.85431886 -0.07137215
0000a0 ff 3c 32 3f bc 07 60 3f 74 23 b9 3d 54 98 f3 bc
       0.6962432 0.875118 0.09039965 -0.029735722
0000b0 33 80 97 3d b1 a7 3a 3f 0b 21 2c 3f 72 4b 53 3f
       0.07397499 0.72912127 0.6723792 0.82536995
0000c0 71 55 be 3d 40 9e 58 3f 70 f7 59 3f fa 72 fe 3d
       0.092936404 0.8461647 0.85143185 0.12424274
0000d0 8a 7c 2e 3f 94 e7 0a be 03 fb 1c bd 07 5a 3e 3f
       0.6815878 -0.13564903 -0.03832532 0.7435612
0000e0 00 ed f5 bc 7a df 4f 3f 40 17 38 3f 74 ef 2c bd
       -0.030020237 0.81200373 0.71910477 -0.042220548
0000f0 82 0f 51 3f 4f 39 47 3f b8 dc 57 3f a7 e2 4a 3f
       0.8166429 0.7782182 0.84321165 0.79252094

linear3.weight f4 [64, 64]
000000 43 5e 83 3e 09 e0 30 3e 62 40 53 3e b0 7f 86 3c
       0.25657853 0.17272963 0.20630029 0.016418308
000010 46 65 92 3e 74 fe a2 3e dc bc 41 3e e9 b0 23 3d
       0.2859289 0.31834757 0.189197 0.039963637
000020 3e ac ff 3d d4 34 dc 3e 47 9d 46 3e c6 15 04 3f
       0.124840245 0.43009055 0.19395934 0.51595724
000030 7d e4 12 3e f7 60 04 3e c1 23 73 3e 88 1a 88 3e
       0.14344974 0.12927614 0.23744108 0.26582742
000040 c1 fb 0d 3e f1 15 81 3e 72 e3 9d 3e 4b a7 30 3e
       0.13865568 0.25212052 0.3083759 0.17251317
000050 2f 17 81 3e 6c dd 6c 3e 08 a2 db 3e e4 35 09 bd
       0.25213 0.2313134 0.42897058 -0.03349866
000060 75 85 8d 3e 0e 27 1f 3e 1b 03 04 bf ba e9 11 3d
       0.27640882 0.15542242 -0.5156724 0.03562329
000070 c0 db 9b be 76 af 0f 3e 71 82 07 3d f9 6f 7f 3d
       -0.30441093 0.14031777 0.033083383 0.062362645
000080 74 49 c0 3d 34 01 b5 bd 22 21 14 3d 45 b3 8f 3e
       0.0938901 -0.0883812 0.03616441 0.2806646
000090 13 5d 70 3e be 4f 03 3e 47 ad 8a 3e 80 de 39 bd
       0.23473005 0.12823388 0.27085325 -0.04537821
0000a0 7a 08 89 3e fb 05 81 3e e0 f2 cc bc 46 d1 ae bd
       0.2676428 0.25199875 -0.025018156 -0.085360095
0000b0 f9 46 ff 3d ca 2e 5b 3e 0c e8 20 3e 5b 79 c6 3e
       0.12464709 0.21404567 0.15713519 0.38764462
0000c0 6a ae 02 bd 77 28 83 3e b3 33 51 3f d8 58 48 bd
       -0.031904615 0.2561681 0.8171951 -0.048912853
0000d0 8d eb 0e 3e 51 47 bf 3d fe ab 29 bc 61 10 b4 3d
       0.13957043 0.093397744 -0.010355948 0.087921865
0000e0 58 85 4e bd 9f fb 8f 3e a6 d0 14 3d 5d 52 9a ba
       -0.050420135 0.2812166 0.036331795 -0.0011773814
0000f0 e8 0d 8f 3e c8 b1 fb 3d 25 11 70 3e 8b b7 28 3e
       0.27940297 0.122897685 0.2344404 0.16476266
000100 10 95 4e 3e f3 0f d3 3d 14 4f 95 3d e8 c8 ec 3d
       0.2017405 0.103057764 0.072904736 0.11561757
000110 bd 07 98 3e f0 4e 22 3e ca 9f 44 3e 5b c3 1f be
       0.29693404 0.15850425 0.1920158 -0.15601866
000120 d0 c4 73 3e d5 46 9f 3e 65 70 af 3e 44 df ac 3e
       0.23805547 0.31108728 0.34265438 0.33764088
000130 9c e1 a4 3d 01 17 3b 3e 31 a0 b0 3e 16 6d c2 3e
       0.08050844 0.18270494 0.34497216 0.3797385
000140 38 23 82 3e 15 a6 7e 3e 80 02 5d 3e 36 25 28 3e
       0.25417495 0.24868043 0.21582985 0.16420445
000150 37 b7 2a 3e 97 de 65 3e 39 ee a4 3e 1c c4 e2 3d
       0.16671453 0.22448193 0.32213 0.11072561
000160 ad fb 20 3e 4a a2 24 3e 23 95 09 bf 4f 1d 38 3c
       0.15721007 0.16077533 -0.5374319 0.011237456
000170 d3 d7 a9 be 67 ff 6c 3e e0 b2 0d bd 6c b8 f0 3d
       -0.33172473 0.23144303 -0.034594417 0.11753926
000180 dc 62 82 3e 17 6a 76 bd e3 7b 0d 3e 3f 0d 58 3e
       0.2546605 -0.06015977 0.1381679 0.21098803
000190 3a b1 99 3e db 3a 92 3e 78 ae a3 3d 00 83 e5 3b
       0.30018026 0.28560528 0.07992262 0.007004142
0001a0 01 19 74 3e 9c c0 4f 3e 86 87 80 3d 5f f5 e3 bd
       0.23837663 0.20288318 0.06275849 -0.11130785
0001b0 1b b9 a8 bd f2 ca 92 3e 8a 4c 07 3e c7 b8 ff 3e
       -0.08238431 0.2867046 0.13212791 0.4994566
0001c0 c2 69 96 bd 61 a4 a2 3d 4c 74 3d 3f 40 72 1a 3d
       -0.073443905 0.07941509 0.7400558 0.037706614
0001d0 ea 3f 8e 3d 71 53 53 bd 50 52 a1 3d ff 46 5e 3d
       0.069457844 -0.051593248 0.07877028 0.054266926
0001e0 7e d6 ec 3d 2d 80 9b 3e ce fa 89 3c 54 af bb 3d
       0.11564349 0.30371228 0.016843226 0.091643006
0001f0 e0 66 b1 3e 0e 96 59 3e 51 29 51 3e bc 01 57 3e
       0.346488 0.21248648 0.20425917 0.20996755
000200 e8 c7 19 3d 2c 0b ae 3d 30 9d e1 3c 2c ce 0a bd
       0.03754416 0.084982246 0.027540773 -0.033888027
000210 06 aa e8 3d c0 9b 2f 3b 72 b8 bd 3d f0 13 fb 3d
       0.113605544 0.0026795715 0.09263696 0.12259662
000220 00 2b 2c bc ae 8c f6 bd a8 07 28 3d 40 ed 34 3c
       -0.010508299 -0.12038551 0.041022927 0.011042893
000230 58 1b a4 3c de b8 91 bd 1c 09 79 bd 58 60 f8 3c
       0.02003257 -0.07115339 -0.060799703 0.030319378
000240 c0 ab 9c bc 98 d5 6c bd 76 dd da bd 24 98 b2 3d
       -0.019124866 -0.057820886 -0.106867716 0.08720425
000250 64 bc 4b bd f0 29 d1 bd 08 ab 35 3d 9c b3 09 bd
       -0.04974021 -0.10213077 0.04435256 -0.033618554
000260 10 38 df bc 10 c9 b5 bc 68 c6 0a 3d ba 43 e9 3d
       -0.027248412 -0.0221906 0.03388062 0.11389871
000270 4a 8d de 3d bc 56 ff bd e8 05 53 bd 88 26 7a bd
       0.108667925 -0.12467715 -0.051519305 -0.061071903
000280 80 22 98 3a c0 34 90 3d 80 8a 67 3c d4 92 51 3d
       0.0011606961 0.07041311 0.014132142 0.051165417
000290 20 e6 8f bc 62 48 be bd b4 00 ce bd b4 c6 91 3d
       -0.017565787 -0.0929115 -0.10058728 0.07117978
0002a0 40 a3 d0 bd c8 30 d3 bc fc cc c5 3d 0c fd a8 bd
       -0.101873875 -0.025780097 0.09658238 -0.0825139
0002b0 30 cd 14 3d 5c 3e 36 bd e8 ad e4 bd 80 58 a2 3d
       0.036328495 -0.044493064 -0.111659825 0.07927036
0002c0 00 60 8a 3a 82 87 83 bd 10 a9 1c 3d 90 52 78 3d
       0.0010557175 -0.064223304 0.038247168 0.060625613
0002d0 b0 10 32 bc c8 a5 be 3c 44 d9 1f 3d f0 ac 92 bc
       -0.010868236 0.02327241 0.03902556 -0.017904729
0002e0 00 cb 65 bb 60 a5 2a 3d 20 46 88 3c 4c c4 3f 3d
       -0.0035063624 0.04166162 0.016635 0.046818063
0002f0 68 a5 e5 bd 1a 1d 82 3d 0c 56 5d 3d 44 ec be bd
       -0.11213189 0.06353207 0.05403714 -0.09322408
000300 03 66 22 3d 4f 46 82 bd 31 44 b0 bd be 73 3e 3d
       0.039648067 -0.063610666 -0.086067565 0.0464971
000310 60 79 42 bc 76 e4 be 3d 90 46 12 bc 0e d4 85 3d
       -0.011869758 0.09320919 -0.008927956 0.06534587
000320 ba 2d ea bd 40 ba b6 3b ec f5 5a bd ee b4 b2 bd
       -0.11434503 0.005576402 -0.053457186 -0.08725916
000330 ad 79 e9 ba 43 20 fd bb c4 e5 67 3d ed 6b ba 3c
       -0.0017812751 -0.007724793 0.056615606 0.022756541
000340 53 3d 6d 3d 63 e0 ae bd e8 eb ea bc 7e b5 17 3d
       0.05791981 -0.08538892 -0.028676942 0.03703832
000350 74 ec 16 bd af c8 65 3b 00 1b d4 ba 08 71 ef bc
       -0.036846593 0.0035062244 -0.0016182363 -0.029228702
000360 e0 e8 35 bc ee 2c d0 bd 20 2c e0 bd f8 6a 9a 3d
       -0.011102885 -0.1016482 -0.10945916 0.07539934
000370 b6 ef 80 3d 96 f7 b0 3d 7a d0 ca bd 00 bc 05 ba
       0.06295721 0.08640973 -0.09903045 -0.00051015615
000380 7b 4c 18 bd 08 23 1d 3d 05 c7 91 3c 85 a7 3d bd
       -0.037182312 0.038363487 0.017795095 -0.046302337
000390 20 3f bc bc f9 2b 46 3d d3 63 0f 3a 82 6b 98 3d
       -0.02297932 0.04838178 0.0005469892 0.074423805
0003a0 36 4d 81 3d d0 21 95 bd ba 16 82 3d db bc af bd
       0.06313555 -0.0728184 0.06351991 -0.08580943
0003b0 ec 50 f5 bd 66 f2 3a bc 68 de 4b bc b0 40 0e 3d
       -0.11978325 -0.011410331 -0.0124431625 0.03472966
0003c0 00 71 4d 3b df 47 a4 3d 7c 46 fe 3d 1c 7d 40 3d
       0.003134787 0.08021521 0.124157876 0.046994314
0003d0 9c 23 85 bc c0 3e cc 3d bc 9f 1b 3d aa dc b7 bd
       -0.016252331 0.09972906 0.03799413 -0.08977635
0003e0 f0 12 c4 3d 50 df 43 3d 9b 55 ac bd 5a c3 9a bb
       0.095739245 0.04782039 -0.084147654 -0.0047229948
0003f0 9e 45 b5 bd a2 6d 33 3d 48 07 28 3d 6d 08 a4 3c
       -0.08851169 0.043805726 0.04102257 0.020023549

linear3.bias f4 [64]
000000 6f 24 3c 3f 73 65 40 3f a0 df ab bb fd 31 36 bd
       0.73493093 0.751548 -0.005245164 -0.044481266
000010 d6 17 14 3f e0 29 f0 3d 72 46 de 3d 50 f3 33 3f
       0.5784887 0.11726737 0.1085328 0.7029314
000020 cb 8a 07 3f 18 02 2a 3f b3 5c 2f 3f 9e 36 1d 3f
       0.52946156 0.66409445 0.6850082 0.61411464
000030 fe f7 aa bd 38 73 1b 3f 80 67 1d 3f b8 32 40 3f
       -0.08348082 0.60722685 0.61486053 0.7507739
000040 9c b4 3c 3f e1 da 0f 3f e2 04 37 3f fc 44 90 bd
       0.7371309 0.5619336 0.71491826 -0.07044408
000050 b6 1f 11 3f 4c a7 13 3f f0 cf 17 bd 3a 5d 4e 3d
       0.5668901 0.5767715 -0.03706354 0.050381877
000060 e9 1a 24 3f 41 ec 49 3f 8c 10 53 3d c0 7d 3d 3b
       0.6410356 0.7887612 0.051529452 0.0028914064
000070 a6 fd 26 3f bf 1d 0d 3f 1e d2 35 3f 8f 4d 0f 3f
       0.65230787 0.55123514 0.7102374 0.5597772
000080 b0 75 9e bd 33 ae 34 3f 65 22 15 3f eb c8 2e 3f
       -0.07737291 0.70578307 0.58255607 0.68275326
000090 24 42 20 3f e8 ea 31 3d 3b 1d 02 3f a4 68 08 3f
       0.6260092 0.043436915 0.5082585 0.5328467
0000a0 f9 a9 05 3f 1c 3f 19 3f ba e0 9c bd 73 e7 13 3f
       0.5221248 0.5986192 -0.07660051 0.5777504
0000b0 31 9a 36 3f 64 25 15 3f 14 64 29 3f bb 79 25 3f
       0.7132903 0.5826018 0.6616833 0.6463887
0000c0 18 e2 2a 3f 32 b5 0d 3f c2 70 4c 3f d0 a4 fe 3e
       0.6675124 0.5535461 0.79859555 0.49735117
0000d0 64 3a 45 3f 58 d0 21 3d f8 17 a6 bc c6 6a 39 3f
       0.7704222 0.039505333 -0.020275101 0.7242855
0000e0 2b 35 20 3f d3 51 30 3f 1c c1 0a 3d 00 f2 2d 3b
       0.6258113 0.68874854 0.03387557 0.0026541948
0000f0 60 e9 93 bb 35 59 29 3f 0c 1e 8f bc 51 cf 16 bd
       -0.0045139045 0.66151744 -0.017470382 -0.036818806

linear4.weight f4 [1, 64]
000000 a3 da 62 be 0b 95 62 be 27 13 96 ba 19 a2 71 b9
       -0.22153716 -0.22127168 -0.00114498 -0.00023043937
000010 f3 db 6e be b6 81 ee b9 4e 0c 4b bb 3f 85 62 be
       -0.23326091 -0.0004549154 -0.0030982676 -0.22121142
000020 14 4f 5c be d4 75 69 be 9b 8d 66 be 30 9e 87 be
       -0.21514541 -0.22798854 -0.22514956 -0.26487875
000030 38 2f 22 3b 66 bd 4c be 0f 5a 57 be ac 84 50 be
       0.0024747383 -0.19994125 -0.21030448 -0.2036311
000040 ae 73 65 be 5b 1c 55 be 52 dd 62 be 96 4f 96 b9
       -0.2240741 -0.20811598 -0.2215474 -0.00028669526
000050 e5 c9 67 be ca 22 5f be ba 68 3c bb f2 de 96 ba
       -0.2263561 -0.21790615 -0.0028748945 -0.0011510535
000060 a0 f4 7f be 21 37 90 be 5a 23 e1 ba e3 61 da b9
       -0.24995661 -0.2816706 -0.0017176673 -0.00041653131
000070 5c 8b 67 be 56 37 61 be 84 60 79 be 1e 8b 78 be
       -0.22611755 -0.21993765 -0.24353224 -0.24271819
000080 04 d6 0b bb 83 09 74 be 53 b0 58 be f9 a2 62 be
       -0.002133728 -0.23831753 -0.21161012 -0.22132482
000090 45 dd 5c be d8 89 2d bb c8 ee 5c be 7f ba 4b be
       -0.21568783 -0.0026479866 -0.21575463 -0.19895361
0000a0 5c c3 65 be d0 be 6b be 23 42 1b ba 3e ec 8d be
       -0.22437805 -0.23022008 -0.0005922636 -0.277193
0000b0 57 31 5b be 60 dc 60 be 35 d8 7c be 42 ad 5b be
       -0.2140554 -0.21959066 -0.24691851 -0.21452811
0000c0 bc 20 59 be 8d 57 6e be f6 37 8c be 2b 63 4d be
       -0.21203893 -0.23275585 -0.27386445 -0.20057361
0000d0 68 8d 89 be 10 dc 0e 3a cd e0 bf 3a fd fa 50 be
       -0.26865697 0.0005449662 0.0014639139 -0.20408244
0000e0 43 3c 68 be 56 d4 58 be b5 9a 3b 3b 29 dc 71 3a
       -0.22679238 -0.2117475 0.0028626148 0.0009226227
0000f0 1b bb 22 ba 67 f2 5f be 27 5c 30 bb ff da e4 ba
       -0.00062076905 -0.21869813 -0.0026910396 -0.0017460285
