models/noCBF_2025-11-17 20:10:16/1/policy.pth (torch, 55714 bytes, 12 tensors)

linear1.weight f4 [64, 3]
0.3178656 0.5581404 0.34065253 0.1975326 0.20125008 -0.21495467 -0.4642342 -0.18416178
-0.35571325 -0.4783196 -0.5663892 0.1458319 -0.10229535 -0.24801657 0.46466768 0.008048548
-0.49541473 0.08041005 0.38209897 0.5407117 0.19589806 0.0112551795 -0.5592582 0.25712588
0.008933347 -0.2354933 -0.16802295 0.060781877 -0.356129 -0.31378177 -0.36444598 -0.33975738
0.17763767 0.42584637 -0.019954374 -0.46753865 -0.2669485 0.5599222 -0.5034741 0.5157878
-0.40595004 0.1903718 -0.3484691 0.08300017 0.27716184 -0.37918776 0.2580975 0.15433122
0.56417245 -0.33884534 -0.19733101 0.2784579 0.30876717 -0.5354468 0.52584475 -0.4239128
0.12840644 0.28799272 0.22052361 0.22033828 -0.45527825 -0.2696435 -0.2412822 0.5735451
-0.5429728 -0.42970377 -0.13171618 -0.33024055 -0.16312686 0.21735558 0.553587 -0.2549763
0.23712578 -0.27465722 0.27982113 -0.15640289 0.5125267 -0.47110754 -0.03568734 0.4571531
-0.36827102 -0.2709261 0.06438257 -0.019771669 0.25718945 0.25491133 -0.45157164 0.18219067
0.4126041 0.35046557 0.24297291 -0.120046705 0.14908187 -0.38804156 0.11705863 0.43612227
0.55444175 0.10224732 -0.3398158 -0.5387935 0.24352488 0.32848743 -0.35180727 0.028129686
-0.22072719 -0.3877567 0.17085862 -0.34085104 -0.5619973 0.4525202 -0.060511477 0.26606476
-0.36284593 0.5810636 0.4835143 0.108761035 -0.34810266 0.0037750106 0.4941323 -0.031499304
0.49234632 -0.19264741 0.27547905 0.059828736 -0.30285415 -0.29209122 0.091540344 0.27964047
-0.5079887 -0.15303773 0.24260312 -0.0977875 -0.51971227 0.40628213 -0.22256482 0.54251176
-0.19943571 0.4145197 0.440738 -0.4422028 -0.023163429 0.5485331 0.23986559 -0.25342113
-0.14665651 -0.046606343 0.25657412 -0.4327596 0.21572655 0.30033243 -0.48408705 -0.4412621
0.11977573 0.3033955 0.059317615 0.50712657 0.3693036 0.04189939 -0.45958802 0.4232193
-0.10620169 -0.32811826 0.5571791 -0.18423696 -0.3712967 0.069063514 -0.5717912 0.45080647
-0.14084281 -0.41389397 -0.07647032 0.42347786 -0.22501016 0.30099806 0.29059607 0.3435349
0.27045378 -0.55706656 -0.28398734 0.50046426 -0.51340777 -0.2518946 -0.08105878 -0.24565133
-0.17404754 -0.45347312 0.18306892 0.48434284 -0.37000424 0.15816227 0.14337772 -0.24244
00000000: 48bf a23e 4ae2 0e3f 026a ae3e fc45 4a3e
00000010: 8014 4e3e 141d 5cbe 1bb0 edbe e894 3cbe
00000020: 0c20 b6be 4ee6 f4be e2fe 10bf f554 153e
00000030: 3980 d1bd 0ef8 7dbe ece8 ed3e 0fde 033c
00000040: 00a7 fdbe 06ae a43d 7aa2 c33e 156c 0a3f
00000050: 8099 483e a567 383c 8c2b 0fbf 01a6 833e
00000060: 2c5d 123c 2825 71be 350e 2cbe 6bf6 783d
00000070: 8a56 b6be 01a8 a0be aa98 babe aef4 adbe
00000080: a6e6 353e 8908 da3e 5b77 a3bc 3a61 efbe
00000090: 79ad 88be 1057 0f3f aee3 00bf ab0a 043f
000000a0: afd8 cfbe d3f0 423e 8b6a b2be fefb a93d
000000b0: 28e8 8d3e e624 c2be 5b25 843e 0109 1e3e
000000c0: 9b6d 103f 237d adbe 2411 4abe 0992 8e3e
000000d0: bb16 9e3e 0b13 09bf c39d 063f 190b d9be
000000e0: fa7c 033e c873 933e f1d0 613e 5ca0 613e
000000f0: 3b1a e9be b60e 8abe ae12 77be dad3 123f
00000100: 4400 0bbf 2202 dcbe 9be0 06be 4a15 a9be
00000110: ba0a 27be 7692 5e3e e1b7 0d3f 418c 82be
00000120: 1ad1 723e df9f 8cbe b744 8f3e 1428 20be
00000130: f334 033f 0235 f1be e32c 12bd f90f ea3e
00000140: 058e bcbe d3b6 8abe 02db 833d 32f8 a1bc
00000150: 56ae 833e bd83 823e 6634 e7be 3190 3a3e
00000160: d840 d33e 3970 b33e e4cd 783e 0cdb f5bd
00000170: eba8 183e 62ad c6be 6fbc ef3d 6b4b df3e
00000180: e5ef 0d3f 0b67 d13d 56fc adbe 5fee 09bf
00000190: 965e 793e 812f a83e 1520 b4be 3a70 e63c
000001a0: 4f06 62be 0c88 c6be 90f5 2e3e 0784 aebe
000001b0: 0edf 0fbf bab0 e73e e2da 77bd a439 883e
000001c0: f1c6 b9be 96c0 143f 308f f73e 1bbe de3d
000001d0: 833a b2be 2b66 773b e9fe fc3e 6a05 01bd
000001e0: d114 fc3e 5d45 45be 970b 8d3e fa0e 753d
000001f0: b30f 9bbe fb8c 95be 8179 bb3d 092d 8f3e
00000200: 8c0b 02bf ecb5 1cbe f46c 783e d044 c8bd
00000210: dd0b 05bf 3604 d03e 08e8 63be 0de2 0a3f
00000220: e038 4cbe ed3b d43e 69a8 e13e 6868 e2be
00000230: 3bc1 bdbc aa6c 0c3f 539f 753e 6ac0 81be
00000240: 202d 16be 4be6 3ebd af5d 833e ab92 ddbe
00000250: 6ce7 5c3e 2cc5 993e 42da f7be 1bed e1be
00000260: fa4c f53d a856 9b3e 07f7 723d 0cd3 013f
00000270: 5d15 bd3e b29e 2b3d 1f4f ebbe 33b0 d83e
00000280: 4680 d9bd 1eff a7be 4aa3 0e3f 9da8 3cbe
00000290: 9a1a bebe 2c71 8d3d e860 12bf 1bd0 e63e
000002a0: 1939 10be e9e9 d3be 799c 9cbd 17d2 d83e
000002b0: 1069 66be 6b1c 9a3e 02c9 943e cee3 af3e
000002c0: eb78 8a3e ea9b 0ebf ca66 91be 6d1e 003f
000002d0: b16e 03bf 54f8 80be 2502 a6bd 068c 7bbe
000002e0: 8539 32be a12d e8be 6b76 3b3e c9fb f73e
000002f0: 3271 bdbe 4af5 213e 9cd1 123e 3142 78be

linear1.bias f4 [64]
-0.129935 -0.21949564 -0.21828218 0.073663615 -0.19540457 0.24255738 -0.31372508 -0.11587873
0.5817812 0.066416785 -0.4292673 -0.3231471 0.043480724 -0.30231887 0.12705185 0.10788783
0.27900094 -0.4354324 0.7172552 -0.6102203 -0.5660518 -0.39921668 -0.48981068 -0.28043142
-0.17393103 0.014276132 -0.48993284 0.5005762 -0.12214746 0.4282143 0.5098282 0.115803346
-0.12254506 0.5645512 0.60035026 -0.4888802 0.5029005 -0.086569145 -0.24104898 0.2631911
-0.043203432 0.1684946 0.051942546 -0.24542497 -0.29057696 -0.38232717 0.6497522 0.032782763
-0.09676518 -0.22828703 0.36029312 0.032409057 0.2616197 -0.2926739 0.24178183 0.5405409
-0.1845222 0.054120045 -0.08853734 0.5487333 -0.026973624 0.31839022 -0.52546555 -0.110974744
00000000: ae0d 05be 77c3 60be 5d85 5fbe f3dc 963d
00000010: 2318 48be f660 783e 93a0 a0be d451 edbd
00000020: 9def 143f 8605 883d ecc8 dbbe 8973 a5be
00000030: d818 323d 8ac9 9abe e119 023e 4bf4 dc3d
00000040: 36d9 8e3e fff0 debe 099e 373f 6637 1cbf
00000050: c5e8 10bf 2166 ccbe 77c8 fabe b594 8fbe
00000060: fa1a 32be 70e6 693c 7ad8 fabe c325 003f
00000070: 7328 fabd e83e db3e 1a84 023f 4e2a ed3d
00000080: e8f8 fabd 6d86 103f 8eb0 193f 814e fabe
00000090: 16be 003f 2a4b b1bd 8bd5 76be fcc0 863e
000000a0: 15f6 30bd d989 2c3e b5c1 543d af50 7bbe
000000b0: 81c6 94be 63c0 c3be 2956 263f 3847 063d
000000c0: d32c c6bd 13c4 69be 5778 b83e 5cbf 043d
000000d0: 04f3 853e 5ad9 95be a895 773e e360 0a3f
000000e0: 63f3 3cbe fbac 5d3d 1153 b5bd c979 0c3f
000000f0: caf7 dcbc 0b04 a33e e984 06bf ba46 e3bd

linear2.weight f4 [64, 64]
-0.014590225 -0.09857172 -0.012577936 -0.0230413 -0.11086005 0.060886364 -0.042490207 -0.02718007
-0.010827952 -0.0814595 -0.081042744 -0.07208733 -0.01831007 0.05168993 -0.04423101 -0.09358443
0.07049523 -0.059493586 0.006907291 0.031553164 0.07352885 0.016146123 -0.10084046 0.016780347
0.05628111 0.07870962 0.018884197 -0.07853345 -0.038824975 0.0722766 -0.046070356 0.066079155
-0.12246548 0.012309356 -0.040885326 -0.19496067 -0.008327862 -0.050819073 0.055983663 0.09629096
-0.11528293 0.012417758 -0.12000343 -0.121372074 -0.085490815 -0.1304074 -0.11611709 0.10906118
0.1047485 0.12214638 0.0500858 0.038919486 0.050173566 0.0820346 -0.0056138188 0.031865135
0.029937893 -0.036164373 -0.038436502 -0.02412698 0.053239197 -0.0028749052 -0.030268818 0.060053915
0.11198026 0.10776447 -0.0021747162 -0.04276185 0.01810039 0.055047825 -0.14237937 -0.05086939
-0.24031493 0.024930036 -0.009301851 0.005019933 -0.054750398 0.19196601 -0.082659476 -0.05920428
0.11859672 0.054375023 0.079601035 -0.0022218681 -0.06711477 -0.014799684 -0.043149356 -0.0058111995
0.12512448 0.11192763 0.08099553 -0.09647975 -0.124724686 -0.078729846 0.039590705 -0.054766003
0.025023714 0.015422485 -0.09957936 0.09198103 -0.09229269 0.12124503 0.011342943 -0.05642183
0.030425182 -0.17435008 0.021192208 0.12082335 0.014415219 0.075370565 -0.16722873 0.06795578
0.10518137 0.04567456 0.025523633 0.14548554 -0.10767433 -0.104542285 -0.01295422 -0.030453762
0.00029096866 0.0579461 0.080631055 0.12571947 -0.12173553 -0.013993615 -0.08601177 0.122455925
0.10729009 0.11534463 -0.12299136 0.07841192 -0.073079735 -0.09350804 -0.0037193447 0.072304904
-0.011451745 0.046376064 0.112761274 -0.053471506 0.10769725 0.09911017 0.11506067 -0.001130507
-0.11472911 -0.020870432 0.048903577 0.09144126 -0.085911795 0.10148953 0.086122595 -0.087569475
0.055664904 0.05248058 0.124039054 0.064933345 0.11763491 0.03267263 0.068754956 -0.0047228266
-0.08199002 -0.05149389 -0.06637564 -0.027805507 0.0519937 -0.07672769 -0.07527557 -0.08837803
-0.07662684 0.07442325 -0.090880945 0.103035 0.06903696 0.0051002353 0.06405144 0.078092426
0.03929252 0.054393955 -0.07880484 -0.03128025 0.05788243 -0.04662372 -0.04747279 -0.013518957
-0.026530705 -0.11344765 0.002693653 -0.11263806 0.061707526 0.08150355 -0.09325585 -0.10107575
0.009433538 0.008438602 0.070893794 -0.09072615 0.03251849 0.02334623 -0.038253203 -0.04095289
-0.09585571 0.059017733 -0.038489312 -0.022029221 -0.030354917 0.11119825 0.03385946 -0.109416604
-0.050365806 0.0077809095 0.10173695 0.040874407 -0.020716518 0.102416486 0.06734094 0.065408885
-0.043559626 0.10419524 0.07637201 0.080422744 0.023014173 -0.05333121 0.043185875 0.033646896
0.114693955 0.023989394 -0.05769272 -0.028870314 -0.047891393 -0.09038523 0.03902258 0.11293788
-0.030366048 -0.06047623 -0.11785187 -0.08286928 0.09277962 -0.10519305 -0.01322934 -0.0046518147
0.050689057 -0.04610972 -0.075276345 -0.02610512 -0.09769982 0.11236867 0.033988893 0.09518269
0.016745687 -0.051045418 -0.10213198 -0.029646605 -0.0676793 0.10034549 0.08533639 0.037681967
00000000: d70b 6fbc f8df c9bd b013 4ebc 1cc1 bcbc
00000010: 980a e3bd fb63 793d 360a 2ebd bda8 debc
00000020: b967 31bc 3dd4 a6bd bdf9 a5bd 86a2 93bd
00000030: 00ff 95bc d2b8 533d 932b 35bd 32a9 bfbd
00000040: ce5f 903d 8caf 73bd 8e56 e23b e43d 013d
00000050: 4b96 963d e044 843c 7185 cebd f076 893c
00000060: 0587 663d 8232 a13d 08b3 9a3c 25d6 a0bd
00000070: f006 1fbd c105 943d 45b4 3cbd 8254 873d
00000080: 2ecf fabd 2ead 493c 5f77 27bd c5a3 47be
00000090: 9671 08bc a927 50bd 204f 653d 3234 c53d
000000a0: 7519 ecbd da73 4b3c 5cc4 f5bd ec91 f8bd
000000b0: cf15 afbd 8489 05be ccce edbd 785b df3d
000000c0: 6286 d63d e227 fa3d c526 4d3d 0a6a 1f3d
000000d0: cc82 4d3d c201 a83d 20f4 b7bb 0485 023d
000000e0: 5040 f53c 1821 14bd 986f 1dbd f2a5 c5bc
000000f0: 5811 5a3d e868 3cbb 50f6 f7bc 18fb 753d
00000100: e855 e53d 9eb3 dc3d af85 0ebb 0d27 2fbd
00000110: 4547 943c d479 613d e6cb 11be 6c5c 50bd
00000120: 1e15 76be 133a cc3c ca66 18bc 407e a43b
00000130: f441 60bd bd92 443e 5f49 a9bd 3080 72bd
00000140: d6e2 f23d 58b8 5e3d de05 a33d c39c 11bb
00000150: 7873 89bd 607a 72bc 61bd 30bd e06b bebb
00000160: a220 003e 503a e53d fce0 a53d 2d97 c5bd
00000170: a86f ffbd 1d3d a1bd dd29 223d 5152 60bd
00000180: 88fe cc3c 97ae 7c3c 43f0 cbbd 8d60 bc3d
00000190: f303 bdbd 504f f83d c0d7 393c 941a 67bd
000001a0: 3b3e f93c d488 32be 489b ad3c 3c72 f73d
000001b0: d02d 6c3c e25b 9a3d 023e 2bbe 662c 8b3d
000001c0: 5569 d73d 3f15 3b3d f016 d13c 29fa 143e
000001d0: 5c84 dcbd 441a d6bd f03d 54bc 2b7a f9bc
000001e0: 278d 9839 e458 6d3d e521 a53d 9bbc 003e
000001f0: 7a50 f9bd 7a45 65bc f026 b0bd 2cca fa3d
00000200: e8ba db3d ce39 ec3d e5e2 fbbd 6e96 a03d
00000210: d4aa 95bd 2581 bfbd 40c0 73bb 9814 943d
00000220: 1aa0 3bbc d4f4 3d3d 62ef e63d f004 5bbd
00000230: 6090 dc3d 46fa ca3d eea4 eb3d 852d 94ba
00000240: 18f7 eabd 78f8 aabc 1e4f 483d 8e45 bb3d
00000250: 86f2 afbd bed9 cf3d 0b61 b03d a057 b3bd
00000260: e200 643d e0f5 563d 3008 fe3d c6fb 843d
00000270: 92ea f03d bcd3 053d 66cf 8c3d f1c1 9abb
00000280: 62ea a7bd 42eb 52bd f4ef 87bd 60c8 e3bc
00000290: 59f7 543d 6823 9dbd 142a 9abd 8aff b4bd
000002a0: 88ee 9cbd 386b 983d ca1f babd 0404 d33d
000002b0: 4063 8d3d e01f a73b 672d 833d ecee 9f3d
000002c0: 32f1 203d 32cc 5e3d 6f64 a1bd b81f 00bd
000002d0: 2016 6d3d 84f8 3ebd d472 42bd 9e7e 5dbc
000002e0: ec56 d9bc 3e57 e8bd 0088 303b c8ae e6bd
000002f0: 08c1 7c3d 55eb a63d ecfc bebd ce00 cfbd
00000300: 208f 1a3c 1042 0a3c c430 913d a2ce b9bd
00000310: 1c32 053d 9840 bf3c 64af 1cbd 38be 27bd
00000320: 0050 c4bd 94bc 713d f8a6 1dbd a076 b4bc
00000330: e0aa f8bc e8bb e33d 38b0 0a3d d015 e0bd
00000340: 604c 4ebd 00f7 fe3b 765b d03d ec6b 273d
00000350: b0b5 a9bc bcbf d13d 0cea 893d 18f5 853d
00000360: 946b 32bd 5064 d53d ee68 9c3d aeb4 a43d
00000370: 3888 bc3c d471 5abd ace3 303d 54d1 093d
00000380: aae4 ea3d 6885 c43c 344f 6cbd 7081 ecbc
00000390: c429 44bd e41b b9bd 24d6 1f3d fa4b e73d
000003a0: 38c2 f8bc ecb5 77bd 525c f1bd 5eb7 a9bd
000003b0: 3e03 be3d 746f d7bd e0bf 58bc 406e 98bb
000003c0: 549f 4f3d 8cdd 3cbd 7c2a 9abd 68da d5bc
000003d0: d816 c8bd 8c21 e63d f037 0b3d 24ef c23d
000003e0: 402e 893c 0015 51bd 922a d1bd 70dd f2bc
000003f0: 729b 8abd f081 cd3d d8c4 ae3d 6858 1a3d

linear2.bias f4 [64]
0.034067478 -0.062429186 0.1177593 0.061368644 0.014904341 0.032454 0.04682873 0.2611315
0.101605415 0.20276912 -0.16012524 -0.2692788 -0.076922655 0.27587554 0.09345285 0.18436931
-0.07885918 0.1154753 -0.06386779 -0.09940536 -0.19222216 -0.06065485 -0.11605891 -0.041908875
-0.12161367 -0.010984868 0.1657874 0.21144138 0.062424827 -0.04220352 0.11338541 -0.042065624
0.24716946 0.015585035 0.05999268 -0.02703175 -0.23812334 0.16666515 0.04095141 -0.08525323
0.02847694 0.22587822 0.12063633 -0.10287589 -0.25317436 0.041925475 0.124517724 -0.11690518
0.039630264 -0.036206968 0.03820348 0.060466092 -0.20339033 0.0995149 0.15219893 0.2833947
0.22753999 0.037714235 0.14492504 0.22092329 0.02614893 -0.09455359 0.07450952 -0.19079575
00000000: 578a 0b3d bfb5 7fbd ca2b f13d b05d 7b3d
00000010: 5631 743c 7cee 043d 7bcf 3f3d 07b3 853e
00000020: 8016 d03d b5a2 4f3e dff7 23be e9de 89be
00000030: a089 9dbd 8f3f 8d3e 3564 bf3d 4fcb 3c3e
00000040: ec80 a1bd 507e ec3d 1ecd 82bd 0a95 cbbd
00000050: e3d5 44be 3871 78bd 4bb0 edbd a4a8 2bbd
00000060: 9610 f9bd e0f9 33bc 2cc4 293e 1784 583e
00000070: 2db1 7f3d 99dd 2cbd 9c36 e83d 014d 2cbd
00000080: fe19 7d3e 6058 7f3c e2ba 753d b071 ddbc
00000090: 9bd6 73be 45aa 2a3e aabc 273d 3f99 aebd
000000a0: 7948 e93c 9f4c 673e 2e10 f73d 98b0 d2bd
000000b0: 12a0 81be 0cba 2b3d 2603 ff3d fc6b efbd
000000c0: 5853 223d c24d 14bd 417b 1c3d 4bab 773d
000000d0: 8e45 50be 78ce cb3d 09da 1b3e 1c19 913e
000000e0: 3e00 693e 3e7a 1a3d 3b67 143e b739 623e
000000f0: 4836 d63c 50a5 c1bd 7298 983d f65f 43be

linear3.weight f4 [64, 64]
0.06607098 0.069450825 0.055428103 0.093601465 0.13617797 -0.059059367 -0.010150514 0.020438042
-0.011313283 -0.0061595785 0.113455765 0.17818624 -0.0030454148 -0.06557944 -0.05917565 -0.0307945
-0.03952913 0.082010865 0.0042901486 -0.057734158 -0.015628317 0.09681168 0.029200025 -0.09609908
-0.013116673 -0.08565916 0.073052034 -0.059635594 0.014483091 0.0815666 -0.0880115 0.084910445
-0.06307482 -0.023174465 -0.029584028 -0.010941178 -0.063973136 0.003975259 0.067765094 -0.022631137
0.069518596 -0.042308424 0.06757909 0.086521044 0.082429424 0.028932823 0.00867261 0.03621994
0.12050605 -0.06361403 0.053671714 -0.13235888 0.1665807 0.05092566 -0.10614123 -0.0024153881
0.0040477747 -0.11928891 0.1412978 0.12761746 0.033991307 0.12649891 0.08191787 0.06539076
-0.1065955 -0.05232449 0.0069869757 0.043462455 -0.064894766 0.05035782 0.025668785 0.11144021
0.09671594 -0.06738457 -0.00024543703 -0.06503604 0.033783242 0.016476035 0.106914654 0.05024083
-0.11300267 0.056485698 0.005360648 -0.012008637 0.03263524 0.07981677 0.09737927 -0.07909386
0.006374359 -0.0014045238 0.007677138 0.09875341 -0.042833775 -0.041267857 0.034105048 0.00620912
0.055474684 -0.11442201 -0.099585995 -0.024276718 0.052729443 -0.023505747 -0.10168125 0.011616066
-0.0011047572 0.059366077 -0.111717075 -0.08163521 0.0090177655 0.08331266 -0.09745279 0.06345782
-0.063977525 -0.09691252 -0.020052925 0.06184411 0.121755615 -0.119560614 -0.02215229 -0.003316179
-0.08438586 0.11583805 -0.08820219 -0.08048263 0.0075134784 -0.03898132 0.07692118 -0.09671314
-0.00052041665 -0.08360273 0.057638485 0.05630979 0.081743255 -0.1186046 0.12256422 0.081567325
-0.05205519 0.042404957 -0.08825613 -0.112240545 -0.042337853 0.1126596 0.10114699 0.01586388
0.03970422 0.03436008 0.048572913 0.012157409 -0.06499692 0.059061408 -0.072563775 -0.03283374
-0.023930311 0.124256924 0.013329052 -0.095747605 -0.09240087 0.120305456 -0.09241781 -0.088279456
0.05106423 0.010312974 -0.13376093 0.0196452 0.06260963 0.0056732106 0.12417184 -0.09863736
0.08745295 -0.01637684 0.021171346 -0.045328237 -0.124578655 0.0017967754 -0.06131047 -0.044744853
0.031218141 -0.010918532 -0.041699026 0.06880179 -0.0222319 0.07071856 0.14135672 0.06997396
0.011394083 0.097759426 0.12794426 0.09149437 -0.1131535 -0.015087414 -0.0445371 -0.14433561
-0.10683542 0.0834936 -0.05475223 0.10899651 0.0077454965 0.08949402 -0.0014754236 0.10181686
0.049334377 -0.011850849 -0.028610585 -0.10466548 -0.015907634 -0.024688944 0.090389736 -0.1318586
-0.005832061 0.050336227 0.015961409 -0.0132543715 0.08642197 -0.07405239 -0.044521138 0.036648393
0.050944 0.044110924 0.046595123 -0.027398685 -0.00609189 0.013330483 -0.011676073 -0.12245381
-0.046642587 0.0052882135 -0.06093957 0.00081431866 0.066893585 0.059053883 0.07680334 0.095134646
-0.03079851 -0.03457755 0.05564177 -0.10115887 0.05414547 -0.09749522 0.0064572394 0.06848858
0.08028296 -0.034502145 0.08406825 -0.02910097 0.07406694 0.09051235 -0.009453729 0.10876466
-0.03206408 -0.11219515 -0.026849106 -0.002874087 0.11021948 -0.05841528 0.09234546 -0.025363287
00000000: 3950 873d 3c3c 8e3d 9408 633d 20b2 bf3d
00000010: 3d72 0b3e 3ce8 71bd 574e 26bc ae6d a73c
00000020: 595b 39bc 4ad6 c9bb 7f5b e83d 7476 363e
00000030: 9595 47bb 834e 86bd 2b62 72bd bf44 fcbc
00000040: 4ce9 21bd 50f5 a73d 6094 8c3b a77a 6cbd
00000050: f506 80bc 3445 c63d e434 ef3c 98cf c4bd
00000060: 50e7 56bc 126e afbd 4e9c 953d 7444 74bd
00000070: 7d4a 6d3c 640c a73d 603f b4bd 87e5 ad3d
00000080: 5f2d 81bd 60d8 bdbc 345a f2bc a042 33bc
00000090: 5904 83bd e442 823b 6dc8 8a3d ef64 b9bc
000000a0: c45f 8e3d 994b 2dbd e866 8a3d f231 b13d
000000b0: c2d0 a83d 8704 ed3c 9017 0e3c 5c5b 143d
000000c0: e0cb f63d 1348 82bd dfd6 5b3d 1689 07be
000000d0: 2294 2a3e 6d97 503d 9360 d9bd 7d4b 1ebb
000000e0: 32a3 843b be4d f4bd 5fb0 103e 27ae 023e
000000f0: 783a 0b3d ee88 013e 8ec4 a73d 97eb 853d
00000100: be4e dabd 3452 56bd 00f3 e43b b005 323d
00000110: 8ce7 84bd 0044 4e3d 5847 d23c c43a e43d
00000120: 0213 c63d ec00 8abd 00ae 80b9 9e31 85bd
00000130: 4c60 0a3d c0f8 863c 12f6 da3d 54c9 4d3d
00000140: f26d e7bd 8c5d 673d 60a8 af3b e0bf 44bc
00000150: 88ac 053d fa76 a33d c86e c73d f6fb a1bd
00000160: 00e0 d03b 0018 b8ba 8090 fb3b 3a3f ca3d
00000170: 7872 2fbd 7c08 29bd bcb1 0b3d e075 cb3b
00000180: 6c39 633d 1656 eabd bef3 cbbd f8df c6bc
00000190: d4fa 573d 208f c0bc 423e d0bd 5051 3e3c
000001a0: 80cd 90ba d829 733d eccb e4bd 5c30 a7bd
000001b0: 40bf 133c d49f aa3d 5495 c7bd 2cf6 813d
000001c0: a606 83bd 127a c6bd 0846 a4bc 4050 7d3d
000001d0: 025b f93d 32dc f4bd b878 b5bc 4054 59bb
000001e0: 7ed2 acbd 803c ed3d 5aa3 b4bd 14d4 a4bd
000001f0: a033 f63b e0aa 1fbd da88 9d3d 8a11 c6bd
00000200: 926c 08ba e837 abbd 5516 6c3d 18a5 663d
00000210: 0269 a73d f8e6 f2bd f302 fb3d c50c a73d
00000220: d337 55bd d2b0 2d3d a1bf b4bd 5fde e5bd
00000230: 756a 2dbd 14ba e63d 2726 cf3d f8f4 813c
00000240: e4a0 223d 28bd 0c3d 64f4 463d df2f 473c
00000250: 1b1d 85bd 60ea 713d 519c 94bd ac7c 06bd
00000260: 8009 c4bc 6a7a fe3d 1962 5a3c 5217 c4bd
00000270: ab3c bdbd b562 f63d 8c45 bdbd dccb b4bd
00000280: ba28 513d c0f7 283c a0f8 08be f8ee a03c
00000290: 7a39 803d 57e6 b93b ce4d fe3d 6202 cabd
000002a0: 881a b33d b928 86bc 886f ad3c 1aaa 39bd
000002b0: 1823 ffbd c781 eb3a b020 7bbd 6146 37bd
000002c0: 30bd ff3c a4e3 32bc 99cc 2abd f4e7 8c3d
000002d0: ac1f b6bc e4d4 903d d1bf 103e 824e 8f3d
000002e0: 3fae 3a3c 1836 c83d d203 033e 6661 bb3d
000002f0: 06bd e7bd 3331 77bc 896c 36bd b7cc 13be
00000300: 87cc dabd b1fe aa3d e043 60bd 9039 df3d
00000310: efcd fd3b a448 b73d 0063 c1ba 5c85 d03d
00000320: d812 4a3d 102a 42bc bf60 eabc db5a d6bd
00000330: ba50 82bc 7840 cabc 411e b93d f105 07be
00000340: e01a bfbb 5c2d 4e3d 80c1 823c dd28 59bc
00000350: 00fe b03d c8a8 97bd cc5b 36bd a01c 163d
00000360: a8aa 503d a8ad 343d 87da 3e3d 3573 e0bc
00000370: 7a9e c7bb 1968 5a3c 004d 3fbc 10c9 fabd
00000380: 4c0c 3fbd c048 ad3b c59b 79bd 0078 553a
00000390: 81ff 883d 7ce2 713d 124b 9d3d f4d5 c23d
000003a0: 284d fcbc 30a1 0dbd a0e8 633d 622c cfbd
000003b0: a4c7 5d3d 93ab c7bd 4097 d33b be43 8c3d
000003c0: 646b a43d 1f52 0dbd fa2b ac3d 2865 eebc
000003d0: 68b0 973d 8a5e b93d d0e3 1abc 02c0 de3d
000003e0: a055 03bd 92c6 e5bd a8f2 dbbc 2e5b 3cbb
000003f0: c0ba e13d dc44 6fbd 9e1f bd3d abc6 cfbc

linear3.bias f4 [64]
-0.12637511 -0.059822172 0.14308213 -0.109481886 -0.038280223 -0.13200188 -0.014706567 0.037461177
0.2733729 -0.07724721 -0.018429548 0.048170444 0.003688471 0.10147516 0.16724028 0.05025838
-0.048566416 -0.021969961 0.025357468 0.25174913 -0.032354362 0.034012664 0.07229746 0.07523653
0.08417953 0.15914293 -0.110164925 0.14824738 0.07527036 0.13301139 0.1681622 0.2554583
0.07949912 -0.05332647 -0.0012848935 0.025646206 0.01431982 -0.05070804 -0.108921826 -0.13248813
0.1541821 0.28056872 -0.22938778 -0.20709702 0.27246296 0.06785965 0.0629222 -0.100173965
0.03356821 0.26531544 -0.09369507 0.22999799 -0.04271384 0.17835175 -0.035292163 0.03295618
-0.12832326 -0.01072979 0.21786417 0.1951708 -0.042161737 0.03443059 0.24482045 0.13816714
00000000: 7a68 01be 1808 75bd 1f84 123e 0a38 e0bd
00000010: b9cb 1cbd 802b 07be d0f3 70bc e470 193d
00000020: 88f7 8b3e c933 9ebd 90f9 96bc 5f4e 453d
00000030: 46ba 713b 35d2 cf3d 0941 2b3e bbdb 4d3d
00000040: 94ed 46bd 59fa b3bc 77ba cf3c 43e5 803e
00000050: 0286 04bd dd50 0b3d b110 943d 9c15 9a3d
00000060: 5166 ac3d 5df6 223e 269e e1bd 29ce 173e
00000070: 5927 9a3d 2334 083e b632 2c3e 6ecb 823e
00000080: 6fd0 a23d db6c 5abd df69 a8ba fe17 d23c
00000090: ae9d 6a3c 3cb3 4fbd 6812 dfbd f8aa 07be
000000a0: eae1 1d3e b4a6 8f3e a1e4 6abe 3e11 54be
000000b0: 4480 8b3e 00fa 8a3d 5bdd 803d 0228 cdbd
000000c0: d27e 093d 6dd7 873e 33e3 bfbd 9884 6b3e
000000d0: b5f4 2ebd d7a1 363e 848e 10bd 0ffd 063d
000000e0: 2c67 03be 00cc 2fbc c917 5f3e dbda 473e
000000f0: c9b1 2cbd 1707 0d3d 36b2 7a3e b07b 0d3e

linear4.weight f4 [64, 64]
0.061949126 0.07133146 0.06879386 -0.06591965 -0.01644729 -0.06545533 -0.0744113 -0.017962756
-0.017823208 0.020488573 -0.11488457 0.07602386 -0.01005544 0.070132606 -0.010300376 -0.06320656
-0.10744341 0.076209106 0.07861482 -0.07290963 -0.054470778 -0.019193485 0.09030374 -0.023373676
0.106355146 0.098231204 0.08611772 0.013841836 0.071748175 0.14949508 0.052702993 0.14877175
-0.04453131 0.006924263 -0.09190878 0.086812206 0.009709323 -0.088140905 -0.046382297 -0.043331306
0.019337634 0.12927555 -0.118461594 -0.0036664803 0.099921875 0.04839653 -0.020014184 -0.028228104
0.15674356 0.11053611 -0.15301019 0.12374307 -0.022656145 0.02068107 -0.0042212605 0.096502855
-0.09197966 -0.06842288 0.08168491 0.115299985 -0.10378829 0.033821512 0.12790318 0.03966695
0.111262485 0.08279914 0.112012684 0.11325137 0.07927558 -0.103283316 0.0805265 -0.039736688
0.07709277 0.024814934 -0.07766944 0.0101124495 0.058031633 0.04093173 -0.11825776 0.041813105
-0.02715236 -0.07704213 -0.07887703 -0.048205897 -0.079415515 0.057955533 0.037361458 -0.094795555
0.09610008 -0.12209356 0.041934237 -0.06649819 -0.07092376 0.11532731 -0.12050632 -0.045615092
-0.06739946 -0.0042179823 0.04476115 0.07916476 -0.09704782 -0.09590833 0.080399126 -0.015609577
0.122703835 0.08221124 -0.09718308 0.022761777 -0.04076463 -0.07400523 0.0131765455 0.061294436
-0.028765187 0.09106518 -0.06743577 -0.079451576 -0.0809457 -0.10728434 -0.05973476 -0.049159274
-0.02292876 0.08504766 -0.09634216 -0.11681023 0.060785785 0.090609506 0.10312684 0.039913923
-0.055464353 -0.041463226 0.12852016 0.100461 0.093171924 -0.06589121 0.04464017 0.013699164
0.09062645 -0.06863422 -0.087266564 -0.012000589 0.08283088 -0.08761716 -0.016247028 0.07344213
0.012957002 0.044901013 -0.042924367 0.07433342 -0.08925253 -0.11383403 0.030224895 0.123794466
-0.004771502 -0.0048653153 0.09664352 0.038354415 0.079894185 -0.06857121 0.016344411 0.051953275
-0.029271847 0.029506803 0.10170566 0.029768007 -0.012242349 0.0348026 0.04596198 -0.094496004
-0.055951644 0.04486974 -0.009340127 -0.044289928 -0.072987504 -0.049244903 0.079580046 0.07669929
0.108231515 0.10417017 -0.14361113 0.12762521 0.08038039 -0.04632805 -0.05828236 -0.072904386
0.024151556 -0.0842439 0.059621744 0.1486477 0.00040625036 -0.060514472 -0.0026433787 0.051345397
0.029291702 0.027690604 0.094753265 0.11377424 -0.044314094 -0.11293413 -0.11954521 -0.094424225
-0.101953596 0.020351332 -0.020920485 -0.02291532 0.066553414 -0.051441867 -0.0906662 0.031081889
-0.12340304 -0.11622818 0.003513034 0.012949923 0.038128547 0.022740364 -0.0006809021 0.07362928
0.076957084 -0.042906303 0.10054521 -0.08336234 -0.053051095 -0.035820834 -0.0042361263 -0.10021764
0.05883741 0.08187671 -0.009566676 -0.1264554 0.028575262 -0.09013282 -0.12720741 0.084764585
-0.12305109 0.09336617 0.09200987 0.09036757 -0.044636425 -0.08493353 -0.077840455 -0.055968776
0.040500898 -0.014284701 -0.11886199 -0.02122918 -0.07719671 0.02003515 -0.0188912 -0.098333344
-0.103401415 0.05007513 -0.036516473 0.037201535 0.010162413 0.043931216 0.11306541 0.0031928148
00000000: 5ebe 7d3d 3a16 923d cce3 8c3d e200 87bd
00000010: 78bc 86bc 720d 86bd f464 98bd a126 93bc
00000020: fa01 92bc a7d7 a73c 9a48 ebbd 66b2 9b3d
00000030: 92bf 24bc afa1 8f3d e9c2 28bc 7172 81bd
00000040: 4a0b dcbd 8513 9c3d cf00 a13d a551 95bd
00000050: c01c 5fbd a83b 9dbc 2bf1 b83d 277a bfbc
00000060: bad0 d93d 712d c93d 7d5e b03d dec8 623c
00000070: b5f0 923d 3d15 193e 18df 573d 9f57 183e
00000080: 7766 36bd eee4 e23b ac3a bcbd 99ca b13d
00000090: da13 1f3c 3883 b4bd 5dfb 3dbd 2b7c 31bd
000000a0: f569 9e3c cf60 043e fe9b f2bd 5549 70bb
000000b0: d7a3 cc3d 713b 463d c9f4 a3bc a03e e7bc
000000c0: 6281 203e c260 e23d b4ae 1cbe 026d fd3d
000000d0: 6199 b9bc 596b a93c 8052 8abb 4aa3 c53d
000000e0: d55f bcbd 4b21 8cbd 6b4a a73d 6622 ec3d
000000f0: f48e d4bd 6d88 0a3d 0df9 023e d079 223d
00000100: 96dd e33d 9892 a93d e866 e53d 56f0 e73d
00000110: 3c5b a23d 3486 d3bd 14eb a43d f0c2 22bd
00000120: d0e2 9d3d b048 cb3c 2811 9fbd b0ae 253c
00000130: 94b2 6d3d 08a8 273d 2031 f2bd 3844 2b3d
00000140: a06e debc 44c8 9dbd 488a a1bd 8c73 45bd
00000150: 9aa4 a2bd c862 6d3d 5408 193d 2c24 c2bd
00000160: 1ed0 c43d 300c fabd 3cc3 2b3d 3430 88bd
00000170: 7a40 91bd ba30 ec3d 04cc f6bd e4d6 3abd
00000180: ba08 8abd 0037 8abb 7857 373d 2221 a23d
00000190: 02c1 c6bd 966b c4bd 4ca8 a43d 50bf 7fbc
000001a0: 264c fb3d 5e5e a83d ec07 c7bd e876 ba3c
000001b0: d0f8 26bd 0e90 97bd 70e2 573c e00f 7b3d
000001c0: f8a4 ebbc 6280 ba3d c41b 8abd 82b7 a2bd
000001d0: dcc6 a5bd e4b7 dbbd 70ac 74bd 3c5b 49bd
000001e0: 18d5 bbbc 782d ae3d 0a4f c5bd 343a efbd
000001f0: 84fa 783d 7a91 b93d 2a34 d33d c87c 233d
00000200: 972e 63bd 58d5 29bd ca9a 033e 7fbe cd3d
00000210: ecd0 be3d f9f1 86bd 9cd8 363d 7572 603c
00000220: 5c9a b93d 1990 8cbd d0b8 b2bd 1e9e 44bc
00000230: 3da3 a93d a070 b3bd 7d18 85bc d468 963d
00000240: 9b49 543c 20ea 373d 76d1 2fbd 1f3c 983d
00000250: 08ca b6bd d121 e9bd 339a f73c f487 fd3d
00000260: 435a 9cbb 396d 9fbb 0aed c53d 8519 1d3d
00000270: 909f a33d 106f 8cbd b7e4 853c f5cc 543d
00000280: 83cb efbc 40b8 f13c 0f4b d03d 09dc f33c
00000290: 2294 48bc 2c8d 0e3d a142 3c3d 1f87 c1bd
000002a0: 8d2d 65bd 55c9 373d 5507 19bc 5b69 35bd
000002b0: 797a 95bd 06b5 49bd ddfa a23d 8414 9d3d
000002c0: 7ca8 dd3d 2c57 d53d cc0e 13be 2fb0 023e
000002d0: 799e a43d 7bc2 3dbd 7cb9 6ebd e54e 95bd
000002e0: 7cd9 c53c 1188 acbd ee35 743d 1a37 183e
000002f0: 00fe d439 06de 77bd 893c 2dbb 8d4f 523d
00000300: 27f5 ef3c 68d7 e23c 000e c23d 7802 e93d
00000310: b282 35bd 024a e7bd 1ed4 f4bd 7d61 c1bd
00000320: 0ccd d0bd d6b7 a63c 7061 abbc e9b8 bbbc
00000330: 284d 883d b5b4 52bd 33af b9bd 729f fe3c
00000340: bcba fcbd 0a09 eebd ee3a 663b ea2b 543c
00000350: ae2c 1c3d 004a ba3c 917e 32ba f3ca 963d
00000360: ad9b 9d3d 85be 2fbd a6ea cd3d e0b9 aabd
00000370: 1b4c 59bd deb8 12bd 34cf 8abb e83e cdbd
00000380: 7fff 703d faae a73d 8cbd 1cbc 867d 01be
00000390: ab16 ea3c 8e97 b8bd a942 02be 0e99 ad3d
000003a0: 3602 fcbd c336 bf3d ac6f bc3d a212 b93d
000003b0: afd4 36bd a1f1 adbd d16a 9fbd 843f 65bd
000003c0: 45e4 253d 610a 6abc ea6d f3bd d1e8 adbc
000003d0: 4f19 9ebd c120 a43c b8c1 9abc fe62 c9bd
000003e0: 1fc4 d3bd 941b 4d3d 4c92 15bd a360 183d
000003f0: 4080 263c 38f1 333d d68e e73d 8b3e 513b

linear4.bias f4 [64]
0.104900636 0.07106349 0.10405913 0.024444321 -0.10794252 0.20523839 -0.10477379 -0.030249983
0.026008785 0.11043297 0.24163212 -0.03180994 -0.0015880911 0.031849515 0.052024145 0.13582428
0.0031367037 -0.00044429646 0.14674808 0.15320116 7.804185e-05 0.11355068 -0.10962995 0.116375335
0.13180691 0.085459046 0.14503539 0.21140715 0.0026538065 0.113700606 0.14206524 0.25965852
0.19162433 0.05621879 -0.055075567 0.066071145 -0.0260268 0.043056924 -0.10205364 0.058515027
0.04510455 0.13113713 -0.10799974 0.117791854 0.17676613 -0.043618023 0.23956434 -0.035041235
0.0562312 0.11147991 -0.043687068 0.17561755 0.16386734 0.013143932 0.08774445 0.057077643
-0.040207356 -0.0124455355 0.045176882 0.03377633 -0.09850034 0.16712412 -0.02788098 0.19497657
00000000: 25d6 d63d bc89 913d f41c d53d 753f c83c
00000010: f810 ddbd 032a 523e a493 d6bd d0ce f7bc
00000020: 6010 d53c ae2a e23d 696e 773e 244b 02bd
00000030: 7f27 d0ba a374 023d 4517 553d 8515 0b3e
00000040: 2891 4d3b 76f0 e8b9 2145 163e c4e0 1c3e
00000050: 66aa a338 428d e83d ab85 e0bd 3156 ee3d
00000060: 64f8 063e 2705 af3d 2884 143e 1e7b 583e
00000070: 7ceb 2d3b dddb e83d 8d79 113e f6f1 843e
00000080: 2b39 443e ad45 663d eb96 61bd 4f50 873d
00000090: 2836 d5bc 755c 303d 8001 d1bd 74ad 6f3d
000000a0: 8cbf 383d d048 063e f82e ddbd db3c f13d
000000b0: 2e02 353e d0a8 32bd 5b50 753e 6687 0fbd
000000c0: b052 663d 944f e43d 36f1 32bd 16d5 333e
000000d0: d7cc 273e a659 573c 5db3 b33d 3fca 693d
000000e0: 78b0 24bd 5ce8 4bbc 650b 393d 0d59 0a3d
000000f0: 8cba c9bd 9622 2b3e a766 e4bc f0a7 473e

mean_linear.weight f4 [2, 64]
-0.028783755 -0.0008341051 -0.036405105 0.004109384 0.0005255395 -0.040252734 0.011386452 -0.0005626577
-0.0002859932 -0.08113571 -0.09151238 -0.0025371127 -0.011943752 -0.0055831154 -0.03193855 0.010563561
0.014855456 0.006314921 0.09292792 -0.020795729 -0.066966504 -0.01950633 0.0856283 -0.06824812
-0.035182692 0.006557875 -0.0215727 -0.032580152 -0.0073903217 -0.028418524 -0.09263699 -0.042046074
-0.07347019 -0.057727665 -0.033076316 -0.08450358 0.0077248276 0.015815701 0.00085544883 -0.0004923988
0.015386985 -0.023387488 -0.012077878 -0.034372006 -0.04154527 0.0007098087 -0.023112806 0.20628013
-0.0075226985 -0.0013232828 -0.02885268 -0.03355208 -0.0740441 -0.020682067 -0.020919967 0.025086898
-0.0029506614 0.0363083 -0.0018375746 0.0048305495 -0.0027670048 -0.051945265 -0.0036536795 -0.033543505
-0.03570863 0.0002762611 -0.04382467 -0.0059439107 -0.0026032787 -0.05623715 -0.0029133258 0.0026068669
0.0027295686 0.04210249 -0.01257878 0.00060422445 0.04959104 0.009285493 0.006209156 -0.031225774
0.014540495 -0.02651508 -0.07153732 -0.014467648 0.0325528 -0.024946716 -0.03965056 -0.03578341
-0.029740855 -0.0059973923 -0.07416097 -0.024876593 0.0026262507 0.015094494 0.02077891 -0.045323454
-0.0064949025 -0.003330644 0.084360585 0.0030238393 0.0023542063 -0.03260177 0.0027596152 -0.019863758
-0.036598425 0.037179507 0.029543327 0.011891474 -0.0638067 -0.0012649208 -0.055003513 -0.12584095
0.0046585775 -0.0011846126 0.0038480836 -0.03298703 0.00311609 -0.012914913 -0.06701178 -0.056957603
-0.0013377393 -0.02625681 0.011839117 0.00033910238 -0.003214836 -0.024575938 -0.0012740652 -0.042024266
00000000: e9cb ebbc d9a7 5aba 851d 15bd 03a8 863b
00000010: 5cc4 093a 0de0 24bd 3e8e 3a3c 527f 13ba
00000020: 5cf1 95b9 7b2a a6bd d86a bbbd b045 26bb
00000030: baaf 43bc 91f2 b6bb ffd1 02bd c912 2d3c
00000040: 4c64 733c 66ed ce3b fe50 be3d ce5b aabc
00000050: bc25 89bd bdcb 9fbc e45d af3d acc5 8bbd
00000060: ba1b 10bd 71e3 d63b 3bb9 b0bc c472 05bd
00000070: 832a f2bb f7cd e8bc 76b8 bdbd 8138 2cbd
00000080: 8a77 96bd d873 6cbd 087b 07bd 3710 adbd
00000090: 8d20 fd3b ee8f 813c 3340 603a 5314 01ba
000000a0: b119 7c3c 1e97 bfbc 4be2 45bc a9c9 0cbd
000000b0: 5f2b 2abd 7512 3a3a 1157 bdbc 193b 533e
000000c0: f880 f6bb 0172 adba 755c ecbc e86d 09bd
000000d0: 6fa4 97bd 706d a9bc 5a60 abbc 0a83 cd3c
000000e0: e25f 41bb 03b8 143d c6da f0ba 9649 9e3b
000000f0: a356 35bb 8fc4 54bd 9272 6fbb ea64 09bd
00000100: 3643 12bd 23d7 9039 7f81 33bd 23c5 c2bb
00000110: c59b 2abb ed58 66bd 7fed 3ebb f8d7 2a3b
00000120: 90e2 323b a973 2c3d 3a17 4ebc d164 1e3a
00000130: f91f 4b3d 2e22 183c 2d76 cb3b 32cd ffbc
00000140: 423b 6e3c 2736 d9bc 2982 92bd b709 6dbc
00000150: 1656 053d 0e5d ccbc a068 22bd a091 12bd
00000160: 18a3 f3bc c685 c4bb b5e1 97bd ffc9 cbbc
00000170: 2d1d 2c3b e64e 773c 8838 aa3c 16a5 39bd
00000180: 31d3 d4bb ef46 5abb 3ec5 ac3d 9b2b 463b
00000190: 0749 1a3b 6f89 05bd a9da 343b 52b9 a2bc
000001a0: 3be8 15bd 8a49 183d d904 f23c 75d4 423c
000001b0: 16ad 82bd b3cb a5ba 5d4b 61bd 73dc 00be
000001c0: fba6 983b 0145 9bba 2130 7c3b 681d 07bd
000001d0: 5137 4c3b 1299 53bc 793d 89bd 604c 69bd
000001e0: 1557 afba 8618 d7bc dbf8 413c 8dc9 b139
000001f0: ffaf 52bb 7a53 c9bc 89fe a6ba a321 2cbd

mean_linear.bias f4 [2]
-0.05996547 -0.084620744
00000000: 5a9e 75bd a44d adbd

log_std_linear.weight f4 [2, 64]
-0.0033908992 -0.0010299596 -0.0032183335 -0.005172826 -0.00014176297 -0.018101644 -0.00071934925 0.0028313485
0.000121805904 -0.02366343 -0.029132456 -0.0007923167 -0.016587233 -0.005110264 -0.01688632 -0.007589468
-0.0021127444 -0.013177642 -0.019865606 0.0010698652 -0.019097902 -0.013418993 0.046105642 -0.016364405
-0.02042783 0.010983445 0.003518655 -0.017814824 0.0076866024 0.003720053 -0.025380539 -0.014463342
-0.03318015 -0.023882402 -0.017022274 -0.01990839 0.0077786003 0.0053811893 0.009202347 -0.0019079453
0.009229627 -0.01951865 -0.0008965832 -0.012873463 -0.0043043606 0.00052994443 -0.012952769 0.040783457
-0.004808417 -0.0013530074 -0.012304777 -0.008267579 -0.026980437 -0.0049352814 -0.004208598 0.005338908
0.0029565475 0.0062247966 0.0016206696 -0.0021729844 -0.0043679336 -0.018707145 -0.0007508401 -0.007530168
-0.006409295 0.0016622186 -0.020617595 -0.012318114 -0.00077551784 -0.028921625 -0.004666052 -0.001324193
-0.0012726724 0.010435651 -0.00597133 -0.001208603 -0.016696492 0.014217027 -0.006028267 -0.022142405
0.002446918 -0.012612457 -0.014973899 0.0036235352 0.007668567 -0.015923342 -0.033495076 -0.012369772
-0.017238406 5.078936e-05 -0.014311301 -0.018252425 0.0020609288 -0.0009495042 0.006242558 -0.01896082
-0.0129331555 -0.004599457 0.007166004 0.014625861 0.0012781175 -0.009031796 -0.002045376 -0.0062391846
-0.0013852029 -0.0024579184 0.01840034 -0.008253641 -0.004999628 -0.001249418 -0.017185913 -0.055876184
0.0095603345 -0.0029166653 -0.0038717585 -0.011289556 -0.011869669 -0.0059020533 -0.0185211 -0.026858678
0.0006977456 0.0026499617 -0.0066898554 0.0015797745 0.001735389 -0.0154306 -0.003561215 -0.01290364
00000000: d939 5ebb b6ff 86ba adea 52bb cf80 a9bb
00000010: 35a6 14b9 e649 94bc b692 3cba 258e 393b
00000020: 0c72 ff38 cfd9 c1bc 30a7 eebc 79b3 4fba
00000030: f3e1 87bc 0074 a7bb 2e55 8abc 12b1 f8bb
00000040: f875 0abb 09e7 57bc 32bd a2bc b83a 8c3a
00000050: 3473 9cbc 56db 5bbc 45d9 3c3d a50e 86bc
00000060: 4458 a7bc e8f3 333c 3c99 663b 65f0 91bc
00000070: e5df fb3b 22cc 733b d9ea cfbc a7f7 6cbc
00000080: e9e7 07bd 07a5 c3bc 4c72 8bbc eb16 a3bc
00000090: a1e3 fe3b b054 b03b 71c5 163c 0514 faba
000000a0: dd37 173c 93e5 9fbc ae08 6bba 38eb 52bc
000000b0: 980b 8dbb f8eb 0a3a da37 54bc 8e0c 273d
000000c0: ed8f 9dbb 6557 b1ba fa99 49bc bd74 07bc
000000d0: 1406 ddbc 24b8 a1bb 47e8 89bb 02f2 ae3b
000000e0: a3c2 413b 61f9 cb3b a66c d43a a168 0ebb
000000f0: e220 8fbb ba3f 99bc 07d4 44ba a1bf f6bb
00000100: 1005 d2bb cdde d93a 3be6 a8bc ead1 49bc
00000110: 1f4c 4bba 0bed ecbc aee5 98bb 8b90 adba
00000120: cdcf a6ba 4bfa 2a3c 26ab c3bb fd69 9eba
00000130: 15c7 88bc 89ee 683c c588 c5bb fd63 b5bc
00000140: 795c 203b 7ba4 4ebc 1655 75bc d578 6d3b
00000150: 9a48 fb3b ab71 82bc 2232 09bd 96aa 4abc
00000160: 8f37 8dbc a906 5538 f279 6abc 1c86 95bc
00000170: a610 073b 26e8 78ba 5f8e cc3b b953 9bbc
00000180: 96e5 53bc 0bb7 96bb ccd0 ea3b 4fa1 6f3c
00000190: 8286 a73a 19fa 13bc b70b 06bb 1372 ccbb
000001a0: b28f b5ba 0715 21bb 4fbc 963c 483a 07bc
000001b0: ebd3 a3bb 83c3 a3ba 79c9 8cbc 6dde 64bd
000001c0: f3a2 1c3c 8625 3fbb 54bd 7dbb d4f7 38bc
000001d0: 0079 42bc 0366 c1bb 90b9 97bc bb06 dcbc
000001e0: eae8 363a fbaa 2d3b 9336 dbbb 7010 cf3a
000001f0: fe75 e33a a1d0 7cbc 4663 69bb ca69 53bc

log_std_linear.bias f4 [2]
-0.030391395 -0.041019358
00000000: 60f7 f8bc ea03 28bd
