models/2025-11-24 14:14:30/1/Q1.pth (torch, 37764 bytes, 7 tensors)

linear1.weight f4 [64, 5]
0	0xbe870344	-0.2636968
1	0xbe85975f	-0.2609205
2	0x3e75f450	0.24018979
3	0xbe33d5d2	-0.17562035
4	0xbd4a7931	-0.049431983
5	0xbd98eec2	-0.074674144
6	0x3dd9bad6	0.10631339
7	0x3df5629d	0.119816996
8	0xbdef134f	-0.11673605
9	0xbdbf692a	-0.0934623
10	0x3e3170c9	0.1732818
11	0x3da43177	0.08017247
12	0xbec6664b	-0.38749918
13	0x3ec32d0b	0.38120303
14	0x3e7beb26	0.24601421
15	0x3d60e7bb	0.054908495
16	0xbe2744e5	-0.16334875
17	0x3e8c6a22	0.27424723
18	0x3eb0a33e	0.34499544
19	0xbc4b9890	-0.01242651
20	0xbec1d90b	-0.37860903
21	0xbe24f5c5	-0.16109379
22	0xbf0022bc	-0.50053
23	0x3df424de	0.11921094
24	0x3e82e05b	0.25561795
25	0xbf2f8d67	-0.6857514
26	0x3eb25814	0.34832823
27	0x3dfcbdc6	0.12340884
28	0xbf19063c	-0.5977514
29	0x3e977e4c	0.29588544
30	0x3bf038f7	0.0073310095
31	0x3ee56d55	0.44809976
32	0xbe7a9b13	-0.24473219
33	0xbea34aa9	-0.318929
34	0x3e9c01b3	0.30470046
35	0xbef9f1d5	-0.48817316
36	0x3e2c30a7	0.16815434
37	0xbde9c412	-0.114143506
38	0xbe787b6b	-0.2426583
39	0xbd088a10	-0.03333479
40	0xbe2d59e7	-0.16928826
41	0x3ee9d931	0.45673516
42	0x3e48462f	0.19558023
43	0x3d9c6810	0.07637036
44	0x3ee79afa	0.45235425
45	0x3e8b6bf8	0.2723081
46	0xbdf6aa0a	-0.12044151
47	0x3edba4aa	0.42899066
48	0x3f0e4bf9	0.55584675
49	0x3e176673	0.14785175
50	0x3e8e4c29	0.2779248
51	0x3ebeb77b	0.3724936
52	0x3e516c53	0.20451479
53	0x3eaa9945	0.3332006
54	0x3e6b0fe1	0.22955276
55	0x3d2ca74d	0.042151738
56	0xbdf17bcd	-0.11791191
57	0x3e9e9b3a	0.30977803
58	0x3df00666	0.117199704
59	0xbe72e98e	-0.23721907
60	0x3f2b7f10	0.66990757
61	0x3ebcf5ce	0.36906284
62	0x3cdea881	0.027179958
63	0x3ec6eaf9	0.38851145
64	0x3f06199c	0.52382827
65	0x3f012f37	0.5046267
66	0x3e7aa3ec	0.24476594
67	0x3e54856e	0.20754024
68	0xbed4a224	-0.41529953
69	0x3df65ce7	0.120294385
70	0xbf216e21	-0.6305867
71	0x3e30c88b	0.17264001
72	0x3d801791	0.06254495
73	0xbef0b7c4	-0.47015202
74	0x3e2c148e	0.16804716
75	0x3e963a39	0.29341295
76	0x3dfe2579	0.12409491
77	0xbe90a86a	-0.2825349
78	0xbdb33f1b	-0.08752271
79	0xbe363bfe	-0.17796323
80	0xbdf7e144	-0.12103513
81	0xbca7b28b	-0.020470878
82	0xbf1dd887	-0.6165852
83	0xbdc30504	-0.09522441
84	0x3e630a52	0.22171906
85	0x3dc83938	0.097765386
86	0xbc399e75	-0.011329283
87	0xbd9ff69f	-0.07810711
88	0xbdf8f9ea	-0.12157042
89	0xbddb0cf3	-0.10695829
90	0xbee1bcec	-0.44089448
91	0xbe069a12	-0.1314471
92	0xbde91370	-0.113806605
93	0x3ed19bec	0.4093927
94	0x3d0e2537	0.03470346
95	0xbda0236a	-0.07819255
96	0xbdf31bd7	-0.118705444
97	0x3e9827bc	0.29717815
98	0xbea96e3f	-0.33091924
99	0xbb96aad0	-0.004597999
100	0x3efcdc6b	0.49386916
101	0xbf3df543	-0.74202365
102	0x3dba8101	0.09106637
103	0xbd66cffe	-0.0563507
104	0xbf2537ce	-0.64538276
105	0xbc69940c	-0.0142564885
106	0x3db5632a	0.08856805
107	0x3e111b1d	0.14170499
108	0x3dc083fb	0.09400173
109	0xbeae5ab9	-0.3405359
110	0x3cb067a8	0.021533802
111	0x3f146dc6	0.5798
112	0x3edbd741	0.42937663
113	0xbe685e97	-0.22692333
114	0x3f78f264	0.9724486
115	0xbec74cfd	-0.38925925
116	0xbd844358	-0.06458157
117	0xbe47f3e9	-0.19526638
118	0x3e4032a0	0.18769312
119	0x3d3d3ca9	0.04620043
120	0x3f0abe87	0.5419697
121	0x3eb6d9f2	0.35713154
122	0x3e7ee903	0.24893574
123	0xbeb4a712	-0.35283715
124	0x3e67310a	0.225773
125	0x3e534b68	0.20634234
126	0xbec4c740	-0.38433266
127	0xbe7a0dc3	-0.24419312
128	0x3e30ec16	0.1727756
129	0x3e066538	0.1312455
130	0xbef28a8d	-0.4737133
131	0x3e1d7b2c	0.15379018
132	0xbdf29d4d	-0.11846409
133	0xbea9bbe4	-0.33151162
134	0xbe3df1d0	-0.18549275
135	0xbf4e96f5	-0.8069909
136	0x3d93e498	0.07221335
137	0x3d9eccb8	0.07753891
138	0xbede69fb	-0.43440232
139	0x3f3e55f8	0.7434993
140	0x3e3857d0	0.18002248
141	0x3c2e14b1	0.01062505
142	0x3ea4d828	0.32196164
143	0x3e8db4a0	0.27676868
144	0x3e5a28f4	0.21304685
145	0x3ea02e4a	0.31285316
146	0x3d7dc27f	0.061953064
147	0x3e8315d0	0.2560258
148	0xbe4c00e1	-0.1992221
149	0x3f1850e7	0.5949845
150	0x3e46851a	0.19386712
151	0xbed19cd9	-0.40939978
152	0x3db52ef1	0.08846844
153	0x3da75301	0.081701286
154	0xbd44e6bc	-0.048071608
155	0x3e52e8d2	0.20596626
156	0xbe3027ac	-0.17202634
157	0x3ee67055	0.45007578
158	0x3ec02332	0.37526852
159	0xbccf33fa	-0.025293339
160	0xbf25605e	-0.6460017
161	0x3e86f3b0	0.26357794
162	0xbe20d539	-0.15706338
163	0xbe44e534	-0.19228059
164	0x3e530777	0.20608316
165	0x3f0bf4d3	0.5467045
166	0xbe816b4c	-0.25277174
167	0x3ed81d80	0.42210007
168	0xbe008d10	-0.12553811
169	0xbea03d1b	-0.3129662
170	0xbd9e03fd	-0.077156045
171	0x3d4da445	0.050205488
172	0x3e5112b3	0.2041729
173	0xbeec5d51	-0.46164945
174	0x3e1e3480	0.15449715
175	0xbe88b5ca	-0.26701194
176	0x3dd67623	0.104717515
177	0x3e95a662	0.29228503
178	0xbe014c5e	-0.12626788
179	0x3e99dc85	0.30051056
180	0xbdc7879d	-0.09742663
181	0xbea04685	-0.31303802
182	0x3ed0ed79	0.40806177
183	0xbeca140f	-0.39468428
184	0x3e7f07f4	0.24905378
185	0xbe3a0171	-0.18164612
186	0xbe23e302	-0.16004565
187	0x3e94d258	0.2906673
188	0x3e3fda43	0.18735604
189	0xbed6040e	-0.41799968
190	0xbeb45e25	-0.35228077
191	0x3da22103	0.07916453
192	0xbeed59cb	-0.4635757
193	0x3eb46038	0.3522966
194	0x3e163364	0.14668041
195	0x3e84b94a	0.25922614
196	0x3ed9c8ae	0.4253592
197	0x3e0bd907	0.13657008
198	0x3ca774a4	0.02044136
199	0x3e7843e4	0.24244648
200	0x3dd51c39	0.10405774
201	0xbc028dad	-0.007968348
202	0x3ecbd980	0.39814377
203	0xbe7bd009	-0.24591078
204	0xbe1e6a6e	-0.15470287
205	0xbf334585	-0.70027953
206	0x3e6232ad	0.22089644
207	0x3dc7b553	0.09751382
208	0xbf3cb8af	-0.73719305
209	0x3f046428	0.51715326
210	0xbe83f143	-0.25770006
211	0xbed56a41	-0.41682628
212	0x3e151003	0.14556889
213	0xbe74a7fc	-0.23892206
214	0xbc87e340	-0.016587853
215	0xbea90dea	-0.33018428
216	0xbe9dd3ee	-0.30825752
217	0x3e1ee419	0.155167
218	0xbdbb238d	-0.0913764
219	0x3d3e451f	0.046452638
220	0xbd13cdd9	-0.036084983
221	0x3ef46e0d	0.47740212
222	0xbdc1cf2d	-0.09463344
223	0xbce77a83	-0.02825666
224	0x3edaa8cc	0.42706907
225	0x3d82fc36	0.06395762
226	0xbe93006e	-0.28711265
227	0x3eeba7b5	0.46026388
228	0xbe994e7a	-0.29942685
229	0x3de69f0e	0.11260806
230	0xbdc8e9f4	-0.09810248
231	0x3ec6d3d4	0.38833487
232	0x3e3d4633	0.1848381
233	0xbeb3e936	-0.35138863
234	0x3efb68ba	0.49103338
235	0xbe2c4c0a	-0.16825882
236	0xbf0de413	-0.5542614
237	0xbc59c73c	-0.01329213
238	0xbc6927f5	-0.014230718
239	0xbf01dadf	-0.50724596
240	0x3d95cdb9	0.07314629
241	0x3e50a81a	0.20376626
242	0x3e98e4a0	0.29861927
243	0x3e73a2bb	0.23792545
244	0x3e9b5c59	0.30343893
245	0xbec35838	-0.38153243
246	0x3e2364df	0.15956448
247	0xbe959aea	-0.29219753
248	0xbe045633	-0.12923507
249	0x3e742bec	0.2384488
250	0xbe0e7ed1	-0.13915564
251	0x3e267991	0.16257311
252	0x3e906e16	0.2820899
253	0xbdea62cf	-0.114446275
254	0xbe70e6ca	-0.23525539
255	0x3ec70f87	0.38879034

linear1.bias f4 [64]
0	0x3f7e780d	0.9940193
1	0xbf13fce9	-0.57807785
2	0x3e177319	0.1479
3	0x3f5f55a6	0.87240064
4	0xbd66faef	-0.056391653
5	0x3f4e682c	0.80627704
6	0xbdb052f1	-0.0860957
7	0x3f889fca	1.0673764
8	0x3f7595bb	0.95931596
9	0x3f8b9b7b	1.0906824
10	0x3f52317f	0.82106775
11	0x3f59b627	0.8504357
12	0x3e0b3ed9	0.13598193
13	0x3f510d2b	0.8166072
14	0x3f788c14	0.9708874
15	0x3d71a739	0.058997367
16	0xbeb13f33	-0.3461853
17	0xbeae5b92	-0.34054238
18	0x3f5b0bd1	0.85564905
19	0x3eb36928	0.35041165
20	0xbec9093e	-0.39264864
21	0x3f79f64f	0.9764146
22	0xbf153b0c	-0.58293223
23	0x3e1008be	0.14065835
24	0x3f46df23	0.7768423
25	0x3e7b08cd	0.24515076
26	0x3f943225	1.1577803
27	0x3e2606da	0.16213551
28	0xbf05a67d	-0.52207166
29	0x3f38a73a	0.7213017
30	0x3f53b075	0.8269113
31	0x3edb2405	0.42800918
32	0xbea84f94	-0.32873213
33	0x3f3cdb48	0.73772097
34	0x3f706b6e	0.93913925
35	0x3f6a4b92	0.9152156
36	0x3ee9603d	0.45581236
37	0x3f1ecb96	0.620294
38	0x3edf594e	0.43622822
39	0x3f1d8a87	0.615395
40	0x3f864bb0	1.0491848
41	0x3c54ce80	0.012988687
42	0x3f2f7016	0.68530405
43	0xbf855dc4	-1.041924
44	0x3ecd50b1	0.40100625
45	0xbf662050	-0.89893055
46	0x3f0e9db8	0.5570941
47	0x3f5ff50a	0.87483275
48	0x3f20313b	0.6257512
49	0x3eb92dbb	0.36167702
50	0xbf0a742b	-0.5408351
51	0x3c1f7f7f	0.009734987
52	0x3ee3a03f	0.44458196
53	0xbf6e73e2	-0.93145573
54	0xbeb5dea4	-0.35521424
55	0x3f8802e6	1.0625885
56	0xbf02cfa0	-0.5109806
57	0xbe073d1d	-0.13206907
58	0xbf61a224	-0.8813803
59	0xbecf74df	-0.40518853
60	0xbe20dddb	-0.15709631
61	0xbeb11f1c	-0.34594047
62	0x3f3b5047	0.7316937
63	0x3ea5f848	0.32415986

linear2.weight f4 [64, 64]
0	0x3d8f7dba	0.07006402
1	0x3dbb38da	0.09141703
2	0xbdb62cf0	-0.0889529
3	0x3cb7c0f0	0.022430867
4	0xbcfbb150	-0.030724198
5	0xbdd4c244	-0.10388616
6	0xbca08ec8	-0.019599333
7	0x3dc2cbb2	0.09511508
8	0xbd8fcd9a	-0.07021637
9	0xbcfe39e0	-0.031033456
10	0x3db69840	0.08915758
11	0xbdd0d048	-0.101959765
12	0x3dd20b8e	0.1025611
13	0x3d373cf4	0.044735864
14	0x3cb87738	0.022517785
15	0xbddedb60	-0.10881686
16	0x3d93c688	0.07215601
17	0x3cb3b270	0.021935672
18	0x3cc9cb20	0.02463299
19	0x3df8d930	0.121508
20	0x3df478de	0.11937116
21	0x3df38c78	0.11892027
22	0x3d478a40	0.04871583
23	0x3d2c6644	0.042089716
24	0x3dbaeff6	0.091278
25	0xbd2ad85c	-0.041710243
26	0x3c8b8360	0.017030418
27	0xbd6b7d1c	-0.05749236
28	0xbd84988e	-0.0647441
29	0xbd2b6848	-0.041847497
30	0xbdd6e244	-0.104923755
31	0xbdddba42	-0.108265415
32	0xbde70442	-0.11280109
33	0xbdebec26	-0.11519651
34	0xbb2d3a40	-0.0026432425
35	0x3d0786a8	0.033087403
36	0x3c5d9140	0.0135234
37	0x3d9b5250	0.07584059
38	0x3d9de43c	0.07709548
39	0x3d8bc0de	0.06823896
40	0xbc872020	-0.01649481
41	0x3d8d6da0	0.06905675
42	0xbcd1a140	-0.025589585
43	0xbde6b3ba	-0.11264749
44	0xbdb1faba	-0.086904004
45	0xbc2e51e0	-0.010639638
46	0xbdfb89a4	-0.12282112
47	0x3dca919c	0.09891054
48	0xbd4968f0	-0.04917234
49	0x3d577388	0.052600414
50	0xbbc187e0	-0.00590609
51	0xbc224880	-0.009904981
52	0xbc5c94e0	-0.013463229
53	0xbc9495d8	-0.018137857
54	0x3de6feae	0.11279045
55	0xbd876dbc	-0.06612727
56	0xbd691d28	-0.05691257
57	0x3d7f3c9c	0.06231366
58	0x3daec0ec	0.08532891
59	0xbc2eb0b0	-0.010662243
60	0xbd96b818	-0.07359332
61	0xbd4fcfe8	-0.050735384
62	0xbd8f3f2a	-0.069944695
63	0xbdd9cb2c	-0.10634455
64	0x3d2e16bf	0.04250216
65	0xbdbedc20	-0.09319329
66	0xbdbfff06	-0.09374814
67	0xbc51f836	-0.012815526
68	0xbd83669a	-0.06416054
69	0x3e310cc7	0.1729003
70	0x3e5a127c	0.21296114
71	0x3e7e5d9d	0.24840398
72	0x3dfcd8b2	0.12346019
73	0xbd7baccc	-0.06144409
74	0x3dbbb4f2	0.09165372
75	0x3e0ddc65	0.13853605
76	0x3ef1d76e	0.47234672
77	0x3e41c727	0.18923627
78	0x3e01caba	0.1267499
79	0x3d1aaf48	0.037764817
80	0xbe1c11c4	-0.15241152
81	0x3d9425f4	0.072338015
82	0x3e614e18	0.22002447
83	0x3cf2cda2	0.029639069
84	0xbebd5123	-0.36975965
85	0x3d2b2db5	0.041791636
86	0xbdc86c44	-0.09786275
87	0x3dff7d52	0.12475075
88	0x3d5f1079	0.05445907
89	0xbb8efb40	-0.0043634474
90	0x3ecfe237	0.40602276
91	0x3e5ff395	0.21870263
92	0xbd8fa1bb	-0.070132695
93	0xbd88046f	-0.06641471
94	0x3e296099	0.16540755
95	0xbd0870b9	-0.033310626
96	0xbe148c64	-0.1450668
97	0x3da220a9	0.07916386
98	0x3daa0a9a	0.08302803
99	0x3dc015f0	0.09379184
100	0x3d20d85d	0.03926884
101	0x3db957e6	0.090499684
102	0xbe309b20	-0.17246675
103	0x3cd4f04e	0.025993492
104	0x3d658975	0.056039292
105	0x3e23eb1c	0.16007656
106	0x3d524231	0.051332656
107	0xbec299a8	-0.38007855
108	0xbeabe256	-0.33571118
109	0x3c4220a9	0.011848607
110	0x3cc404fc	0.023928158
111	0x3e81728e	0.2528271
112	0x3e0b3969	0.13596119
113	0x3d659f58	0.056060165
114	0xbe28348b	-0.16426294
115	0x3d71149c	0.058857545
116	0xbddc199b	-0.10747071
117	0x3cb13656	0.021632355
118	0xbb22db82	-0.0024850075
119	0x3d5dd74b	0.054160397
120	0xbde63e23	-0.112423204
121	0xbe601e7c	-0.21886629
122	0xbd93e6e8	-0.07221776
123	0xbdef39cb	-0.11680945
124	0x3e8faa1f	0.2805948
125	0xbd083948	-0.033257753
126	0x3e149ec5	0.14513691
127	0x3e969870	0.29413176
128	0xbdbc1cc2	-0.091851726
129	0xbd907bbd	-0.07054851
130	0x3dcce980	0.10005474
131	0x3cd47f04	0.025939472
132	0x3cf8cb0c	0.030370258
133	0x3d83c330	0.064337134
134	0x3cc84f12	0.024451766
135	0x3dc50d57	0.09621685
136	0x3dad8bb9	0.084739156
137	0xbd8c5fe1	-0.06854225
138	0x3d7f6fc0	0.062362432
139	0xbb470126	-0.0030365675
140	0xbdef5fd2	-0.11688198
141	0xbd109f90	-0.03530842
142	0x3da1bbe9	0.07897169
143	0x3c087470	0.008328542
144	0x3d572c70	0.052532613
145	0xbd974fbc	-0.07388255
146	0xbc963217	-0.018334432
147	0xbe06befa	-0.1315879
148	0xbc535eb0	-0.012900993
149	0xbd65411c	-0.055970296
150	0x3c856ad1	0.016286286
151	0xbc8fb431	-0.017541977
152	0x3c78cbd0	0.015185311
153	0x3d648d30	0.05579871
154	0xbd674f16	-0.056471907
155	0xbdefa0d0	-0.117005944
156	0xbdaf56ba	-0.08561464
157	0x3c972120	0.018448412
158	0xbdcf0df6	-0.10110085
159	0xbdb4261e	-0.08796333
160	0x3ccc9f6f	0.024978368
161	0xbd3a6fe8	-0.04551688
162	0xbe033743	-0.1281405
163	0xbdcd941d	-0.10038016
164	0x3cb25ad8	0.021771833
165	0x3ce8d831	0.0284234
166	0xbdd3fc02	-0.10350801
167	0x3c39e353	0.011345702
168	0xbc994a77	-0.018712265
169	0x3b1b8654	0.002373119
170	0xbcbe5e10	-0.023238212
171	0xbcbc7a80	-0.023007631
172	0x3de9ecd1	0.11422122
173	0x3c7536f0	0.014966711
174	0xbd0044fe	-0.031315796
175	0xbcfcd238	-0.030861959
176	0xbe05ef43	-0.13079552
177	0xbdc5f348	-0.09665543
178	0x3ddc72c2	0.10764076
179	0xbda13088	-0.07870585
180	0x3d9df105	0.077119865
181	0x3d3ccc00	0.046092987
182	0xbc86db40	-0.016461968
183	0x3d873144	0.066011935
184	0xbcca9974	-0.024731375
185	0xbdefe652	-0.11713852
186	0xbcab0c50	-0.020879894
187	0xbdc765d9	-0.09736223
188	0xbdd6bd71	-0.10485352
189	0x3cd65758	0.026164696
190	0x3dd50526	0.104013726
191	0xbc9a7f07	-0.0188594
192	0xbd84ea50	-0.06490004
193	0xbdacbef5	-0.0843486
194	0xbd7b0ecc	-0.06129341
195	0xbd2bdb63	-0.04195727
196	0xbdfd0e2c	-0.12356219
197	0x3de756e3	0.11295869
198	0x3d190fd8	0.037368625
199	0x3e35a38b	0.17738168
200	0x3caff61d	0.02147966
201	0xbcf60b5b	-0.030034712
202	0xbd559d71	-0.0521521
203	0x3bce35b1	0.0062930216
204	0x3f371dda	0.71529925
205	0x3e113f3b	0.14184277
206	0x3eb652a9	0.3560994
207	0x3d47dc78	0.04879424
208	0xbe0d5544	-0.13802058
209	0xba027000	-0.0004975796
210	0x3e726c78	0.2367419
211	0x3d42c76a	0.047553457
212	0xbee62f6c	-0.44958055
213	0x3e33c33a	0.17554942
214	0xbd31585b	-0.043297153
215	0x3d6a3708	0.05718139
216	0x3d35dae1	0.044398192
217	0xbdda5cb0	-0.1066221
218	0x3ec839e5	0.3910667
219	0x3e4ba4d8	0.19887102
220	0x3da99461	0.08280254
221	0x3d3629d5	0.044473488
222	0x3e59e263	0.21277766
223	0x3db65db2	0.0890459
224	0xbd652610	-0.055944502
225	0x39557b0c	0.00020359101
226	0x3d9ee550	0.07758582
227	0x3d4c0fda	0.049819805
228	0x3dd350d5	0.10318152
229	0x3da391f1	0.079868205
230	0xbdabb0ce	-0.08383332
231	0x3dc8858e	0.097910985
232	0x3e1c0506	0.15236291
233	0x3d1ebcad	0.038754154
234	0xbd67f56a	-0.05663053
235	0xbeccd3d9	-0.40005377
236	0xbe4df965	-0.20114668
237	0xbdaa5607	-0.0831719
238	0x3d30988f	0.04311424
239	0x3e995fea	0.2995599
240	0xbd35ff25	-0.044432778
241	0xbd92f18e	-0.07174979
242	0xbd1bd425	-0.038044114
243	0xbd41b92c	-0.047295734
244	0xbd8b2c56	-0.06795566
245	0x3befaa05	0.007313969
246	0xbd8eb31b	-0.069677554
247	0x3d964084	0.07336524
248	0xbe77b521	-0.24190189
249	0x3d0d5f98	0.034514993
250	0xbd30d720	-0.04317391
251	0xbdc7cfaf	-0.097564094
252	0x3e2add8c	0.16686076
253	0x3d4eedda	0.0505198
254	0x3e2780a4	0.16357666
255	0x3e34729b	0.17621844

linear2.bias f4 [64]
0	0x3baf6ec0	0.0053537786
1	0x3f238a8f	0.638833
2	0xbc2a3532	-0.010388659
3	0x3f09f60c	0.5389106
4	0x3f361e25	0.71139747
5	0xbd2c973c	-0.042136416
6	0x3f387bc7	0.7206387
7	0x3f3aeab6	0.7301439
8	0x3f2229d6	0.63345087
9	0x3cccaed0	0.0249857
10	0x3d29a2b0	0.041414917
11	0xbd98cc84	-0.07460883
12	0x3ced660d	0.028979326
13	0xbcd57129	-0.026054936
14	0x3f1a3a5a	0.6024529
15	0x3f1dba11	0.6161204
16	0x3f0f8724	0.56065583
17	0x3f007d66	0.5019134
18	0x3eea1a54	0.45723212
19	0x3f312956	0.692037
20	0xbdc7b6d6	-0.0975167
21	0x3ee172a7	0.44032785
22	0x3f1a96ad	0.60386163
23	0xbd646c90	-0.055767596
24	0xbd1c79ba	-0.038202025
25	0x3e898ed5	0.26866785
26	0x3f118ac3	0.5685236
27	0x3d9d04ae	0.07666908
28	0x3f2f5294	0.6848538
29	0x3f09e4ba	0.53864634
30	0x3c352095	0.011055131
31	0x3dc85780	0.09782314
32	0x3f0bb2f2	0.54569924
33	0x3f2f8a9c	0.68570876
34	0x3f0c9c59	0.5492607
35	0x3f440475	0.765693
36	0x3f2a7f7e	0.6660079
37	0x3f14eb77	0.5817179
38	0x3eefd2f5	0.46840635
39	0x3ee3995d	0.44452944
40	0x3efab42c	0.48965585
41	0x3f1a8012	0.6035167
42	0xbd245ede	-0.040129535
43	0x3ee587c1	0.44830135
44	0x3f04665b	0.5171868
45	0x3f0e6ccd	0.55634767
46	0x3f0a7d00	0.54096985
47	0xbd3708b0	-0.04468602
48	0x3f370f6d	0.7150791
49	0x3f053e03	0.5204775
50	0xbc610b5a	-0.013735617
51	0x3f1e90af	0.6193952
52	0x3eda1c5a	0.42599756
53	0x3f195a37	0.5990328
54	0xbd3aad24	-0.045575276
55	0xbde133a1	-0.109961756
56	0x3f1b536f	0.60674185
57	0x3cd14e80	0.025550127
58	0x3f2ffc6b	0.68744534
59	0x3f43bfae	0.76464355
60	0x3f20124c	0.6252792
61	0xbc592d60	-0.013255447
62	0x3f1a114f	0.6018266
63	0x3f3b9c70	0.7328558

linear3.weight f4 [64, 64]
0	0xbde37b14	-0.1110746
1	0x3ccc1040	0.024910092
2	0xbca9ca10	-0.020726234
3	0xbdf77356	-0.120825455
4	0xbd2a9aa4	-0.041651383
5	0x3cc94ef0	0.024573773
6	0xbd97d438	-0.074135244
7	0x3dd2e86e	0.10298239
8	0xbd7c8afc	-0.061655983
9	0xbd835f8e	-0.0641471
10	0x3d22d470	0.039753377
11	0xbc70ebb0	-0.01470463
12	0x3d7fede0	0.062482715
13	0x3da61126	0.081087396
14	0x3daa17b4	0.08305302
15	0xbdd78e30	-0.10525167
16	0x3db1ed5e	0.08687852
17	0x3cf5f170	0.030022353
18	0x3d62d664	0.05538024
19	0xbb957840	-0.004561454
20	0xbc62ee20	-0.013850719
21	0xbd8fd35e	-0.07022737
22	0x3d8452e8	0.064611256
23	0xbd9b7efc	-0.0759258
24	0xbd2c6a40	-0.042093515
25	0xbda05d32	-0.078302756
26	0x3caf6520	0.021410525
27	0xbd9dcea2	-0.07705428
28	0x3db8126e	0.0898789
29	0xbd9b0ad8	-0.07570428
30	0x3d15ed8c	0.036603495
31	0xbbf55c80	-0.0074878335
32	0xbde909bc	-0.1137881
33	0x3c12d680	0.008962274
34	0xbd41a61c	-0.047277555
35	0xbd97c02a	-0.07409699
36	0x3d7b7ca8	0.06139818
37	0x3ce15968	0.027508453
38	0xbda63822	-0.08116175
39	0xbdfb3196	-0.12265317
40	0xbda52baa	-0.08064969
41	0xbdbb3066	-0.09140091
42	0x3d97b10c	0.07406816
43	0xbd1a4dfc	-0.037672028
44	0x3dde9c16	0.10869615
45	0x3d8dbaae	0.06920372
46	0xbd141958	-0.036156982
47	0x3dce691e	0.10078643
48	0xbdc2eb74	-0.09517565
49	0x3d266ce0	0.040631175
50	0x3b62e380	0.0034620464
51	0xbd3df7b8	-0.04637882
52	0xbd867236	-0.06564753
53	0x3d9e505e	0.077301726
54	0x3d0fcd74	0.035108045
55	0xbccd1940	-0.025036454
56	0x3d4cc18c	0.04998927
57	0x3dbf9344	0.093542606
58	0x3ddf43e6	0.109016225
59	0xbdd89a64	-0.10576323
60	0xbdefdd4e	-0.117121324
61	0xbd07a7dc	-0.033119068
62	0x3d158b54	0.036509827
63	0x3ddc8974	0.107684046
64	0x3deff518	0.1171667
65	0x3e65baa5	0.2243448
66	0x3dc3bac6	0.095571086
67	0x3af10244	0.0018387516
68	0x3d49a673	0.049231004
69	0xbdfd3af0	-0.12364757
70	0x3e495a5e	0.19663379
71	0x3e0d5b0a	0.1380426
72	0x3df47234	0.11935845
73	0x3ce4ca78	0.027928576
74	0xbc7c3090	-0.015392438
75	0xbe8a33a6	-0.2699253
76	0xbf220aa7	-0.63297504
77	0xbd8bc68c	-0.06824979
78	0x3e27d2f5	0.16389067
79	0x3d9b5d33	0.07586136
80	0x3e2d5216	0.16925845
81	0x3d730f47	0.05934074
82	0x3e5dc513	0.21657209
83	0x3e47fcdb	0.1953005
84	0xbaa1653f	-0.0012313499
85	0x3db3820f	0.08765041
86	0xbb290e9a	-0.0025796057
87	0xbd95969e	-0.073041186
88	0x3d40dff1	0.047088567
89	0x3ef4f7b4	0.47845232
90	0x3d96b11c	0.07358
91	0x3cc02608	0.023455635
92	0x3d944a09	0.072406836
93	0x3e5f5e79	0.21813382
94	0xba782b43	-0.0009466896
95	0x3dbb09ac	0.09132704
96	0x3e7f69d0	0.24942708
97	0x3e8a5bf0	0.27023268
98	0x3de19c13	0.11016097
99	0x3e8f05e3	0.2793418
100	0x3e21fa8a	0.1581823
101	0x3f314c98	0.692575
102	0x3d86070b	0.06544312
103	0x3e666995	0.22501214
104	0x3d8d854a	0.069101885
105	0x3e0295a6	0.12752399
106	0x3bed91a3	0.0072500273
107	0x3e410235	0.18848498
108	0x3d846985	0.06465439
109	0x3ce78301	0.02826071
110	0x3c764788	0.015031703
111	0x3d6e18a4	0.058128968
112	0x3e24f706	0.16109857
113	0x3e3cd9db	0.1844248
114	0x3ddc8d84	0.107691795
115	0x3eda1791	0.42596105
116	0x3de66010	0.11248791
117	0x3e53b18c	0.20673198
118	0xbd5ac748	-0.053412706
119	0x3d9b7016	0.07589738
120	0x3e0303f6	0.1279448
121	0x3dfad0ae	0.12246834
122	0x3e8868a4	0.26642334
123	0x3e892d07	0.26792166
124	0x3e0f55f4	0.13997632
125	0x3d351b6c	0.044215605
126	0x3eab1110	0.33411455
127	0x3e93ba19	0.2885292
128	0xbddb8f24	-0.10720661
129	0x3de81e2c	0.1133388
130	0x3ca5ab23	0.020223206
131	0x3d8df288	0.06931025
132	0x3db9b17f	0.09067058
133	0x3dcf2e7c	0.10116288
134	0x3dfcf82c	0.123520225
135	0x3e5a8640	0.21340275
136	0x3e02ece7	0.12785684
137	0xbda0fe62	-0.0786102
138	0xbdaf5046	-0.08560233
139	0xbe4182a2	-0.18897489
140	0xbf298f72	-0.66234505
141	0x3dfc1869	0.12309343
142	0x3dee39db	0.11632129
143	0x3e052a17	0.13004337
144	0x3dfc0e9f	0.12307476
145	0x3dcdffc0	0.10058546
146	0x3df4e1fb	0.11957165
147	0x3c7a289b	0.01526847
148	0xbd136d67	-0.035993006
149	0x3e1a5195	0.15070184
150	0x3e3a1c2d	0.1817481
151	0x3dcee9a9	0.10103161
152	0xbd803e6b	-0.06261905
153	0x3f022bdc	0.50848174
154	0x3e099afe	0.13438031
155	0xbd93e362	-0.07221104
156	0x3d71e1e4	0.059053317
157	0x3dd7d94b	0.10539492
158	0xbd5c93b9	-0.053851817
159	0xbd202ae8	-0.03910342
160	0x3e5aadf7	0.21355425
161	0x3ec7df22	0.39037424
162	0x3df1e228	0.11810714
163	0x3ebc9bcf	0.36837623
164	0x3e918361	0.28420547
165	0x3f141df1	0.57858187
166	0x3e322dcb	0.17400281
167	0x3e10b8f1	0.1413305
168	0x3d97dbc7	0.07414966
169	0x3e081f18	0.13293111
170	0xbc79c6d5	-0.015245159
171	0x3e4a2d92	0.19743946
172	0x3e1384d8	0.14406145
173	0x3dde8297	0.10864752
174	0x3de3cb02	0.11122705
175	0x3d77da18	0.060510725
176	0x3e93d839	0.28875902
177	0x3cd688f5	0.026188353
178	0xbce8b749	-0.02840771
179	0x3e79aca4	0.24382263
180	0xbbd6b5a8	-0.006552417
181	0x3e54d8aa	0.20785776
182	0xbbd45d40	-0.006480843
183	0xbdeda308	-0.11603361
184	0x3e31ce72	0.17363909
185	0x3d31b22c	0.04338281
186	0x3dac6fee	0.084197864
187	0x3e3f1d7d	0.18663593
188	0x3e4f0b46	0.20219144
189	0x3d0326a4	0.032019272
190	0x3e85fb17	0.2616813
191	0x3e4afb27	0.1982237
192	0x3d0835b0	0.033254325
193	0x3db18419	0.08667774
194	0x3dabfefe	0.08398245
195	0xbd8f9b6d	-0.07012067
196	0xbd1ed0ba	-0.038773276
197	0xbdeb30ac	-0.11483893
198	0x3d8f8090	0.07006943
199	0xbdfc0383	-0.12305357
200	0x3dce67b6	0.10078375
201	0xbd9b5b4e	-0.07585774
202	0xbd56dde8	-0.05245772
203	0xbc9c2178	-0.019058928
204	0xbdbd09bc	-0.09230372
205	0x3d17659c	0.036962137
206	0xbdee6d71	-0.11641968
207	0x3ced9617	0.029002232
208	0xbc0d2a68	-0.0086160675
209	0xbdf67ce1	-0.120355375
210	0xbd938ed8	-0.0720498
211	0xbcef8e3d	-0.02924263
212	0xbdea79a7	-0.114489846
213	0xbdf0a6eb	-0.11750587
214	0x3dc48d27	0.09597235
215	0xbd26e5bc	-0.040746436
216	0x3dd83636	0.10557215
217	0x3df69d1b	0.12041684
218	0x3dd3ff47	0.10351425
219	0xbbaab000	-0.005208969
220	0xbde59748	-0.11210495
221	0xbde8e69f	-0.113721125
222	0x3d205b7a	0.03914974
223	0xbd69080c	-0.05689244
224	0xbd05da32	-0.03267879
225	0x3cb3df2e	0.021957006
226	0xbc2aedd3	-0.010432678
227	0x3cb9722a	0.022637445
228	0xbbafe541	-0.0053679054
229	0xbd30fab0	-0.043207824
230	0xbd0f3ced	-0.034970213
231	0x3cdcdba4	0.026960202
232	0xbc73c63d	-0.014878807
233	0x3d54ce4d	0.051954556
234	0x3d2df093	0.042465758
235	0xbd35b529	-0.04436222
236	0x3d298e8b	0.041395705
237	0x3d5c7b41	0.05382848
238	0x3dd20bd1	0.1025616
239	0x3d9078e2	0.070543066
240	0xbd986bc6	-0.07442431
241	0x3c3d4494	0.011551995
242	0x3d04310c	0.032273337
243	0xbdbe8041	-0.09301806
244	0x3c2df900	0.010618448
245	0x3dac2eb7	0.08407348
246	0xbddd9ff6	-0.10821526
247	0xbd01b953	-0.03167088
248	0x3a82c373	0.0009976461
249	0xbce182e8	-0.027528241
250	0x3d4a9375	0.049457032
251	0x3cc34de4	0.023840852
252	0xbdcf0d75	-0.101099886
253	0xbdcfa186	-0.1013823
254	0xbc4049d0	-0.011736348
255	0xbd23eac5	-0.040018816

linear3.bias f4 [64]
0	0xbdd623ae	-0.10456024
1	0x3ee9dea4	0.45677674
2	0x3ef953ca	0.48696738
3	0x3de06e51	0.10958541
4	0x3f10415a	0.5634972
5	0x3f0322f7	0.5122523
6	0x3f0cac63	0.5495054
7	0x3c447ca0	0.011992604
8	0x3f0e5a5d	0.55606633
9	0x3f012273	0.5044319
10	0x3deb4ce8	0.11489278
11	0x3ec6e479	0.38846186
12	0x3d8151c5	0.063144244
13	0xbc46f2b0	-0.012142822
14	0x3f0bc082	0.5459062
15	0x3ef32a94	0.47493422
16	0x3f01f37a	0.5076214
17	0x3f0e1072	0.55493844
18	0x3ec5bb78	0.3861959
19	0x3f131f21	0.57469374
20	0x3deb65cb	0.11494025
21	0x3f1c80ed	0.61134225
22	0xbd73f8a8	-0.05956331
23	0x3d42ac46	0.047527574
24	0x3ecc111e	0.3985681
25	0x3f09cd13	0.53828543
26	0xbda1646d	-0.07880483
27	0x3eb5bf8d	0.35497704
28	0x3ef07c74	0.4696995
29	0x3ef41a34	0.4767624
30	0x3ef6814b	0.48145518
31	0xbcff1b98	-0.031141087
32	0x3e0af4c8	0.13569939
33	0x3f053db2	0.52047265
34	0x3eee6ace	0.4656586
35	0x3f0f20d0	0.5590944
36	0x3edb300d	0.42810097
37	0x3ebbae7c	0.3665656
38	0x3ed123c3	0.40847597
39	0x3c6b25a0	0.014352232
40	0x3eb2e8d5	0.34943262
41	0x3f31d151	0.69460016
42	0x3ee9dcff	0.4567642
43	0x3de61aa4	0.1123555
44	0x3ef7da87	0.4840891
45	0x3ea9445c	0.33059967
46	0x3cc493ff	0.023996351
47	0x3ebb4955	0.36579385
48	0x3ed3d69f	0.4137468
49	0x3c4d3740	0.01252538
50	0x3edaa3cc	0.42703092
51	0xbd25ad5c	-0.04044853
52	0x3ebe52b7	0.3717248
53	0x3ecc9493	0.39957103
54	0x3ed18bee	0.4092707
55	0x3f3434be	0.7039298
56	0x3f14c915	0.58119327
57	0x3f1e5c79	0.6185985
58	0x3efc7fe7	0.49316332
59	0x3ed184c2	0.409216
60	0x3ee8b3e6	0.45449752
61	0x3ee24407	0.44192526
62	0x3ee1e042	0.44116408
63	0x3f0da18f	0.55324644

linear4.weight f4 [1, 64]
0	0xbaa12d20	-0.0012296773
1	0xbe26ef0f	-0.16302131
2	0xbe18b01e	-0.14910933
3	0xba9fbb6e	-0.0012186596
4	0xbe5f8111	-0.21826579
5	0xbe1c51c5	-0.15265568
6	0xbe200119	-0.15625419
7	0xbc05c68a	-0.008165011
8	0xbe26d1e9	-0.16291012
9	0xbe1bd83e	-0.15219209
10	0xb90c0571	-0.00013353468
11	0xbe1fad4d	-0.15593453
12	0xbb2af68c	-0.0026086895
13	0x3ab474c3	0.0013767708
14	0xbe1c5d7d	-0.15270038
15	0xbe1db22a	-0.15399995
16	0xbe4664ab	-0.1937434
17	0xbe27d74c	-0.16390723
18	0xbe1a2334	-0.15052491
19	0xbe434af4	-0.19071561
20	0x3be2188e	0.0068999
21	0xbe417b2f	-0.18894647
22	0x38eabed9	0.00011193538
23	0x3e6f22a5	0.2335306
24	0xbe366c5c	-0.17814773
25	0xbe4ead9b	-0.20183413
26	0xbb013d7b	-0.0019720483
27	0xbe122fd5	-0.14276059
28	0xbe3a9f7b	-0.182249
29	0xbe2ef680	-0.1708622
30	0xbe1a948d	-0.1509573
31	0xbb362537	-0.0027793178
32	0x3d8a06fb	0.06739613
33	0xbe28eb65	-0.16496046
34	0xbe2be9e9	-0.16788448
35	0xbe2a76d9	-0.166469
36	0xbe1477ce	-0.14498827
37	0xbe2e68ed	-0.17032214
38	0xbe2375e4	-0.1596294
39	0x3b324ccf	0.0027206426
40	0xbe0cd79f	-0.13754128
41	0xbe76d558	-0.24104822
42	0xbe209c8f	-0.15684722
43	0xbaf369e1	-0.0018570983
44	0xbe22eb8b	-0.15910165
45	0xbe0c1487	-0.13679706
46	0xbb511064	-0.0031900639
47	0xbe2c065b	-0.167993
48	0xbe351806	-0.17684945
49	0xb93bde2d	-0.00017916477
50	0xbe31551b	-0.17317621
51	0xbb03fc1d	-0.0020139285
52	0xbe42b162	-0.19012979
53	0xbe0d6107	-0.13806544
54	0xbe1ccbad	-0.15312071
55	0xbe65b0b4	-0.22430688
56	0xbe25896e	-0.16165707
57	0xbe55a982	-0.20865443
58	0xbe22a6c8	-0.15883934
59	0xbe1a388c	-0.15060633
60	0xbe3e30f6	-0.18573365
61	0xbe1b2b05	-0.1515313
62	0xbe15d855	-0.14633305
63	0xbe1a3ff3	-0.15063457
