models/2025-11-24 14:34:13/1/Q1.pth (torch, 37764 bytes, 7 tensors)

linear1.weight f4 [64, 5]
000000 c0 26 1e bd 48 ae e7 3d cd 06 8e 3e f8 e4 ce 3d
       -0.038611174 0.113125384 0.27739564 0.10102266
000010 31 43 c4 3e 7b df 8c 3e 72 bd c5 be 56 e0 6d 3e
       0.38332513 0.27514252 -0.38621098 0.23230109
000020 c2 70 a4 3e 7b 32 c0 be 90 cd 86 3e 1a 7a 8b 3e
       0.32117277 -0.37538514 0.26328707 0.27241594
000030 2e 22 18 3e 86 eb ad be 9f b3 9b 3e 8a 70 da 3d
       0.14856789 -0.33968753 0.30410478 0.106659964
000040 01 c1 90 be 70 11 d7 be cb 70 45 be 52 1e d3 3d
       -0.2827225 -0.4200549 -0.19281308 0.103085175
000050 6b 44 b5 be 2e 9c d8 be fb bc ba 3e f4 89 fe bb
       -0.3540376 -0.42306656 0.36472306 -0.00776791
000060 e4 6e c8 3e 7d 58 5b be 97 5e d9 be 29 9e e6 3d
       0.39147103 -0.21420474 -0.4245498 0.112606354
000070 a8 c4 83 3e 6d 7b 41 be 3c 15 d2 3c 67 27 04 be
       0.25735974 -0.1889474 0.025644891 -0.12905656
000080 b1 61 4f be ee cc 82 be 33 05 5d 3e fb b7 e3 3e
       -0.2025211 -0.25546974 0.21584015 0.44476303
000090 9d 4f 87 3e d3 77 92 3e 8f a5 46 3e 00 8e 91 3e
       0.26427928 0.28607044 0.19399093 0.2842865
0000a0 fe 8b 2f be b1 da 82 3e d2 6b 05 bf 0c 93 21 bf
       -0.17143247 0.25557473 -0.52117646 -0.63115
0000b0 a1 9f 5e 3e 5f ec 7e 3e 28 fe c2 be c6 31 50 3e
       0.21740581 0.24894856 -0.3808453 0.20331487
0000c0 0c 35 0f 3e 05 e0 08 3e 2a 9a 43 3e af 4b dd 3e
       0.1398508 0.13366707 0.19101778 0.43221804
0000d0 07 91 dc 3e 59 a2 a3 bd 60 e9 2a 3e b0 ac 98 3e
       0.43079397 -0.0798995 0.16690588 0.2981925
0000e0 d0 48 75 3e 28 9b 87 be 9e 87 c6 bd fa e1 dd 3e
       0.23953557 -0.26485562 -0.09693836 0.4333647
0000f0 54 e6 dd be ff da 7d 3e 91 ff 92 3e e4 91 aa 3e
       -0.4333979 0.24790572 0.28710607 0.3331443
000100 e2 b1 7f be 9d ad 86 3d 3c 59 ca 3e 45 6a 19 3e
       -0.249702 0.06576083 0.39521205 0.14981945
000110 45 ae 01 3d 1b 58 e8 bd b9 35 b2 bd b9 fd 7b 3e
       0.031660337 -0.1134493 -0.08701653 0.24608506
000120 48 0c df 3e 55 93 9e 3e 63 1c 7e be a0 35 52 bd
       0.43564057 0.3097178 -0.24815516 -0.051320672
000130 70 c8 e2 3d 21 33 9b bc 2f 16 8f 3e c9 49 3b bf
       0.11073387 -0.018945279 0.27946612 -0.7315946
000140 cd 99 f4 3d c7 0f db 3e 7c 41 e4 bb 5b 83 51 3e
       0.11943398 0.42785475 -0.006965814 0.20460264
000150 8d eb 33 3f 85 e6 89 3d 04 96 85 3e 4d c2 99 3e
       0.70281297 0.06733421 0.26091015 0.30031052
000160 4d ce ab be 98 25 7a be 19 b3 f7 bd 0c c0 87 3e
       -0.33555833 -0.24428403 -0.12094707 0.26513708
000170 8c da 03 be 18 b6 66 3e 2e c6 68 bd 9a 53 1c be
       -0.12876338 0.22530401 -0.056829624 -0.15266266
000180 80 3d a1 be e3 39 ce 3e d9 c9 a7 be 30 99 92 bd
       -0.31492233 0.4027854 -0.32771185 -0.071581244
000190 35 38 e3 3e fd 7d 7c 3e cd 86 bf be 11 97 a4 3d
       0.4437882 0.24657436 -0.37407532 0.08036626
0001a0 df 63 29 3e 4b 69 96 be 5b 1d 1e be 36 16 39 3d
       0.16542004 -0.29377207 -0.15440886 0.045187198
0001b0 16 15 6f be b1 b9 8b be a3 58 88 3e ab 58 c8 3e
       -0.23347887 -0.2729011 0.26630124 0.39130148
0001c0 65 69 42 be 91 6f 1a 3e 91 72 92 be 0f 62 0f be
       -0.18985517 0.15081622 -0.28603032 -0.1400225
0001d0 9d 3a 65 3e c3 5c c6 3e f9 24 ab be 42 5b ec be
       0.2238564 0.38742647 -0.33426645 -0.46163374
0001e0 ee 4d c2 3d fa e8 15 be 1c a5 a3 3d aa 72 49 3e
       0.0948752 -0.14639655 0.079904765 0.19672647
0001f0 30 94 6d be 0c f2 34 3f 9c a0 fc be 1b ea 4d 3d
       -0.2320106 0.70681834 -0.49341285 0.05027209
000200 e0 78 fa 3e fd a7 a6 be 0d 4e 08 3f f5 e4 75 3e
       0.48920345 -0.3255004 0.53244096 0.24013121
000210 7e 9d 46 bc 7d 7e 2f 3f 72 be 7d 3e d0 89 69 be
       -0.01212251 0.6855238 0.2477968 -0.22806478
000220 0d 86 95 be f2 ec ac 3d 89 67 63 be 8d e8 d8 3e
       -0.29203835 0.08443631 -0.22207464 0.42364922
000230 a8 fe 09 3e f0 28 f5 3e dc 10 a8 3e 73 38 17 3f
       0.1347605 0.47882795 0.32825363 0.5907051
000240 31 e7 0a 3e 8d e8 6e be 97 4d 24 be 7c 62 e4 3e
       0.13564755 -0.23330899 -0.16045223 0.44606388
000250 78 a2 98 3e a2 b3 27 3e 5e eb b0 3e 4a 18 97 3e
       0.29811454 0.16377118 0.3455457 0.2951072
000260 cb 9f 4f 3e 2c 0d 42 3e 88 36 47 be 24 90 9c 3e
       0.202758 0.18950337 -0.19454396 0.3057872
000270 5b 88 6b 3d 74 ac e3 be d8 08 dc 3d 84 bc 4f be
       0.057503086 -0.4446751 0.10743874 -0.20286757
000280 44 de e4 be 54 b4 e3 bc 54 f0 82 bd 6a 74 39 bd
       -0.44700825 -0.027795948 -0.06393495 -0.045277037
000290 17 2d a2 be 13 57 88 bd 26 1c 77 be 17 95 6d 3e
       -0.31675026 -0.06657233 -0.24131832 0.23201405
0002a0 1e ce e0 3e d9 e5 0f be 6c 90 0d be cd bd 8d 3e
       0.43907255 -0.14052524 -0.13824624 0.2768387
0002b0 32 22 60 bd aa dc 8b bc 68 2c 38 3f a9 8d 6b be
       -0.05472011 -0.017072994 0.7194276 -0.23003258
0002c0 fa ac a9 3e 79 01 cd 3e f0 84 99 bc 48 4a d6 be
       0.33139783 0.40040186 -0.018740147 -0.41853547
0002d0 2a 6c 3f be 76 ea a5 3e 35 f1 89 bd ee fa ed be
       -0.18693605 0.32405442 -0.0673546 -0.46480507
0002e0 18 6c 0b 3f a7 9c 84 be f8 a2 66 bd e6 20 1f 3e
       0.5446181 -0.25900766 -0.056307763 0.15539894
0002f0 f7 52 3a be 52 85 b1 3e db d1 16 3e 3b 65 2d 3f
       -0.18195711 0.34672028 0.14728491 0.6773259
000300 f0 37 05 3e 42 c7 19 3e 13 5e ea bb e9 29 f5 be
       0.1300962 0.15017417 -0.007152328 -0.47883537
000310 63 64 bf 3d 26 e0 15 be a4 c4 b7 3e 9a d6 1a 3e
       0.09345319 -0.14636287 0.35892212 0.15120926
000320 02 18 c1 be b6 9f f5 be f3 6e aa bd 13 fa c2 3d
       -0.3771363 -0.47973412 -0.08321943 0.09520354
000330 4c 41 49 bf 18 1e 32 3e 75 71 86 be f9 fd 89 3d
       -0.7861526 0.17394292 -0.26258436 0.067378946
000340 72 01 0f 3f 5b 0c 59 be b8 c1 b1 3e 9e 71 61 3e
       0.5586158 -0.2119612 0.34718108 0.22015998
000350 56 62 a7 3e 72 59 8d be 0e b1 ab 3e 96 e2 7d bd
       0.32692212 -0.27607304 0.3353352 -0.061983667
000360 6f 82 11 3d b3 0c a2 3e 90 4b 9d be a2 cb f7 bd
       0.03552478 0.31650314 -0.30721712 -0.12099387
000370 49 76 0f 3e ef 4c e6 3e 12 8d cc 3d 46 5f 91 bd
       0.14009966 0.4498057 0.099878445 -0.0709825
000380 ae e0 da 3e 70 f9 a9 3e fb d1 31 bc f3 b9 a2 3e
       0.42749542 0.33198118 -0.010853286 0.31782493
000390 73 f7 63 3e c8 3c cf 3e 3e 45 ec bd b4 e9 7b 3e
       0.22262363 0.4047606 -0.115366444 0.2460087
0003a0 cc 79 9d 3c 5f bf ba 3d 42 30 d9 3e d4 27 9c be
       0.019223116 0.091185324 0.4241963 -0.30499136
0003b0 92 c2 56 be 89 fe b5 3e 9d d1 b6 3e 0b 26 e1 3d
       -0.2097266 0.35545757 0.35706797 0.10993584
0003c0 e4 bd 5b 3d 9c 6e f9 be 7c 0b c8 3e c1 da af 3c
       0.05364789 -0.487172 0.39071262 0.021466615
0003d0 5e bf 15 3e 77 53 70 3e 53 e9 d3 3e 8b 8c 2c 3c
       0.14623782 0.2346934 0.4138895 0.010531555
0003e0 89 a1 df be 49 f4 ac be 4f a1 c9 be a4 9b a5 3e
       -0.4367793 -0.33780125 -0.3938088 0.32345307
0003f0 71 ce 81 be ef 64 9b 3c 4f f3 4a 3e 64 e0 32 be
       -0.25352815 0.018969027 0.19819377 -0.1746841

linear1.bias f4 [64]
000000 43 73 85 3f bb a2 31 3f f2 68 8d 3f 78 d7 b4 bd
       1.04258 0.6938893 1.1047652 -0.0883016
000010 7a c4 0c 3f dd fd 6e 3e eb e8 0b be fb 39 81 3f
       0.549873 0.23339029 -0.1366307 1.0095819
000020 3e cc 1e 3f 90 d0 3f 3f fc 6e 89 3d ee e0 1d bc
       0.620304 0.74927616 0.06710622 -0.009636147
000030 2f e0 37 be bf b9 10 bf 83 eb 60 be 84 f0 09 3f
       -0.17956613 -0.56533426 -0.2196484 0.5388262
000040 b1 4b 8f 3f af 32 04 3f 03 a3 8d bd b3 c1 ed 3e
       1.1194974 0.5163984 -0.06915858 0.46436843
000050 80 56 15 bd 19 87 82 3f 12 64 7f be 93 83 b8 3e
       -0.036459446 1.0197479 -0.24940518 0.36037883
000060 8f ea 63 3f 9e 4f 15 bf b7 df 88 3e b0 a2 82 3f
       0.89029783 -0.5832461 0.2673318 1.0205898
000070 0b 04 d0 be f6 b0 34 bc 61 d1 87 3f 53 ff 43 be
       -0.40628085 -0.011028519 1.0610772 -0.19140367
000080 44 68 68 3f 12 5d 2b 3f 26 bf f7 3e 90 fc 2f 3e
       0.90784097 0.6693889 0.48388022 0.17186189
000090 99 34 e4 3d e6 fa 40 3f db 4a 2f bf d1 e8 41 3d
       0.11142845 0.7538284 -0.68473595 0.04734117
0000a0 b1 5a 83 3e ff c6 a5 3f 5c 31 59 bf 1b 9d ba 3e
       0.2565513 1.2951354 -0.8484094 0.36447987
0000b0 e2 50 8d be c8 5f e2 be db 2a 39 3f cf 77 15 3e
       -0.2760077 -0.442137 0.7233102 0.14596485
0000c0 60 30 89 3f e7 78 96 3f a3 b1 90 3e 52 79 71 3f
       1.0717888 1.1755646 0.28260526 0.94325745
0000d0 b3 de 91 bd c7 a6 06 be 86 c9 d0 be 9f 3b 96 3e
       -0.07122555 -0.13149558 -0.4077875 0.29342362
0000e0 2f 70 46 3f fc df 89 3f a4 27 d1 3e 81 cd a1 3d
       0.7751493 1.077148 0.40850556 0.07900525
0000f0 00 0a 28 3f fc 8a 82 3f d2 51 86 3f 7e 6b 81 3f
       0.6564026 1.0198665 1.049372 1.0110929

linear2.weight f4 [64, 64]
000000 a6 96 e0 bd de c4 f1 bd 6e f2 d4 3d 60 17 d0 3b
       -0.10966234 -0.118051276 0.10397802 0.0063504428
000010 5e ea de 3d 32 c5 e4 3d d8 aa ec bd 50 fe 94 3d
       0.10884546 0.111704245 -0.11556023 0.07275069
000020 bc 19 f4 bd cc 93 a3 bd 5e bb a3 bd ce 48 e9 3d
       -0.11918971 -0.079871744 -0.07994722 0.113908395
000030 90 ea cc bd 34 fe 26 bd 00 40 f3 3b e2 0b ff 3d
       -0.10005677 -0.04076977 0.007423401 0.12453438
000040 a2 ac d6 bd 00 e1 bc 3c 66 dd 8c 3d a4 c9 f0 bd
       -0.10482146 0.023056507 0.06878166 -0.1175721
000050 64 32 88 3d 74 21 47 bd c2 56 8f bd 5c 21 38 bd
       0.06650236 -0.048615888 -0.069989696 -0.04495369
000060 fc d8 a9 3d d0 6e ad bc ee ec e9 bd 06 e5 ca bd
       0.082933396 -0.021171004 -0.11422144 -0.09906964
000070 6c 87 17 bd 78 d5 01 bd 70 93 9c bc b8 84 41 3d
       -0.036994383 -0.03169772 -0.019113272 0.04724571
000080 08 f4 fc bc 68 c9 57 bd 24 70 42 bd 4e 59 9b bd
       -0.030878082 -0.05268231 -0.047470227 -0.07585393
000090 90 7c 93 3d 8c c2 dd bd 78 9b ce 3d 80 d4 e5 bd
       0.07201493 -0.108281225 0.10088247 -0.11222172
0000a0 16 5b 9b bd 24 09 f0 bd 18 f8 b4 bc fe fc c0 bd
       -0.07585733 -0.117204934 -0.022090957 -0.094232544
0000b0 c0 e6 72 3b 76 19 96 bd 94 97 bf 3d 3c 5e 5c bd
       0.0037063807 -0.07329075 0.09355083 -0.053800806
0000c0 3c 61 4f 3d ac a9 a7 bd ec 13 e5 bd d6 da d2 bd
       0.05062984 -0.08186659 -0.111854404 -0.10295646
0000d0 be 14 81 bd d0 b4 91 3c 36 ce b3 bd 58 b8 dd 3d
       -0.063027844 0.017786413 -0.08779566 0.108261764
0000e0 18 cc c3 3d 52 77 da 3d a4 17 c1 3d e0 30 29 3c
       0.09560412 0.1066729 0.09428337 0.010326594
0000f0 68 a7 b7 3d 12 2b c3 bd 20 1b a0 bd 14 19 7e bd
       0.08967477 -0.095296994 -0.07817674 -0.062035635
000100 0b 46 80 3b 43 3c 95 3d 67 00 43 3e 00 04 0d 39
       0.0039146 0.07286885 0.19043122 0.00013448298
000110 66 13 78 bd 37 91 a7 bd fc da 04 bd 42 3a a3 3d
       -0.060565375 -0.081819944 -0.032435402 0.07970096
000120 13 1f 93 be 4f 9b 52 3d a5 04 1b bd 8a d6 cf 3d
       -0.28734645 0.051417645 -0.037846226 0.10148342
000130 06 22 76 bd 9e 8b e6 bb 42 96 18 3d 4f c7 a6 3e
       -0.06009104 -0.0070356866 0.037252672 0.32573935
000140 12 0e e8 3e 29 fa 2e 3c 10 87 64 b9 f0 66 1d 3d
       0.45323235 0.01067976 -0.00021794089 0.038428247
000150 f0 3e d5 3c e5 6e 37 3e 6c 18 e5 bd 6e 4c 3d bd
       0.026030988 0.17913397 -0.11186299 -0.046215467
000160 46 35 9b 3e d6 c2 03 bf 28 35 47 3e b4 4f 87 3e
       0.30314082 -0.5146917 0.19453871 0.26427996
000170 3e 6c 99 3d 9c d3 ef bc 8b 56 08 3e 92 31 f2 bd
       0.07491349 -0.029275708 0.13314264 -0.11825861
000180 51 2b ec 3d 62 ea b0 bb 82 6b df 3e 23 66 e4 3d
       0.115316994 -0.0053990344 0.4363671 0.111522935
000190 31 52 89 3e c3 59 3e 3c 90 19 9f be 6a 30 a7 bc
       0.2682052 0.011618081 -0.3107419 -0.020408828
0001a0 41 47 8f 3e 75 55 11 3f 1c bf 5d bd 74 fd 67 3d
       0.2798405 0.5677102 -0.054137334 0.056638196
0001b0 0c 1b e8 3c b5 b5 e3 bd 2d c3 86 bb 70 0c 85 3d
       0.02833321 -0.11118642 -0.0041126222 0.06496513
0001c0 5d 51 0d 3d bf 5a e8 3e 94 ef 22 bc 55 52 e9 3d
       0.034501422 0.45381734 -0.009944815 0.11392657
0001d0 46 34 f3 bd a8 e2 87 3d 78 70 88 bd 40 0d ec 3c
       -0.11875205 0.06635028 -0.06662077 0.028814912
0001e0 30 b2 f1 ba ff d9 0c bd 20 7e a1 3d 85 30 88 be
       -0.0018439945 -0.034387585 0.078853846 -0.26599517
0001f0 38 1a 3b 3e f3 45 9e 3e 3a 22 bd 3e 07 9a 1f 3e
       0.1827172 0.30912742 0.36940175 0.155861
000200 82 26 d3 bd 5a 32 a2 bc 63 68 ca 3d e4 0c b5 bd
       -0.10310079 -0.0197994 0.098831914 -0.08840349
000210 d2 bc 1d bc 4c 06 68 3d ec 43 c4 bd 33 6a f1 3d
       -0.009627538 0.05664663 -0.095832676 0.11787834
000220 c4 c4 4b bd 0a 0a b7 3d f7 ec 9c 3d 00 3c 5e 3d
       -0.049748197 0.08937462 0.07662385 0.05425644
000230 50 4a 01 be 74 b4 62 3d f4 ce b6 bd b3 6e 0d bd
       -0.12626004 0.055347875 -0.08926192 -0.0345294
000240 09 54 d6 bd 65 43 df 3c 1e 90 ae 3d d6 16 6f bd
       -0.10465247 0.027253816 0.08523582 -0.058371387
000250 88 e4 c7 bd f6 05 9a 3d cc 1c 08 bd ca 9b e9 3d
       -0.09760386 0.07520668 -0.033230588 0.114066675
000260 b0 e0 b9 3c 36 d6 94 3d 70 ea 5a bd dd c6 9a bd
       0.022690147 0.0726742 -0.053446233 -0.075574614
000270 49 39 89 3d 80 d1 c2 bd bc 3c 51 3b 00 7c 73 3d
       0.067003794 -0.09512615 0.003192707 0.059444427
000280 d6 25 c7 3d 83 21 d6 3d 1a d2 c6 3d 03 4d d2 3d
       0.097240135 0.104556106 0.097080424 0.10268595
000290 c0 41 eb bb 5c b1 f2 bd 29 34 4f 3d d9 e1 8a 3d
       -0.007179469 -0.11850235 0.050586853 0.06781358
0002a0 fe 2e 2f bd f0 90 a4 bc 2c cf e0 b9 1e bc 9d 3d
       -0.042769425 -0.020088643 -0.00042878964 0.07701896
0002b0 48 36 e6 bd d6 cf dc bc d0 c4 95 bd 12 47 c5 bd
       -0.11240822 -0.026954573 -0.0731293 -0.09632696
0002c0 f4 0b 00 be 58 da 9a bd 95 c0 92 bb d5 68 b8 bd
       -0.1250456 -0.07561177 -0.004478524 -0.0900437
0002d0 70 6e 73 bc 44 34 c0 3d f0 39 11 bc 80 c6 d0 ba
       -0.014857873 0.09384969 -0.008863911 -0.0015928298
0002e0 f3 ee 4c 3d 51 70 04 bc 20 33 6a 3d 34 5e 86 bd
       0.050032567 -0.008083419 0.057177663 -0.065609366
0002f0 44 a5 76 bd b6 27 d6 3a 65 0f ec 3c bd 30 ec bb
       -0.060216203 0.0016338739 0.028815934 -0.0072079585
000300 a4 70 9d bd 65 34 9f bd a0 61 e6 3d 30 ed 6b 3d
       -0.076875 -0.07773665 0.11249089 0.057599247
000310 a4 58 64 bd b9 c0 ed 3c 78 b1 8a 3c da a1 e6 3a
       -0.055748597 0.029022561 0.016930327 0.0017595843
000320 b0 e9 87 3c 66 39 ad bc 70 6f 9c bd ac 5a 7e 3d
       0.016590923 -0.021145534 -0.076384425 0.06209819
000330 36 25 02 be f9 9a 34 bd e2 0e 27 3d 08 f5 9d 3d
       -0.12709507 -0.044093106 0.040785678 0.077127516
000340 1f fa 43 bd 79 be a1 bd 20 c9 2c 3c 2d 18 2a 3d
       -0.047845956 -0.07897658 0.010545999 0.041526962
000350 4a 89 a8 bd b4 f4 67 bb 0e a9 b2 bd 20 a6 94 bc
       -0.08229311 -0.0035393657 -0.08723651 -0.01814562
000360 20 60 c8 3d 5b 44 b5 3d 59 27 0a 3e 88 da 09 bd
       0.097839594 0.088509284 0.13491572 -0.033655673
000370 b0 23 d9 3c 7e 1a cc 3d d1 3d 30 3d 9a 8a cc bd
       0.026506275 0.099659905 0.043027703 -0.09987374
000380 10 a0 c6 bd 4b d7 61 bd 8e be 06 be 88 a9 b6 bd
       -0.09698498 -0.05513696 -0.13158628 -0.08919054
000390 27 39 fa bd e7 db 3e bd 2c 68 9a 3c b4 6b 12 3d
       -0.12217932 -0.046596434 0.018848501 0.035747245
0003a0 a0 db f4 bb 17 8e 8e bd 55 8d bc 3d 0d 26 48 bd
       -0.0074724704 -0.06960695 0.092066444 -0.048864413
0003b0 53 0a da 3d 96 d1 0e bc 65 42 5a 3d 9d 7b c5 bd
       0.106465004 -0.008716961 0.053285975 -0.09642718
0003c0 da 30 83 ba 91 95 f8 3b 46 eb c2 3d 53 91 b2 3d
       -0.0010009066 0.007586189 0.09517531 0.08719125
0003d0 3c 3d 9e 3d c0 16 b2 3d 9e 72 af 3d 28 dc 3d 3d
       0.07726523 0.086957455 0.08566783 0.046352535
0003e0 51 80 a7 3d f3 9e 27 3d b0 c2 30 bc 60 e2 55 bd
       0.08178771 0.04092307 -0.010788605 -0.05221784
0003f0 6e 82 81 3d 0b 5d ea bd 00 8c c8 bc 88 a6 fe 3c
       0.063237056 -0.11443528 -0.02448082 0.031085268

linear2.bias f4 [64]
000000 12 9b fe bd 58 d4 39 3f f1 e7 1b 3d 40 03 bf 3c
       -0.12431921 0.72589636 0.038062993 0.02331698
000010 d8 d3 2a 3f ec 17 19 3f cd c6 39 3f 7a a9 e2 3d
       0.667295 0.59802127 0.7256897 0.11067481
000020 7f 26 3d 3f 79 72 29 bd 00 28 30 3f be cb 1d 3f
       0.73886865 -0.041368935 0.68811035 0.6163901
000030 ae 73 1f 3f a4 80 20 3d 04 da 16 3f 83 a7 45 bc
       0.6228589 0.03918518 0.58926415 -0.012063864
000040 b8 63 04 3f e3 8c 4e 3f 8e 07 e8 bd 8c c6 1a 3d
       0.5171466 0.80683726 -0.11329566 0.037787005
000050 01 dc 00 3f 84 a7 ca 3d 48 48 33 3f d8 d5 16 3f
       0.503357 0.09895232 0.7003217 0.5892005
000060 aa c2 e3 3d 42 de 41 3f 9c fe 26 3f 6c 28 0c 3f
       0.111211136 0.75729764 0.65232253 0.5474918
000070 d7 91 23 3f 34 64 ec 3e f4 47 32 bd db dd 21 3f
       0.6389441 0.461702 -0.04352565 0.6322915
000080 fd 02 21 3f 61 2a 05 3f 6e d5 0f 3f 90 18 b5 3c
       0.62895185 0.5201779 0.5618504 0.022106439
000090 61 7e 12 3f fc 50 e7 3d f4 4e 36 bf 64 7e 54 3f
       0.5722409 0.112947434 -0.7121422 0.83005357
0000a0 d4 53 0b 3f ac 96 13 3e 47 3a 23 3f 8c 12 03 3f
       0.54424787 0.14412946 0.637608 0.51200175
0000b0 b0 db 14 3f 25 b7 82 3b fd e8 37 3f df ca 8a bc
       0.58147717 0.0039891177 0.71839887 -0.01694244
0000c0 1e a9 21 3f 15 c5 11 3f 09 1c 23 3f 62 f0 98 bd
       0.6314868 0.5694135 0.63714653 -0.074677244
0000d0 68 46 ec 3c d8 5f 0d 3f 01 d6 1d 3f d8 4d 2e 3f
       0.028842166 0.5522437 0.6165467 0.6808753
0000e0 fc 3b 6f 3d b0 43 a8 3d ff 00 0a 3f 98 51 09 3f
       0.058406815 0.08216035 0.5390777 0.5364013
0000f0 ba fd 37 3f c0 56 25 3f 94 c1 a3 3d 84 93 13 3f
       0.7187153 0.64585495 0.079959065 0.57646966

linear3.weight f4 [64, 64]
000000 68 86 37 3d 60 d7 fa 3d 60 5c 40 bd 4c fc 5d 3d
       0.044805914 0.12248111 -0.046963096 0.054195687
000010 c4 24 65 3d 08 e2 e7 bd ea 45 d1 bd 60 be 3f bc
       0.055943266 -0.11322409 -0.10218413 -0.011703104
000020 00 32 04 3b f0 83 39 3d a0 7e ee 3b 80 02 7b 3d
       0.0020171404 0.04529184 0.0072782785 0.06128168
000030 8e 06 ca bd 3c 49 7a 3d e0 d1 72 bc 48 1d da bd
       -0.098645315 0.061104998 -0.014820546 -0.10650116
000040 52 3d a6 3d 7a 64 ee bd 08 a9 4f 3d c4 66 2d 3d
       0.08117165 -0.11640258 0.05069831 0.042334333
000050 58 7b 9c bd ee cd f4 3d 20 da 95 bd 50 6a 15 3c
       -0.076407135 0.119533405 -0.07316995 0.009119585
000060 94 44 04 bd 58 02 4f 3d 9a b4 a8 bd 00 4b 1c 3d
       -0.032291964 0.050539345 -0.08237572 0.038157463
000070 34 06 bc 3d 5e 14 86 bd 08 78 b6 bd 90 12 7d 3c
       0.09180871 -0.065468535 -0.08909613 0.01544632
000080 06 af c1 bd 3c ee ac bd e0 85 6c 3d 9c d2 30 bd
       -0.09457211 -0.08443877 0.05774486 -0.043169603
000090 6e 3e ee 3d e0 6a 03 bd d0 c6 be bc 00 ea 9b bd
       0.11633001 -0.032084346 -0.02328816 -0.07612991
0000a0 40 38 d1 bd a6 72 8e 3d 86 39 dd bd 2c 26 ef 3d
       -0.10215807 0.06955461 -0.10801987 0.116772026
0000b0 e0 9b c1 3b e2 b3 c1 bd 80 9d 94 bc 40 53 ab bb
       0.0059084743 -0.09458138 -0.018141508 -0.00522843
0000c0 fa 74 9b bd 78 d5 94 3c b6 fd 82 3d d0 f2 a0 bc
       -0.07590671 0.018168196 0.06396048 -0.019647032
0000d0 74 31 36 bd 28 67 20 bd d8 cc e2 3c 08 a4 70 bd
       -0.044480756 -0.039160877 0.027685568 -0.058750182
0000e0 a0 42 d8 bc 0c f9 02 bd 1e d4 95 bd 7a b0 bf 3d
       -0.026398957 -0.03197579 -0.07315849 0.09359832
0000f0 c8 eb 23 bd b0 e3 15 3c 10 43 49 bc 7e 47 d1 bd
       -0.04001978 0.009148523 -0.012284055 -0.10218714
000100 30 ff 92 3c 4c 5b 16 bd 48 36 de bd 30 f3 a7 bc
       0.017943949 -0.03670816 -0.10850197 -0.020501703
000110 84 3c 8d bd f4 c8 a7 bd f0 06 57 bc 2c d9 99 3d
       -0.06896308 -0.08192626 -0.013124213 0.075121254
000120 a4 1b 6d 3d 28 94 c7 bd 90 d8 43 3d 26 ed 96 3d
       0.05788769 -0.097450554 0.047813952 0.07369451
000130 c6 62 e5 3d 94 4a f0 bd 04 86 17 3d 64 b7 08 3d
       0.1120048 -0.11732975 0.03699304 0.03337802
000140 24 0b 5f bd 84 71 a5 bd 30 d2 24 bc 90 69 45 3d
       -0.054453984 -0.08078292 -0.010059878 0.048196375
000150 90 44 af bc 70 09 d4 3d c8 b5 74 bd b0 df f3 3c
       -0.021394998 0.103533626 -0.059743673 0.029769748
000160 52 c3 dc bd 50 ba 16 3d 30 47 d7 bc a0 c8 8a 3d
       -0.10779442 0.036798775 -0.026279062 0.067765474
000170 d6 87 9b 3d 60 a4 55 bd bc aa f0 3d 40 fe 52 bc
       0.07594268 -0.052158713 0.11751315 -0.012878001
000180 94 84 68 3d ca fd a3 bd 20 51 1c bd 00 4d 4f bb
       0.05676706 -0.08007391 -0.038163304 -0.003163159
000190 be ab 97 3d f6 7d b0 3d 20 80 0c bc ba 29 94 bd
       0.07405804 0.08617775 -0.008575469 -0.07234521
0001a0 ba 3c 91 3d c0 16 2f 3b 08 51 da bd 8a a6 c3 bd
       0.07091661 0.002671644 -0.10659987 -0.09553249
0001b0 2c 46 0e 3d 90 84 5a bc 3c 26 3b 3d 68 46 fa 3c
       0.03473489 -0.013337269 0.04569076 0.03055115
0001c0 dc eb 91 bd 1e 1e e0 bd c4 24 4a bd 90 a6 fb 3d
       -0.07125065 -0.109432444 -0.04935147 0.12287629
0001d0 60 bc f4 3c b4 3f 92 bd de 8f e4 bd c8 59 83 bd
       0.02987498 -0.07141057 -0.11160253 -0.06413609
0001e0 ac 64 2a 3d 00 18 33 3d 7c 92 f3 3d 14 58 37 bd
       0.041599914 0.04372406 0.11893174 -0.044761732
0001f0 c0 76 f7 3b e8 60 a0 bd 40 47 fa 3d be 92 d6 bd
       0.007551998 -0.078309834 0.12220621 -0.104772076
000200 50 22 ab 3c 1a ee c8 3d ef 84 40 bd 64 30 0d 3d
       0.020890385 0.09811039 -0.047001775 0.034469977
000210 43 23 7e 3e 37 7b 21 3e e1 78 85 3e 08 0b 9d bd
       0.24818139 0.15769659 0.26068786 -0.0766812
000220 c4 94 9c 3e 73 ea 9f be 95 82 50 3e c3 d3 6c 3e
       0.3058225 -0.31233558 0.20362313 0.23127656
000230 15 e9 81 3d ac d3 fd bd 67 d6 6d 3e 44 67 e3 3d
       0.06343285 -0.12393889 0.23226319 0.11103681
000240 ad c2 6d 3d dc 48 82 3e d0 a1 d1 3d b4 75 0c 3d
       0.058046985 0.25446212 0.102359414 0.034291938
000250 f2 1b 83 3e d2 0d 8e 3d c3 02 48 3e fe ff 3a 3e
       0.25607258 0.0693623 0.19532304 0.18261716
000260 78 a2 f4 bc c0 31 24 3e 79 ed 05 3e 3c 60 59 3e
       -0.029862627 0.16034603 0.1307887 0.21228117
000270 f6 d4 e6 3d d4 8d 5f 3c d4 57 88 bd 52 64 57 3e
       0.11271088 0.013644654 -0.06657377 0.21034363
000280 cb fe 42 3e 41 ce 37 3e 05 af c4 bc 5a a6 eb bd
       0.19042508 0.17949773 -0.024009237 -0.115063384
000290 c6 ac 90 3e 70 79 76 3c bd bc a7 be a2 0e 2b 3f
       0.28256816 0.015043601 -0.32761183 0.668192
0002a0 5f 0e 57 3e 49 46 df be 86 62 8c 3e ca f1 d8 3d
       0.21001576 -0.4360831 0.27418917 0.105929926
0002b0 bc 9c 0d 3c c6 ab 2c bd 0f 95 75 3e 04 d5 12 bd
       0.008643325 -0.042156003 0.23982643 -0.03584768
0002c0 78 d5 79 3e d7 a5 62 3e 7d b2 6e 3e 74 f1 03 3d
       0.24397838 0.22133575 0.23310275 0.03221269
0002d0 e0 6b a1 3b 9d d0 8a 3e 5a 1f 08 3e 29 d8 47 3e
       0.00492619 0.27112284 0.1329321 0.19516052
0002e0 38 e8 c9 3c 87 14 9d be c9 a8 45 3e b7 43 9b 3d
       0.024646863 -0.30679724 0.19302668 0.07581275
0002f0 03 53 a8 3d de 47 aa 3d b0 13 cc 3c da 70 a4 3e
       0.08218958 0.08314489 0.024911731 0.3211735
000300 c2 14 b1 bd 53 b8 81 3e f9 ee bd bd f1 94 0c be
       -0.08646537 0.2533594 -0.09274096 -0.13728692
000310 ef d7 88 3e be 31 4d 3e 52 46 bf 3d 58 c5 fb bc
       0.26727244 0.20038506 0.093395844 -0.03073375
000320 fb a0 b2 3e d4 6e af be e1 64 63 3d 39 a3 87 3e
       0.34888443 -0.34264243 0.055516127 0.26491717
000330 65 74 50 3e a0 d4 d3 bc 2a 36 6f 3d 76 1b d5 bc
       0.20356901 -0.025858223 0.058401264 -0.026014071
000340 e1 8a ad 3d 4a 54 a7 3e 90 d7 3b 3c 54 78 88 3d
       0.08473755 0.32681495 0.011464968 0.06663576
000350 b3 48 66 3e da 8f d7 3d ee 9f 16 3e fd e3 3b 3d
       0.2248867 0.105254844 0.14709446 0.045871723
000360 cc 09 2a 3d cc b9 a1 3e 31 05 6f 3d ae d7 40 3e
       0.04151325 0.31587064 0.05835456 0.18832275
000370 88 a0 83 3e d7 b6 aa bb 2e 40 be 3d af e1 43 3e
       0.25708413 -0.0052097845 0.09289585 0.1912906
000380 03 5c 8f 3e 79 d6 6e 3e a8 50 3f 3c 42 55 9b bd
       0.27999887 0.23324002 0.011676945 -0.07584621
000390 b8 40 24 3e 7c 16 b1 bd 7e 21 f3 be 48 ad fc 3e
       0.16040313 -0.08646867 -0.4748649 0.49350953
0003a0 db 5a a9 3c e0 c2 cd be 6f 2a 95 3e 23 1f 74 3e
       0.020673206 -0.4018774 0.29133937 0.23840003
0003b0 cb 46 81 3c 48 e4 98 bd 5c f1 53 3e b4 6a 57 3d
       0.015780827 -0.07465416 0.2069754 0.052591994
0003c0 1d 7b ad 3e a3 5a 56 3e cf 0f ae 3e 80 9b 62 3c
       0.3388299 0.20933013 0.33996436 0.013831019
0003d0 68 1e 8b bc 47 46 8a 3d 57 66 e8 3d c0 9e a0 3d
       -0.016982272 0.067516856 0.11347645 0.07842779
0003e0 38 d8 e8 3d 13 58 cf be 6e 45 13 3e 15 0e 18 3d
       0.113693655 -0.40496883 0.14381954 0.037122805
0003f0 09 e3 10 3e bb 20 89 3d 52 38 c2 bd 7b 7e b5 3e
       0.14149107 0.06695696 -0.094833985 0.3544806

linear3.bias f4 [64]
000000 c0 8e 05 bd c8 0b d0 3d 4b 87 eb 3e d7 3a f5 3e
       -0.03260684 0.10158497 0.46001658 0.47896454
000010 df dc 07 3f 78 e3 e4 bd c1 56 b6 3b da cd c8 bd
       0.530714 -0.11176199 0.005564541 -0.09804888
000020 5d b7 f0 3e 49 67 05 3f b2 a8 f9 3e dd 13 1f 3f
       0.47014895 0.52110726 0.48761517 0.62139684
000030 fe 7f 18 3f 28 c9 bd bd 94 45 03 3f 9e 39 17 3f
       0.595703 -0.09266883 0.5127804 0.5907229
000040 34 60 02 3f e8 1d e9 3e 6f 42 c9 3e 9c ab d5 3e
       0.50928044 0.4553063 0.39308497 0.4173249
000050 04 3f d6 3e 62 3a cf 3e b6 72 10 3f 5f 2a e7 3e
       0.41844952 0.4047423 0.56425035 0.45149514
000060 4f 2b 04 3f 9a 02 94 bd 44 d3 fe 3e da fe f4 3e
       0.51628584 -0.07227059 0.49770558 0.47850686
000070 4a da b5 3d 43 0c 14 3f 8e 1b ce 3e 64 88 ff 3d
       0.08879526 0.5783121 0.40255398 0.12477186
000080 51 c5 05 3f a3 ed d3 3d ab 45 ee 3e 28 be a0 bd
       0.52254206 0.1034806 0.46537527 -0.078487694
000090 79 d5 d3 3e a2 10 ff 3e 4b f1 f1 3e 68 e7 f6 3e
       0.41373804 0.49817377 0.47254404 0.48223424
0000a0 1f 2d 01 3f d8 93 ca bc fc 0c 05 3f 42 fa f7 3e
       0.50459474 -0.0247287 0.5197294 0.4843312
0000b0 45 ab e5 3e 30 65 be 3e 7d b2 14 3f 3a 0f ab bd
       0.4485723 0.37186575 0.5808485 -0.083525136
0000c0 fa a6 13 3f 88 20 52 bd eb 47 17 3f 92 5e b7 bd
       0.5767666 -0.051300555 0.59094113 -0.08953585
0000d0 30 8a 50 3d 2b c2 14 3f 1d 1f 00 3f b1 31 9a bd
       0.050913036 0.58108777 0.50047475 -0.07529009
0000e0 9e 8e 9b bd 9d 14 09 3f 29 2e c5 3e ad a6 08 3f
       -0.075955614 0.5354708 0.3851178 0.5337933
0000f0 4c 1a e5 3d 4f 8c 12 3f 81 02 20 3f e3 c7 09 3f
       0.11186656 0.57245344 0.6250382 0.5382063

linear4.weight f4 [1, 64]
000000 01 a4 3a 3b 4f 56 b0 3a 20 f8 20 be 27 5a 63 be
       0.0028479102 0.0013453456 -0.15719652 -0.22202359
000010 d6 18 55 be 40 a1 00 3b 25 11 4c bb bb 7e 0c 3b
       -0.20810255 0.0019627362 -0.0031138149 0.0021437842
000020 23 e2 4b be 24 23 3a be ce 0e 23 be a8 6d 37 be
       -0.19910483 -0.18177468 -0.15923616 -0.17912924
000030 9b a1 53 be 5a cb 34 3a d3 12 2f be 89 2d 24 be
       -0.20667116 0.0006896757 -0.17097025 -0.16032995
000040 df 4f 37 be ba 66 1d be 8c 7f 12 be 9f fd 1c be
       -0.17901562 -0.15371218 -0.14306468 -0.15331124
000050 f3 8f 2c be 0f 86 24 be cf 03 49 be b5 a7 22 be
       -0.16851787 -0.16066764 -0.19630359 -0.15884288
000060 ef 1c 2b be f9 2e 1c bb ae 6b 3d be 97 e4 21 be
       -0.16710256 -0.0023831709 -0.18498108 -0.15809856
000070 98 76 d9 38 75 03 21 be fc 51 29 be 8f 1c b4 39
       0.00010369456 -0.15723975 -0.16535181 0.00034353553
000080 b5 bd 30 be b3 21 10 3e f4 90 1c be 17 11 d2 ba
       -0.17259867 0.14075355 -0.1528967 -0.0016026822
000090 75 f1 49 be d7 e7 24 be fc c2 56 be 3c 9f 1b be
       -0.19721015 -0.16104065 -0.20972818 -0.15197462
0000a0 4b 8b 27 be 78 cd a7 3a e6 52 3d be 45 9c 1b be
       -0.1636173 0.0012802323 -0.18488654 -0.15196331
0000b0 0f 5f 31 be 23 ef 29 be 60 a8 2b be 40 01 ea b9
       -0.17321418 -0.1659513 -0.16763449 -0.0004463289
0000c0 7d f9 19 be a8 43 0d ba 68 05 19 be 1d 74 34 3b
       -0.15036578 -0.0005388805 -0.14943469 0.002753503
0000d0 15 2c 57 3a 58 55 5d be c5 5e 22 be 65 a5 2a bc
       0.0008208168 -0.21614587 -0.15856464 -0.01041541
0000e0 bd 32 2a bb 17 d4 38 be 81 06 18 be 64 79 5b be
       -0.0025970184 -0.18049656 -0.14846231 -0.21433026
0000f0 0f 14 35 bb c2 1c 27 be e5 8e 2f be 8d dc 3a be
       -0.0027630364 -0.16319564 -0.17144354 -0.18248196
